P1/Q2/Mountaincart/checkpoints/last_model.pth (torch, 313525 bytes, 24 tensors)

net.0.weight f4 [128, 2]
00000000: f496 473f 22a4 3ac1 59c3 333e dc46 c3bc
00000010: 91de 4dbe 0acc c7be 676e 6c3e 3175 b9be
00000020: 932f a23e 5b7c 4ec0 7891 dd40 875a 5841
00000030: 498c bb3d a342 acbe e4b4 863c a9c9 19bf
00000040: 5393 d8be 1b50 3ac1 67da 51bf 078e d240
00000050: b5ff e8bc 283f 293f 9ce3 023e 29e0 a4c0
00000060: 6c19 d03e ba75 3b40 8546 943f 2549 763f
00000070: 035e 823e e67f 4240 c1d1 1e3e 2a9a 343f
00000080: 8550 a4be c9b1 b5c0 4551 503f 122f f4be
00000090: cedc 823f 99f5 cebf 0e6d 12bf 172c e7bf
000000a0: 9dbc fe3d e02a 053e 8fae 52bf c8fe cbbf
000000b0: 5610 493e 4971 0cbd 4862 593e afc2 013f
000000c0: 4e9f a0be 7e73 5bc0 7401 8abe 706d 29c0
000000d0: 5450 46be 7758 7ec0 24a6 283f f361 3dc0
000000e0: 4fb1 3f3f dbb7 e7bf ac5c ad3d 2c30 a4be
000000f0: 4149 20bf 2458 6bc0 8e87 c83e 7902 98be
00000100: ebde 4bbe 4cd6 84c0 f455 5bbe 9a57 86c0
00000110: f201 01bf 0fe4 32bf e8b2 113f 6c68 abc0
00000120: 1ff7 48be 849f 1cbe 3ac0 0fbf 8497 cabc
00000130: dbbc 2340 4d52 0341 6275 f63e a9b6 9dc0
00000140: 76d6 09bf 7c93 df40 43d9 9bbe bb05 45c0
00000150: 12a0 af3e 45f2 07bf 7581 7b3e 489a c23e
00000160: d7dc bd3d 5359 093e 7836 ca3d 743b dabf
00000170: 7b97 bb3e a3d9 eb3e fa4d 2a3d 9d45 ebbf
00000180: 25cd f93d 5416 093e 170a fabe a8f0 1ec0
00000190: f4a3 9dbd 48c8 d4be 0925 fd3e ee22 0ac1
000001a0: 7a0e 533e e224 83c0 f53c 193f 6962 aa3c
000001b0: d9db 4a3f c773 08c0 ab3e 9c3f b892 cac0
000001c0: 8047 47be c926 c73e 95fb 493f f0f2 a0be
000001d0: 3c14 d1be 8922 03c0 466d 0bbf a9db 45bf
000001e0: 37ad 8abe d877 c1c0 cf37 26be 0171 4a3e
000001f0: 2c94 cf3e 1121 a5c0 a999 38bf 88c4 51c0
00000200: c862 d5be 252a 943e 2057 0f3f e6d2 87c0
00000210: 532f 153e 0990 16bf e97f 113d b356 4c3e
00000220: 4c3b f6bd bcfe 0fbf d89a 83be 0847 df3e
00000230: bf46 e2be 58b7 ea40 873e 2d3e c0ef 6c3e
00000240: 60d6 df3d ddb1 e7c0 0f75 05be 3f35 edbe
00000250: 366a 4e3f e487 13c0 e338 b13e 574a e23d
00000260: e754 89be 36b7 74c0 1894 c1bf 00c9 823f
00000270: cb23 9b3d 7af3 0dbf d04b f3be 8386 643f
00000280: 55a7 183f 60c5 3bc0 4914 453f 5b8d ec3f
00000290: 11a4 4bbe 845b b5be bd59 1f3f 0d3e cbbf
000002a0: 41e2 6f3f d3c1 8ac0 a38b 12be da4c 55c0
000002b0: d5f3 983f 4b0e 8dbf c3ef 7ebe 6895 b0bd
000002c0: 6d20 16bf e156 2fc0 808a d23c fb80 0dc1
000002d0: f0ec 27bf 740e f33f 945f b83d aebc 7340
000002e0: 9749 a5bd 93f7 4fc0 f6f3 403e 4cb3 b4bf
000002f0: 79e3 e7be 4441 92c0 ac74 533f 1a09 4cc0
00000300: 6566 083f 8dfd dd3d 0dc6 02bf 266f 97bf
00000310: 42a7 63be 3973 7ec0 05aa e23d 3179 f2bc
00000320: 1581 3e3e 83a7 27c0 83b8 8dbe 2eeb 93be
00000330: 11ef babe e566 45c0 e7e0 7b3f 00e2 2ec0
00000340: ea8d a8be f919 47bf 958b 21be 9621 5f3e
00000350: 99c8 d13c 92d2 dbc0 dc79 21bf 07cf 46c0
00000360: abb8 9c3f 6ac0 8a40 6f55 09bf 629b b1be
00000370: e66f 87bd 5e8d 7f40 da9b ee3e 4d3c bfc0
00000380: 5ec2 23bf 4845 38c0 d8e1 e63c d0e0 77c0
00000390: ba0f 3e3f 447d 26bf 000e 933e b963 07bf
000003a0: 4c7e 31be 7e0a a3bd 1218 a6be cd5d 86c0
000003b0: 4f4e 8f3f 8cee 04c0 6cd6 08bc 2cf5 493c
000003c0: 759b c73e 6015 963e 30a2 2abf d65d 7abf
000003d0: c030 f7be 7bb2 85be f0a9 09bd 06b2 553d
000003e0: 530e 25be 389b 64c0 a443 133d ac19 67be
000003f0: c372 973f f866 403f 807b 203f f39b eebf
0.7796471 -11.6650715 0.17554988 -0.0238375 -0.20104434 -0.39022857 0.2308899 -0.36222222
0.3167692 -3.22634 6.9240074 13.522101 0.09157617 -0.3364459 0.016443677 -0.60073334
-0.422999 -11.644557 -0.8197388 6.5798373 -0.028442243 0.66111994 0.12782139 -5.1523633
0.40644395 2.9290605 1.1584021 0.9620536 0.2546235 3.0390563 0.15509702 0.70547736
-0.32092682 -5.6779523 0.8137401 -0.47692162 1.0223634 -1.61687 -0.57197654 -1.806033
0.12438319 0.13004637 -0.82297605 -1.5937128 0.19635138 -0.034287725 0.21228898 0.5068769
-0.3137154 -3.428924 -0.26954234 -2.6473045 -0.1936658 -3.9741495 0.6587851 -2.9591033
0.74879926 -1.8102983 0.084649414 -0.32068002 -0.62611777 -3.6772547 0.3916592 -0.29689386
-0.19909255 -4.1511593 -0.21419507 -4.1981936 -0.50393593 -0.6987924 0.56913614 -5.356497
-0.19625519 -0.15295225 -0.5615269 -0.024730451 2.5584018 8.207593 0.4813643 -4.9285474
-0.53842866 6.9867535 -0.30439195 -3.0784748 0.3430181 -0.5310405 0.24561103 0.38008332
0.092706375 0.1341298 0.0987367 -1.7049394 0.36639008 0.4606448 0.04157827 -1.8380619
0.12197331 0.13387424 -0.48835823 -2.4834385 -0.07697287 -0.41559052 0.49442318 -8.633528
0.20610991 -4.0982523 0.5985864 0.020798879 0.7924171 -2.1320665 1.2206625 -6.33041
-0.19460869 0.38896778 0.7889951 -0.31435347 -0.4083575 -2.0489829 -0.54463613 -0.772883
-0.27085277 -6.0458794 -0.16232227 0.1976967 0.40542734 -5.1602864 -0.72109467 -3.2776203
-0.41676927 0.28938404 0.5599232 -4.2444944 0.14568834 -0.5881353 0.035522375 0.19954948
-0.12023029 -0.5624807 -0.25704074 0.4360888 -0.441946 7.334881 0.16918384 0.23138332
0.10929561 -7.240462 -0.13032936 -0.46329686 0.80630815 -2.305169 0.34613714 0.110493354
-0.26822588 -3.8236823 -1.512332 1.021759 0.07575186 -0.5544964 -0.47518778 0.8926775
0.5963033 -2.9339218 0.7698408 1.8480638 -0.19886805 -0.35421383 0.62246305 -1.5878311
0.9370461 -4.33616 -0.1431108 -3.3328156 1.1949412 -1.1019987 -0.2489615 -0.08622247
-0.5864323 -2.7396777 0.025700808 -8.843989 -0.6559591 1.8988786 0.09002605 3.808391
-0.08070677 -3.2494857 0.18843064 -1.4117217 -0.45290735 -4.570467 0.825999 -3.1880555
0.5328124 0.108393766 -0.5108345 -1.1830795 -0.22231773 -3.9757826 0.11067585 -0.029598804
0.18603928 -2.619599 -0.27679834 -0.28890365 -0.36510518 -3.0844052 0.9839005 -2.732544
-0.32920772 -0.77774006 -0.15775903 0.21790156 0.025608348 -6.8694544 -0.6307657 -3.106386
1.2243856 4.335988 -0.53645986 -0.3468886 -0.0661314 3.9930034 0.4660328 -5.976111
-0.63968456 -2.8792286 0.028183863 -3.8730965 0.74242747 -0.6503489 0.2872162 -0.5288654
-0.17333335 -0.079609856 -0.3244024 -4.1989503 1.1195773 -2.0770597 -0.008351903 0.01232652
0.38985792 0.29313183 -0.6665373 -0.9779943 -0.4827938 -0.26112732 -0.03360933 0.05217173
-0.16118746 -3.5719738 0.03595318 -0.22568387 1.1831897 0.7515712 0.62688446 -1.8641342

net.0.bias f4 [128]
00000000: 2105 053f d50d 24be aea6 22bf 3a93 f6bd
00000010: 1905 b83e 5468 623f e563 86be c88a e1be
00000020: 2f3b 653e 2728 dc3e f28d 323f 2ee5 933e
00000030: 7a54 953e caa8 423f 9211 473e 6f95 ebbe
00000040: 6f2f 443e 59a3 113f 4657 243f c335 b13e
00000050: cdd6 2abf 4204 ee3e 0c0d 34bf e166 383f
00000060: d366 1c3e acd4 6c3e 3059 033e c871 263f
00000070: fcff f93e 1a1e 5ebe c481 e33e d404 65be
00000080: c7cf 083e 18d2 0b3e 7b73 2abf ec97 8f3e
00000090: e784 a2be f3f6 33bf 8d7b 463f 69fb da3e
000000a0: 1036 4abf 8210 153e e0a2 81be c8a9 ee3e
000000b0: 98a4 9dbe 1a6e 0f3f e7e7 3f3f 3cce 963e
000000c0: aaa6 2cbf 2f6b aa3e 1be9 32bf 0674 043f
000000d0: e7e6 303e da3d 0ebf 9f7e 063f de34 043f
000000e0: 6f90 77be 960b 0c3f 0834 8e3e f691 983e
000000f0: 1e70 473e b127 09bf 4f89 aa3e 9782 1ebf
00000100: f0ee 10bf 84f0 013f 8a22 29bf 2a8c e5be
00000110: 88c4 e3be 57e6 08bf 1ce8 38bf 3327 343f
00000120: 8580 96bb eb1c 31bf f8b7 f93e 59e5 d6be
00000130: 3eb6 8d3e aeaa 87bf 9faf 5dbd 6250 923e
00000140: 9802 163f caab cd3e b9c5 b5be 8157 cf3e
00000150: 00ce 103f bf81 913e 00f8 223f 4ba2 0d3f
00000160: 2449 c83e fcc9 93bc 7d53 4bbf 8744 133f
00000170: 08a5 fc3e a636 203f 32ef 5f3e c816 e53e
00000180: 6c32 13bf 5c8d 2ebf 99c6 c93e 94a1 f1be
00000190: fe74 143f 31b8 f2be c69d 983e 2130 b73e
000001a0: 02f8 423e a194 0cbf 8c93 35bd 7410 dc3e
000001b0: 7571 473f 2bad 2dbf 21f9 283f 6739 e63e
000001c0: aeca d93e beb5 793e 64c6 053f f13e 20bf
000001d0: 22be 59be f0f6 263e 19d0 0d3f 4185 adbe
000001e0: 5dda d9be eda9 ba3e 6360 1bbf 82e9 babe
000001f0: 58fb 5b3e 1e23 763e 19c6 103f 6416 1a3f
0.5196095 -0.16020902 -0.63535583 -0.120398 0.3594139 0.8844044 -0.26248088 -0.44051194
0.22385858 0.42999384 0.6974784 0.28885788 0.29166013 0.760388 0.19440296 -0.46012446
0.1915872 0.56889874 0.6419567 0.3461133 -0.6673401 0.46487623 -0.7033241 0.7203198
0.152736 0.23128003 0.12826991 0.65017366 0.48828113 -0.2169117 0.4443494 -0.22365123
0.13360511 0.13654363 -0.6658246 0.28045595 -0.3174202 -0.7029869 0.77532274 0.42769936
-0.7898874 0.14557078 -0.25319576 0.46613908 -0.30789638 0.56027377 0.7496323 0.2945422
-0.6744181 0.332849 -0.6988694 0.5173954 0.17275582 -0.5556313 0.5253696 0.5164317
-0.24176191 0.5470518 0.27774072 0.2979886 0.19476363 -0.5357619 0.33307883 -0.61918014
-0.5661459 0.5075762 -0.6606833 -0.448335 -0.4448588 -0.5347647 -0.7222917 0.70372313
-0.0045929574 -0.6918475 0.4877317 -0.41971853 0.27678102 -1.0598962 -0.054122563 0.28576952
0.5859771 0.40170127 -0.35502413 0.40496448 0.5656433 0.284193 0.6365967 0.55325764
0.39118302 -0.01804065 -0.7942427 0.5752644 0.4934466 0.62583387 0.2186859 0.44743943
-0.5749881 -0.6818445 0.3940933 -0.47193587 0.57991016 -0.47406152 0.29807872 0.35778907
0.1903992 -0.5491429 -0.044330165 0.42981303 0.77907497 -0.6784236 0.6600514 0.4496567
0.42537445 0.24385735 0.52255845 -0.6259604 -0.21263936 0.16305137 0.55395657 -0.33890727
-0.4254941 0.36457768 -0.6069395 -0.36506277 0.21482599 0.24036834 0.56552273 0.60190415

net.2.weight f4 [128, 128]
00000000: 5588 dcbf e16d 99bd 7b5d d53c 0562 ce3c
00000010: a8bb a1bd ec2f ec3e 10ff 16bd 1cdb 60bd
00000020: 85b5 f8c0 6a48 b9be 82fe 833c 8109 94bf
00000030: 4c9f 39c0 ece3 e9be d01b 29c0 d72c 23bd
00000040: 52b0 a93e 5e9b bbbe 036e 493c 5579 613e
00000050: 4968 033d a46b 243e a1d5 a53b 99bb 9abb
00000060: 7d1e b63e 1844 863e f35f 7f3e 721b a83e
00000070: 0845 bcbe 0740 93bd 1cf0 853e 4404 82bd
00000080: 372d 65bd 7086 ff3d 7b92 4abd 1ab5 8abe
00000090: 1ffa 34bc 3d22 883e 16b6 733f d91b 523f
000000a0: a47e afc0 5218 de3e 1025 1fbd 0c12 9bbd
000000b0: 310d 573d e740 f93d c154 82bd 2d31 963d
000000c0: 6e57 15bd ef59 903e 9ada 4fbd 6b1d 54c0
000000d0: fb67 52be 6f9a c6bc fd31 463f 4ea3 afbf
000000e0: 6d1c ddbb a3cd 0f3f fdc8 4e3e 1f8f 143e
000000f0: be59 93be d209 b33c 6672 88bf 2d6e 1fc0
00000100: eee1 163d 38ad c9bc dd73 2dbd fc03 7f3c
00000110: 4fde 65bc d5c3 05bd 8017 bec0 5f44 393b
00000120: 1da3 43c0 24db 083d 0752 a1bf 5d71 623d
00000130: 6452 6e3e 89d4 14c0 044c 4bbd 602f ca3d
00000140: 963f 4f3f 5617 a8be f60c 4c3d 5f34 353f
00000150: 39e1 a23e 930b 713e 7aff 9a3e ee5e f33d
00000160: 44b8 9d3e 3aa9 05c0 c484 2fbe c2c0 21be
00000170: 1f78 613e daa4 993d ad42 d53e 599b bbc0
00000180: 9b98 303c bc49 2e3f cdd4 163e b46d 67bd
00000190: 39dd 073e 0b9e 2ebd 6189 8b3e 0a24 08c0
000001a0: b683 353e 1667 97bc f23b 06c0 265d 6d3e
000001b0: e819 203e 97c7 233f 56f4 25bd 9815 823f
000001c0: 99d4 333e d63a 0f3e 1d60 febd 5484 a1bd
000001d0: 4e02 2ebc c151 8a3e 193a 12c0 4273 b2bd
000001e0: d1c1 ae3d a5d5 923e 025a 263d dce9 8abd
000001f0: 1a8f 823e 71cc 73bd 6857 0b3e 4c0e 213e
00000200: ce36 8a3d f1e6 36bd 8594 88bd 760f 3f3d
00000210: f58d 583d 76aa daba 6f0d 403d eb7f 953d
00000220: 3820 a8bd de77 c33c 20c1 6c3c 2059 1a3c
00000230: 384b 903d 9b43 093d f43f 9b3d 616d 48bd
00000240: c325 313b e3fd c3bc 759b 02bc 5205 663d
00000250: 81ba a3bd 68a6 acbd d6a4 15bc 778c 92bd
00000260: 0a0e 053a 2340 503b 3c38 bebc 9093 033b
00000270: 8f89 17bc 060a a63c 4042 3d3a e0b5 6f3d
00000280: 6fe8 a63d 2c01 f8bb 9c9b a5bd a3ca 2b3c
00000290: 0f7a a13d 3bc8 6e3d 3619 37bd 86bc f63c
000002a0: 31cf 96bd 6e87 143c abf0 9b3d 9f97 a33d
000002b0: bd81 93bd 6ab2 5a3b e4bd 86bd a094 a4bd
000002c0: 6d2b 5eba e3d3 6cbd 2524 733d 3c87 8b3b
000002d0: 375b 443d 6234 41bd d429 d3bc 67b9 963c
000002e0: ad84 8b3d bcc9 89bd 9b42 19bd ecff 1dba
000002f0: efc4 e23b 98a3 3e3d d52e afbc 77f7 87bd
00000300: 0553 a6bd ba78 923d 8dfc ac3c 3394 75bd
00000310: 83b3 7b3d 9521 a1bd 4060 12bd c8b0 9cbd
00000320: f958 723c 03a4 53bd f695 6c3d 9a89 9fbd
00000330: 4e44 993d 4ae1 adbd cc2b bdbc d3db 78bd
00000340: 14b0 acbd 1a9c 55ba 2efe 68bd 0438 783d
00000350: cd07 80bd 13e9 38bd 7042 a7bd 29be b0bd
00000360: f24e afbd c3ad 8cbd e994 3ebd 13ec 333d
00000370: 3642 953d bd6c c2bc e405 8f3d 58c8 8fbd
00000380: a385 473c 41e1 573d c406 d6bc 38f6 39bd
00000390: 8614 033d 03d9 cbbb 13dd 023d d466 1abd
000003a0: c892 a6bd 7601 893d a450 1cbd 5c61 63bd
000003b0: 1f72 98bd 988c 813d 558b afbc a00a 82bd
000003c0: 065c a03d fae6 573d fd24 833c 5d33 6abd
000003d0: baa1 803d 92f2 e53c f5ea c63c 16ce 09bd
000003e0: 8bfc 9fbd 0fbc e1bc 38a9 07bd e35d 2f3d
000003f0: 8539 df3c 8467 97bd 497d 92bd a8f8 a9bc
-1.7229105 -0.07491661 0.026045552 0.025193224 -0.07897121 0.4613031 -0.03686434 -0.05489646
-7.772158 -0.3618806 0.01611257 -1.15654 -2.9003477 -0.45681703 -2.6423225 -0.039837684
0.33142334 -0.36641973 0.012294295 0.22018941 0.032081876 0.16056687 0.005060867 -0.0047220704
0.35570136 0.26223826 0.24938945 0.3283344 -0.36771417 -0.071899466 0.2615975 -0.0634847
-0.055951323 0.12476814 -0.0494561 -0.27091295 -0.011045962 0.26588622 0.95199716 0.8207374
-5.484209 0.4337793 -0.038853705 -0.075718015 0.052502815 0.12170582 -0.06363822 0.07333598
-0.036460333 0.28193614 -0.050745584 -3.3142955 -0.20547478 -0.024243562 0.77420026 -1.3721712
-0.0067477734 0.5617315 0.20193858 0.14507721 -0.28779405 0.021855269 -1.0659912 -2.4910996
0.036836557 -0.02461873 -0.042346824 0.015564915 -0.014030053 -0.032657463 -5.9403687 0.0028269512
-3.0568306 0.033412114 -1.2603158 0.055283893 0.23273617 -2.325472 -0.04963304 0.09872317
0.809564 -0.32830304 0.049817048 0.70783037 0.31812456 0.23539571 0.30273038 0.11883341
0.30804646 -2.0884538 -0.1714049 -0.15796188 0.22018479 0.07502146 0.41652432 -5.8627133
0.0107785715 0.6808126 0.14729615 -0.056501105 0.13267983 -0.04263119 0.2725325 -2.1271996
0.17726025 -0.018481772 -2.0974088 0.23180065 0.15634882 0.63976425 -0.04051622 1.016284
0.17561568 0.13987288 -0.12420676 -0.07886568 -0.010620667 0.27015498 -2.284796 -0.0871339
0.08533061 0.28678623 0.040613182 -0.067828864 0.25499803 -0.059521142 0.13607562 0.1572811
0.067487344 -0.044653837 -0.06668953 0.046645604 0.052869756 -0.0016682881 0.04688781 0.07299789
-0.0820927 0.023860868 0.014450341 0.009420663 0.07045597 0.03351174 0.075805575 -0.048932437
0.0027030564 -0.023924774 -0.007971634 0.056157418 -0.07994557 -0.08430177 -0.009133538 -0.07155698
0.00050756393 0.003177651 -0.023220174 0.0020076968 -0.009249105 0.020268451 0.000721965 0.05852306
0.08149802 -0.007568499 -0.08086321 0.010485324 0.07884609 0.058296423 -0.044701777 0.030119192
-0.073637374 0.009065492 0.07614263 0.07987904 -0.0720248 0.0033370503 -0.065791875 -0.080361605
-0.0008475099 -0.05781926 0.059360642 0.0042580646 0.04793855 -0.047169097 -0.025776781 0.018398954
0.06812415 -0.06727931 -0.037417036 -0.000602721 0.006920449 0.046542734 -0.021384636 -0.06638997
-0.081213035 0.07151933 0.02111652 -0.059955787 0.061450493 -0.078677334 -0.035736322 -0.07650906
0.014791721 -0.051670086 0.0577602 -0.07789917 0.07483731 -0.08490236 -0.023092173 -0.060756516
-0.08432022 -0.0008148566 -0.05688303 0.060600296 -0.06251488 -0.045144152 -0.08166969 -0.0863002
-0.085599795 -0.0686908 -0.04652873 0.04392631 0.07288019 -0.023733491 0.069835454 -0.070206344
0.012177858 0.052705053 -0.026126273 -0.045400828 0.032001995 -0.006220938 0.031949114 -0.03769572
-0.08133465 0.06689732 -0.038162842 -0.05551277 -0.07443642 0.06325644 -0.021428743 -0.06349683
0.07830052 0.05271051 0.016008848 -0.05717789 0.06280847 0.028069768 0.024281958 -0.033643804
-0.078118406 -0.027555494 -0.033120364 0.042814147 0.027249107 -0.07392791 -0.071528025 -0.020748451

net.2.bias f4 [128]
00000000: 28e1 c63c 5100 4fbd 01d8 ef3c 47a4 5dbd
00000010: bd2e e23e 6699 c33c 9c8e 9ebd b646 8abc
00000020: c5e7 3dbd 480b a63d e1bd 7f3c 801f a03d
00000030: 467f a7bb 4647 853c 05cd 75bd 4c2a 24bd
00000040: 0c9a 1fbd e071 babc 8a14 a83e c0cd 9c3d
00000050: e01b 9abd 3526 4abd 82d4 453e 2370 60bb
00000060: c3de 053e 3204 9cbc 9482 aabd 0e01 103d
00000070: 7258 10bd b073 0b3e 840c cebc 9881 e73e
00000080: d951 46bd 18d5 953e a93e f03e b29a ea3e
00000090: 49e6 0a3c 481d d4bd 5893 7cbd 24a1 05bc
000000a0: 16ee 5bbd 815b 22bd 2e3e a1bd bfd8 513d
000000b0: af97 ad3e bfcb bcbc 372b 873d b372 f53c
000000c0: 235a 7dbd 5268 b2bd 1fbb 573d a0e5 a2bd
000000d0: 513c 89bd d961 d8bd e1fd 88bd 9187 a2bd
000000e0: d65b 8d3d fd4a 833d b64f 6f3d c656 983c
000000f0: ff7c 45bd 05bf 85bd 0a18 18bc e27c 5bbd
00000100: de2c 07bd da85 873c f63d 8abd 3ed7 fdbc
00000110: 2c48 173d a70f 92bd 2594 d0bd 3294 aa3d
00000120: 9ea2 b93e 71a0 2abd 45a1 aabd a597 c7bd
00000130: 7406 4f3d e969 54bd 1be8 813d eb9d b9bb
00000140: 3d62 693d 5b0e 95bd ffca ca3e 0f67 b3bd
00000150: f277 a9bd c065 bc3e 3616 3e3d 0844 8e3d
00000160: 744f 8cbd aa1a 343d eb1a f63d f2b0 04be
00000170: 1a99 463d d635 903e c893 a7bb ce8b 24bb
00000180: c0fb d43e 60d1 e43c d86f 07bd 1946 c5bd
00000190: f501 4abb e609 093b e071 e0bd cd23 5d3e
000001a0: 214d 90bd 80a8 6f3c ed8c 313d b60a 283a
000001b0: e9d1 ddbc 0732 0e3d 0fff 6fbd db3d d6bd
000001c0: 321d 223d 685e 53bd 0f85 5fbc f1b7 db3e
000001d0: e71a 87bd d58a 4bbc dd7d b53d d7f6 413c
000001e0: 6a03 863e ae7a 4b3d be93 adbc 277f 783d
000001f0: e078 773c 473e d23e b843 90bd a97a c8bc
0.024277285 -0.05053741 0.029277803 -0.054111745 0.44176283 0.023876857 -0.07742044 -0.01687942
-0.04636361 0.081076205 0.0156092355 0.07818508 -0.0051116077 0.016269337 -0.060009975 -0.0400794
-0.03896527 -0.022759378 0.3282817 0.07656431 -0.07524848 -0.049352843 0.19319347 -0.0034246526
0.13073258 -0.01904497 -0.08325687 0.035157256 -0.035240598 0.1361835 -0.025152452 0.4521606
-0.0484179 0.2926414 0.46922806 0.45821148 0.008477756 -0.103571475 -0.061663955 -0.008156095
-0.053693853 -0.039638046 -0.07873188 0.051232096 0.33904788 -0.023046372 0.066000395 0.02996192
-0.06185354 -0.08711304 0.052668687 -0.07953954 -0.067009576 -0.10565538 -0.066890486 -0.079360135
0.06902282 0.06410787 0.058425628 0.018596064 -0.04821491 -0.06530575 -0.009283075 -0.053585894
-0.033001773 0.016543318 -0.06750099 -0.030986425 0.036934063 -0.07131892 -0.10184506 0.08329047
0.3625688 -0.041656915 -0.08331541 -0.09745721 0.050543264 -0.051858816 0.06343099 -0.0056645772
0.056978453 -0.07278129 0.39608 -0.08759891 -0.08274831 0.3679638 0.0464079 0.0694657
-0.06851092 0.04397074 0.12016853 -0.12958124 0.048485853 0.28166074 -0.0051140524 -0.0025107744
0.4159832 0.027931869 -0.033065647 -0.09632511 -0.003082392 0.002091044 -0.1095922 0.21595688
-0.07045961 0.014627576 0.043347288 0.00064102875 -0.027077632 0.03471568 -0.058592852 -0.10461017
0.039578624 -0.051603705 -0.0136425635 0.42913774 -0.06596928 -0.012423237 0.08861897 0.011838636
0.2617448 0.049677543 -0.021188613 0.060668137 0.015104502 0.4106314 -0.07044166 -0.024472551

net.4.weight f4 [3, 128]
00000000: 7894 933f 1cb2 38ba f413 89bd 8254 803c
00000010: 585b 03bf ebbd 983d e7c5 abbf 2665 753d
00000020: b6b0 ba3c fb8b 07c0 039d 28bc bfb4 ebbf
00000030: 331b 963d 8480 763c 9efa 9e3d 7155 f0bf
00000040: 39d2 ddbd 6141 c33a c5b3 f2be 28d4 69bd
00000050: f582 2dbd 4265 893b 266b 31c0 a73c 753b
00000060: 7536 7fc0 0300 263d 50e3 383c 63d7 a13d
00000070: 32c0 aabd 5ee7 8fc0 96f8 a0bd 22ab eebe
00000080: aeec 6e3d 8705 1cc0 54a3 e5be 3931 f3be
00000090: b5fc 4e3d 26af 4d3c 5b11 6a3d e76a 5e3a
000000a0: e29e b03d 33ba a93d 706b 4abd 5f23 75bd
000000b0: 0cfb 3fbf 7be8 853d a910 f23c 546d 19bd
000000c0: ac26 10c0 d1a9 78bb 2f4e ccbc 708f 92bb
000000d0: 1c4c 9abc 9006 883d b66c c3bb f87e 863c
000000e0: 0dbb 40c0 71c7 5f3f c08e 5ec0 4b83 453d
000000f0: e0b6 fc3c a56b 91c0 4ce9 90ba 0f51 36bd
00000100: f7f6 53bd 8fa9 88bd b489 28bd cf3a 3cc0
00000110: 651b 43bb a43b 33bd 5066 2bbd 7bd3 dd3c
00000120: cc6d f6be 18cf 0dbd 47ac 453d de4d 6f3c
00000130: ecb0 d03c d8ca 203c 8f6b 20bd 81e5 563d
00000140: 395a a73b f21e 003d 2908 d3be 1ed4 2dbd
00000150: 6c7c 583d 1b21 8a3e fde0 453d 8010 763c
00000160: 9fa9 6dbd 5b6f e13c 356e 3a3f 4faa 02c0
00000170: b8d7 a2bd 1cf0 4ebf adc6 a1bf 0e1b 05bd
00000180: 3786 02bf 6d2c 19bd b21d 16bd ecfa 5c40
00000190: ee24 cabe b671 bcc0 3dfe 773e c222 e6bf
000001a0: eec8 69bc e8c0 2a40 7b4a 19c0 52e5 063d
000001b0: 7b13 6f3d f087 c6bc 5261 c53c d0b6 29c0
000001c0: dff9 debb 479a 123d a58e 3ac0 60f4 f2be
000001d0: 74bb acbc eba3 063c 7cce 67c0 a553 d0c0
000001e0: 6242 77c0 e962 19c0 7b9e 4a3d b705 a63d
000001f0: ff24 9c3c dd63 d040 9eb2 84bf 4411 a9bc
00000200: afb3 3840 e697 b1bd 5ef2 3c3d 913e f3bb
00000210: c8d9 07bf 06ac 4f3d 9c74 43c0 330a 2e3d
00000220: 293f 0cbc 5f1f 1dc0 779c f83c 4153 55c0
00000230: ca6e 833c 280b 38bd a322 f63a 6d11 1dc0
00000240: 1a58 b6bd d4e7 bcbc 4b14 c6be 118c 363d
00000250: 758e e53c 07f6 aabd d3fa 0cc0 7fa3 8ebd
00000260: 9133 bfc0 a1ff 8c3d 6970 643c eef3 783c
00000270: dcdb 8d3d 70fb 0dc0 0ea1 f73c d32d c6be
00000280: 432d 623d b945 1ac0 745c e5be b8dd f1be
00000290: 544f f33c 876f 9e3d 9f85 953d a369 1ebd
000002a0: 6fa3 e7bc 0b42 3ebd 520e 043d 9fa2 7e3d
000002b0: bd3c 7dbf e814 a83c 555b a7bd 9dcf 0cbc
000002c0: f94c c3bf 7880 adbb 39cb 803c 362f 523d
000002d0: f104 9bbd 6978 0b3d 187b 69bd cf7d 6fbd
000002e0: 430b 55c0 1ce4 583e 7229 96c0 b09f d0bc
000002f0: 5c5a 933d 1967 68c0 a8e0 773d 1358 5e3c
00000300: c734 9e3c 5e2e 14b9 9941 2c3d 527d 44c0
00000310: 2c13 353d 9c3c 83bd 783d bc3c 6829 94bd
00000320: dde5 c3be 1927 b53c 6575 e2bc e43f 72bc
00000330: 3581 45bd 96d4 dd3c 9e20 a8bc ae55 abbd
00000340: fa64 f73c 92dd b3bd c371 f2be 486f 8b3d
00000350: f50a ad3c 286f 903f 56ef 183d 2c52 6c3d
00000360: f069 a33d 6152 423d bb9a 3840 2b82 1bc0
00000370: fe8e 3b3d 96c5 95bf af35 2dc0 1e5b 00bc
00000380: 9d6a b6be 72e6 4b3d d717 3a3d 815b 6040
00000390: 7f46 21c0 1d21 f0c0 a124 8f3f 9f2a cbbf
000003a0: 67f6 9a3d cad5 3640 87bd c7bf bf58 e2bb
000003b0: 9e06 093d 31e1 a33d d5c3 463d 4734 58c0
000003c0: 9d0d 4b3d 43b1 553d 0232 46c0 9588 dcbe
000003d0: bdd6 a4bc 3fc5 863d 01ec 12c0 05df 14c1
000003e0: 01df 90c0 912a 0dc0 7f5c 053d 1e58 9ebd
000003f0: ec2d 743c 4d35 bd40 eeae dfbf 7e56 573d
1.1529684 -0.00070455833 -0.06693259 0.015665296 -0.51311255 0.07458099 -1.341977 0.059910916
0.02278934 -2.1179187 -0.010291341 -1.8414534 0.073294066 0.015045289 0.07762645 -1.8776075
-0.108311124 0.0014896804 -0.47402778 -0.057087094 -0.04236122 0.004192979 -2.7721648 0.0037420185
-3.9876988 0.040527355 0.011284664 0.0790241 -0.083374396 -4.496993 -0.07859914 -0.4661494
0.058331184 -2.4378374 -0.44851172 -0.4749849 0.05053397 0.012553966 0.057145458 0.00084845576
0.086240545 0.08287468 -0.049418867 -0.059848186 -0.7499244 0.06538483 0.02954896 -0.03745778
-2.2523603 -0.0037943015 -0.024939625 -0.0044726655 -0.01883512 0.06641877 -0.005963887 0.016417965
-3.0114167 0.874137 -3.4774628 0.048220914 0.03084892 -4.54439 -0.0011055856 -0.044510897
-0.051749196 -0.06672966 -0.04114695 -2.9410894 -0.0029770967 -0.04375805 -0.04184562 0.02707838
-0.48130643 -0.034621328 0.04826 0.014605967 0.025474988 0.009813987 -0.039165076 0.052464966
0.005107191 0.03127951 -0.41217163 -0.04243862 0.052853033 0.26978382 0.04831027 0.015018582
-0.05802309 0.027518919 0.7282441 -2.0416448 -0.07951301 -0.8083513 -1.2638756 -0.032496504
-0.50986046 -0.037395883 -0.036649413 3.452815 -0.394813 -5.8888807 0.24218078 -1.7979357
-0.014269097 2.668024 -2.395171 0.03293354 0.058368187 -0.024234742 0.024094258 -2.651783
-0.0068046893 0.03579166 -2.9149563 -0.47452068 -0.021085478 0.008217792 -3.6219778 -6.5102105
-3.8634267 -2.396662 0.049467545 0.08106559 0.01906061 6.5121903 -1.036701 -0.020638116
2.885967 -0.086715505 0.046129577 -0.00742323 -0.5306668 0.050701164 -3.0539923 0.042490195
-0.00855998 -2.4550397 0.030348046 -3.3332064 0.01604404 -0.044932514 0.0018778633 -2.4541886
-0.08903523 -0.023059763 -0.38687357 0.04456717 0.02802203 -0.08347707 -2.202809 -0.06964778
-5.9750447 0.06884695 0.013942816 0.015194876 0.069267005 -2.2184715 0.030228164 -0.38706836
0.055218946 -2.4105055 -0.447971 -0.4723947 0.029700913 0.07736116 0.07300877 -0.03867496
-0.028276173 -0.046449702 0.03224022 0.062166806 -0.98920804 0.020517781 -0.08171717 -0.008594421
-1.5257865 -0.0052948557 0.015721904 0.051314555 -0.07569302 0.03405038 -0.057002157 -0.05846959
-3.3288124 0.21180767 -4.6925592 -0.02546677 0.07194969 -3.6312926 0.060516983 0.013570803
0.019312276 -0.00014131653 0.042054746 -3.070149 0.044207737 -0.06408045 0.02297853 -0.0723446
-0.3826131 0.02211337 -0.027643869 -0.0147857405 -0.048218925 0.027078908 -0.020523366 -0.083659515
0.030199517 -0.087824956 -0.47352418 0.068083346 0.021123389 1.1283922 0.037337624 0.057695553
0.0797919 0.047441844 2.884444 -2.4298198 0.045790665 -1.1700923 -2.7064016 -0.007834224
-0.35628214 0.049780317 0.04543289 3.505585 -2.5199277 -7.504042 1.1183053 -1.5872382
0.07566529 2.8567986 -1.5604714 -0.006907552 0.033453576 0.08001936 0.048526604 -3.3781908
0.04957353 0.052171003 -3.0968022 -0.43072954 -0.020121926 0.065805905 -2.2956545 -9.304448
-4.527222 -2.205723 0.032558914 -0.07731651 0.014903527 5.9127564 -1.7475259 0.05257272

net.4.bias f4 [3]
00000000: db2b 0abf d928 26be cb92 d1be
-0.5397317 -0.1622652 -0.40932307

net.0.weight f4 [128, 2]
00000000: ddcd 473f 849e 3ac1 59c3 333e dc46 c3bc
00000010: 91de 4dbe 0acc c7be 676e 6c3e 3175 b9be
00000020: fd39 a13e fd1a 4ec0 589e dd40 8035 5841
00000030: 498c bb3d a342 acbe e4b4 863c a9c9 19bf
00000040: 0e29 d9be 6a39 3ac1 58cb 51bf 8d88 d240
00000050: 354a d9bc 62b1 283f ff91 033e 43d9 a4c0
00000060: d08f cf3e 477c 3b40 af2c 943f adc5 743f
00000070: 188f 833e 5c63 4240 c1d1 1e3e 2a9a 343f
00000080: cde6 a4be 7e95 b5c0 5aa7 503f c049 f7be
00000090: 9056 823f 3a71 cebf ab94 12bf 79a6 e6bf
000000a0: 9dbc fe3d e02a 053e c599 52bf 407b cbbf
000000b0: 5610 493e 4971 0cbd d288 5b3e be0e 013f
000000c0: e3d9 a0be a35a 5bc0 5601 8abe 3617 29c0
000000d0: df3e 48be a624 7ec0 23b3 283f 02da 3dc0
000000e0: eeb7 3e3f 27e4 e6bf ac5c ad3d 2c30 a4be
000000f0: 6d1f 20bf 7dfb 6ac0 8e87 c83e 7902 98be
00000100: 68f7 4dbe f1b8 84c0 7ea5 5cbe 6146 86c0
00000110: f201 01bf 0fe4 32bf 15fa 103f 3191 abc0
00000120: 1ff7 48be 849f 1cbe 3ac0 0fbf 8497 cabc
00000130: 58a2 2340 ab38 0341 7eb6 f63e 3cb7 9dc0
00000140: 76d6 09bf 7c93 df40 e86c 9cbe 51d3 44c0
00000150: 12a0 af3e 45f2 07bf 6b6c 7d3e b148 c13e
00000160: d7dc bd3d 5359 093e 0669 cd3d 1d36 dabf
00000170: 039b bc3e 7f83 ea3e ff15 303d db95 eabf
00000180: 25cd f93d 5416 093e c706 fabe 2fa1 1ec0
00000190: f4a3 9dbd 48c8 d4be 3479 fc3e f327 0ac1
000001a0: e7f8 523e fd15 83c0 f53c 193f 6962 aa3c
000001b0: a074 4a3f 9a1e 08c0 14eb 9b3f 1189 cac0
000001c0: 8047 47be c926 c73e a432 4a3f d53c a2be
000001d0: 7115 d1be addb 02c0 9e7a 0bbf 0931 45bf
000001e0: fdab 8abe ba62 c1c0 cf37 26be 0171 4a3e
000001f0: f8e7 cf3e d01b a5c0 54e4 38bf ef6c 4fc0
00000200: c862 d5be 252a 943e 6076 0f3f f9ee 87c0
00000210: 532f 153e 0990 16bf e97f 113d b356 4c3e
00000220: 4c3b f6bd bcfe 0fbf d89a 83be 0847 df3e
00000230: bf46 e2be 58b7 ea40 2a1d 2f3e 3833 6a3e
00000240: 08e1 d73d 834f e7c0 0f75 05be 3f35 edbe
00000250: a2eb 4d3f f959 13c0 e338 b13e 574a e23d
00000260: 0b01 89be 954b 74c0 e0a0 c1bf 528d 843f
00000270: cb23 9b3d 7af3 0dbf d14f f2be e1d8 643f
00000280: 4791 183f e7a7 3bc0 2072 453f 5be8 eb3f
00000290: 11a4 4bbe 845b b5be 9a71 1e3f 49f4 cabf
000002a0: b05a 6f3f 65ae 8ac0 b169 11be 67fc 54c0
000002b0: cad0 983f 41fc 8dbf 7070 7bbe 7d2e b1bd
000002c0: 6932 16bf 780d 2fc0 c4c0 ce3c ba71 0dc1
000002d0: f0ec 27bf 740e f33f 20be bc3d 3a77 7340
000002e0: 167d a1bd 29a8 4fc0 257e 423e 70cd b4bf
000002f0: a579 e8be c727 92c0 11a4 533f 6c17 4cc0
00000300: 6566 083f 8dfd dd3d 0dc6 02bf 266f 97bf
00000310: 7e34 62be 8f2b 7ec0 05aa e23d 3179 f2bc
00000320: af60 403e ea89 27c0 83b8 8dbe 2eeb 93be
00000330: c8e3 babe 6e1d 45c0 c200 7c3f ee23 2fc0
00000340: 8575 a8be e2fd 45bf 958b 21be 9621 5f3e
00000350: c422 c43c 52ad dbc0 6a6e 21bf 5983 46c0
00000360: 06ff 9c3f b57c 8a40 6f55 09bf 629b b1be
00000370: c223 83bd 164e 7f40 7484 ee3e ef44 bfc0
00000380: a8c8 23bf bd01 38c0 19e9 ee3c bd84 77c0
00000390: 643d 3e3f 568c 27bf 000e 933e b963 07bf
000003a0: 4c7e 31be 7e0a a3bd c021 a6be eb54 86c0
000003b0: 284f 8f3f 821c 05c0 6cd6 08bc 2cf5 493c
000003c0: 759b c73e 6015 963e 16b4 2abf 42b6 79bf
000003d0: c030 f7be 7bb2 85be f0a9 09bd 06b2 553d
000003e0: 252e 24be 3642 64c0 67c8 1b3d 6a5f 6abe
000003f0: 8b85 973f b125 3e3f 5a68 203f dc14 efbf
0.780485 -11.6637 0.17554988 -0.0238375 -0.20104434 -0.39022857 0.2308899 -0.36222222
0.31489554 -3.2203972 6.925579 13.513062 0.09157617 -0.3364459 0.016443677 -0.60073334
-0.42414135 -11.639017 -0.819509 6.579169 -0.026524642 0.65895665 0.12848662 -5.151521
0.40539408 2.9294603 1.1576136 0.9561413 0.2569511 3.0373144 0.15509702 0.70547736
-0.32207337 -5.6744986 0.8150536 -0.48298454 1.0182667 -1.6128304 -0.572581 -1.8019553
0.12438319 0.13004637 -0.82265884 -1.5896988 0.19635138 -0.034287725 0.21438912 0.5041312
-0.31416234 -3.427407 -0.26954144 -2.6420417 -0.19555233 -3.9709868 0.6589834 -2.9664311
0.74499404 -1.8038377 0.084649414 -0.32068002 -0.6254795 -3.6715996 0.3916592 -0.29689386
-0.20113909 -4.147576 -0.21547505 -4.196091 -0.50393593 -0.6987924 0.56631595 -5.3614736
-0.19625519 -0.15295225 -0.5615269 -0.024730451 2.5567837 8.201335 0.48186105 -4.9286175
-0.53842866 6.9867535 -0.3055184 -3.0753977 0.3430181 -0.5310405 0.2474839 0.37750772
0.092706375 0.1341298 0.10029797 -1.7047764 0.36837015 0.4580345 0.042989727 -1.8326982
0.12197331 0.13387424 -0.48833296 -2.4785879 -0.07697287 -0.41559052 0.4931122 -8.634753
0.20602761 -4.096434 0.5985864 0.020798879 0.79084206 -2.1268678 1.2181115 -6.3292317
-0.19460869 0.38896778 0.7898352 -0.31687036 -0.4083667 -2.044658 -0.54483974 -0.77027947
-0.27084342 -6.0433016 -0.16232227 0.1976967 0.40606666 -5.159645 -0.722234 -3.2410238
-0.41676927 0.28938404 0.5604 -4.2479215 0.14568834 -0.5881353 0.035522375 0.19954948
-0.12023029 -0.5624807 -0.25704074 0.4360888 -0.441946 7.334881 0.17100969 0.22871101
0.10540968 -7.228456 -0.13032936 -0.46329686 0.8043767 -2.3023665 0.34613714 0.110493354
-0.26758608 -3.8171132 -1.512722 1.0355628 0.07575186 -0.5544964 -0.4732652 0.8939343
0.59596676 -2.932123 0.77127266 1.8430284 -0.19886805 -0.35421383 0.6189209 -1.58558
0.93497753 -4.3337884 -0.14200474 -3.3279054 1.1938717 -1.1092607 -0.2455461 -0.08651445
-0.5867067 -2.735197 0.025238402 -8.840265 -0.6559591 1.8988786 0.09215951 3.804152
-0.078851864 -3.2446387 0.18993433 -1.4125195 -0.45405307 -4.5673556 0.8267222 -3.1889296
0.5328124 0.108393766 -0.5108345 -1.1830795 -0.22090337 -3.9714086 0.11067585 -0.029598804
0.18786882 -2.6177926 -0.27679834 -0.28890365 -0.36501908 -3.0799212 0.98438656 -2.736568
-0.3290216 -0.7734052 -0.15775903 0.21790156 0.023942359 -6.8649073 -0.63059103 -3.1017668
1.2265327 4.327723 -0.53645986 -0.3468886 -0.06403305 3.989141 0.4658543 -5.9771647
-0.6397805 -2.875106 0.029163884 -3.8674767 0.74312425 -0.6544851 0.2872162 -0.5288654
-0.17333335 -0.079609856 -0.32447624 -4.197866 1.1196032 -2.079865 -0.008351903 0.01232652
0.38985792 0.29313183 -0.6668104 -0.9754373 -0.4827938 -0.26112732 -0.03360933 0.05217173
-0.16033228 -3.5665412 0.038032915 -0.2288796 1.1837629 0.7427626 0.6265923 -1.8678241

net.0.bias f4 [128]
00000000: 8cf9 043f d50d 24be aea6 22bf 3a93 f6bd
00000010: 2643 b83e c7c1 613f e563 86be c88a e1be
00000020: 6620 653e 6219 dc3e 3365 323f d52e 943e
00000030: a096 953e d5ba 423f aa98 463e 6f95 ebbe
00000040: 27f4 443e e179 113f efd1 243f 1635 b13e
00000050: cdd6 2abf 8a3f ee3e 0c0d 34bf 6045 383f
00000060: 921d 1c3e 8154 6d3e 895f 033e be47 263f
00000070: 2fe5 fa3e 1a1e 5ebe 0fa3 e33e d404 65be
00000080: 2af7 083e 6a7c 0b3e 7b73 2abf 355e 8f3e
00000090: e784 a2be f3f6 33bf d134 463f 5e2a db3e
000000a0: 1036 4abf fb36 153e e0a2 81be 4667 ee3e
000000b0: 98a4 9dbe df5a 0f3f 52cc 3f3f afbb 963e
000000c0: aaa6 2cbf 26aa aa3e 1be9 32bf de4b 043f
000000d0: 6764 313e da3d 0ebf 6987 063f 0ba1 043f
000000e0: 6f90 77be 21ed 0b3f 2569 8e3e 0b88 983e
000000f0: 3742 483e b127 09bf 81b8 aa3e 3720 1fbf
00000100: f0ee 10bf 59d7 013f 8a22 29bf 2a8c e5be
00000110: 88c4 e3be 57e6 08bf 1ce8 38bf be0c 343f
00000120: 1e51 ccbb eb1c 31bf 775e fa3e 59e5 d6be
00000130: 74fe 8d3e d4b4 87bf 9faf 5dbd 0b48 923e
00000140: ce1a 163f cfab cd3e b9c5 b5be 47fe cf3e
00000150: 1900 113f 2e65 913e 99c9 223f 6f57 0d3f
00000160: 488f c83e ec9a 8cbc 7d53 4bbf 0b0e 133f
00000170: f790 fc3e f729 203f 42cd 5f3e 3cdd e43e
00000180: 6c32 13bf 5c8d 2ebf 7087 c93e 94a1 f1be
00000190: 0068 143f 31b8 f2be 6ac8 983e f865 b63e
000001a0: b0c7 423e a194 0cbf a102 3abd f83f dc3e
000001b0: 8c16 473f 2bad 2dbf 99c9 283f 0adf e53e
000001c0: cef3 d93e bb80 793e ecae 053f f13e 20bf
000001d0: 22be 59be 3d9b 263e 47d6 0d3f 4185 adbe
000001e0: 5dda d9be 159c ba3e 6360 1bbf 82e9 babe
000001f0: 9312 5c3e 4560 753e a14e 103f 881f 1a3f
0.5194328 -0.16020902 -0.63535583 -0.120398 0.3598873 0.88186306 -0.26248088 -0.44051194
0.2237564 0.42988116 0.6968567 0.2894198 0.2921648 0.76066333 0.19394174 -0.46012446
0.19233762 0.568266 0.64382833 0.34610814 -0.6673401 0.4653285 -0.7033241 0.7198086
0.15245655 0.23176767 0.12829413 0.6495322 0.49002978 -0.2169117 0.4446034 -0.22365123
0.13375536 0.13621679 -0.6658246 0.28001562 -0.3174202 -0.7029869 0.7742434 0.4280576
-0.7898874 0.14571755 -0.25319576 0.46563166 -0.30789638 0.55998033 0.74921143 0.29440066
-0.6744181 0.33332938 -0.6988694 0.51678264 0.17323457 -0.5556313 0.5255037 0.5180823
-0.24176191 0.54658705 0.27814594 0.29791293 0.19556509 -0.5357619 0.3334389 -0.6215853
-0.5661459 0.5071922 -0.6606833 -0.448335 -0.4448588 -0.5347647 -0.7222917 0.70331943
-0.006235256 -0.6918475 0.48900196 -0.41971853 0.27733195 -1.0602059 -0.054122563 0.2857059
0.5863465 0.40170142 -0.35502413 0.40623686 0.56640774 0.28397506 0.63588864 0.5521154
0.39171815 -0.017163716 -0.7942427 0.574433 0.4932935 0.62564033 0.21855643 0.44700038
-0.5749881 -0.6818445 0.39361143 -0.47193587 0.5797119 -0.47406152 0.29840404 0.3562467
0.19021487 -0.5491429 -0.045412663 0.43017554 0.7776878 -0.6784236 0.65932614 0.44896728
0.4256882 0.24365513 0.52220035 -0.6259604 -0.21263936 0.16270156 0.55405086 -0.33890727
-0.4254941 0.36447206 -0.6069395 -0.36506277 0.2149146 0.23962505 0.5636998 0.6020436

net.2.weight f4 [128, 128]
00000000: 5588 dcbf e16d 99bd 7b5d d53c 0562 ce3c
00000010: f683 9ebd ec2f ec3e 10ff 16bd 1cdb 60bd
00000020: 9a42 f8c0 3c91 b8be 48c2 933c 31fd 90bf
00000030: f178 39c0 b206 ebbe 69fb 28c0 d72c 23bd
00000040: ecf4 aa3e f841 bdbe ba91 53ba dd2d 633e
00000050: 4968 033d 5c12 263e a1d5 a53b 900a 2bbb
00000060: 1015 b73e 5945 873e 49ae 813e 26d0 a83e
00000070: cffb c3be 0740 93bd b8d9 863e 4404 82bd
00000080: 0f53 54bd 4941 033e 7b92 4abd 1ab5 8abe
00000090: 1ffa 34bc 3d22 883e 5e26 6d3f a267 493f
000000a0: a47e afc0 6505 df3e 1025 1fbd 3e6d 96bd
000000b0: 310d 573d 42ec fd3d 4f66 7bbd 9558 9b3d
000000c0: 6e57 15bd 0540 913e 9ada 4fbd f8a4 53c0
000000d0: fb67 52be 6f9a c6bc 9e30 423f 4ea3 afbf
000000e0: 6d1c ddbb a703 0f3f 6694 503e 8733 163e
000000f0: 4393 90be d209 b33c b3bc 86bf 2d6e 1fc0
00000100: eee1 163d 8409 19bd dd73 2dbd fc03 7f3c
00000110: 4fde 65bc d5c3 05bd 8017 bec0 c464 a13b
00000120: 1da3 43c0 24db 083d 69df a3bf 5d71 623d
00000130: 9686 703e 9267 16c0 044c 4bbd 0254 cd3d
00000140: 9f54 4f3f e113 acbe f60c 4c3d 9929 313f
00000150: 3ece 8d3e 6a73 733e c08b 923e d11b f73d
00000160: 819b 9e3e 3aa9 05c0 c484 2fbe b6ee 1fbe
00000170: c4cb 633e 7c67 9e3d db34 d63e 383a bdc0
00000180: 9b98 303c bc49 2e3f db1a 193e b46d 67bd
00000190: 4a7f 0a3e 0b9e 2ebd c983 8c3e 0a24 08c0
000001a0: b130 373e 1667 97bc f23b 06c0 e427 6f3e
000001b0: 016d 1c3e 97c7 233f 32e1 1ebd 3f59 7d3f
000001c0: 759a 353e 5ce4 133e 5705 03be 5484 a1bd
000001d0: 4e02 2ebc 6058 8b3e 8a94 14c0 4273 b2bd
000001e0: d1c1 ae3d 4ba7 933e 025a 263d dce9 8abd
000001f0: 36d9 833e 9d46 6bbd cd67 fa3d 9d96 233e
00000200: ce36 8a3d f1e6 36bd 8594 88bd 760f 3f3d
00000210: f58d 583d 76aa daba 6f0d 403d eb7f 953d
00000220: 3820 a8bd de77 c33c 20c1 6c3c 2059 1a3c
00000230: 384b 903d 9b43 093d f43f 9b3d 616d 48bd
00000240: c325 313b e3fd c3bc 759b 02bc 5205 663d
00000250: 81ba a3bd 68a6 acbd d6a4 15bc 778c 92bd
00000260: 0a0e 053a 2340 503b 3c38 bebc 9093 033b
00000270: 8f89 17bc 060a a63c 4042 3d3a e0b5 6f3d
00000280: 6fe8 a63d 2c01 f8bb 9c9b a5bd a3ca 2b3c
00000290: 0f7a a13d 3bc8 6e3d 3619 37bd 86bc f63c
000002a0: 31cf 96bd 6e87 143c abf0 9b3d 9f97 a33d
000002b0: bd81 93bd 6ab2 5a3b e4bd 86bd a094 a4bd
000002c0: 6d2b 5eba e3d3 6cbd 2524 733d 3c87 8b3b
000002d0: 375b 443d 6234 41bd d429 d3bc 67b9 963c
000002e0: ad84 8b3d bcc9 89bd 9b42 19bd ecff 1dba
000002f0: efc4 e23b 98a3 3e3d d52e afbc 77f7 87bd
00000300: 0553 a6bd ba78 923d 8dfc ac3c 3394 75bd
00000310: 83b3 7b3d 9521 a1bd 4060 12bd c8b0 9cbd
00000320: f958 723c 03a4 53bd f695 6c3d 9a89 9fbd
00000330: 4e44 993d 4ae1 adbd cc2b bdbc d3db 78bd
00000340: 14b0 acbd 1a9c 55ba 2efe 68bd 0438 783d
00000350: cd07 80bd 13e9 38bd 7042 a7bd 29be b0bd
00000360: f24e afbd c3ad 8cbd e994 3ebd 13ec 333d
00000370: 3642 953d bd6c c2bc e405 8f3d 58c8 8fbd
00000380: a385 473c 41e1 573d c406 d6bc 38f6 39bd
00000390: 8614 033d 03d9 cbbb 13dd 023d d466 1abd
000003a0: c892 a6bd 7601 893d a450 1cbd 5c61 63bd
000003b0: 1f72 98bd 988c 813d 558b afbc a00a 82bd
000003c0: 065c a03d fae6 573d fd24 833c 5d33 6abd
000003d0: baa1 803d 92f2 e53c f5ea c63c 16ce 09bd
000003e0: 8bfc 9fbd 0fbc e1bc 38a9 07bd e35d 2f3d
000003f0: 8539 df3c 8467 97bd 497d 92bd a8f8 a9bc
-1.7229105 -0.07491661 0.026045552 0.025193224 -0.07740013 0.4613031 -0.03686434 -0.05489646
-7.75813 -0.36048305 0.018036976 -1.1327268 -2.8980067 -0.45903546 -2.6403449 -0.039837684
0.33389986 -0.36964393 -0.0008070726 0.22185464 0.032081876 0.16217941 0.005060867 -0.0026098825
0.35758257 0.26420096 0.25328282 0.32971305 -0.38278052 -0.071899466 0.2633798 -0.0634847
-0.051837023 0.12817873 -0.0494561 -0.27091295 -0.011045962 0.26588622 0.9263667 0.78673756
-5.484209 0.43558803 -0.038853705 -0.07345055 0.052502815 0.12398578 -0.061376866 0.07585255
-0.036460333 0.28369156 -0.050745584 -3.306944 -0.20547478 -0.024243562 0.75855434 -1.3721712
-0.0067477734 0.5586495 0.2036911 0.14668094 -0.28237352 0.021855269 -1.0526336 -2.4910996
0.036836557 -0.03736259 -0.042346824 0.015564915 -0.014030053 -0.032657463 -5.9403687 0.0049253423
-3.0568306 0.033412114 -1.2802554 0.055283893 0.2348884 -2.3500714 -0.04963304 0.10025789
0.80988497 -0.33608916 0.049817048 0.692041 0.27696413 0.23774496 0.28622246 0.120658524
0.30978015 -2.0884538 -0.1714049 -0.15618405 0.22245699 0.07734582 0.418372 -5.913357
0.0107785715 0.6808126 0.14951651 -0.056501105 0.1352512 -0.04263119 0.27444294 -2.1271996
0.17889668 -0.018481772 -2.0974088 0.23355061 0.15275957 0.63976425 -0.03878898 0.98964304
0.17734702 0.14442581 -0.12795006 -0.07886568 -0.010620667 0.27215862 -2.321566 -0.0871339
0.08533061 0.28838572 0.040613182 -0.067828864 0.25751656 -0.05744039 0.1222683 0.15975423
0.067487344 -0.044653837 -0.06668953 0.046645604 0.052869756 -0.0016682881 0.04688781 0.07299789
-0.0820927 0.023860868 0.014450341 0.009420663 0.07045597 0.03351174 0.075805575 -0.048932437
0.0027030564 -0.023924774 -0.007971634 0.056157418 -0.07994557 -0.08430177 -0.009133538 -0.07155698
0.00050756393 0.003177651 -0.023220174 0.0020076968 -0.009249105 0.020268451 0.000721965 0.05852306
0.08149802 -0.007568499 -0.08086321 0.010485324 0.07884609 0.058296423 -0.044701777 0.030119192
-0.073637374 0.009065492 0.07614263 0.07987904 -0.0720248 0.0033370503 -0.065791875 -0.080361605
-0.0008475099 -0.05781926 0.059360642 0.0042580646 0.04793855 -0.047169097 -0.025776781 0.018398954
0.06812415 -0.06727931 -0.037417036 -0.000602721 0.006920449 0.046542734 -0.021384636 -0.06638997
-0.081213035 0.07151933 0.02111652 -0.059955787 0.061450493 -0.078677334 -0.035736322 -0.07650906
0.014791721 -0.051670086 0.0577602 -0.07789917 0.07483731 -0.08490236 -0.023092173 -0.060756516
-0.08432022 -0.0008148566 -0.05688303 0.060600296 -0.06251488 -0.045144152 -0.08166969 -0.0863002
-0.085599795 -0.0686908 -0.04652873 0.04392631 0.07288019 -0.023733491 0.069835454 -0.070206344
0.012177858 0.052705053 -0.026126273 -0.045400828 0.032001995 -0.006220938 0.031949114 -0.03769572
-0.08133465 0.06689732 -0.038162842 -0.05551277 -0.07443642 0.06325644 -0.021428743 -0.06349683
0.07830052 0.05271051 0.016008848 -0.05717789 0.06280847 0.028069768 0.024281958 -0.033643804
-0.078118406 -0.027555494 -0.033120364 0.042814147 0.027249107 -0.07392791 -0.071528025 -0.020748451

net.2.bias f4 [128]
00000000: d04a d73c 5100 4fbd 01d8 ef3c 47a4 5dbd
00000010: a7f8 e13e 6699 c33c 00bd 9ebd b646 8abc
00000020: c5e7 3dbd 480b a63d e1bd 7f3c 801f a03d
00000030: 467f a7bb 4647 853c 05cd 75bd 95d1 21bd
00000040: 0c9a 1fbd e071 babc a1d5 a73e c0cd 9c3d
00000050: e01b 9abd 3526 4abd 48ab 443e 2370 60bb
00000060: 4488 053e 3204 9cbc 9482 aabd 0e01 103d
00000070: 7258 10bd ffe3 0a3e 840c cebc fb49 e73e
00000080: d951 46bd 4961 963e 5d04 f03e 9a5d ea3e
00000090: 49e6 0a3c 481d d4bd 5893 7cbd 24a1 05bc
000000a0: 16ee 5bbd 815b 22bd 2e3e a1bd bfd8 513d
000000b0: 7264 ad3e bfcb bcbc 372b 873d b372 f53c
000000c0: 25c7 6cbd 5268 b2bd 1fbb 573d a0e5 a2bd
000000d0: 513c 89bd d961 d8bd e1fd 88bd 9187 a2bd
000000e0: d65b 8d3d c6a6 7a3d b64f 6f3d c656 983c
000000f0: ff7c 45bd 05bf 85bd 0a18 18bc e27c 5bbd
00000100: de2c 07bd da85 873c f63d 8abd 23e6 03bd
00000110: 2c48 173d a70f 92bd 2594 d0bd 3294 aa3d
00000120: 4169 b93e 71a0 2abd 45a1 aabd a597 c7bd
00000130: 7406 4f3d e969 54bd 1be8 813d eb9d b9bb
00000140: 3d62 693d 5b0e 95bd dd97 ca3e 0f67 b3bd
00000150: f277 a9bd 88c6 bb3e 3616 3e3d 0844 8e3d
00000160: 744f 8cbd aa1a 343d c129 f43d f2b0 04be
00000170: 1a99 463d 2c3c 903e 6efe a7bb ce8b 24bb
00000180: 10b0 d43e 60d1 e43c d86f 07bd 0dc3 c6bd
00000190: 984f ceba 8e1c f03a d948 e1bd 568a 5c3e
000001a0: 214d 90bd d119 753c ed8c 313d b60a 283a
000001b0: e9d1 ddbc 0732 0e3d 0fff 6fbd 7e41 d6bd
000001c0: 321d 223d 685e 53bd 7703 54bc 6b7e db3e
000001d0: e71a 87bd d58a 4bbc dd7d b53d 01bd 3f3c
000001e0: 31f9 853e ae7a 4b3d be93 adbc 277f 783d
000001f0: e078 773c 1a16 d23e 992e 8fbd a97a c8bc
0.02628079 -0.05053741 0.029277803 -0.054111745 0.4413502 0.023876857 -0.07750893 -0.01687942
-0.04636361 0.081076205 0.0156092355 0.07818508 -0.0051116077 0.016269337 -0.060009975 -0.039506514
-0.03896527 -0.022759378 0.32780173 0.07656431 -0.07524848 -0.049352843 0.19205964 -0.0034246526
0.13040262 -0.01904497 -0.08325687 0.035157256 -0.035240598 0.13563536 -0.025152452 0.4517363
-0.0484179 0.29371098 0.4687833 0.45774537 0.008477756 -0.103571475 -0.061663955 -0.008156095
-0.053693853 -0.039638046 -0.07873188 0.051232096 0.33865696 -0.023046372 0.066000395 0.02996192
-0.057807107 -0.08711304 0.052668687 -0.07953954 -0.067009576 -0.10565538 -0.066890486 -0.079360135
0.06902282 0.061194204 0.058425628 0.018596064 -0.04821491 -0.06530575 -0.009283075 -0.053585894
-0.033001773 0.016543318 -0.06750099 -0.032201897 0.036934063 -0.07131892 -0.10184506 0.08329047
0.36213115 -0.041656915 -0.08331541 -0.09745721 0.050543264 -0.051858816 0.06343099 -0.0056645772
0.056978453 -0.07278129 0.39568987 -0.08759891 -0.08274831 0.36674905 0.0464079 0.0694657
-0.06851092 0.04397074 0.119220264 -0.12958124 0.048485853 0.28170907 -0.005126766 -0.0025107744
0.41540575 0.027931869 -0.033065647 -0.09705172 -0.0015740274 0.0018319057 -0.11000223 0.21537146
-0.07045961 0.014959768 0.043347288 0.00064102875 -0.027077632 0.03471568 -0.058592852 -0.104617104
0.039578624 -0.051603705 -0.012940279 0.42869887 -0.06596928 -0.012423237 0.08861897 0.011702777
0.2616668 0.049677543 -0.021188613 0.060668137 0.015104502 0.41032487 -0.0699131 -0.024472551

net.4.weight f4 [3, 128]
00000000: 88d2 933f 1cb2 38ba f413 89bd 8254 803c
00000010: 342b 03bf ebbd 983d 2aea abbf 2665 753d
00000020: b6b0 ba3c fb8b 07c0 039d 28bc bfb4 ebbf
00000030: 331b 963d 8480 763c 9efa 9e3d 9ac8 efbf
00000040: 39d2 ddbd 6141 c33a 9a7a f2be 28d4 69bd
00000050: f582 2dbd 4265 893b 7124 30c0 a73c 753b
00000060: ebe9 7ec0 0300 263d 50e3 383c 63d7 a13d
00000070: 32c0 aabd 3858 8fc0 96f8 a0bd dc64 eebe
00000080: aeec 6e3d 9c69 1bc0 365a e5be 39eb f2be
00000090: b5fc 4e3d 26af 4d3c 5b11 6a3d e76a 5e3a
000000a0: e29e b03d 33ba a93d 706b 4abd 5f23 75bd
000000b0: 3920 41bf 7be8 853d a910 f23c 546d 19bd
000000c0: 9f68 10c0 d1a9 78bb 2f4e ccbc 708f 92bb
000000d0: 1c4c 9abc 9006 883d b66c c3bb f87e 863c
000000e0: 0dbb 40c0 af75 5f3f c08e 5ec0 4b83 453d
000000f0: e0b6 fc3c a56b 91c0 4ce9 90ba 0f51 36bd
00000100: f7f6 53bd 8fa9 88bd b489 28bd 2da5 3ac0
00000110: 651b 43bb a43b 33bd 5066 2bbd 7bd3 dd3c
00000120: 862c f6be 18cf 0dbd 47ac 453d de4d 6f3c
00000130: ecb0 d03c d8ca 203c 8f6b 20bd 81e5 563d
00000140: 395a a73b f21e 003d 07b8 d2be 1ed4 2dbd
00000150: 6c7c 583d de56 8a3e fde0 453d 8010 763c
00000160: 9fa9 6dbd 5b6f e13c cc3e 373f 4faa 02c0
00000170: b8d7 a2bd 88f2 4ebf 17fc a1bf 0e1b 05bd
00000180: b16d 02bf 6d2c 19bd b21d 16bd 11f3 5c40
00000190: 253c cdbe 3dea bbc0 e970 773e baf3 e6bf
000001a0: eec8 69bc 80b4 2a40 7b4a 19c0 52e5 063d
000001b0: 7b13 6f3d f087 c6bc 5261 c53c e96f 29c0
000001c0: dff9 debb 479a 123d 4950 3ac0 39ab f2be
000001d0: 74bb acbc eba3 063c 7cce 67c0 1623 d0c0
000001e0: 292a 77c0 e962 19c0 7b9e 4a3d b705 a63d
000001f0: ff24 9c3c 9aa1 d040 aeff 84bf 4411 a9bc
00000200: ee9c 3840 e697 b1bd 5ef2 3c3d 913e f3bb
00000210: 01e5 07bf 06ac 4f3d 8005 43c0 330a 2e3d
00000220: 293f 0cbc 5f1f 1dc0 779c f83c 4153 55c0
00000230: ca6e 833c 280b 38bd a322 f63a b8b6 1cc0
00000240: 1a58 b6bd d4e7 bcbc 5d21 c6be 118c 363d
00000250: 758e e53c 07f6 aabd 02cb 0cc0 7fa3 8ebd
00000260: 6b25 bfc0 a1ff 8c3d 6970 643c eef3 783c
00000270: dcdb 8d3d 2ea7 0cc0 0ea1 f73c cb40 c6be
00000280: 432d 623d fbc5 19c0 2f5d e5be efdd f1be
00000290: 544f f33c 876f 9e3d 9f85 953d a369 1ebd
000002a0: 6fa3 e7bc 0b42 3ebd 520e 043d 9fa2 7e3d
000002b0: 90fa 7bbf e814 a83c 555b a7bd 9dcf 0cbc
000002c0: 7579 c3bf 7880 adbb 39cb 803c 362f 523d
000002d0: f104 9bbd 6978 0b3d 187b 69bd cf7d 6fbd
000002e0: 430b 55c0 8e38 5c3e 7229 96c0 b09f d0bc
000002f0: 5c5a 933d 1967 68c0 a8e0 773d 1358 5e3c
00000300: c734 9e3c 5e2e 14b9 9941 2c3d b990 44c0
00000310: 2c13 353d 9c3c 83bd 783d bc3c 6829 94bd
00000320: 83f7 c3be 1927 b53c 6575 e2bc e43f 72bc
00000330: 3581 45bd 96d4 dd3c 9e20 a8bc ae55 abbd
00000340: fa64 f73c 92dd b3bd 1078 f2be 486f 8b3d
00000350: f50a ad3c 6d5e 903f 56ef 183d 2c52 6c3d
00000360: f069 a33d 6152 423d bd53 3840 2b82 1bc0
00000370: fe8e 3b3d b275 95bf a505 2dc0 1e5b 00bc
00000380: c178 b6be 72e6 4b3d d717 3a3d 8564 6040
00000390: 3048 21c0 84ee efc0 86c3 8e3f ee8a cabf
000003a0: 67f6 9a3d b4d6 3640 87bd c7bf bf58 e2bb
000003b0: 9e06 093d 31e1 a33d d5c3 463d 6df7 57c0
000003c0: 9d0d 4b3d 43b1 553d fd4c 45c0 3c97 dcbe
000003d0: bdd6 a4bc 3fc5 863d 01ec 12c0 7dcd 14c1
000003e0: b8dd 90c0 912a 0dc0 7f5c 053d 1e58 9ebd
000003f0: ec2d 743c 05ef bc40 8aab dfbf 7e56 573d
1.1548624 -0.00070455833 -0.06693259 0.015665296 -0.512378 0.07458099 -1.3430836 0.059910916
0.02278934 -2.1179187 -0.010291341 -1.8414534 0.073294066 0.015045289 0.07762645 -1.8733094
-0.108311124 0.0014896804 -0.47359163 -0.057087094 -0.04236122 0.004192979 -2.7522242 0.0037420185
-3.9830272 0.040527355 0.011284664 0.0790241 -0.083374396 -4.479519 -0.07859914 -0.46561325
0.058331184 -2.428321 -0.44795388 -0.47445086 0.05053397 0.012553966 0.057145458 0.00084845576
0.086240545 0.08287468 -0.049418867 -0.059848186 -0.7543979 0.06538483 0.02954896 -0.03745778
-2.2563856 -0.0037943015 -0.024939625 -0.0044726655 -0.01883512 0.06641877 -0.005963887 0.016417965
-3.0114167 0.87288946 -3.4774628 0.048220914 0.03084892 -4.54439 -0.0011055856 -0.044510897
-0.051749196 -0.06672966 -0.04114695 -2.9163315 -0.0029770967 -0.04375805 -0.04184562 0.02707838
-0.48080844 -0.034621328 0.04826 0.014605967 0.025474988 0.009813987 -0.039165076 0.052464966
0.005107191 0.03127951 -0.41156027 -0.04243862 0.052853033 0.270194 0.04831027 0.015018582
-0.05802309 0.027518919 0.71580195 -2.0416448 -0.07951301 -0.80838823 -1.2655057 -0.032496504
-0.50948626 -0.037395883 -0.036649413 3.4523356 -0.4008495 -5.8723435 0.24164166 -1.804313
-0.014269097 2.6672668 -2.395171 0.03293354 0.058368187 -0.024234742 0.024094258 -2.6474555
-0.0068046893 0.03579166 -2.9111502 -0.47396258 -0.021085478 0.008217792 -3.6219778 -6.504283
-3.8619483 -2.396662 0.049467545 0.08106559 0.01906061 6.5197268 -1.0390527 -0.020638116
2.8845782 -0.086715505 0.046129577 -0.00742323 -0.5308381 0.050701164 -3.0472107 0.042490195
-0.00855998 -2.4550397 0.030348046 -3.3332064 0.01604404 -0.044932514 0.0018778633 -2.4486523
-0.08903523 -0.023059763 -0.3869733 0.04456717 0.02802203 -0.08347707 -2.1998906 -0.06964778
-5.9733176 0.06884695 0.013942816 0.015194876 0.069267005 -2.1977038 0.030228164 -0.38721308
0.055218946 -2.4027088 -0.44797656 -0.47239634 0.029700913 0.07736116 0.07300877 -0.03867496
-0.028276173 -0.046449702 0.03224022 0.062166806 -0.98429203 0.020517781 -0.08171717 -0.008594421
-1.5271441 -0.0052948557 0.015721904 0.051314555 -0.07569302 0.03405038 -0.057002157 -0.05846959
-3.3288124 0.21505949 -4.6925592 -0.02546677 0.07194969 -3.6312926 0.060516983 0.013570803
0.019312276 -0.00014131653 0.042054746 -3.0713332 0.044207737 -0.06408045 0.02297853 -0.0723446
-0.38274774 0.02211337 -0.027643869 -0.0147857405 -0.048218925 0.027078908 -0.020523366 -0.083659515
0.030199517 -0.087824956 -0.47357225 0.068083346 0.021123389 1.1278816 0.037337624 0.057695553
0.0797919 0.047441844 2.880111 -2.4298198 0.045790665 -1.1676543 -2.7034695 -0.007834224
-0.35639003 0.049780317 0.04543289 3.5061352 -2.520031 -7.4978657 1.1153419 -1.5823648
0.07566529 2.8568544 -1.5604714 -0.006907552 0.033453576 0.08001936 0.048526604 -3.3744767
0.04957353 0.052171003 -3.082824 -0.43084133 -0.020121926 0.065805905 -2.2956545 -9.300168
-4.5270653 -2.205723 0.032558914 -0.07731651 0.014903527 5.904177 -1.7474225 0.05257272

net.4.bias f4 [3]
00000000: 5dd6 09bf 1d84 26be 3d8c d1be
-0.5384272 -0.16261335 -0.40927306
