P3/Q3/Batch1000/cartpole/checkpoints/pg_CartPole-v1_last.pth (torch, 81667 bytes, 18 tensors)

net.0.weight f4 [64, 4]
0.47828013 -0.11718192 0.24277899 0.57559144 0.37827662 0.20675433 0.13964602 -0.30115378
0.4819193 0.53652173 0.4597427 0.2954031 -0.36432657 -0.0602037 0.41910464 0.4645288
-0.034863476 0.3288943 0.06211081 -0.3555869 0.3519457 -0.02916664 0.37368143 0.12702857
0.20052093 -0.38342813 0.4418122 0.037939902 -0.34115797 -0.4961771 -0.64695567 -0.6227072
0.02891589 -0.5326424 0.4614061 -0.23439443 0.15319176 0.14748226 -0.22807407 -0.2661777
0.11003048 -0.38418493 0.10198545 -0.2771509 -0.48682213 -0.22843802 -0.44301736 -0.26178774
0.19983664 -0.008764021 -0.048607353 -0.4364711 0.4291423 0.14364238 0.37346202 0.5341204
-0.0946679 0.37350327 0.48611665 0.08379362 -0.17937715 -0.3387216 0.079930365 -0.22620241
-0.3893898 0.2999934 -0.5870894 -0.32395375 -0.24209473 -0.16935384 -0.2064555 0.11090978
0.23494601 0.053123236 -0.52114123 -0.43593127 0.44928962 -0.50978315 -0.21106571 -0.24840917
-0.48559067 0.19794737 -0.45638692 -0.56456953 -0.12924333 0.24048564 0.3547891 -0.3898933
0.1439101 0.46070236 -0.25401855 -0.10745768 -0.0500666 0.021760346 0.69781035 0.44766372
0.2415181 -0.09956126 -0.32984105 0.06876928 -0.32062137 -0.06484288 0.46896097 0.08201496
-0.03698269 0.20601946 -0.011039272 0.5533533 0.42542914 0.3766197 0.56945276 0.08260349
-0.29742867 0.0014325579 0.24266818 0.59261864 -0.26182476 0.056025688 0.26465783 -0.049280923
0.08445931 0.12144943 -0.55969703 -0.14695345 -0.1317863 0.31872964 0.536504 0.35901406
0.24111933 -0.46281484 -0.1070932 0.11808497 0.32037568 -0.19465339 -0.44871756 0.2204748
-0.32613572 -0.038736533 0.5749773 0.20073584 0.18533006 0.013061487 0.38129875 0.4712283
0.31211337 0.32657874 -0.5039858 -0.13891824 -0.25264683 -0.1514226 0.2658895 -0.38933945
0.14718492 0.37894747 -0.11341484 -0.3451781 0.16140391 0.003649746 -0.13710865 -0.46352765
0.15614994 -0.37382388 0.30838537 0.6074972 -0.24505875 -0.13693549 -0.001203141 -0.38847613
0.36837056 0.068719804 0.4299853 -0.014633639 -0.03546559 -0.0873565 -0.287857 -0.32263866
0.24369931 0.45525947 -0.23562483 -0.27746737 -0.034999963 -0.34714752 0.6116158 0.43826815
-0.45265687 -0.20603314 0.35295862 0.6189436 0.28279015 0.359528 0.3594018 0.27863434
-0.4506755 0.38864735 -0.06522644 0.06284619 -0.1801394 -0.32164824 -0.015149707 -0.4829957
-0.43008623 0.36168998 0.1481864 -0.1330718 -0.1375486 0.23608932 -0.04704193 0.3728436
0.19043487 0.23218015 0.35461748 0.39751709 0.37356296 -0.35462347 -0.24208678 -0.31035754
0.39545807 0.12864055 -0.5668719 -0.34515417 -0.22733572 -0.17080022 -0.031164836 0.14610353
0.18898706 -0.3527294 0.56235826 0.13627069 -0.45350036 -0.4821711 -0.15107271 -0.54373527
0.37948453 0.14675151 0.17869578 -0.2559081 -0.4002028 0.24015519 -0.39094615 -0.5392784
0.42986682 0.1237581 0.20088068 0.11060931 0.49737424 0.34195966 0.37064585 0.11395988
0.3864342 -0.13629586 -0.46865913 -0.35098705 0.035657633 -0.16733041 -0.12193562 0.10260068
00000000: 22e1 f43e 13fd efbd 0e9b 783e f659 133f
00000010: 79ad c13e 68b7 533e 5eff 0e3e d430 9abe
00000020: 20be f63e 7d59 093f 6563 eb3e 133f 973e
00000030: 0389 babe 2898 76bd e294 d63e b8d6 ed3e
00000040: 01cd 0ebd d564 a83e e867 7e3d 7c0f b6be
00000050: 3a32 b43e e1ee eebc 2c53 bf3e c713 023e
00000060: 5c55 4d3e b150 c4be 3535 e23e df66 1b3d
00000070: 42ac aebe ed0a febe e39e 25bf bd69 1fbf
00000080: 04e1 ec3c 415b 08bf 6c3d ec3e 1805 70be
00000090: 4dde 1c3e 9705 173e 408c 69be 7248 88be
000000a0: a957 e13d e3b3 c4be bfdd d03d b9e6 8dbe
000000b0: c040 f9be a8eb 69be 2cd3 e2be 0b09 86be
000000c0: faa1 4c3e f896 0fbc 8118 47bd 2479 dfbe
000000d0: 8ab8 db3e fd16 133e 6a36 bf3e 1dbc 083f
000000e0: 3ee1 c1bd d23b bf3e 48e4 f83e fd9b ab3d
000000f0: a5ae 37be eb6c adbe 88b2 a33d 9ba1 67be
00000100: 1a5e c7be bc98 993e 7e4b 16bf 44dd a5be
00000110: aee7 77be 186b 2dbe 1269 53be ab24 e33d
00000120: b095 703e c097 593d 8369 05bf 6232 dfbe
00000130: 4a09 e63e 2681 02bf 9c21 58be f95e 7ebe
00000140: 579f f8be b7b2 4a3e 8cab e9be a187 10bf
00000150: 5d58 04be de41 763e eba6 b53e 18a0 c7be
00000160: 2b5d 133e 2ee1 eb3e b80e 82be c612 dcbd
00000170: a312 4dbd c142 b23c b3a3 323f 2e34 e53e
00000180: 8550 773e c6e6 cbbd ede0 a8be e9d6 8c3d
00000190: 7c28 a4be 58cc 84bd a71b f03e 76f7 a73d
000001a0: 297b 17bd c4f6 523e 10de 34bc 90a8 0d3f
000001b0: d9d1 d93e 4cd4 c03e a8c7 113f 052c a93d
000001c0: 9248 98be abc4 bb3a 027e 783e dbb5 173f
000001d0: e50d 86be 317b 653d 3b81 873e cbda 49bd
000001e0: 01f9 ac3d 7bba f83d 4e48 0fbf f77a 16be
000001f0: fdf2 06be 8830 a33e 5358 093f b1d0 b73e
00000200: fce7 763e 11f6 ecbe ae53 dbbd 88d6 f13d
00000210: 4808 a43e 3853 47be 4fbe e5be 25c4 613e
00000220: 43fb a6be 33aa 1ebd b631 133f b28d 4d3e
00000230: 2ac7 3d3e d9ff 553c 9739 c33e d644 f13e
00000240: 53cd 9f3e 5435 a73e 3705 01bf 9540 0ebe
00000250: ed5a 81be 870e 1bbe ab22 883e 8057 c7be
00000260: a5b7 163e 6705 c23e 0a46 e8bd 2fbb b0be
00000270: 1147 253e 9430 6f3b 3666 0cbe 7f53 edbe
00000280: c5e5 1f3e d865 bfbe b0e4 9d3e f084 1b3f
00000290: aef0 7abe d138 0cbe b6b2 9dba 58e6 c6be
000002a0: 119b bc3e f8bc 8c3d 0927 dc3e eec1 6fbc
000002b0: 5e44 11bd f7e7 b2bd fe61 93be e530 a5be
000002c0: 508c 793e c517 e93e a347 71be 3410 8ebe
000002d0: 1f5c 0fbd 52bd b1be da92 1c3f af64 e03e
000002e0: a4c2 e7be 5afa 52be feb6 b43e 1673 1e3f
000002f0: dfc9 903e 0e14 b83e 8303 b83e 29a9 8e3e
00000300: f0be e6be c9fc c63e 7195 85bd 81b5 803d
00000310: 7676 38be 14af a4be 7a36 78bc 364b f7be
00000320: 4334 dcbe 6e2f b93e 2dbe 173e f943 08be
00000330: 8ad9 0cbe 66c1 713e 0aaf 40bd 5be5 be3e
00000340: 5c01 433e a2c0 6d3e 6c90 b53e 5c87 cb3e
00000350: a543 bf3e 3591 b5be 99e5 77be 2fe7 9ebe
00000360: 7b79 ca3e 59ba 033e 841e 11bf 0cb8 b0be
00000370: b2ca 68be 41e6 2ebe 664d ffbc 2a9c 153e
00000380: d385 413e f398 b4be b6f6 0f3f 8b8a 0b3e
00000390: 3331 e8be 21df f6be ceb2 1abe 3c32 0bbf
000003a0: cc4b c23e 0746 163e 07fc 363e 6306 83be
000003b0: 62e7 ccbe 3eeb 753e 182a c8be 260e 0abf
000003c0: 8117 dc3e e374 fd3d aab3 4d3e 2287 e23d
000003d0: d6a7 fe3e 5615 af3e 4bc5 bd3e cc63 e93d
000003e0: b4da c53e 2491 0bbe 17f4 efbe 93b4 b3be
000003f0: bd0d 123d aa58 2bbe 62b9 f9bd 4e20 d23d

net.0.bias f4 [64]
0.11686461 -0.22337183 -0.43645498 -0.22441769 0.28167212 -0.22885671 0.2720896 0.2144998
0.023073899 -0.10720249 0.43398893 -0.37611878 0.26483256 0.19728814 -0.16576979 -0.21362126
-0.18563029 -0.44388118 0.47845703 -0.112328045 -0.113669716 0.07988024 -0.45249873 0.3457271
0.4169757 0.51996034 0.18883164 0.32790992 0.24320577 -0.5175956 0.43078217 0.31472176
-0.24173439 0.043787766 0.1646711 -0.04636602 0.4917834 -0.41723302 -0.43857345 0.3035685
0.028355842 -0.3656271 -0.4774809 0.096619174 0.22160739 0.42267144 0.47520527 0.067599416
0.19704878 0.047004238 0.28848663 0.12358491 0.17304687 0.2988125 0.1881515 -0.43677378
0.37467533 0.2503156 0.25347102 0.14440511 0.27915433 -0.18614027 -0.4373076 -0.15369347
00000000: b656 ef3d 96bb 64be 0777 dfbe c0cd 65be
00000010: 5437 903e 6a59 6abe 544f 8b3e d6a5 5b3e
00000020: 7905 bd3c fb8c dbbd cc33 de3e a492 c0be
00000030: 2298 873e e705 4a3e 8ebf 29be 88bf 5abe
00000040: de15 3ebe 6544 e3be 52f8 f43e 3f0c e6bd
00000050: abcb e8bd 4098 a33d eaad e7be 2403 b13e
00000060: d77d d53e 1f1c 053f 155d 413e cfe3 a73e
00000070: ef0a 793e 2581 04bf 7b8f dc3e 3623 a13e
00000080: 3889 77be cd5a 333d 8a9f 283e 4cea 3dbd
00000090: 09cb fb3e 919f d5be b38c e0be 556d 9b3e
000000a0: 834a e83c 7a33 bbbe 6078 f4be 46e0 c53d
000000b0: 0ced 623e 6468 d83e 1b4e f33e 9071 8a3d
000000c0: 28c7 493e 8487 403d 85b4 933e 161a fd3d
000000d0: 3333 313e f4fd 983e c9aa 403e d0a0 dfbe
000000e0: 72d5 bf3e 5e29 803e f4c6 813e efde 133e
000000f0: 51ed 8e3e 8e9b 3ebe c8e6 dfbe d261 1dbe

net.2.weight f4 [64, 64]
0.02722206 0.0941851 -0.08441843 -0.06276008 0.1342446 -0.14122573 -0.11699606 0.13043462
-0.07669348 0.15658395 -0.052417908 0.060840912 0.07862461 -0.20118763 -0.102879584 0.123957016
0.14317352 0.07503955 0.026218921 0.07025108 0.04221491 0.11326994 0.067549564 -0.058369905
-0.05663373 0.10513405 -0.07050836 0.020955369 0.02062225 -0.10688598 0.080175035 -0.10640815
-0.03285616 -0.018319173 0.03908042 0.027602816 0.07728082 -0.028047414 -0.010133419 0.1641148
-0.010776336 0.13828869 -0.06885139 0.1699513 0.09611196 0.007857404 -0.073875666 -0.0120167835
0.09187273 0.12893933 0.09231226 -0.13163798 -0.21344283 0.19486709 0.1112439 -0.056425918
0.057670806 0.01882804 0.09504321 0.10449474 0.019893369 -0.13113295 0.036149494 -0.06364985
-0.114517964 -0.07100503 -0.054179434 0.06576288 -0.095636 0.036027502 -0.062693916 0.085822314
-0.0314742 0.11077398 0.059457332 -0.04626009 -0.101035535 0.02576356 -0.016908998 -0.039859474
-0.071092755 -0.008261459 -0.11878935 -0.07420892 -0.08835631 -0.08526925 0.0550182 0.074620865
-0.0047510467 -0.038377516 0.099442035 0.051370274 -0.023239011 0.08353822 0.043301445 0.02608465
0.07284358 -0.0705587 -0.014912526 -0.020339593 -0.028846385 0.06924343 0.035469964 0.08019829
-0.030535286 0.0431574 0.079897895 0.06660676 -0.08927496 -0.07188868 0.04161152 0.07290847
-0.01485426 0.09921653 0.10138367 0.010233226 -0.045526765 0.07968988 -0.09362184 0.045929413
-0.050411124 -0.13138475 0.09094563 -0.09627207 -0.10962633 -0.09660117 0.060757175 0.09136532
0.054526784 -0.0011542679 0.05723653 0.05656627 0.12782034 0.06311682 0.09359926 0.027072676
0.11284502 0.14080827 -0.002665173 -0.038655497 -0.025932515 -0.15785033 -0.072678104 -0.021246903
0.1330854 0.11992258 -0.007122652 0.0845016 0.071592905 0.11987327 0.026141036 -0.11164493
0.13717392 -0.05940947 0.047494277 -0.1265082 0.06680824 0.058240935 0.06789826 -0.16929494
-0.004165527 -0.057198845 -0.12541784 0.017753653 0.13984707 0.012031828 0.015621603 0.12751748
0.065286025 0.069123685 -0.023698872 0.19096032 0.072084785 -0.06875723 -0.10527883 -0.15098497
-0.028122306 0.21811882 0.11270383 -0.007836121 -0.08213265 0.1740764 0.00034035408 0.121492945
-0.094511315 0.0089489715 0.080518275 0.15047391 0.11496928 0.024112767 -0.029458929 0.0478394
0.043691028 0.035385408 0.02381723 -0.14358042 0.10771417 -0.13259947 0.030298518 0.1234962
0.039373733 -0.08704395 0.082406454 0.021965105 -0.009039859 -0.06801901 -0.034285657 0.14652944
0.16764982 -0.038162336 0.14761372 0.033596873 0.075145856 0.014668618 0.032876406 -0.097526714
-0.054805417 0.077658676 -0.2089395 -0.008383709 -0.1106126 0.022204824 0.0015686937 -0.16115491
0.05175298 0.15482067 -0.04151194 -0.0625946 0.025014607 0.115538105 0.10445744 0.13094884
-0.017334677 0.06858409 -0.039038777 0.03015537 0.13945279 -0.09924431 0.023358565 -0.06124972
0.015436866 0.1431544 0.008258676 -0.15923995 -0.17831388 -0.011492219 0.12672758 -0.031716455
0.057957187 0.051641155 0.12080868 0.19694078 -0.04002874 -0.16061397 0.116049886 0.111883305
00000000: cc00 df3c 1ee4 c03d 92e3 acbd 5b88 80bd
00000010: 6b77 093e 7a9d 10be a19b efbd a790 053e
00000020: 7911 9dbd 8b57 203e 29b4 56bd 5234 793d
00000030: f105 a13d 2104 4ebe 88b2 d2bd 2ddd fd3d
00000040: 149c 123e 56ae 993d 10c9 d63c ccdf 8f3d
00000050: 8be9 2c3d 12fa e73d 6d57 8a3d 4815 6fbd
00000060: c5f8 67bd 8550 d73d b066 90bd 98aa ab3c
00000070: feef a83c 09e7 dabd cf32 a43d 84ec d9bd
00000080: 2e94 06bd 1712 96bc ca12 203d 4d1f e23c
00000090: 6845 9e3d b1c3 e5bc a406 26bc b60d 283e
000000a0: 3b8f 30bc 8d9b 0d3e f501 8dbd b707 2e3e
000000b0: 59d6 c43d 57bc 003c 204c 97bd 0be2 44bc
000000c0: c527 bc3d ac08 043e 360e bd3d 1bcc 06be
000000d0: c290 5abe 3d8b 473e d8d3 e33d dd1e 67bd
000000e0: 3938 6c3d 433d 9a3c 04a6 c23d 5701 d63d
000000f0: 6bf7 a23c b747 06be 7e11 143d da5a 82bd
00000100: 6588 eabd 166b 91bd 41eb 5dbd b0ae 863d
00000110: cfdc c3bd 9391 133d ab65 80bd 9cc3 af3d
00000120: 17eb 00bd 78dd e23d 8889 733d 387b 3dbd
00000130: b8eb cebd 1a0e d33c bd84 8abc b043 23bd
00000140: 1499 91bd 125b 07bc d547 f3bd d9fa 97bd
00000150: 27f4 b4bd a5a1 aebd c45a 613d d3d2 983d
00000160: abae 9bbb be31 1dbd 44a8 cb3d a369 523d
00000170: bd5f bebc 1616 ab3d db5c 313d 7aaf d53c
00000180: 042f 953d 1481 90bd ab53 74bc 389f a6bc
00000190: 414f ecbc 80cf 8d3d f448 113d 003f a43d
000001a0: 2325 fabc d0c5 303d 82a1 a33d 2069 883d
000001b0: cad5 b6bd 5f3a 93bd d770 2a3d 0951 953d
000001c0: 485f 73bc 0932 cb3d 3ea2 cf3d 43a9 273c
000001d0: 467a 3abd 7334 a33d cfbc bfbd 7b20 3c3d
000001e0: e57b 4ebd b989 06be b441 ba3d 4b2a c5bd
000001f0: c583 e0bd d6d6 c5bd 84dc 783d be1d bb3d
00000200: 7a57 5f3d ce4a 97ba da70 6a3d 08b2 673d
00000210: 56e3 023e 6443 813d f8b0 bf3d 84c7 dd3c
00000220: 4a1b e73d 0b30 103e 2faa 2ebb 3a55 1ebd
00000230: 6d70 d4bc 84a3 21be 42d8 94bd fc0d aebc
00000240: 8a47 083e f899 f53d 2365 e9bb 2d0f ad3d
00000250: 4d9f 923d 1e80 f53d ba25 d63c 19a6 e4bd
00000260: 5277 0c3e 5857 73bd 5c89 423d 5e8b 01be
00000270: c2d2 883d 0c8e 6e3d 3e0e 8b3d a75b 2dbe
00000280: f97e 88bb 5649 6abd 896d 00be 1c70 913c
00000290: 1234 0f3e 2521 453c c0f1 7f3c f193 023e
000002a0: aeb4 853d b890 8d3d 2324 c2bc 1a8b 433e
000002b0: 30a1 933d 97d0 8cbd 6d9c d7bd ce9b 1abe
000002c0: c060 e6bc 8a5a 5f3e 44d1 e63d 1363 00bc
000002d0: 2a35 a8bd 1541 323e 8d71 b239 4bd1 f83d
000002e0: 268f c1bd b59e 123c c4e6 a43d d515 1a3e
000002f0: 0475 eb3d 2388 c53c da53 f1bc 3ff3 433d
00000300: 5df5 323d 4af0 103d 5a1c c33c bf06 13be
00000310: 3f99 dc3d 28c8 07be 9934 f83c 93eb fc3d
00000320: 5a46 213d 1944 b2bd b7c4 a83d 2af0 b33c
00000330: eb1b 14bc 8d4d 8bbd 1e6f 0cbd d00b 163e
00000340: 65ac 2b3e 1c50 1cbd 0d28 173e e09c 093d
00000350: 12e6 993d a554 703c 69a9 063d 16bc c7bd
00000360: a57b 60bd 830b 9f3d 3cf4 55be d35b 09bc
00000370: dc88 e2bd e4e6 b53c a09c cd3a cb05 25be
00000380: effa 533d 4f89 1e3e 6d08 2abd 9931 80bd
00000390: 6feb cc3c 3e9f ec3d c8ed d53d 7417 063e
000003a0: 7401 8ebc d175 8c3d 20e7 1fbd 6508 f73c
000003b0: b6cc 0e3e 9a40 cbbd 765a bf3c fde0 7abd
000003c0: e9ea 7c3c 1197 123e 664f 073c cc0f 23be
000003d0: ea97 36be dc49 3cbc e0c4 013e 1de9 01bd
000003e0: 8464 6d3d ad85 533d 8b6a f73d d8aa 493e
000003f0: 2df5 23bd fd77 24be 90ab ed3d 1323 e53d

net.2.bias f4 [64]
-0.026890693 -0.041888636 0.11266672 0.0682832 -0.06587944 0.09800759 0.034207158 0.07097222
-0.09658303 -0.064415455 -0.012897733 0.08452721 0.015891287 0.06551216 -0.11355494 0.090817094
0.10000043 -0.1154925 0.036880925 0.09096482 0.06142017 -0.05291222 0.03913249 0.029951511
0.037674762 0.14441347 -0.07379739 0.0028778713 -0.117272675 0.02430825 -0.015630437 0.051047828
0.00096827355 -0.011126201 0.14450315 -0.03260811 0.0704558 0.08560509 0.11511074 -0.039270878
0.055086415 -0.101863496 0.11755985 -0.061574727 0.0049206535 -0.047044 0.021964597 -0.13650006
-0.010272676 -0.090927035 -0.015150319 0.14063415 0.032530162 0.08187146 0.06433372 -0.13237484
-0.03694552 -0.031453833 -0.011359723 -0.08459929 0.10141332 -0.08470127 -0.06913447 0.14216392
00000000: df49 dcbc 6b93 2bbd cfbd e63d 10d8 8b3d
00000010: cdeb 86bd 34b8 c83d ce1c 0c3d e259 913d
00000020: 53cd c5bd 40ec 83bd 0351 53bc 9a1c ad3d
00000030: 722e 823c 3d2b 863d 7e8f e8bd 50fe b93d
00000040: 07cd cc3d 5587 ecbd 7410 173d c34b ba3d
00000050: b793 7b3d 7cba 58bd 6449 203d df5c f53c
00000060: da50 1a3d 20e1 133e 1623 97bd ab9a 3c3b
00000070: a82c f0bd 1822 c73c 670b 80bc 8717 513d
00000080: bdd3 7d3a ab4a 36bc a2f8 133e 1590 05bd
00000090: 214b 903d b951 af3d 2ebf eb3d 80da 20bd
000000a0: 4ba2 613d cf9d d0bd 38c3 f03d c835 7cbd
000000b0: 6f3d a13b 36b1 40bd 19ef b33c acc6 0bbe
000000c0: ba4e 28bc f437 babd 0b39 78bc 6602 103e
000000d0: 593e 053d 39ac a73d 66c1 833d 458d 07be
000000e0: 3054 17bd bcd5 00bd 221e 3abc 6442 adbd
000000f0: c9b1 cf3d dc77 adbd 5f96 8dbd 6b93 113e

net.4.weight f4 [2, 64]
0.07610691 0.11221709 0.15388164 0.13367805 -0.01276566 0.09893873 0.043543592 -0.056672946
0.14018874 0.049895268 0.15143196 0.20746246 -0.0009366258 -0.16543375 0.122255474 -0.024216859
0.19550179 0.111751206 -0.19637764 -0.026865648 0.1151698 0.09162749 0.04102937 -0.1758845
0.051793568 -0.03006416 -0.1115212 -0.17219262 0.10329197 -0.102566935 0.10269974 -0.039537054
-0.0018203241 -0.007993922 0.13867375 0.21795823 0.21675837 0.068773404 0.0042701066 -0.13416007
0.030564846 0.034226 -0.13499475 0.02905051 0.2015048 0.050342556 0.11298823 -0.011969144
-0.1795449 0.10824418 -0.023166647 -0.1874262 0.1515443 0.0726837 -0.16380152 -0.053151224
-0.14997762 0.06238506 0.18688415 -0.04389131 0.14548956 0.03571416 0.16374497 -0.09636607
-0.1313213 -0.052847624 -0.10614003 -0.04265563 -0.05597632 -0.17498821 -0.09598094 0.09783968
-0.03427097 -0.108332224 -0.19445021 -0.2141845 0.1949697 0.19035828 0.113348186 0.20130807
-0.13598952 0.06441752 0.07867031 -0.094370104 -0.042515792 -0.030072376 -0.086202696 0.17239629
0.049402 0.13669258 0.028485429 0.09095286 -0.054352958 0.19451839 -0.067074284 0.18634844
0.11212196 0.103911795 -0.054818444 -0.18356584 -0.15685868 -0.11129769 0.031064779 0.19377913
-0.1414258 0.010977932 0.16158465 0.04141144 -0.19963297 0.036334354 0.05114197 -0.0117888935
0.21976173 -0.04598111 -0.11323215 0.08262967 -0.03789161 -0.15021956 0.10966832 -0.048778277
0.21474046 -0.15167026 -0.15321787 0.009977311 -0.065387525 -0.13079636 -0.075125515 0.11047727
00000000: f1dd 9b3d 13d2 e53d 2693 1d3e e6e2 083e
00000010: 0f27 51bc 64a0 ca3d c45a 323d e421 68bd
00000020: a38d 0f3e fb5e 4c3d fb10 1b3e 0a71 543e
00000030: e587 75ba 7767 29be 1461 fa3d 6f62 c6bc
00000040: 9f31 483e d1dd e43d 3817 49be 5915 dcbc
00000050: 25de eb3d 32a7 bb3d 6a0e 283d 111b 34be
00000060: 7e25 543d 1d49 f6bc 3a65 e4bd 4353 30be
00000070: be8a d33d 9d0e d2bd 3e54 d23d 9bf1 21bd
00000080: f197 eeba f0f8 02bc 7e00 0e3e 7130 5f3e
00000090: e8f5 5d3e 12d9 8c3d 40ec 8b3b 4261 09be
000000a0: 2163 fa3c 9030 0c3d 103c 0abe 56fb ed3c
000000b0: 4657 4e3e ff33 4e3d 6066 e73d 3b1a 44bc
000000c0: 9eda 37be 20af dd3d fbc7 bdbc a7ec 3fbe
000000d0: 6e2e 1b3e 31db 943d 96bb 27be 19b5 59bd
000000e0: bc93 19be 7a87 7f3d 8f5e 3f3e 60c7 33bd
000000f0: 37fb 143e 0349 123d c3ac 273e 935b c5bd
00000100: 1779 06be c076 58bd f25f d9bd abb7 2ebd
00000110: 6d47 65bd 1c30 33be a891 c4bd 2c60 c83d
00000120: b75f 0cbd 49dd ddbd f51d 47be 2e53 5bbe
00000130: 23a6 473e 48ed 423e 1823 e83d b423 4e3e
00000140: d640 0bbe 55ed 833d e61d a13d 1d45 c1bd
00000150: 0a25 2ebd 585a f6bc 0a8b b0bd a788 303e
00000160: c059 4a3d 24f9 0b3e 465a e93c 7e45 ba3d
00000170: 35a1 5ebd d42f 473e 3e5e 89bd 20d2 3e3e
00000180: 33a0 e53d b5cf d43d 4e89 60bd aff8 3bbe
00000190: 909f 20be 0bf0 e3bd 907b fe3c 096e 463e
000001a0: edd1 10be c9dc 333c 7276 253e 0b9f 293d
000001b0: 966c 4cbe 55d3 143d 3e7a 513d 3426 41bc
000001c0: 3809 613e b056 3cbd 42e6 e7bd bf39 a93d
000001d0: 3c34 1bbd 28d3 19be c999 e03d bbcb 47bd
000001e0: ece4 5b3e 734f 1bbe 25e5 1cbe e077 233c
000001f0: e5e9 85bd 7bef 05be 68db 99bd e841 e23d

net.4.bias f4 [2]
0.020722965 0.036139827
00000000: 35c3 a93c 5b07 143d

exp_avg f4 [64, 4]
0.00013402628 0.00063525216 -0.00012297394 0.00015666513 1.5289982e-06 4.006171e-06 1.2646441e-07 -7.554919e-08
-3.4280918e-06 -3.4590983e-05 -2.0614407e-06 4.897784e-06 -0.00040227335 0.0005263418 -0.00018246955 -4.5535176e-05
0.00089981244 -1.84362e-05 0.00012606311 8.607985e-05 -1.381103e-06 -4.3553864e-06 -4.0277787e-06 1.4586949e-06
4.625765e-05 0.00037292144 -5.2799172e-05 2.2795515e-05 0.002013238 -0.002492313 0.00054209353 0.00055365893
-2.0916536e-08 -0.00018374147 1.145713e-05 2.7735769e-05 5.7953224e-05 -0.00016563783 3.5414585e-05 9.61321e-05
0.0007162107 -0.0009378349 0.00013932594 0.0002104382 0.00013536026 -0.00068658363 7.3465286e-05 0.0001598144
0.000696769 -0.000936319 0.00015747342 0.00024917492 -0.00024012907 -0.00014286969 -0.00020393095 0.0004358002
0.00034360893 -4.8898397e-05 -0.00011699518 -0.00018645209 0.00019182575 -0.0004051015 2.639235e-05 2.7954695e-05
0.0011589652 -0.0004171896 0.0001701286 0.0003304506 -3.1045868e-06 3.0663457e-05 -5.3641963e-07 -6.732212e-06
0.00068930304 -0.00081680896 0.00018679042 0.00024288824 -0.000632578 -0.0010181104 5.757718e-05 9.102031e-05
0.0013646459 -0.00044635657 0.0002076127 0.00034940007 7.804286e-05 -1.5243889e-05 1.2062195e-05 -5.4202287e-06
-1.5287063e-05 4.5948353e-05 -2.0361235e-06 -1.5055279e-05 -0.0017494593 0.0019693773 -0.0005038899 -0.00043857325
0.00013699058 -0.00020946201 3.1330048e-05 4.891382e-05 -0.00014311215 5.9597292e-05 -5.1557738e-05 3.659426e-06
-0.0011223669 0.0014938578 -0.00039321883 -0.00027100736 -0.00023325041 -6.464385e-05 -0.00013421147 -5.6215347e-05
-0.0012020131 0.0012697933 -0.000323457 -0.0002360825 -4.488801e-05 -1.2705661e-05 2.602282e-06 2.9856262e-06
0.00053802016 -0.0012950461 0.00024956078 0.00031040973 -0.0021354784 0.0022199217 -0.00059003057 -0.00051254965
-5.9714806e-05 -0.000114662886 4.1557055e-07 3.4528202e-05 -0.00013680256 -0.00032247108 2.8362914e-05 4.66027e-05
-0.0010877183 0.0010970843 -0.00024104417 -0.0001964499 -0.00019130664 -0.00013234658 -4.2638207e-05 0.00024313122
0.00085739326 -5.9396632e-05 0.00015561262 0.00012106276 -0.00010063382 -0.00019779328 -3.325486e-06 2.3318551e-05
-5.3230528e-05 7.370487e-05 5.8575724e-06 -1.36042745e-05 0.0016592612 -0.0012165515 0.0003402931 0.0003177164
0.0007527963 0.0012637415 -7.340899e-05 0.00012908317 0.00012300261 -0.00012177023 -3.254976e-06 1.9202067e-05
-2.2404072e-06 -1.4426095e-06 -1.9330056e-08 1.2411972e-07 0.0033904205 -0.0033459715 0.00076368364 0.00053982175
0.0004702932 -0.00013657432 6.307839e-05 0.00013187759 -0.001131994 0.001175303 -0.00024886825 -0.00021564377
-0.0010757296 0.0012675294 -0.0003094061 -0.00028798604 0.00052577234 -0.00024618662 -0.00014007966 -5.9052953e-05
-0.00032773678 0.000108191176 -7.8215504e-05 -2.4352146e-05 0.0025421244 -0.0029908842 0.00046509056 0.0007118546
4.2769156e-05 -0.0001570565 2.7937442e-05 6.246503e-05 -0.0016327236 0.0012643664 -0.0004684925 -0.0003012716
0.00074597803 -0.0014867863 -0.00035810497 0.00034184154 0.000254375 -0.0010512546 0.00012428015 5.9144286e-06
0.0002947888 -0.00036029718 0.00011525031 0.00016610183 -0.00013505876 0.00045759144 -1.4468105e-05 -2.0596646e-05
-0.0003900371 0.0008144502 -0.00014735533 2.7836427e-06 0.0012589493 -0.0015372448 0.00033713953 0.00034128656
0.00011658816 -0.00010023241 3.8552767e-05 3.8214803e-05 0.0011632802 -0.0015625851 0.00034296908 0.0005492768
-0.000409679 4.225427e-05 -9.3203584e-05 5.40457e-05 4.652505e-06 -2.630255e-05 -7.567336e-06 -1.4847342e-05
1.1263145e-06 2.5052584e-06 1.7785779e-07 -1.0929637e-06 8.5985695e-05 0.00010786853 -6.6446873e-06 -5.811873e-06
00000000: 6889 0c39 0d87 263a 91f2 00b9 7a46 2439
00000010: fa37 cd35 bf6c 8636 46ca 0734 9b3d a2b3
00000020: 2b0e 66b6 c915 11b8 4857 0ab6 a557 a436
00000030: 37e8 d2b9 33fa 093a 4c55 3fb9 06fd 3eb8
00000040: 64e1 6b3a 70a7 9ab7 cf2f 0439 c485 b438
00000050: 565e b9b5 7c24 92b6 5b26 87b6 60c8 c335
00000060: c604 4238 ab84 c339 ae74 5db8 ff38 bf37
00000070: 87f0 033b 1356 23bb 481b 0e3a 6c23 113a
00000080: f3ab b3b2 baaa 40b9 0038 4037 1caa e837
00000090: cd12 7338 11af 2db9 1f8a 1438 879a c938
000000a0: 16c0 3b3a 09d9 75ba 0618 1239 13a9 5c39
000000b0: 7eef 0d39 d9fb 33ba 6011 9a38 da93 2739
000000c0: 60a7 363a 4e73 75ba 731f 2539 b1a3 8239
000000d0: 28cb 7bb9 4acf 15b9 4cd6 55b9 1d7c e439
000000e0: 6926 b439 4118 4db8 4f5b f5b8 5a82 43b9
000000f0: d524 4939 ce63 d4b9 2465 dd37 4080 ea37
00000100: 6be8 973a 3eba dab9 8c64 3239 5440 ad39
00000110: 6558 50b6 a39c 0038 7afe 0fb5 43e5 e1b6
00000120: 58b2 343a 1f1f 56ba 2cdd 4339 d1af 7e39
00000130: 97d3 25ba 1e72 85ba 077f 7138 28e2 be38
00000140: ebdd b23a f704 eab9 9cb2 5939 af2f b739
00000150: f1aa a338 01c0 7fb7 bc5e 4a37 69df b5b6
00000160: b83c 80b7 abb8 4038 56a4 08b6 ee95 7cb7
00000170: 1d4e e5ba ab10 013b 7b17 04ba 4ef0 e5b9
00000180: 21a5 0f39 08a3 5bb9 6268 0338 d028 4d38
00000190: 6010 16b9 1bf8 7938 b33f 58b8 7694 7536
000001a0: 621c 93ba 8dcd c33a f028 ceb9 fe15 8eb9
000001b0: ae94 74b9 6791 87b8 1ebb 0cb9 c5c8 6bb8
000001c0: de8c 9dba 316f a63a aa95 a9b9 ea8c 77b9
000001d0: 2246 3cb8 662a 55b7 dda2 2e36 ab5c 4836
000001e0: ec09 0d3a 89be a9ba 7bd7 8239 7dbe a239
000001f0: 62f3 0bbb 1b7c 113b 48ac 1aba a05c 06ba
00000200: 4976 7ab8 2b77 f0b8 951b df34 60d2 1038
00000210: a872 0fb9 5611 a9b9 e5ec ed37 4577 4338
00000220: c591 8eba 0acc 8f3a cdc0 7cb9 1efe 4db9
00000230: 7c99 48b9 84c6 0ab9 6dd6 32b8 0af1 7e39
00000240: b0c2 603a a620 79b8 f22b 2339 13e3 fd38
00000250: 5f0b d3b8 bb66 4fb9 6a2b 5fb6 359c c337
00000260: d843 5fb8 0092 9a38 2a8c c436 ea3d 64b7
00000270: 917b d93a b274 9fba 5e69 b239 2c93 a639
00000280: 4e57 453a 21a4 a53a 27f3 99b8 805a 0739
00000290: 43fa 0039 e55e ffb8 1070 5ab6 2014 a137
000002a0: e759 16b6 af9f c1b5 3e0b a6b2 c545 0534
000002b0: d131 5e3b 1648 5bbb f131 483a d382 0d3a
000002c0: af91 f639 6435 0fb9 f448 8438 9f48 0a39
000002d0: 6a5f 94ba a00c 9a3a 887a 82b9 6f1e 62b9
000002e0: 7fff 8cba 3b23 a63a c937 a2b9 d5fc 96b9
000002f0: fcd3 093a 9c12 81b9 59e2 12b9 a0af 77b8
00000300: 16d4 abb9 b2e4 e238 a107 a4b8 d647 ccb7
00000310: c599 263b b602 44bb 66d7 f339 c19b 3a3a
00000320: 0863 3338 88af 24b9 335b ea37 a8ff 8238
00000330: 1d01 d6ba 19b9 a53a 00a0 f5b9 fdf3 9db9
00000340: bd8d 433a 45e0 c2ba 09c0 bbb9 3239 b339
00000350: a25d 8539 40ca 89ba 3351 0239 8e74 c636
00000360: e28d 9a39 45e6 bcb9 8ab2 f138 9f2b 2e39
00000370: 8f9e 0db9 e2e8 ef39 0abc 72b7 f6c6 acb7
00000380: e57d ccb9 d480 553a 6583 1ab9 9ece 3a36
00000390: 5403 a53a 607d c9ba 1ac2 b039 b5ee b239
000003a0: cb80 f438 de33 d2b8 b8b3 2138 d548 2038
000003b0: 3579 983a a8cf ccba 88d0 b339 58fd 0f3a
000003c0: 2fca d6b9 2d3a 3138 4b76 c3b8 21af 6238
000003d0: b71c 9c36 4ca4 dcb7 ecea fdb6 d918 79b7
000003e0: df2b 9735 0320 2836 2df9 3e34 f2b1 92b5
000003f0: 3853 b438 7a37 e238 6ef5 deb6 9c03 c3b6

exp_avg_sq f4 [64, 4]
9.589713e-06 4.89953e-06 1.2062162e-07 6.639586e-07 2.2311751e-07 1.7901696e-07 1.5130512e-09 1.5165435e-08
2.357315e-06 1.2811263e-06 1.094375e-08 9.386821e-08 8.2607085e-06 2.2118768e-06 3.2233544e-08 2.1932892e-07
3.7337215e-06 1.711549e-06 4.9382514e-08 2.8454582e-07 2.9834064e-06 7.9090063e-07 1.2862316e-08 7.898058e-08
8.812978e-07 3.2464627e-07 1.6559751e-08 1.3533672e-07 3.2044834e-05 1.26396535e-05 2.803819e-07 1.8074204e-06
3.2545114e-07 1.9510337e-07 5.307061e-09 4.7169912e-08 2.519309e-06 1.7113197e-06 1.7143027e-08 1.7939975e-07
3.7716661e-06 1.3659911e-06 3.3426097e-08 1.804686e-07 1.662462e-06 3.7455987e-07 5.7364904e-09 3.8715726e-08
5.853241e-06 3.9295387e-06 8.790563e-08 4.5958345e-07 1.648105e-05 1.1187346e-05 2.2787434e-07 1.1399579e-06
2.161917e-06 1.8634437e-06 1.0546358e-08 1.1585723e-07 3.669584e-07 1.3639746e-07 1.6192792e-09 1.4441657e-08
5.940485e-06 2.5983022e-06 2.264153e-08 2.0500798e-07 7.767961e-08 3.5429004e-08 2.6268018e-10 1.8849144e-09
6.266599e-06 3.3223087e-06 6.629315e-08 3.9784854e-07 1.1805263e-05 4.5146444e-06 8.289388e-08 5.1288174e-07
8.919763e-06 4.137327e-06 3.9851933e-08 3.550175e-07 3.45804e-07 2.6714733e-07 8.9211465e-09 6.1541506e-08
3.1403025e-07 3.2359807e-07 1.3333684e-09 1.477587e-08 3.8616276e-05 1.7574981e-05 3.439175e-07 1.8717818e-06
2.4807633e-07 1.6730087e-07 7.66112e-09 8.203778e-08 2.2338351e-07 1.5527802e-07 2.6372886e-09 5.5141417e-08
2.0965286e-05 9.975739e-06 1.8177097e-07 9.460553e-07 3.387732e-06 2.3131336e-06 4.112696e-08 2.5393194e-07
1.1596851e-05 5.419154e-06 1.1603121e-07 7.614184e-07 5.5811192e-08 8.031326e-09 1.0835708e-10 8.235916e-10
1.0159873e-05 4.45746e-06 8.874217e-08 5.041568e-07 5.288275e-05 2.3385432e-05 4.6210272e-07 2.8488782e-06
7.902932e-08 6.782125e-08 6.352872e-10 1.0062939e-08 8.2202604e-07 2.8734294e-07 6.99986e-09 8.8839954e-08
7.871677e-06 3.6222082e-06 7.404817e-08 4.7217972e-07 8.587225e-06 3.062835e-06 4.8195385e-08 3.7884413e-07
4.6720174e-06 3.0367894e-06 7.959571e-08 5.530001e-07 3.831165e-07 6.359653e-08 8.435177e-10 5.7188605e-09
1.1541188e-06 1.0648314e-06 4.7875117e-09 5.96091e-08 2.2637767e-05 1.2983205e-05 3.1046545e-07 1.7754267e-06
7.103402e-06 2.7312053e-06 5.1561525e-08 3.3829647e-07 1.5859206e-07 5.0414098e-08 4.908274e-10 4.8896296e-09
7.072718e-08 1.88866e-08 1.8588756e-10 1.4681072e-09 7.770563e-05 3.5624267e-05 6.607864e-07 3.944604e-06
2.3351856e-06 1.3007597e-06 3.9744208e-08 2.8388936e-07 1.3199176e-05 3.9282772e-06 1.4457535e-07 7.233907e-07
1.1335117e-05 5.26045e-06 1.4469356e-07 8.020846e-07 1.32935465e-05 8.776438e-06 1.3812766e-07 7.901788e-07
5.832166e-07 2.9246664e-07 1.2189185e-08 1.2229418e-07 2.8157778e-05 9.518831e-06 2.1358527e-07 1.3161092e-06
3.9117228e-07 3.8194258e-07 2.6434822e-08 2.9002567e-07 2.6769449e-05 1.4157919e-05 2.7418523e-07 1.4916892e-06
2.0151761e-05 1.3889112e-05 2.635509e-07 1.3492503e-06 1.39864405e-05 7.5515054e-06 1.986894e-07 1.1298337e-06
1.0271632e-05 6.6814705e-06 1.3980615e-07 7.835758e-07 3.3124472e-06 9.282782e-07 9.039688e-09 5.5156608e-08
6.117747e-06 1.9952631e-06 6.8648234e-08 4.4121373e-07 1.2005336e-05 5.256e-06 1.0845243e-07 7.0465273e-07
1.4826112e-06 1.0794662e-06 3.7159136e-08 3.3094602e-07 1.6839083e-05 1.0354175e-05 1.3644721e-07 9.429407e-07
2.4609199e-06 1.980704e-06 4.1047475e-08 3.5532798e-07 3.7851537e-06 2.1835344e-06 2.6225758e-08 1.675911e-07
3.6938533e-07 9.5580425e-08 9.235054e-10 8.417706e-09 1.4365762e-07 1.3326812e-07 8.6491464e-10 2.1388862e-08
00000000: 81e3 2037 a466 a436 3884 0134 e33a 3235
00000010: 1392 6f34 cf37 4034 c2f3 cf30 2545 8232
00000020: 5d32 1e36 2af3 ab35 1f03 3c32 9894 c933
00000030: 7997 0a37 c16f 1436 2871 0a33 ad80 6b34
00000040: d990 7a36 60b8 e535 a618 5433 aec3 9834
00000050: 8836 4836 474e 5435 10f9 5c32 089c a933
00000060: 5392 6c35 0b4b ae34 473f 8e32 1351 1134
00000070: e167 0638 e60e 5437 6587 9634 7e96 f235
00000080: aab9 ae34 9b7d 5134 6759 b631 de97 4a33
00000090: 6611 2936 7fb0 e535 ea41 9332 07a1 4034
000000a0: bb1c 7d36 1957 b735 6290 0f33 d5c6 4134
000000b0: c221 df35 1e17 c934 b41a c531 6448 2633
000000c0: f566 c436 7bda 8336 a2c6 bc33 abbc f634
000000d0: c940 8a37 49b1 3b37 9fad 7434 a800 9935
000000e0: 7415 1136 701b fa35 5f2f 3532 30cd f833
000000f0: 6102 c534 a674 1234 528d de30 141b 7832
00000100: 6154 c736 7e5e 2e36 407d c232 2a20 5c34
00000110: d1d0 a633 9a2a 1833 f368 902f c487 0131
00000120: ad45 d236 d4f4 5e36 0b5d 8e33 e397 d534
00000130: 380f 4637 807c 9736 6403 b233 f7ac 0935
00000140: 17a6 1537 5ed3 8a36 aa29 2b33 3c99 be34
00000150: f1a6 b934 736c 8f34 9e43 1932 cd28 8433
00000160: fd97 a834 fbba ad34 bb41 b730 f7d8 7d32
00000170: e9f7 2138 fc6d 9337 a9a3 b834 ef39 fb35
00000180: 5a2f 8534 50a3 3334 f69d 0332 bf2c b033
00000190: 31db 6f34 7fba 2634 ac3b 3531 a1d4 6c33
000001a0: 9cde af37 795d 2737 d32c 4334 6df4 7d35
000001b0: cb58 6336 553b 1b36 92a3 3033 2454 8834
000001c0: 1990 4237 2ed6 b536 d52c f933 4664 4c35
000001d0: 0eb5 6f33 25fa 0932 9d47 ee2e 1b63 6230
000001e0: 5374 2a37 4a91 9536 8692 be33 6455 0735
000001f0: 6cce 5d38 d52b c437 ea16 f834 5b2f 3f36
00000200: d4b6 a933 20a5 9133 5da0 2e30 46e1 2c32
00000210: 33a9 5c35 1d44 9a34 6b83 f031 48c8 be33
00000220: 9810 0437 1015 7336 6904 9f33 e37f fd34
00000230: da11 1037 1b8b 4d36 63ff 4e33 f163 cb34
00000240: 53c4 9c36 a5cb 4b36 34ee aa33 e171 1435
00000250: 21af cd34 9092 8833 48dd 6730 a17f c431
00000260: 38e7 9a35 54eb 8e35 667f a431 7302 8033
00000270: 3ce6 bd37 71d2 5937 0cae a634 324b ee35
00000280: c259 ee36 c049 3736 7f74 5d33 1d9f b534
00000290: 7449 2a34 e386 5833 e8ea 0630 a301 a831
000002a0: aee2 9733 133c a232 b262 4c2f 6ec6 c930
000002b0: e4f5 a238 446b 1538 e560 3135 e45b 8436
000002c0: 2fb6 1c36 c395 ae35 38b3 2a33 7569 9834
000002d0: 0772 5d37 a5cf 8336 923c 1b34 082f 4235
000002e0: f52b 3e37 ec82 b036 105d 1b34 d64e 5735
000002f0: 5907 5f37 843e 1337 3e50 1434 ac1c 5435
00000300: 578e 1c35 4f04 9d34 9a68 5132 f84f 0334
00000310: 5e34 ec37 11b3 1f37 df55 6534 2ba5 b035
00000320: 4f02 d234 ca0d cd34 ca12 e332 d3b4 9b34
00000330: f48e e037 cd87 6d37 bb33 9334 0d36 c835
00000340: 940b a937 4805 6937 297e 8d34 e317 b535
00000350: 4ea7 6a37 f062 fd36 5457 5534 caa4 9735
00000360: 5354 2c37 6531 e036 9f1d 1634 eb56 5235
00000370: 694b 5e36 cb2e 7935 f84c 1b32 55e5 6c33
00000380: 0c47 cd36 5ce6 0536 c46b 9333 f4df ec34
00000390: 876a 4937 b25c b036 5be6 e833 5e27 3d35
000003a0: 22fe c635 2de2 9035 e798 1f33 e0ac b134
000003b0: a841 8d37 d8b6 2d37 5382 1234 641e 7d35
000003c0: 4826 2536 3cec 0436 2d4c 3033 e8c3 be34
000003d0: 7204 7e36 d688 1236 0d47 e132 17f3 3334
000003e0: ef4f c634 e541 cd33 ead9 7d30 769d 1032
000003f0: 4e40 1a34 7618 0f34 f5be 6d30 9bba b732

exp_avg f4 [64]
0.0003271185 2.361566e-06 -1.0031195e-05 0.00037048745 -0.0010652544 -3.9429136e-07 0.0002886714 -0.0030245665
7.5592965e-05 -0.00031065376 -0.0008988702 0.00021113397 -0.0011179191 0.0008472847 -0.00016562441 5.4275937e-05
-0.0014873889 -7.66526e-06 -0.0011027929 0.0005098549 -0.0018510919 -7.776437e-05 3.5703448e-05 0.0028135972
-0.0001670105 0.00040287903 0.0019248942 0.0011871373 0.0018279961 2.0280982e-05 -0.0010593799 0.0033946135
0.00011900611 0.00013135838 0.0013634734 0.0004234551 -0.0013931756 8.695382e-05 3.43747e-05 -0.0024765222
-0.00040836094 -6.687319e-05 -1.7198282e-06 -0.0045164977 -0.0006901137 0.0014843962 0.0017805835 0.0002353626
0.00064927206 -0.0029031385 -4.925578e-05 0.0028123877 0.0020580492 -0.0008176894 -0.0010316141 -6.209587e-05
0.0008677912 -0.0018443342 -0.00034027582 -0.0016890467 0.0011612726 1.1557223e-05 1.080754e-06 -8.045152e-05
00000000: 1a81 ab39 657b 1e36 a84b 28b7 fc3d c239
00000010: 02a0 8bba feae d3b4 d258 9739 ce37 46bb
00000020: aa87 9e38 3edf a2b9 28a2 6bba d863 5d39
00000030: 2487 92ba 501c 5e3a 77ab 2db9 58a6 6338
00000040: 7df4 c2ba 0a9a 00b7 978b 90ba c8a7 053a
00000050: 56a0 f2ba 6e15 a3b8 49c0 1538 5464 383b
00000060: 8a1f 2fb9 8239 d339 bb4c fc3a b899 9b3a
00000070: 5f99 ef3a 1421 aa37 e4da 8aba 2a78 5e3b
00000080: eb92 f938 3fbd 0939 93b6 b23a 2e03 de39
00000090: 379b b6ba fa5a b638 8e2d 1038 264d 22bb
000000a0: 4719 d6b9 453e 8cb8 d9d4 e6b5 21ff 93bb
000000b0: bfe8 34ba 1290 c23a 7862 e93a abcb 7639
000000c0: e933 2a3a 9542 3ebb fe97 4eb8 0950 383b
000000d0: 56e0 063b 355a 56ba 3a37 87ba 7739 82b8
000000e0: 7b7c 633a 96bd f1ba 0c67 b2b9 0163 ddba
000000f0: d835 983a e5e5 4137 6d0e 9135 15b8 a8b8

exp_avg_sq f4 [64]
1.0001764e-05 1.2346904e-07 1.3223137e-06 3.4121194e-06 3.2575524e-06 1.2871321e-06 7.904393e-07 2.6067046e-05
3.3812503e-07 1.7328158e-06 2.6594062e-06 5.8439406e-07 6.6530242e-06 1.7859973e-05 1.3746959e-06 1.5994254e-07
3.003913e-06 2.3854922e-08 6.3331654e-06 7.548914e-06 4.7399135e-06 4.505578e-07 1.8023e-07 3.0175179e-05
2.796721e-07 3.129519e-07 1.6153142e-05 3.8112842e-06 9.632724e-06 1.2420641e-08 7.965304e-06 4.0221366e-05
6.0571665e-08 6.848182e-07 6.7930437e-06 5.5385285e-06 5.3437234e-06 9.856381e-08 6.2405473e-07 2.3770015e-05
5.059838e-06 4.947154e-08 2.2375517e-08 6.403437e-05 2.2349896e-06 9.891762e-06 9.878597e-06 1.2736251e-05
5.607925e-07 2.1506885e-05 6.7381814e-07 2.2398788e-05 2.2306363e-05 1.5743619e-05 1.1042689e-05 8.92518e-07
4.692322e-06 1.0329757e-05 1.7350554e-06 1.4482331e-05 3.150636e-06 2.6002494e-06 1.1061027e-07 9.8317145e-08
00000000: 40cd 2737 e992 0434 5a7a b135 c4fb 6436
00000010: 539c 5a36 86c1 ac35 932e 5435 8eaa da37
00000020: 8d87 b534 1993 e835 4078 3236 41df 1c35
00000030: 0b3d df36 00d2 9537 3182 b835 acbc 2b34
00000040: d596 4936 87e9 cc32 7a81 d436 ad4c fd36
00000050: 8c0b 9f36 31e4 f134 3f85 4134 b420 fd37
00000060: d725 9634 c803 a834 9c80 8737 5dc5 7f36
00000070: 3c9c 2137 8f62 5532 b8a2 0537 5db3 2838
00000080: a013 8233 59d4 3735 cdef e336 99d7 b936
00000090: 3c4e b336 07aa d333 b784 2735 b865 c737
000000a0: adc7 a936 897a 5433 4834 c032 314a 8638
000000b0: d4fc 1536 cbf4 2537 40bc 2537 c8ad 5537
000000c0: 5e89 1635 af69 b437 6ee0 3435 08e5 bb37
000000d0: 8d1e bb37 2a11 8437 fd43 3937 5f95 6f35
000000e0: bd72 9d36 f84d 2d37 0de0 e835 23f9 7237
000000f0: 846f 5336 f27f 2e36 a488 ed33 6c22 d333

exp_avg f4 [64, 64]
1.8407634e-05 2.319808e-06 7.8616495e-06 5.169125e-05 -0.00026371432 7.5450254e-07 0.00015913251 -9.4407784e-05
0.00022717282 -8.622179e-06 1.9978554e-05 -3.6258032e-05 -0.00011052455 -1.28012425e-05 3.9755036e-05 9.806504e-05
-0.00017990102 8.682864e-06 -0.0002488726 5.183354e-05 -0.0002643938 -0.00014665039 7.829128e-06 -2.4676052e-05
-7.8434394e-05 -0.0002063692 -9.215548e-05 -5.964192e-05 -6.259719e-05 -9.020786e-06 -0.00027028896 -0.00019990817
4.9011633e-05 2.2457876e-05 -5.5255805e-05 3.4465165e-06 -0.0002503259 1.07731685e-05 7.3277115e-06 -0.0001545668
0.00015985059 5.4169386e-06 2.8960767e-07 -7.9394646e-05 -0.000121697696 0.0001109462 -8.265989e-05 2.4176334e-06
-0.0003614616 1.5648056e-05 -0.000395394 -0.00013811696 -1.2295481e-05 8.872976e-05 -7.03563e-05 1.192419e-05
0.00014114211 -9.097238e-05 -6.462117e-05 -0.00037254055 -4.6313584e-05 6.0037196e-06 -1.1220092e-07 1.1220203e-05
5.4127147e-09 0.0 -3.9873958e-13 -5.5156386e-07 -2.3576015e-07 -3.6227734e-22 -2.8566689e-08 -1.4678659e-07
-6.0594496e-10 0.0 -4.8646783e-08 -8.4185814e-08 1.2790368e-20 -1.5784703e-07 -1.2946236e-07 3.6818053e-15
-1.5064833e-07 -2.0642176e-08 -5.6332038e-08 1.4889172e-22 -1.4137986e-07 -7.873561e-08 0.0 -8.3881247e-07
-1.9713187e-07 -1.0979867e-06 -7.830067e-07 -1.5872097e-07 -1.1525234e-06 2.4737936e-14 -3.4133177e-07 -9.5236646e-07
2.2838123e-21 -2.7044317e-16 -7.7633655e-07 -6.4982295e-08 -2.6462175e-07 0.0 0.0 -1.6380942e-16
-1.7452629e-07 0.0 0.0 -2.7046168e-22 -9.602674e-08 -7.688166e-07 -1.5848761e-06 -1.4108542e-07
-1.0364062e-06 -2.5759221e-09 -9.560014e-07 -7.1055644e-07 -3.4536492e-07 8.152987e-20 2.674111e-21 -2.6676359e-08
-1.7514469e-07 -3.173597e-07 -2.1241218e-12 -3.833195e-07 -3.422139e-08 0.0 0.0 6.348177e-21
-2.1478536e-05 2.8828363e-06 9.737669e-06 -1.0347283e-05 -0.0003484883 9.508736e-07 0.00013951522 -0.00021185349
0.0002512038 -1.0817158e-05 -5.05554e-05 -8.696637e-05 -0.00014725927 -4.9450875e-05 4.601855e-05 0.000109461995
-0.00024790264 9.718887e-07 -0.00034268165 4.9403603e-05 -0.00036799672 -0.00019164385 9.840508e-06 -0.00015095407
-0.00016020582 -0.0004359037 -0.00020118945 -8.80933e-05 -0.00024428678 -1.1200147e-05 -0.0003918592 -0.00034292074
4.3753556e-05 -3.7839711e-06 -0.00018291305 -8.896035e-06 -0.00034161162 1.2353534e-05 9.213834e-06 -0.00020524906
0.0001238722 5.712099e-06 3.560349e-07 -0.0001042984 -0.00015398985 -2.9113378e-05 -0.00036733612 2.072583e-06
-0.0005544325 -2.4243675e-06 -0.00059139164 -0.00024189812 -3.973962e-05 7.072551e-05 -9.1416434e-05 4.521097e-06
9.075417e-05 -0.00023790328 -8.711033e-05 -0.0005171743 -8.2016595e-05 7.4000245e-06 -1.7192288e-07 8.217929e-06
8.216924e-06 1.9407603e-06 6.6727043e-06 2.4867904e-05 -0.00023261795 6.345426e-07 0.00013228404 -8.237373e-05
0.00018600037 -7.3438205e-06 2.0191528e-05 -3.5756853e-05 -9.124428e-05 -1.371998e-05 2.633386e-05 8.275783e-05
-0.00016687825 7.698126e-06 -0.00020817434 3.5962865e-05 -0.00023822936 -0.00013081405 6.631177e-06 -4.0105555e-05
-6.669125e-05 -0.00019985162 -9.835196e-05 -5.3345546e-05 -8.3847066e-05 -7.3802626e-06 -0.00023364711 -0.0001916833
3.3358792e-05 1.2380064e-05 -6.701223e-05 4.3664514e-07 -0.00021210226 9.338418e-06 6.2092745e-06 -0.00012776045
0.0001238535 4.778664e-06 2.403012e-07 -6.485554e-05 -0.000110661116 7.667653e-05 -0.00011103052 -3.0128222e-06
-0.00033674215 1.25676115e-05 -0.00036128634 -0.00013588651 -1.5854483e-05 6.895758e-05 -5.944801e-05 1.0207359e-05
0.000118144046 -8.4565254e-05 -5.361937e-05 -0.00033262922 -3.8736718e-05 5.1113316e-06 -1.16259834e-07 7.3103706e-06
00000000: 186a 9a37 ffad 1b36 87e5 0337 0fcf 5838
00000010: 2343 8ab9 0589 4a35 cfdc 2639 cbfc c5b8
00000020: 3d35 6e39 faa7 10b7 9e97 a737 c413 18b8
00000030: 6ac9 e7b8 ebc4 56b7 a5be 2638 44a8 cd38
00000040: d0a3 3cb9 9eac 1137 1d7b 82b9 d767 5938
00000050: 569e 8ab9 2ac6 19b9 d959 0337 6bff ceb7
00000060: 257d a4b8 cf64 58b9 9943 c1b8 0628 7ab8
00000070: 9c46 83b8 fb57 17b7 92b5 8db9 719e 51b9
00000080: d791 4d38 ec63 bc37 78c2 67b8 b44a 6736
00000090: 2c3e 83b9 68be 3437 90e0 f536 3613 22b9
000000a0: 919d 2739 26c3 b536 607b 9b34 ad80 a6b8
000000b0: f437 ffb8 caab e838 b159 adb8 a03e 2236
000000c0: 8e82 bdb9 f243 8337 e24c cfb9 7dd3 10b9
000000d0: b048 4eb7 6d14 ba38 408c 93b8 020e 4837
000000e0: 8cff 1339 6dc8 beb8 3a85 87b8 8c51 c3b9
000000f0: d540 42b8 8f73 c936 1cf3 f0b3 683e 3c37
00000100: befa b931 0000 0000 6e78 e0aa 2e0f 14b5
00000110: 4225 7db4 b4fb da9b d062 f5b2 649c 1db4
00000120: 968f 26b0 0000 0000 b4ef 50b3 a4c9 b4b3
00000130: 6d9a 711e a97c 29b4 5802 0bb4 a9a6 8427
00000140: e6c1 21b4 a050 b1b2 bbf1 71b3 c1ff 331b
00000150: 33ce 17b4 5c15 a9b3 0000 0000 c12a 61b5
00000160: 32ab 53b4 895e 93b5 d02f 52b5 e36c 2ab4
00000170: 67b0 9ab5 ccd1 de28 4840 b7b4 20a6 7fb5
00000180: 5b8f 2c1d 5ee6 9ba5 7165 50b5 658c 8bb3
00000190: 5611 8eb4 0000 0000 0000 0000 02dc 3ca5
000001a0: 6c65 3bb4 0000 0000 0000 0000 eb7b a39b
000001b0: 4237 ceb3 ad60 4eb5 eeb7 d4b5 447d 17b4
000001c0: a51a 8bb5 1a04 31b1 f54f 80b5 11bd 3eb5
000001d0: 986a b9b4 c881 c01f d40c 4a1d ef25 e5b2
000001e0: 680f 3cb4 9661 aab4 c778 15ac 08cb cdb4
000001f0: d1fa 12b3 0000 0000 0000 0000 cdd3 ef1d
00000200: ce2c b4b7 c076 4136 f85e 2337 3e99 2db7
00000210: 4fb5 b6b9 893f 7f35 d54a 1239 fd24 5eb9
00000220: 01b4 8339 577b 35b7 730b 54b8 b761 b6b8
00000230: 9c69 1ab9 7969 4fb8 0b04 4138 f68e e538
00000240: eef8 81b9 d771 8235 f4a9 b3b9 b736 4f38
00000250: afef c0b9 01f4 48b9 a918 2537 6d49 1eb9
00000260: ecfc 27b9 018a e4b9 62f6 52b9 bbbe b8b8
00000270: 9e13 80b9 44e8 3bb7 7472 cdb9 0bca b3b9
00000280: 0684 3738 21f0 7db6 59cc 3fb9 2e40 15b7
00000290: 561a b3b9 0642 4f37 1e95 1a37 2038 57b9
000002a0: b1e3 0139 8faa bf36 1025 bf34 c7ba dab8
000002b0: 5678 21b9 8138 f4b7 0597 c0b9 b416 0b36
000002c0: 5657 11ba 51b2 22b6 9f07 1bba 08a6 7db9
000002d0: 18ae 26b8 7852 9438 d3b6 bfb8 edb3 9736
000002e0: 4653 be38 ad75 79b9 01af b6b8 fb92 07ba
000002f0: 5300 acb8 ba4d f836 cd99 38b4 bcdf 0937
00000300: 6bdb 0937 023e 0236 18e6 df36 6b9b d037
00000310: e8ea 73b9 6f55 2a35 bab5 0a39 0fc0 acb8
00000320: 1809 4339 f06a f6b6 fa60 a937 a1f9 15b8
00000330: 665a bfb8 de2e 66b7 89e7 dc37 468e ad38
00000340: 0afc 2eb9 3327 0137 6049 5ab9 d5d6 1638
00000350: 35cd 79b9 212b 09b9 6081 de36 0337 28b8
00000360: 98dc 8bb8 438f 51b9 4e42 ceb8 58bf 5fb8
00000370: 0dd7 afb8 f9a3 f7b6 2bff 74b9 98fe 48b9
00000380: bbea 0b38 f8b3 4f37 eb88 8cb8 0d6c ea34
00000390: c467 5eb9 33ac 1c37 4359 d036 6ff7 05b9
000003a0: acde 0139 6958 a036 bf02 8134 0e03 88b8
000003b0: bc12 e8b8 66cd a038 0ed9 e8b8 e42f 4ab6
000003c0: c48c b0b9 7bd9 5237 086b bdb9 c27c 0eb9
000003d0: 3eff 84b7 529d 9038 d157 79b8 4640 2b37
000003e0: 1ac4 f738 a058 b1b8 5ce5 60b8 bd64 aeb9
000003f0: 3c79 22b8 0182 ab36 85aa f9b3 9b4b f536

exp_avg_sq f4 [64, 64]
2.8475927e-07 1.4109926e-07 2.1513516e-07 1.0364082e-07 3.8196663e-07 3.213318e-08 2.1349193e-07 5.7483123e-07
1.1041736e-07 4.239418e-08 3.8244667e-07 1.2471547e-07 2.6696006e-07 4.1149048e-07 2.3408754e-08 4.3403794e-08
9.3189556e-08 1.2200305e-08 6.9443377e-07 8.206799e-08 2.0020339e-07 1.3359744e-07 5.808014e-08 2.806054e-07
4.244252e-07 8.0872456e-07 1.11067216e-07 8.049637e-07 3.6558873e-07 9.672196e-10 4.545547e-07 3.1447507e-07
2.154464e-08 1.0582115e-07 3.0453242e-07 2.099768e-08 1.0112467e-06 6.5189196e-09 4.4893653e-08 3.0160527e-07
1.0581904e-07 1.0367231e-08 1.4790716e-08 3.02656e-08 6.3539585e-07 5.3457325e-07 1.1506651e-06 2.660466e-07
4.3707172e-07 1.2246551e-07 5.593654e-07 8.379404e-08 1.9922358e-07 3.4573978e-07 4.7353217e-07 1.0310941e-08
3.2075735e-07 7.772456e-07 5.0212475e-07 3.5136173e-07 5.0329214e-07 2.776764e-07 1.6480847e-08 1.8189689e-09
1.7323517e-08 0.0 4.677113e-19 2.506322e-10 7.5472995e-10 6.604103e-13 1.8050512e-08 9.42365e-10
9.634887e-11 0.0 1.6353225e-08 4.3726407e-12 1.5491038e-10 1.4404853e-08 7.527581e-13 1.542723e-11
1.8322292e-12 2.4810163e-12 1.9686102e-09 7.832076e-13 2.3164634e-12 1.828757e-11 0.0 3.8225014e-08
2.3036936e-08 3.265049e-08 1.629719e-08 8.535101e-09 3.442127e-08 1.8758887e-15 1.128285e-08 1.8883654e-08
5.30522e-11 1.8002835e-09 1.532903e-08 4.8806253e-10 1.1698752e-08 0.0 0.0 4.8609067e-10
2.1650282e-08 0.0 0.0 2.5430482e-13 1.0669088e-10 8.608136e-08 1.1130512e-07 6.0060185e-10
1.5028008e-09 6.4043076e-12 2.577951e-09 2.495553e-09 4.68586e-09 7.509432e-09 1.1339504e-11 1.9782637e-12
3.695988e-08 7.842532e-10 2.0995816e-09 9.161275e-12 5.2690976e-09 0.0 0.0 9.1132143e-11
4.7917155e-07 2.430411e-07 3.7197967e-07 1.2367786e-07 6.649232e-07 5.485713e-08 3.291546e-07 7.706733e-07
1.390825e-07 7.259461e-08 6.095137e-07 1.539056e-07 4.738506e-07 6.961336e-07 3.788026e-08 4.362301e-08
1.456882e-07 1.0686725e-08 1.2353833e-06 1.3825984e-07 3.0762592e-07 2.3064723e-07 9.9595326e-08 3.7424508e-07
7.290577e-07 1.1281221e-06 1.647943e-07 1.3924873e-06 4.5028506e-07 1.4055213e-09 7.932176e-07 4.843013e-07
3.5852562e-08 1.8245909e-07 3.8285864e-07 3.8441538e-08 1.7748578e-06 9.0824335e-09 7.744957e-08 5.3885395e-07
1.5140478e-07 1.3282817e-08 2.5899311e-08 4.8978055e-08 1.103871e-06 6.8314034e-07 1.4335411e-06 4.5881652e-07
6.5922535e-07 1.5696142e-07 8.6366305e-07 1.2576594e-07 3.3890294e-07 5.892946e-07 8.229799e-07 9.086793e-09
4.816459e-07 1.0269383e-06 8.784332e-07 5.6246677e-07 8.6924774e-07 4.792354e-07 2.7609234e-08 2.0513524e-09
1.829311e-07 9.079077e-08 1.392669e-07 6.370648e-08 2.2747025e-07 2.1351994e-08 1.3055961e-07 3.3001317e-07
6.855088e-08 2.7149099e-08 2.2651814e-07 7.840724e-08 1.5848734e-07 2.577916e-07 1.486035e-08 2.6176547e-08
6.093915e-08 7.3047044e-09 4.1337282e-07 5.5841763e-08 1.2787174e-07 7.8062335e-08 3.6783025e-08 1.4682914e-07
2.629153e-07 4.7273497e-07 5.7918882e-08 5.1251646e-07 1.9921767e-07 6.3426236e-10 2.759503e-07 1.7913293e-07
1.5279312e-08 7.113572e-08 1.7699479e-07 1.4725878e-08 6.3078124e-07 4.232363e-09 2.8355398e-08 1.7645993e-07
6.327106e-08 6.474904e-09 9.538279e-09 1.6555063e-08 3.9149322e-07 2.902173e-07 6.3758415e-07 1.7007893e-07
2.6848625e-07 7.35935e-08 3.4105415e-07 4.787571e-08 1.2248456e-07 2.156514e-07 2.943645e-07 6.2103336e-09
1.912062e-07 4.6009208e-07 3.176591e-07 2.0910429e-07 3.2439377e-07 1.8137183e-07 1.0886651e-08 1.137627e-09
00000000: 04e1 9834 1281 1734 e7ff 6634 2591 de33
00000010: 1811 cd34 ce02 0a33 373c 6534 1a4e 1a35
00000020: 961e ed33 e514 3633 1253 cd34 87e9 0534
00000030: b652 8f34 d2ea dc34 6514 c932 fa6a 3a33
00000040: 801f c833 8299 5132 2069 3a35 5b3d b033
00000050: 7df7 5634 fc72 0f34 ca73 7933 1da6 9634
00000060: 8edc e334 2117 5935 d983 ee33 af14 5835
00000070: 2246 c434 04ef 8430 8609 f434 20d5 a834
00000080: 2a11 b932 cb3f e333 9e7e a334 635e b432
00000090: 2cba 8735 06fd df31 18d1 4033 50ec a134
000000a0: a23e e333 901b 3232 421a 7e32 61fd 0133
000000b0: 1290 2a35 987f 0f35 8d70 9a35 2bd5 8e34
000000c0: aea6 ea34 107f 0334 4c27 1635 43f2 b333
000000d0: 29ea 5534 1d9e b934 c439 fe34 0024 3132
000000e0: 8e34 ac34 e9a3 5035 c0c9 0635 caa2 bc34
000000f0: f919 0735 8e13 9534 c491 8d32 47ff f930
00000100: d1ce 9432 0000 0000 440b 0a21 59c9 892f
00000110: 6675 4f30 94e3 392b 7f0d 9b32 8584 8130
00000120: 98df d32e 0000 0000 1f79 8c32 3fd9 992c
00000130: 6553 2a2f 3779 7732 f0e1 532b 09b3 872d
00000140: 82ee 002c 0496 2e2c 2848 0731 0e74 5c2b
00000150: b201 232c f2db a02d 0000 0000 d92c 2433
00000160: c2e2 c532 983b 0c33 e6fd 8b32 c5a1 1232
00000170: 96d6 1333 0a2c 0727 80d6 4132 9835 a232
00000180: 7853 692e d86d f730 e5ac 8332 5928 0630
00000190: a8fb 4832 0000 0000 0000 0000 979d 0530
000001a0: 79f9 b932 0000 0000 0000 0000 3029 8f2a
000001b0: a09d ea2e badb b833 a306 ef33 9917 2530
000001c0: 1a8b ce30 e054 e12c cb27 3131 3c7e 2b31
000001d0: 4301 a131 d502 0132 967c 472d 3b35 0b2c
000001e0: d1bd 1e33 ea92 5730 3b48 1031 b72a 212d
000001f0: 790b b531 0000 0000 0000 0000 d666 c82e
00000200: 6ba0 0035 507b 8234 7fb4 c734 50cc 0434
00000210: 2d7d 3235 0d9c 6b33 aab6 b034 44e0 4e35
00000220: b556 1534 4fe5 9b33 769d 2335 4041 2534
00000230: 8865 fe34 f0dd 3a35 c9b1 2233 025c 3b33
00000240: 786e 1c34 b798 3732 72cf a535 9374 1434
00000250: c927 a534 d4a7 7734 1ce1 d533 daeb c834
00000260: 77b4 4335 fb69 9735 50f2 3034 80e5 ba35
00000270: b5be f134 622c c130 80ed 5435 ef00 0235
00000280: 4ffc 1933 f9e9 4334 b18b cd34 eb1a 2533
00000290: a637 ee35 f708 1c32 5a52 a633 c3a5 1035
000002a0: d491 2234 7232 6432 3079 de32 f15b 5233
000002b0: b828 9435 0c61 3735 1968 c035 4353 f634
000002c0: 9ff5 3035 3a89 2834 79d6 6735 470a 0734
000002d0: 77f2 b534 0430 1e35 c0ea 5c35 231c 1c32
000002e0: 744a 0135 55d5 8935 78cd 6b35 6cfc 1635
000002f0: 4056 6935 cea4 0035 5929 ed32 c6f7 0c31
00000300: b86b 4434 c1f8 c233 6589 1534 02cf 8833
00000310: 8c3e 7434 8869 b732 f42f 0c34 aa2c b134
00000320: 3f36 9333 8035 e932 d538 7334 d660 a833
00000330: ab2c 2a34 9c66 8a34 834c 7f32 d6da e032
00000340: a7dd 8233 dcfc fa31 87ed dd34 abd6 6f33
00000350: 1e4d 0934 39a3 a733 5dfb 1d33 16a8 1d34
00000360: ce26 8d34 33cc fd34 7cc2 7833 dd93 0935
00000370: 89e8 5534 3f58 2e30 5226 9434 af57 4034
00000380: 903f 8332 47c3 9833 f50b 3e34 19fd 7c32
00000390: f552 2935 426c 9131 2e92 f332 f078 3d34
000003a0: a2df 8733 dc79 de31 cbdd 2332 f834 8e32
000003b0: 6b2e d234 29cf 9b34 7326 2b35 f19e 3634
000003c0: 7824 9034 740a 9e33 201a b734 e69f 4d33
000003d0: 4d84 0334 ce8d 6734 2609 9e34 ac62 d531
000003e0: 5c4e 4d34 9302 f734 bc8a aa34 2686 6034
000003f0: 5728 ae34 1cbf 4234 ff07 3b32 b15a 9c30
