P3/Q2/cartpole/checkpoints/pg_CartPole-v1_lastFF.pth (torch, 82051 bytes, 18 tensors)

net.0.weight f4 [64, 4]
0	0xbee88ec4	-0.45421422
1	0x3d3e808b	0.046509307
2	0xbea519cd	-0.32246247
3	0xbdf74a83	-0.12074759
4	0xbeb52ca2	-0.35385615
5	0xbecc724d	-0.39930955
6	0x3e4ac594	0.19801933
7	0x3ed42329	0.41433075
8	0xbe98ca03	-0.29841623
9	0x3d0d186b	0.034447115
10	0x3f044cf2	0.5167991
11	0x3ea7356b	0.32657942
12	0xbef5c966	-0.48005217
13	0xbea9c6ca	-0.33159477
14	0xbd096473	-0.03354306
15	0x3ec8b6c7	0.39201948
16	0x3e324760	0.1741004
17	0xbe87b8c6	-0.26508158
18	0xbe709334	-0.23493654
19	0xbe94ccc3	-0.2906247
20	0xbce2c527	-0.0276819
21	0xbe6d5ef0	-0.23180747
22	0x3e7d567c	0.24740022
23	0x3eec1dd9	0.46116522
24	0x3d5d4a1f	0.054025766
25	0xbcf85adf	-0.030316768
26	0xbefb563d	-0.49089232
27	0x3e19793e	0.14987656
28	0xbeb502cb	-0.35353693
29	0xbef9e43d	-0.48806944
30	0x3ebcb034	0.36853182
31	0xbe9f7243	-0.31141862
32	0x3e90b895	0.28265825
33	0x3e366ccc	0.1781494
34	0xbecd315b	-0.40076718
35	0xbe1495f4	-0.14510328
36	0x3d629c1a	0.05532465
37	0x3d92e130	0.07171857
38	0x3eefe796	0.46856374
39	0x3ef80df1	0.48448136
40	0xbec92d5f	-0.39292428
41	0x3e87f077	0.26550648
42	0xbebe0fb7	-0.37121364
43	0xbed7e30a	-0.42165405
44	0xbe83a886	-0.2571451
45	0x3e8a47bc	0.27007854
46	0x3ee9feb4	0.45702136
47	0x3ea426b9	0.32060793
48	0xbdb0cd69	-0.08632929
49	0xbe8a30d3	-0.26990375
50	0xbf114ca7	-0.5675759
51	0xbea8b535	-0.3295075
52	0x3ed27b65	0.41109768
53	0xbecb447c	-0.39700687
54	0x3e7ae643	0.245019
55	0xbefbf215	-0.4920813
56	0x3e8a7e47	0.27049467
57	0x3d99b288	0.07504755
58	0xbebabe74	-0.3647343
59	0xbe83fba0	-0.25777912
60	0xbd287c33	-0.04113407
61	0x3da239c2	0.07921173
62	0xbd030bfd	-0.031993855
63	0xbe85e679	-0.261524
64	0x3de221f8	0.11041635
65	0xbd933c18	-0.07189196
66	0xbe454e58	-0.19268167
67	0xbd151911	-0.03640086
68	0xbe47a7e4	-0.19497639
69	0xbe931837	-0.28729412
70	0xbddb6f4f	-0.1071459
71	0x3e45ac14	0.19303924
72	0xbe5810a5	-0.211001
73	0x3dac4491	0.084115155
74	0x3e1785a6	0.14797077
75	0xbe87f1e6	-0.2655174
76	0x3ee25e35	0.442125
77	0x3e46d768	0.19418108
78	0x3e9f1612	0.31071526
79	0x3f126a40	0.57193375
80	0xbeefcba6	-0.4683506
81	0xbdce27c1	-0.10066176
82	0xbeb2de7f	-0.34935376
83	0x3ec9d665	0.39421383
84	0x3eb3be9c	0.3510636
85	0xbda135ae	-0.07871567
86	0xbefc9b2c	-0.49337137
87	0xbe90aa32	-0.2825485
88	0xbd2cdba1	-0.042201642
89	0xbeb8fb82	-0.36129385
90	0xbe8057a8	-0.25066876
91	0x3e81fde3	0.25389013
92	0x3ea2ce22	0.31797892
93	0xbc1b3b2f	-0.00947456
94	0xbe6c5781	-0.23080255
95	0xbd5f3b71	-0.054500047
96	0xbe96a352	-0.2942148
97	0x3dbc5eb4	0.09197751
98	0xbf03ea47	-0.51529354
99	0xbe41faaf	-0.18943284
100	0xbdd3f4d7	-0.10349434
101	0xbe89863b	-0.26860222
102	0xbe8d604b	-0.27612528
103	0xbdcd786e	-0.10032736
104	0x3d3051ee	0.043046884
105	0xbd9f46b2	-0.07777156
106	0xbdad7d0a	-0.08471115
107	0x3df1cdff	0.11806869
108	0x3d6a28b5	0.057167728
109	0x3dc9223d	0.098209836
110	0xbf26a942	-0.65102017
111	0xbde8ac7a	-0.11361022
112	0xbd05ec4e	-0.03269606
113	0xbd9aeadc	-0.07564327
114	0xbe890608	-0.26762414
115	0x3e9aee59	0.3025997
116	0xbeff191c	-0.49823844
117	0x3edb9db8	0.42893767
118	0x3f033cb3	0.51264495
119	0x3e469eae	0.19396469
120	0x3ed5e765	0.41778103
121	0x3d56dcdb	0.052456718
122	0x3e21c114	0.1579631
123	0x3eb877b1	0.36028817
124	0xbebc72be	-0.3680629
125	0x3da1e6a1	0.07905317
126	0x3f07dc16	0.530702
127	0x3ee316af	0.44353244
128	0xbd578dc6	-0.05262544
129	0xbedd2c93	-0.4319807
130	0x3e1da51a	0.15395012
131	0xbe1aea38	-0.1512841
132	0xbe4ec63c	-0.20192808
133	0x3d30c7ec	0.04315941
134	0xbe0c02cc	-0.13672942
135	0xbefb59ee	-0.49092048
136	0xbef18b5b	-0.47176632
137	0xbe65cf8d	-0.22442456
138	0xbe34a94c	-0.17642707
139	0x3e27ad84	0.16374785
140	0xbeaae611	-0.33378652
141	0xbdfa1857	-0.12211674
142	0x3ea0c409	0.31399563
143	0x3f0ec160	0.55763817
144	0xbdf40fa5	-0.119170465
145	0x3d96586f	0.07341086
146	0xbed7c545	-0.42142692
147	0x3e97a0c5	0.29614845
148	0xbcdcc8af	-0.026951162
149	0xbe013bab	-0.12620418
150	0xbe766106	-0.24060449
151	0x3f165d7f	0.58736414
152	0x3d881a8f	0.06645691
153	0x3edab732	0.42717892
154	0x3de181c3	0.11011078
155	0xbe526120	-0.20544863
156	0x3e576764	0.21035534
157	0xbeecca00	-0.46247864
158	0x3eb8d3a9	0.36098984
159	0xbd945e7e	-0.072445855
160	0x3e3155e9	0.17317928
161	0xbd2a9553	-0.041646313
162	0x3e34d8cf	0.17660831
163	0x3eac047d	0.33597174
164	0xbea2f8f6	-0.31830567
165	0x3ed59c9d	0.4172105
166	0x3da54017	0.08068865
167	0x3f051728	0.5198846
168	0x3ecdd7b0	0.4020362
169	0xbe8168c2	-0.25275236
170	0x3ee06f29	0.43834808
171	0x3eeb3c26	0.45944327
172	0x3be415fa	0.0069606276
173	0xbe8924db	-0.2678593
174	0x3e11e585	0.14247711
175	0xbeedfe7b	-0.46483216
176	0x3ecaec14	0.39633238
177	0xbec7a73c	-0.38994777
178	0x3dff3ab4	0.124623686
179	0x3e2de8a2	0.16983274
180	0x3c80c609	0.01571943
181	0xbc0f014f	-0.008728339
182	0xbe87040d	-0.26370278
183	0xbe84d03f	-0.2594013
184	0x3d82312e	0.063570365
185	0xbec40775	-0.3828694
186	0x3dba36d6	0.090924904
187	0xbf0f70b1	-0.5603133
188	0xbe90297e	-0.28156656
189	0xbebe309f	-0.3714647
190	0xbc50af53	-0.012737113
191	0xbec8ad16	-0.39194554
192	0xbecc7786	-0.3993494
193	0x3eeb90c1	0.46008876
194	0x3e43f566	0.19136581
195	0xbe1d85eb	-0.15383117
196	0x3ecda7eb	0.40167174
197	0xbead248b	-0.33816943
198	0x3e89152c	0.26773965
199	0xbf113310	-0.5671854
200	0x3e2ec295	0.17066415
201	0xbe635ca9	-0.22203316
202	0x3e46e86b	0.19424598
203	0x3f1015db	0.5628335
204	0x3d481fa5	0.048858304
205	0xbd042f17	-0.03227147
206	0xbf09caa8	-0.53824854
207	0xbda92078	-0.08258146
208	0x3d856f84	0.065154105
209	0x3ee7f0b5	0.45300832
210	0xbe195ee1	-0.149776
211	0x3f0a7003	0.54077166
212	0x3e457201	0.1928177
213	0xbe129a77	-0.14316736
214	0x3ef37d3f	0.47556493
215	0x3ef072c7	0.46962568
216	0x3dab67b0	0.08369386
217	0x3eacb941	0.33735088
218	0x3e67229e	0.22571799
219	0xbed5aac3	-0.41731843
220	0x3e44f01b	0.19232218
221	0xbe72ca66	-0.23710021
222	0xbc8349ba	-0.016026367
223	0xbe6cec83	-0.23137097
224	0x3eab1b60	0.33419323
225	0xbed79edc	-0.42113388
226	0xbed9eacb	-0.42561945
227	0xbe2addf8	-0.16686237
228	0xbdd4c45f	-0.10389017
229	0xbee48658	-0.44633746
230	0xbd040b87	-0.032237556
231	0x3e8de793	0.2771574
232	0x3cb16e1f	0.021658955
233	0x3e86180e	0.26190227
234	0xbe6f4769	-0.23367085
235	0xbe6e39a8	-0.23264182
236	0xbe4bda28	-0.19907439
237	0xbe421659	-0.18953837
238	0xbeba5f63	-0.364009
239	0x3f00f884	0.50379205
240	0xbd9d089b	-0.07667657
241	0xbebaf435	-0.3651444
242	0xbe560822	-0.2090154
243	0xbf10afe6	-0.565184
244	0x3ef20e95	0.4727675
245	0xbeff447a	-0.4985693
246	0x3ebbe971	0.3670154
247	0xbe334fba	-0.17510882
248	0xbe913dae	-0.2836737
249	0x3ea00d12	0.31259972
250	0x3f079491	0.5296107
251	0x3e06b11d	0.13153501
252	0xbe2ee5b8	-0.17079818
253	0xbe89db29	-0.26925018
254	0x3e17b978	0.14816844
255	0x3eaa3597	0.3324401

net.0.bias f4 [64]
0	0xbef3bae0	-0.47603512
1	0xbecd30da	-0.40076333
2	0xbe9be9fd	-0.30451956
3	0xbe977e27	-0.29588434
4	0x3e3bb919	0.18332328
5	0x3ede258b	0.43388018
6	0xbeb39d3e	-0.35080904
7	0x3d898b95	0.06716076
8	0x3e3dea78	0.18546474
9	0xbe1bc5ab	-0.15212123
10	0xbe4e81ec	-0.20166749
11	0x3df9d39e	0.12198566
12	0x3dc5030d	0.096197225
13	0x3e4a5a6a	0.19761053
14	0xbebdad6f	-0.37046382
15	0x3ed6551b	0.41861805
16	0x3ebc2900	0.3675003
17	0xbed38a74	-0.4131657
18	0x3e41ac5e	0.18913409
19	0x3ca85600	0.02054882
20	0x3e2173b3	0.15766792
21	0x3d403855	0.046928722
22	0xbe10c2e5	-0.14136846
23	0xbef7f42b	-0.48428473
24	0x3ecaa423	0.3957835
25	0xbdbf07db	-0.0932767
26	0x3e8d40f6	0.27588624
27	0x3de2cbaa	0.11074002
28	0xbd220350	-0.03955394
29	0xbe784571	-0.2424524
30	0x3db536f1	0.0884837
31	0xbd844595	-0.06458584
32	0x3de4ac09	0.111656256
33	0x3edd102d	0.43176404
34	0xbea4ffdb	-0.32226452
35	0x3ed8ba07	0.42329428
36	0xbee29f2a	-0.44262058
37	0x3eaba0c0	0.3352108
38	0x3dea0702	0.11427118
39	0x3e3d47cf	0.18484424
40	0x3df9bf86	0.12194733
41	0x3e4ea2dd	0.20179315
42	0x3f0362e0	0.51322746
43	0x3e0f2c20	0.13981676
44	0x3d829bf2	0.063774005
45	0x3e1ef597	0.15523373
46	0x3eecb28b	0.46229967
47	0x3e787a23	0.24265341
48	0x3ee1f5c3	0.44132814
49	0x3db20cd4	0.08693853
50	0x3ecd60e6	0.4011299
51	0x3e0100f4	0.1259802
52	0x3dbd1374	0.09232226
53	0xbe2fc960	-0.17166662
54	0x3ef37fdf	0.47558495
55	0xbe937088	-0.28796792
56	0xbd0d21fe	-0.034456246
57	0x3e9fe1c3	0.3122693
58	0xbdb4f349	-0.088354655
59	0x3e186315	0.14881547
60	0x3eb9690f	0.36212966
61	0xbecc66e4	-0.3992225
62	0x3e95c58f	0.29252288
63	0xbe69b699	-0.22823562

net.2.weight f4 [64, 64]
0	0xbdfaaec0	-0.12240362
1	0xbdc28856	-0.0949866
2	0xbd58aa70	-0.052896917
3	0x3ba576e0	0.0050495714
4	0x3b0196ff	0.0019773839
5	0x3d22338e	0.039599948
6	0xbd2afa40	-0.041742563
7	0x3de39518	0.11112422
8	0xb8a344b8	-7.7852455e-05
9	0xbdde6c6e	-0.10860525
10	0xbd26b5ce	-0.040700726
11	0xbe05934e	-0.13044474
12	0xba4a0e00	-0.00077077746
13	0x3ccf09b6	0.025273185
14	0x3cb0accf	0.021566777
15	0xbd5ba5d5	-0.053624947
16	0xbcc50c5e	-0.024053749
17	0xbd91c21c	-0.071171016
18	0x3d914c8d	0.07094679
19	0x3df46ef9	0.11935229
20	0xbd858cad	-0.065209724
21	0xbdeec87d	-0.11659334
22	0x3b5b2240	0.0033437163
23	0xbd2d0c6a	-0.042248167
24	0xbde7f622	-0.11326243
25	0x3daae268	0.08343965
26	0x3dbb8899	0.09156913
27	0xbbd6a59f	-0.0065505053
28	0xbd6c9342	-0.057757623
29	0x3c61087e	0.013734935
30	0xbde9d620	-0.11417794
31	0xbde052de	-0.10953306
32	0xbd8137a0	-0.06309438
33	0x3cbc9ec2	0.02302492
34	0xbdf788fe	-0.12086676
35	0x3cd1de33	0.025618648
36	0x3d379138	0.044816226
37	0x3df4e7f5	0.11958305
38	0xbcd00f4c	-0.02539792
39	0x3d255a10	0.040369093
40	0xbdd49871	-0.103806384
41	0x3dcf4e86	0.10122399
42	0xbde0efda	-0.10983248
43	0xbc06dbaa	-0.008231083
44	0xbddac9f2	-0.10683049
45	0x3c645fb0	0.013938829
46	0xbda26b58	-0.079306304
47	0xbd255c06	-0.040370964
48	0x3b50618d	0.0031796426
49	0xbdf474ff	-0.11936378
50	0x3c2b3b4d	0.01045115
51	0xbd11dd45	-0.03561141
52	0x3da9e0e1	0.08294845
53	0xbd516e05	-0.051130313
54	0x3d629279	0.05531547
55	0xbd7350ec	-0.059403345
56	0xbd8c75d0	-0.068584085
57	0xbd5804dd	-0.052739013
58	0xbc798b68	-0.015230991
59	0xbe0c1a00	-0.13681793
60	0xbd5047d8	-0.050849766
61	0xbda59726	-0.0808547
62	0xbd942b6f	-0.07234847
63	0xbd29cc80	-0.041454792
64	0x3d8e580f	0.069503896
65	0xbd9a001f	-0.07519554
66	0x3db1616a	0.086611584
67	0xbcb62080	-0.022232294
68	0x3e144f88	0.14483464
69	0xbc826cbb	-0.015920987
70	0x3c5503a3	0.013001355
71	0xbceea923	-0.029133385
72	0x3dcb0e5c	0.09914848
73	0xbdc8996a	-0.097948864
74	0xbc48ebaa	-0.012263218
75	0xbdc7dc51	-0.09758819
76	0x3c96082f	0.01831445
77	0xbbbb5989	-0.0057174605
78	0xbd0fc3b1	-0.035098735
79	0xbd8d8aca	-0.069112375
80	0x3e08dd94	0.13365775
81	0x3ddec9f5	0.10878364
82	0xbcb14daa	-0.021643478
83	0xbe1370ff	-0.14398573
84	0xbd246bb7	-0.040141787
85	0x3e39106b	0.18072669
86	0x3dfa5f71	0.12225235
87	0x3df225a7	0.11823588
88	0x3e16ac62	0.14714196
89	0x3de81a94	0.113331944
90	0xbd8e33fa	-0.069435075
91	0x3e483f87	0.19555484
92	0x3d6d2e05	0.057905216
93	0x3beccbb1	0.0072264303
94	0xbe1755d2	-0.14778832
95	0xbd274a88	-0.040842563
96	0xbd24ec3f	-0.040264364
97	0x3bc517cc	0.0060147997
98	0x3d6cfd8d	0.057858992
99	0xbd29c219	-0.04144487
100	0xbc8ce661	-0.017199697
101	0x3d97f023	0.07418849
102	0x3da7cd83	0.08193495
103	0x3c6acf09	0.014331588
104	0x3d6108b8	0.054939955
105	0xbe5148a7	-0.20437871
106	0xbb20f7f2	-0.002456185
107	0x3e43c4b4	0.19118005
108	0xbda9d863	-0.082932256
109	0x3da83003	0.082122825
110	0xbd251abe	-0.040308706
111	0xbc0df094	-0.008663315
112	0xbd53e2fe	-0.05173015
113	0x3d27b8f3	0.040947866
114	0x3dc6b189	0.09701831
115	0x3dd6c9d4	0.104877144
116	0xbe44f192	-0.19232777
117	0xbd07cfc7	-0.033157136
118	0x3be62c0b	0.0070242933
119	0xbe172860	-0.14761496
120	0x3d040b57	0.032237377
121	0x3dbd34f6	0.09238617
122	0x3daf6be8	0.08565503
123	0x3b8faf89	0.004384939
124	0x3def2792	0.11677469
125	0xbcd6ea22	-0.02623469
126	0xbd41ac94	-0.047283724
127	0xbd941bb4	-0.072318465
128	0x3c5d18b0	0.0134946555
129	0xbd97bfec	-0.07409653
130	0x3c572a13	0.01313259
131	0xbdd2b5bb	-0.102885686
132	0x3dd5f263	0.10446622
133	0x3d081021	0.033218507
134	0xbdc9bf7a	-0.098509744
135	0x3d49e07c	0.04928635
136	0x3e1024f5	0.14076598
137	0xbda7686d	-0.081742145
138	0x3da19770	0.078902125
139	0xbe5b1f43	-0.21398644
140	0x3e0973de	0.13423106
141	0xbbc7aba6	-0.00609346
142	0xbc8288d1	-0.01593438
143	0x3cfe0937	0.031010253
144	0x3e297eb8	0.16552246
145	0xbdfff76c	-0.12498364
146	0x3c4be8a3	0.012445602
147	0xbbf946e2	-0.007607327
148	0xbc81536b	-0.015786847
149	0x3e56f627	0.20992337
150	0xbb82e9c7	-0.0039951536
151	0x3da1618b	0.07879933
152	0x3e325f22	0.17419103
153	0x3c8a705a	0.016899277
154	0x3da9e06a	0.08294757
155	0xbd2c7357	-0.042102184
156	0x3dabb5a8	0.083842576
157	0xbe1db3cf	-0.15400623
158	0xbd67600b	-0.056488078
159	0xbd3af998	-0.045648187
160	0x3e1b3db4	0.15160257
161	0x3d88c4fd	0.066781975
162	0xbddca3c2	-0.10773422
163	0xbdd3f772	-0.10349931
164	0xbc13ffbf	-0.009033143
165	0xbdec6ec7	-0.115445666
166	0x3e0cd65d	0.13753648
167	0x3daf7e39	0.08568997
168	0xbcfebc49	-0.03109564
169	0xbd71bc7f	-0.059017655
170	0xbe0d45ac	-0.13796109
171	0x3d1234a1	0.035694722
172	0xbb19aee1	-0.0023450183
173	0x3d10d429	0.03535858
174	0x3db1fc3d	0.08690689
175	0x3cffe4b5	0.031236986
176	0xbd5a466e	-0.053289823
177	0xbc314b0a	-0.010821113
178	0x3d07d3f7	0.03316113
179	0xbc1ad85d	-0.009450999
180	0xbdccbacd	-0.09996567
181	0xbd9ffdea	-0.07812102
182	0x3e193e20	0.14965105
183	0x3c9f8175	0.01947091
184	0x3d1cadc9	0.038251672
185	0xbdb2acba	-0.08724351
186	0xbd182223	-0.03714193
187	0x3ce82e78	0.02834247
188	0x3df948c6	0.121720836
189	0x3c3c05cf	0.011475994
190	0x3d9d7868	0.07688981
191	0x3d84a8ca	0.064775065
192	0x3d9a7170	0.07541168
193	0x3ba67580	0.005079925
194	0xbdfd363a	-0.123638585
195	0xbd8325ac	-0.0640367
196	0xbda4dd5a	-0.08050032
197	0x3ceafa88	0.028683916
198	0x3ccaf178	0.024773344
199	0x3c138990	0.009004965
200	0x3cccf6f7	0.025020106
201	0xbe1968a0	-0.14981318
202	0xbd996055	-0.07489077
203	0xbda4558e	-0.08024131
204	0xbd25e3d8	-0.04050049
205	0xbe01c3c3	-0.12672333
206	0xbddff409	-0.10935218
207	0xbdfb068f	-0.1225711
208	0xbdfc13f1	-0.12308491
209	0xbd7ecafc	-0.0622053
210	0xbdaa9f35	-0.083311476
211	0x3b01daa8	0.0019814167
212	0x3d22c333	0.039736938
213	0x3c02e58a	0.007989297
214	0xbd6ea0b8	-0.058258742
215	0x3c557389	0.013028034
216	0x3db82397	0.08991163
217	0x3d0833e0	0.033252597
218	0x3c29b320	0.010357648
219	0x3d690aaf	0.056894954
220	0xbd70369f	-0.05864584
221	0xbda9a2d7	-0.08283012
222	0xbd1ff47a	-0.03905151
223	0x3b1c259a	0.0023826123
224	0x3d9f5280	0.077794075
225	0xbe013157	-0.12616478
226	0x3d4e47dc	0.0503615
227	0x3dcfb76c	0.10142407
228	0x3db785a0	0.08961034
229	0x3d859281	0.06522084
230	0x3c72ec51	0.01482685
231	0xbdce13e5	-0.10062388
232	0x3cd33bdd	0.025785381
233	0x3d462f72	0.04838509
234	0xbd56c494	-0.052433565
235	0xbcb11b08	-0.021619335
236	0xbca3d3e8	-0.019998506
237	0x3cb4cbcc	0.022069834
238	0xbdb8a43c	-0.090157
239	0xbcdb5128	-0.026772097
240	0xbd85a2e4	-0.065252095
241	0x3d6b651c	0.057469472
242	0xbe072eee	-0.13201496
243	0x3da4a3f2	0.080390826
244	0x3d9fab4d	0.07796345
245	0xbd366f79	-0.044539902
246	0x3da354fd	0.079751946
247	0x3ca272a0	0.019830048
248	0xbd85c220	-0.06531167
249	0xbd2b53ce	-0.04182797
250	0x3d270549	0.040776525
251	0xbced63ed	-0.028978312
252	0xbdb1ac1f	-0.086754076
253	0x3d9081ae	0.070559844
254	0xbd85dcb5	-0.06536237
255	0xbd2e2764	-0.042518035

net.2.bias f4 [64]
0	0xbd6ae1fd	-0.057344425
1	0x3dfedb4d	0.12444172
2	0x3d2acceb	0.04169933
3	0xbe07bb83	-0.13255124
4	0xbd02f372	-0.03197045
5	0x3cac80fe	0.021057602
6	0xbd930c6f	-0.07180106
7	0x3d830b65	0.06398658
8	0x3d66c888	0.056343585
9	0x3d2c1104	0.042008415
10	0x3db87ed0	0.090085626
11	0x3d07a089	0.033112083
12	0xbcb8be5c	-0.022551708
13	0xbdb6101c	-0.08889791
14	0x3b8bc257	0.0042651105
15	0x3d70e2a9	0.05880991
16	0x3c7f9a38	0.015600733
17	0x3dde2b3b	0.10848089
18	0x3da369ee	0.07979189
19	0x3d2b304c	0.041794106
20	0xbcd7711a	-0.026299048
21	0x3aecf015	0.0018076921
22	0xbc4f7a40	-0.012663424
23	0x3e23a8b0	0.15982318
24	0x3dcfe8fc	0.1015186
25	0x3cd2697c	0.025685064
26	0x3c487bc0	0.012236536
27	0xbdae4bd6	-0.08510558
28	0xbd6cd11d	-0.057816613
29	0xbdc3a3c2	-0.09552719
30	0x3d108e52	0.035291977
31	0xbc6708ad	-0.01410119
32	0x3d9ed6af	0.077557914
33	0xbdf1e295	-0.11810795
34	0x3c4f4443	0.012650552
35	0x3d89985c	0.06718513
36	0xbdac5ccf	-0.08416139
37	0xbda70a93	-0.08156314
38	0x3e242fa7	0.16033803
39	0x3cc9a567	0.024615003
40	0xbcc15a0e	-0.023602512
41	0xbd10c43f	-0.035343405
42	0x3d774ae8	0.06037417
43	0x3da98e2f	0.082790725
44	0x3e0e8ce7	0.13920937
45	0x3dd0e887	0.10200601
46	0xbdb1d2c8	-0.086827815
47	0x3dd28393	0.10279002
48	0x3db8ea00	0.09029007
49	0x3d1ac0ac	0.037781402
50	0x3cecd2a0	0.028909028
51	0x3dedc008	0.11608893
52	0x3d8df76e	0.06931959
53	0x3da854d0	0.08219302
54	0x3d9e54e6	0.07731037
55	0x3de62b5e	0.112387404
56	0x3d1de7a2	0.03855098
57	0xbd899172	-0.067171946
58	0xbdb08b30	-0.08620298
59	0x3dc23dd4	0.09484449
60	0x3e04f7ff	0.12985228
61	0x3dfea4e4	0.12433794
62	0x3c1bd71e	0.009511737
63	0xbde8e644	-0.11372045

net.4.weight f4 [2, 64]
0	0x3d72b8c4	0.059258237
1	0x3e0ae6a6	0.13564548
2	0x3d7cf599	0.061757658
3	0x3dd65920	0.10466218
4	0xbe0f0b86	-0.1396924
5	0x3d44a8eb	0.048012655
6	0xbd439aee	-0.047755174
7	0xbe2ffb81	-0.17185785
8	0xbe1f9038	-0.15582359
9	0x3e3be742	0.18349937
10	0xbe5aa1fe	-0.21350858
11	0xbc3da2dc	-0.011574473
12	0x3e2590de	0.16168544
13	0xbdbc289a	-0.09187432
14	0x3e3d6bfc	0.18498224
15	0x3e0bc3a8	0.13648856
16	0x3bf277bb	0.007399527
17	0xbe201390	-0.15632463
18	0x3d67e34b	0.056613248
19	0xbe277ee6	-0.16357002
20	0x3dcffc4d	0.101555444
21	0xbe306999	-0.17227782
22	0x3d7f8780	0.062385082
23	0xbe1fad4e	-0.15593454
24	0xbe30762a	-0.17232576
25	0xbc9ca666	-0.019122314
26	0xbdad9c4e	-0.084770784
27	0x3db1aa30	0.08675039
28	0xbe2a9762	-0.1665931
29	0x3e1d2bfe	0.15348813
30	0xbe0dbf13	-0.1384242
31	0x3d1e1689	0.03859571
32	0x3b69b15f	0.00356587
33	0xbd7a7ff5	-0.061157186
34	0x3dec0e56	0.11526172
35	0xbd9ca041	-0.076477535
36	0x3c82b1fe	0.015954014
37	0x3d0e7a27	0.034784462
38	0x3d993453	0.07480683
39	0x3d69bca8	0.057064682
40	0xbe1064ca	-0.14100948
41	0xbe1635b0	-0.14668918
42	0xbe2f8d11	-0.17143656
43	0xbdf2bcb0	-0.118523955
44	0xbde6ab52	-0.112631455
45	0x3e304435	0.17213519
46	0xbcaa0653	-0.020754969
47	0x3ce26874	0.027637698
48	0xbb3133bf	-0.00270389
49	0x3dc0da99	0.09416694
50	0xbd234bcd	-0.03986721
51	0x3e05c234	0.13062364
52	0xbe42f33f	-0.19038104
53	0xbb83c6b2	-0.004021489
54	0xbd118d72	-0.035535283
55	0x3c904360	0.017610252
56	0x3e47c26e	0.19507763
57	0xbe1631ec	-0.14667481
58	0xbbe23a77	-0.006903942
59	0x3dd75dd9	0.10515947
60	0x3e39f795	0.18160851
61	0xbced2510	-0.028948337
62	0xbdf111fc	-0.11771008
63	0xbd0b68a0	-0.034035325
64	0xbd375846	-0.04476192
65	0xbe090662	-0.13381341
66	0xbd9f1104	-0.07766917
67	0x3d893c87	0.06700998
68	0x3ca444af	0.020052282
69	0xbc21b2aa	-0.009869257
70	0x3e0241b5	0.12720378
71	0x3e125437	0.14289938
72	0x3e52e0c6	0.20593557
73	0xbe4a6e71	-0.19768693
74	0x3e52d7e1	0.20590164
75	0x3dbdc6dd	0.09266446
76	0xbcf29403	-0.029611593
77	0xbd3d82fe	-0.046267502
78	0xbdf545f5	-0.11976234
79	0xbe19c2dd	-0.1501574
80	0xbd9584c2	-0.07300712
81	0x3e24593e	0.16049668
82	0xbdc58080	-0.0964365
83	0x3e2de1fc	0.16980737
84	0xbdf5e9f4	-0.12007514
85	0x3e1fc74e	0.15603372
86	0xbbe6d480	-0.007044375
87	0x3c4974ab	0.012295882
88	0x3ca01c01	0.019544603
89	0x3e061785	0.1309491
90	0x3de39069	0.111115284
91	0x3de867fa	0.11347957
92	0x3e1f42bb	0.155528
93	0x3c1ffcc9	0.0097648585
94	0x3dd8c8fe	0.10585211
95	0x3df56b2a	0.119833305
96	0x3ddf6983	0.10908797
97	0x3aa88084	0.0012855683
98	0xbe072185	-0.1319638
99	0x3d26cf28	0.040724903
100	0xbe10a01f	-0.14123581
101	0x3d7855f4	0.060628846
102	0xbe21336f	-0.15742277
103	0x3d39bcac	0.045345947
104	0x3e188f1b	0.1489834
105	0x3dda0faf	0.10647523
106	0x3c124522	0.008927615
107	0xbde0eea2	-0.109830156
108	0x3e26baf0	0.16282248
109	0xbc982abe	-0.018575069
110	0xbd78ccc2	-0.060742147
111	0xbddbbae3	-0.10729005
112	0x3e29e073	0.16589527
113	0xbda8e6a0	-0.08247113
114	0xbd88ad3d	-0.066736676
115	0xbe2f796e	-0.17136165
116	0x3df867c7	0.12129169
117	0x3882816c	6.22299e-05
118	0xbe168469	-0.14698948
119	0x3e50fcb5	0.204089
120	0xbe0b1bc1	-0.13584806
121	0x3e10458e	0.14089033
122	0xbbe3eba2	-0.00695558
123	0xbe40b18d	-0.1881773
124	0xbd90d160	-0.07071185
125	0x3e4261e8	0.18982661
126	0x3e0101d7	0.12598358
127	0x3d89f7bc	0.06736705

net.4.bias f4 [2]
0	0x3d8a80fc	0.06762883
1	0xbc1e1c5d	-0.009650317

exp_avg f4 [64, 4]
0	0xba212dde	-0.00061484973
1	0xb9c6b0ac	-0.00037897134
2	0xb6b24c6e	-5.313711e-06
3	0xb84f8005	-4.9471873e-05
4	0x3af7c38c	0.0018902882
5	0x3b1050d9	0.0022020845
6	0xb880f7e9	-6.1496925e-05
7	0x39f07d89	0.00045869898
8	0x3b4e3eb0	0.003147047
9	0x3b447154	0.0029974775
10	0x39508a21	0.00019887883
11	0x39bf0ac5	0.00036438383
12	0x3b5b0b7c	0.0033423593
13	0x3aea0986	0.0017855621
14	0x394cd4a6	0.00019534174
15	0x3a7e5620	0.00097021647
16	0xbd67ec7d	-0.056622017
17	0xbd15703f	-0.036484
18	0xbc41067c	-0.011781331
19	0x3c032e29	0.008006611
20	0x3cc9ca0f	0.024632482
21	0x3cb80f44	0.022468217
22	0x3bd2b4d6	0.0064302487
23	0xbbcd1fd8	-0.0062598996
24	0x348105f7	2.4032462e-07
25	0xb486b25f	-2.5089227e-07
26	0xb2bae404	-2.175694e-08
27	0x3423c1b3	1.5251025e-07
28	0xb799e48a	-1.8345443e-05
29	0xbbdb3cad	-0.0066905827
30	0xbaeafce3	-0.0017928149
31	0x3a57f373	0.0008237876
32	0xbbefb542	-0.007315309
33	0xbbaa4661	-0.005196378
34	0xbb88cdb0	-0.0041749105
35	0x3af7a63d	0.0018894147
36	0x3d0481b5	0.03235026
37	0x3be2e3f1	0.0069241454
38	0x3b836ee1	0.0040110205
39	0x3b37fe11	0.002807502
40	0xbb982e84	-0.004644217
41	0xbc135869	-0.008993247
42	0xbaa5e75a	-0.0012657449
43	0x3b2b9233	0.002617967
44	0xbd8ee95e	-0.06978105
45	0xbc26b0df	-0.010174005
46	0x3b463c1f	0.0030248237
47	0xbbc47ebd	-0.0059965537
48	0x3c880abb	0.01660668
49	0xbb9bf8f3	-0.0047599017
50	0xbb9ce1b7	-0.0047876495
51	0xbc31a281	-0.010841967
52	0xbd00b6ff	-0.03142452
53	0xbcc00c28	-0.023443297
54	0xbc1a7cb4	-0.009429146
55	0x3c52db26	0.012869632
56	0xbd1f38bb	-0.03887246
57	0xbc5c67f6	-0.013452521
58	0xbaeec125	-0.001821552
59	0x3b81c7e0	0.0039605945
60	0xbc45780d	-0.012052548
61	0xbbb4c92b	-0.005517145
62	0xbaa81ff8	-0.001282691
63	0x3b020dc8	0.001984464
64	0xbc00e5fa	-0.007867331
65	0xbb48a6a9	-0.0030616915
66	0xba49149a	-0.00076706114
67	0x3a99ecba	0.0011743524
68	0xbae21d8d	-0.0017251238
69	0xbaa9546a	-0.0012918834
70	0xb8227393	-3.8731447e-05
71	0xb80fd311	-3.4290428e-05
72	0x3c5340b8	0.012893848
73	0x3ac4455b	0.0014974283
74	0xbad38cf2	-0.0016140027
75	0xb9e1e2c9	-0.00043084312
76	0x3d102d50	0.035199463
77	0x3c999f63	0.01875276
78	0x3c08a7c3	0.008340779
79	0xbbfb9d30	-0.0076786503
80	0x3ba3b183	0.0049955263
81	0x3bd2cb57	0.0064329314
82	0x3ac46b37	0.0014985566
83	0x3b2796ff	0.0025572178
84	0xbd06dfbb	-0.03292821
85	0xbc807ee7	-0.015685512
86	0xbbffbceb	-0.007804503
87	0x3c368922	0.011141093
88	0x397871ef	0.00023693567
89	0x39e92e30	0.00044475636
90	0x3733fcdb	1.0728104e-05
91	0x39c45f5a	0.00037455076
92	0x3cb14b5f	0.021642385
93	0x3bf29bdb	0.0074038333
94	0x39ad8f87	0.00033104068
95	0xbab60c6b	-0.0013889199
96	0x3d3d0e92	0.046156473
97	0x3c1d0403	0.009583476
98	0xbb07bfdb	-0.002071372
99	0xba088f2b	-0.0005209322
100	0xbb9a6c02	-0.0047125826
101	0xbc034321	-0.00801161
102	0xb9c0d2e0	-0.00036778208
103	0x3a9aa2b3	0.0011797756
104	0xba2e62d1	-0.0006652298
105	0x3b52a379	0.0032140894
106	0x3ad94654	0.0016576746
107	0xbacc2eac	-0.0015577874
108	0xbc99604c	-0.018722676
109	0xbcd32d58	-0.025778458
110	0xbbc3a3d0	-0.0059704557
111	0x3c791b62	0.0152042825
112	0xbbabf395	-0.005247543
113	0x3a7ec5e3	0.00097188185
114	0x3884881b	6.319602e-05
115	0xba8f11f1	-0.0010915381
116	0x3b98e317	0.004665743
117	0x3c31f361	0.010861249
118	0x3b06b183	0.0020552583
119	0xba133fc4	-0.0005617107
120	0x3d01e238	0.03170988
121	0x3c8eb678	0.017420992
122	0x3bba1db4	0.0056798104
123	0xbbcda3fb	-0.0062756515
124	0x3bc14ec9	0.0058992845
125	0x3c21a77e	0.009866593
126	0x3b12595c	0.0022331094
127	0x3ba5e8d9	0.005063158
128	0x3c9479e6	0.018124532
129	0xbc01a453	-0.007912713
130	0xbaec4a37	-0.0018027489
131	0x3a663f1f	0.00087832095
132	0xbcc10a1a	-0.023564387
133	0xbc46c9f3	-0.012133109
134	0xbb7b3807	-0.0038332955
135	0x3bdf4bb9	0.0068144468
136	0x3b700bdd	0.0036628165
137	0x3b6e1a9f	0.0036331785
138	0x396f020a	0.00022793576
139	0xb8d8061c	-0.000103008206
140	0xbd41bc65	-0.047298808
141	0x3b8ba661	0.0042617773
142	0x3bb67ebe	0.005569308
143	0xbba2d512	-0.0049692476
144	0xb1522abb	-3.0583311e-09
145	0xb14ca8a2	-2.9781764e-09
146	0xaf26ebb9	-1.5181358e-10
147	0x30bebb8b	1.3877622e-09
148	0x3c0d606a	0.008628944
149	0x3c508ea2	0.012729319
150	0x3b63771e	0.003470845
151	0xbb71a73d	-0.0036873363
152	0xb9fa2859	-0.00047713777
153	0x3b07859a	0.0020678998
154	0x3a7444ea	0.00093181303
155	0xbae7a78b	-0.0017673833
156	0xbc0838b0	-0.008314297
157	0xbbcd92d4	-0.006273607
158	0xbb1b6e74	-0.0023716958
159	0x3b1ba322	0.0023748358
160	0x3d10d260	0.03535688
161	0x3cfe8943	0.03107131
162	0x3bf87808	0.007582668
163	0xbc4c80d3	-0.012481886
164	0xbdd57a4b	-0.10423716
165	0xbc494c7b	-0.012286301
166	0x3c37b0ac	0.011211555
167	0xbc3c96b7	-0.011510543
168	0x3c4826c2	0.012216272
169	0x3c8292f0	0.015939206
170	0x3ba21ae5	0.0049470537
171	0xbc082fb0	-0.008312151
172	0xbc38be53	-0.011275846
173	0xbc9305e5	-0.017947147
174	0xbc3dfc38	-0.011595778
175	0x3c3481de	0.011017291
176	0x3c3d7c44	0.011565272
177	0x3b9e661c	0.0048339497
178	0x3a854118	0.0010166494
179	0xbaf05713	-0.0018336497
180	0xbcb4d71e	-0.022075232
181	0xbc727540	-0.014798462
182	0xbbca2147	-0.0061685177
183	0x3bb5c3aa	0.0055470066
184	0xbd06851c	-0.032841787
185	0xbcc66147	-0.024216307
186	0xbbe0d0fa	-0.0068608494
187	0x3b8e3ad4	0.004340509
188	0x3b863eef	0.0040968577
189	0xbc6fdab0	-0.0146395415
190	0xbbbf6d8f	-0.005841918
191	0xbbd44fa1	-0.006479219
192	0xbbf979b8	-0.007613387
193	0x3aa3099a	0.0012438775
194	0x3b20553b	0.0024464864
195	0xbafed170	-0.0019441079
196	0xbd07a6e9	-0.033118162
197	0xbc91c910	-0.01779607
198	0xbc4f18c6	-0.012640184
199	0x3c3d9ba5	0.011572753
200	0x3cc42142	0.02394164
201	0x3c945f54	0.018111862
202	0x3bce398a	0.0062934803
203	0xbb9f3f54	-0.004859844
204	0xbcb52e89	-0.022116916
205	0xbc84c810	-0.016208678
206	0xbbc03100	-0.0058652163
207	0x3ba9bd19	0.005180013
208	0x3d517873	0.05114026
209	0x3d230d62	0.039807685
210	0x3c5284d5	0.012849052
211	0xbca0e56b	-0.019640645
212	0x3d4b50c7	0.049637582
213	0x3c6854e5	0.014180397
214	0x3b1811e8	0.0023204032
215	0x37744c62	1.4561318e-05
216	0xbc25e814	-0.0101261325
217	0xbbd1d44a	-0.0064034807
218	0xbb5c4033	-0.0033607602
219	0x3b4a5cd6	0.0030878088
220	0x3ca0fbba	0.019651283
221	0x3baa1b1a	0.005191219
222	0xba2d7ff3	-0.0006618492
223	0xbb674a3d	-0.0035292052
224	0xbcbf2279	-0.023331868
225	0xbc711529	-0.014714518
226	0xbb8c927d	-0.0042899237
227	0x3be7a3be	0.00706908
228	0xbacba739	-0.0015537507
229	0x3a30fa02	0.0006751121
230	0x3910ee7f	0.00013821757
231	0xbaf5958b	-0.0018736584
232	0xbc6bbe4a	-0.01438863
233	0xba50861f	-0.0007954556
234	0xba903318	-0.0011001555
235	0xb9ab43c2	-0.00032666145
236	0xbb8c2e3d	-0.004277973
237	0x3b457c2d	0.003013383
238	0x3a322fed	0.00067973026
239	0xba036ecb	-0.0005013763
240	0xbb485246	-0.0030566617
241	0xbd0982b3	-0.03357191
242	0xbbf12ba7	-0.00735994
243	0x3c2be397	0.010491273
244	0x3c8723a0	0.01649648
245	0x3b9a0c10	0.004701145
246	0x39edc767	0.0004535273
247	0xba098793	-0.00052463374
248	0xbcc39ec4	-0.023879416
249	0x3c04e252	0.0081106
250	0x3c381d3b	0.011237438
251	0xbb8ab22b	-0.004232665
252	0x3bd8ef93	0.0066203563
253	0x3b95e4a0	0.0045743734
254	0xb97647b5	-0.00023487101
255	0x3ad2b049	0.0016074266

exp_avg_sq f4 [64, 4]
0	0x38e86340	0.00011081109
1	0x381efe9c	3.790726e-05
2	0x34abe09a	3.201465e-07
3	0x36700ae3	3.5769124e-06
4	0x3aa697b6	0.0012710008
5	0x3a610544	0.00085838535
6	0x36a3771b	4.8716443e-06
7	0x387d05be	6.032525e-05
8	0x39df3ad9	0.0004257772
9	0x397d6b9c	0.00024168048
10	0x359e3414	1.1787074e-06
11	0x37159e68	8.917974e-06
12	0x3aa2059b	0.001236129
13	0x3a5bc650	0.0008383738
14	0x36b5438f	5.402085e-06
15	0x38974403	7.212909e-05
16	0x3cb34755	0.0218846
17	0x3c5f984a	0.013647148
18	0x39368660	0.00017406931
19	0x3b06ae3b	0.0020550627
20	0x3c00e6ca	0.007867524
21	0x3ba603f5	0.0050663897
22	0x3891e0d1	6.956014e-05
23	0x3a2af88e	0.0006522023
24	0x31d54da0	6.207941e-09
25	0x322229ff	9.43919e-09
26	0x2efa6295	1.13861955e-10
27	0x311c33b8	2.2730386e-09
28	0x3b093270	0.0020934604
29	0x3ab9bbaa	0.0014170308
30	0x378f7aa6	1.7104041e-05
31	0x395f8ca4	0.0002131933
32	0x3af11db6	0.0018395695
33	0x3aa1ac51	0.001233468
34	0x37cdc176	2.4527992e-05
35	0x397c2237	0.00024045339
36	0x3bb3753f	0.0054766233
37	0x3b437e4e	0.0029829922
38	0x37fb1325	2.9930447e-05
39	0x3a3c3a61	0.000718033
40	0x3af18c9f	0.0018428749
41	0x3a7694d9	0.00094063353
42	0x37111ce6	8.649402e-06
43	0x39132c4d	0.00014035516
44	0x3d030408	0.031986266
45	0x3cb52ab0	0.022115082
46	0x3985c038	0.0002551095
47	0x3b4e5f84	0.0031490037
48	0x3cc245b2	0.023714874
49	0x3c771db5	0.015082766
50	0x395bb4ed	0.00020952868
51	0x3b1dc032	0.0024070856
52	0x3c2050ec	0.009784918
53	0x3bfa92ac	0.007646879
54	0x38d885e7	0.00010324624
55	0x3aa0d385	0.0012270069
56	0x3a423cd0	0.00074095745
57	0x39aaacb6	0.00032553606
58	0x36106c19	2.1520593e-06
59	0x3763bf0b	1.3574735e-05
60	0x3a68e9bf	0.00088849285
61	0x3a08627e	0.0005202665
62	0x36eeb1e5	7.1136624e-06
63	0x38aea717	8.3280895e-05
64	0x39fb867b	0.00047974646
65	0x397b4e39	0.00023966366
66	0x361f475d	2.3734385e-06
67	0x383d8dbd	4.5193116e-05
68	0x38289e8c	4.020198e-05
69	0x37ec761c	2.8188391e-05
70	0x342c505c	1.6047983e-07
71	0x360a41c2	2.0601879e-06
72	0x3ab7684f	0.0013992878
73	0x3a96c8d4	0.0011503943
74	0x37915d6e	1.7328854e-05
75	0x3959c516	0.00020768153
76	0x3c1d7278	0.009609811
77	0x3bdbe0ae	0.0067101335
78	0x38e00691	0.000106823754
79	0x3a8f90e9	0.0010953221
80	0x3b1a72a0	0.0023566857
81	0x3aebede8	0.0017999979
82	0x37e76b15	2.758721e-05
83	0x398a59c7	0.000263883
84	0x3c0a5c75	0.008444895
85	0x3ba8d72b	0.005152603
86	0x389ce036	7.480422e-05
87	0x3a496d5a	0.0007683836
88	0x3a4b13cd	0.0007746786
89	0x3a1e33f0	0.0006034961
90	0x36a15469	4.8080005e-06
91	0x3886f390	6.434985e-05
92	0x3a46a25c	0.0007577294
93	0x39a0da3a	0.0003068017
94	0x363587c0	2.7050119e-06
95	0x37f10e3a	2.8736064e-05
96	0x3bdaf04a	0.0066814767
97	0x3b9e61be	0.004833429
98	0x389381db	7.033694e-05
99	0x3a467e16	0.0007571889
100	0x3b5c0472	0.0033571986
101	0x3b15aa44	0.0022837082
102	0x3791cd94	1.7381077e-05
103	0x3975eca9	0.00023453184
104	0x3ab44573	0.0013753608
105	0x3a91b8d0	0.00111177
106	0x377a9801	1.4936552e-05
107	0x3933d2c5	0.00017149288
108	0x3c029e97	0.007972381
109	0x3b8f97be	0.0043821028
110	0x38a9ae92	8.091064e-05
111	0x3a57d049	0.0008232636
112	0x3a40c719	0.00073538866
113	0x3a12f042	0.0005605259
114	0x369a8d79	4.6060272e-06
115	0x386a17ec	5.5812226e-05
116	0x3b860da8	0.0040909834
117	0x3acde015	0.001570704
118	0x37b6637d	2.1742419e-05
119	0x39939341	0.00028147738
120	0x3bc946e2	0.006142483
121	0x3ba83d6b	0.0051342747
122	0x38a377d5	7.794766e-05
123	0x3a5edcd5	0.00085015345
124	0x3bf1e73f	0.007382303
125	0x3b9295bd	0.0044734166
126	0x3823b484	3.9030347e-05
127	0x3a17ebaf	0.00057953125
128	0x3b08ab93	0.002085422
129	0x3a94921f	0.0011335051
130	0x379426a1	1.7660963e-05
131	0x395b99e6	0.00020942799
132	0x3c292c63	0.010325524
133	0x3bd826fa	0.0065964432
134	0x38ba50a5	8.884192e-05
135	0x3a76cf14	0.00094150123
136	0x3abb16bf	0.0014273747
137	0x3a648f49	0.0008718861
138	0x36b60adc	5.425287e-06
139	0x3880ff37	6.151053e-05
140	0x3c210a4f	0.009829118
141	0x3bd75f01	0.0065726046
142	0x38ce7530	9.844673e-05
143	0x3a7684c6	0.000940394
144	0x310fc970	2.0923743e-09
145	0x318eab97	4.1522514e-09
146	0x2e889c01	6.212276e-11
147	0x321b5b1f	9.042906e-09
148	0x3ba4c97b	0.005028901
149	0x3b57d244	0.0032931725
150	0x38373c29	4.368663e-05
151	0x39d22e6d	0.0004008891
152	0x38d59119	0.00010183658
153	0x385c4bf3	5.252282e-05
154	0x35f1c838	1.801417e-06
155	0x37f2d5d6	2.8948223e-05
156	0x3a06b0a5	0.00051380164
157	0x395af692	0.00020881955
158	0x367935de	3.7135246e-06
159	0x38209434	3.8284998e-05
160	0x3c5c0fa3	0.013431462
161	0x3c482723	0.012216362
162	0x3941771b	0.00018450285
163	0x3ace3052	0.0015730953
164	0x3d425f1a	0.047453977
165	0x3cf72cf7	0.030172808
166	0x39c9055e	0.00038341706
167	0x3b9886ee	0.0046547567
168	0x3bc3c483	0.0059743538
169	0x3ba657df	0.005076393
170	0x38888fb9	6.511756e-05
171	0x3a1d306f	0.0005996292
172	0x3d02be2d	0.031919647
173	0x3ca3ed9a	0.020010758
174	0x399ae5bb	0.00029544331
175	0x3b5a567f	0.0033315716
176	0x3a9cac09	0.0011953126
177	0x3aa74b53	0.0012763537
178	0x37a48f11	1.9616944e-05
179	0x39265dcc	0.00015865936
180	0x3c0ae590	0.0084775835
181	0x3ba7b8b3	0.0051184534
182	0x388bbbb2	6.6629975e-05
183	0x3a4731e8	0.0007598684
184	0x3bf89063	0.0075855716
185	0x3b8e027f	0.0043337937
186	0x387315e8	5.7956117e-05
187	0x3a32d6bd	0.00068221596
188	0x3c0453fd	0.008076665
189	0x3bb999be	0.0056640795
190	0x38a5f751	7.9138794e-05
191	0x3a768ef9	0.000940546
192	0x39f3470b	0.00046401503
193	0x3988f32d	0.00026121121
194	0x368063c2	3.8263106e-06
195	0x3841901d	4.6149e-05
196	0x3c4600e3	0.012085172
197	0x3c1002d0	0.008789733
198	0x38fe330d	0.00012121173
199	0x3aa50bce	0.0012592019
200	0x3c565b58	0.0130833015
201	0x3c12197f	0.008917212
202	0x38f5a7f9	0.00011713798
203	0x3a8ec6cf	0.001089299
204	0x3bba5b4a	0.005687152
205	0x3b5a6bb0	0.0033328347
206	0x38357bf5	4.3269207e-05
207	0x3a08ca60	0.00052181445
208	0x3cac5c79	0.021040188
209	0x3c5e81e4	0.013580773
210	0x39724ef2	0.00023108328
211	0x3b317900	0.0027080178
212	0x3b8727e3	0.004124628
213	0x3b41d8b5	0.002957863
214	0x37eda7b3	2.8330693e-05
215	0x3a0cfff8	0.00053787185
216	0x3b278b28	0.0025565121
217	0x3abf6588	0.0014602402
218	0x37fc76ca	3.0096056e-05
219	0x398c64a0	0.00026777852
220	0x3a8b4bbb	0.0010627428
221	0x39ff34c4	0.00048676704
222	0x36f27eb1	7.226911e-06
223	0x386d3422	5.6553756e-05
224	0x3aa90e20	0.0012897886
225	0x3a16b2f4	0.0005748712
226	0x36dd8acd	6.602472e-06
227	0x38a8db80	8.051749e-05
228	0x39cbadac	0.00038848573
229	0x39a30158	0.00031090784
230	0x36baebe8	5.570695e-06
231	0x385493f9	5.068255e-05
232	0x3a54c755	0.0008116861
233	0x39e3484c	0.0004335068
234	0x369c4573	4.6572472e-06
235	0x3853cd6c	5.0497634e-05
236	0x3a6f76af	0.00091348117
237	0x3a1cf25c	0.0005987042
238	0x371686e2	8.972102e-06
239	0x38a86b16	8.0308106e-05
240	0x3ca000a0	0.019531548
241	0x3c47e0c3	0.012199583
242	0x393ed913	0.00018200678
243	0x3b0aab3b	0.002115919
244	0x3a485382	0.0007641838
245	0x39c56cda	0.0003765587
246	0x36b56f7f	5.4072e-06
247	0x38281026	4.006936e-05
248	0x3c566cfc	0.013087507
249	0x3c031a00	0.008001804
250	0x38c7583f	9.5054966e-05
251	0x3a9f8bd1	0.0012172406
252	0x3b975dd5	0.00461934
253	0x3b523731	0.0032076354
254	0x37a07e07	1.9132172e-05
255	0x399a5659	0.00029437503

exp_avg f4 [64]
0	0x39b813e3	0.00035110032
1	0x37be44e7	2.268185e-05
2	0xbab6fe15	-0.001396122
3	0x393d5043	0.00018054344
4	0x3cf63ea4	0.030059166
5	0xbb9b6398	-0.004742097
6	0x3426d7be	1.5538441e-07
7	0x3b3fad23	0.0029247485
8	0x3c968066	0.018371772
9	0x3ccdd753	0.025127089
10	0xbc3ba8d4	-0.011453826
11	0xbd2d46bd	-0.04230379
12	0x3d88d324	0.06680897
13	0x3d1172ff	0.03551006
14	0xbc96dfd2	-0.018417273
15	0x3baaba92	0.005210229
16	0x3bfbbf42	0.007682712
17	0x3a9471fb	0.0011325473
18	0x3c98e117	0.018662019
19	0xbcbde4c3	-0.023180371
20	0x3c6754fc	0.014119383
21	0x3d5831f9	0.052782033
22	0xba67ba3d	-0.00088397024
23	0x3c2fae74	0.010722745
24	0x3d5474f9	0.051869366
25	0x3b80320b	0.0039122156
26	0x3b8d89fc	0.0043194275
27	0x3d1bc52d	0.03802984
28	0xbba61625	-0.005068558
29	0x3c4ac032	0.0123749245
30	0xbbf044f7	-0.00733244
31	0x3d1778a8	0.0369803
32	0x3c4989f1	0.012300954
33	0x3cafc653	0.021456873
34	0xbb2358bd	-0.0024924718
35	0xbd370402	-0.044681557
36	0x30c05c3c	1.3996053e-09
37	0xbbb662dc	-0.005565984
38	0x3be11a5b	0.006869597
39	0x3c80518e	0.015663888
40	0xbc00af5e	-0.007854311
41	0xbdcdd035	-0.10049478
42	0xbb3ab343	-0.0028488196
43	0x3d94fc98	0.07274741
44	0xbac8082b	-0.0015261223
45	0x3cad876b	0.021182736
46	0x3c814aef	0.015782801
47	0xbbe8c385	-0.007103386
48	0xbb501228	-0.0031749103
49	0x3d502bd2	0.05082304
50	0xbc490d3e	-0.012271224
51	0x3ca0d8e4	0.019634672
52	0xbc901c1c	-0.017591529
53	0x3cb5f538	0.022211656
54	0x3c7dc86e	0.015489681
55	0x3c2203c3	0.009888592
56	0x3d30428c	0.043032214
57	0x3b8095ba	0.003924099
58	0x3c02983a	0.007970864
59	0xbb59e706	-0.0033249273
60	0x3cf6b94f	0.030117659
61	0x3bf80271	0.0075686504
62	0xbd20e2d3	-0.039278816
63	0xbb1e9634	-0.0024198415

exp_avg_sq f4 [64]
0	0x3852c340	5.0249742e-05
1	0x3a515106	0.0007984791
2	0x392b7448	0.00016351149
3	0x3a6ea254	0.0009103168
4	0x3d0c3dde	0.03423869
5	0x3c57959d	0.013158229
6	0x31903550	4.1970125e-09
7	0x3b827e40	0.0039823353
8	0x3b812949	0.003941689
9	0x3ba18934	0.004929686
10	0x3aadabb0	0.0013250019
11	0x3d8847c4	0.06654313
12	0x3d4494ca	0.04799346
13	0x3ca59439	0.02021228
14	0x3983d3f4	0.00025144184
15	0x3a8f9156	0.0010953348
16	0x39d0e8ba	0.00039846246
17	0x379ad7b1	1.845867e-05
18	0x3b3bc1b4	0.0028649392
19	0x3c90a115	0.017654935
20	0x3b98e1bf	0.004665583
21	0x3c6c15ea	0.014409522
22	0x3a418942	0.0007382819
23	0x397c44a3	0.00024058162
24	0x3c5d1226	0.013493096
25	0x3b48c9ea	0.0030637928
26	0x3b26b214	0.0025435733
27	0x3c6673d9	0.014065706
28	0x3a47186e	0.0007594888
29	0x3b40e9dc	0.0029436266
30	0x3c6f9e9e	0.01462522
31	0x3bffa5cc	0.007801747
32	0x3b735f1e	0.0037135552
33	0x3c8c2622	0.017108027
34	0x3a70a1c8	0.0009179381
35	0x3ca142f9	0.019685255
36	0x3124875e	2.3942088e-09
37	0x3c1131da	0.008861983
38	0x399cd01b	0.0002990969
39	0x3a293ffa	0.00064563716
40	0x3d166e4e	0.03672629
41	0x3db470ce	0.08810578
42	0x3c5877d3	0.013212162
43	0x3d825ebf	0.06365728
44	0x3b34e38a	0.0027601444
45	0x3c53da94	0.012930531
46	0x3c40062c	0.0117202215
47	0x3c9bd1b9	0.019020902
48	0x3a4ec54e	0.0007887677
49	0x3cbbae0b	0.022910139
50	0x3cb9d661	0.022685232
51	0x3c0f772a	0.008756438
52	0x3d3ed2b7	0.046587672
53	0x3b890b5c	0.0041822623
54	0x3b8e368b	0.004339998
55	0x3a10baa1	0.0005520974
56	0x3a8d7f75	0.0010795431
57	0x3a3eb492	0.0007274832
58	0x3a2b802d	0.0006542232
59	0x3ac2efa6	0.0014872446
60	0x3d178e1d	0.037000764
61	0x3a0f4035	0.00054645847
62	0x3cb76738	0.022388086
63	0x3b49635c	0.0030729389

exp_avg f4 [64, 64]
0	0x00000000	0.0
1	0x00000000	0.0
2	0x00000000	0.0
3	0x00000000	0.0
4	0x22f68e9a	6.682942e-18
5	0x24be0dc3	8.242268e-17
6	0x00000000	0.0
7	0x00000000	0.0
8	0x2555f281	1.8556969e-16
9	0x240a6bce	3.0015294e-17
10	0x20833077	2.2224335e-19
11	0x24b2eee2	7.759988e-17
12	0x00000000	0.0
13	0x2402e108	2.8379865e-17
14	0x22c461ca	5.3229445e-18
15	0x253d996f	1.6445122e-16
16	0x24d8f5da	9.4091556e-17
17	0x00000000	0.0
18	0x24983169	6.6003196e-17
19	0x255e95ef	1.930623e-16
20	0x22b35ecc	4.8618417e-18
21	0x2432e233	3.8789196e-17
22	0x00000000	0.0
23	0xa06f94a7	-2.0293272e-19
24	0x24e5ff9f	9.974596e-17
25	0x00000000	0.0
26	0x246c73cd	5.127243e-17
27	0x24a828cb	7.292749e-17
28	0x20902f90	2.4426023e-19
29	0xa2102760	-1.9536484e-18
30	0x252412e4	1.4231133e-16
31	0x23454b81	1.069538e-17
32	0x00000000	0.0
33	0x24e7b76e	1.0049102e-16
34	0x00000000	0.0
35	0x249cbc44	6.797315e-17
36	0x00000000	0.0
37	0x248f143a	6.205063e-17
38	0x256c8ea5	2.0518067e-16
39	0x21730ab4	8.234577e-19
40	0x24a4acd4	7.1416445e-17
41	0x2536de83	1.5861374e-16
42	0x256dc588	2.06234e-16
43	0x2016c2b0	1.2769911e-19
44	0x206e57bb	2.0188412e-19
45	0x246cbb25	5.133286e-17
46	0x24227d36	3.5234208e-17
47	0x1f243360	3.4770847e-20
48	0x257f32b4	2.2134903e-16
49	0x232bc6d2	9.31203e-18
50	0x25156e97	1.2961159e-16
51	0x244599f8	4.2847982e-17
52	0x2577bcd9	2.1487819e-16
53	0xa28ec25e	-3.869497e-18
54	0x25b253aa	3.093477e-16
55	0x00000000	0.0
56	0x00000000	0.0
57	0x21b26ced	1.2090582e-18
58	0x249decb0	6.848886e-17
59	0x22ac861d	4.676269e-18
60	0xa14555bc	-6.6859665e-19
61	0x00000000	0.0
62	0x25361e01	1.579615e-16
63	0x00000000	0.0
64	0x3a7d19d7	0.00096550345
65	0x3b060c40	0.002045408
66	0x399833b4	0.0002903022
67	0x3b339eb6	0.0027407832
68	0x3b309a1e	0.002694733
69	0x3c1daaf0	0.009623274
70	0x31866cad	3.9122683e-09
71	0x3b1ccf9a	0.002392745
72	0xb98a0cc3	-0.0002633092
73	0xb9236086	-0.00015580849
74	0x3abb4b96	0.0014289494
75	0xbaed6384	-0.0018111323
76	0x3b805c05	0.0039172196
77	0xbabce889	-0.0014412563
78	0xbba97544	-0.00517145
79	0x3b96c3ef	0.004600994
80	0x3ba4e947	0.0050326916
81	0x3a7165e4	0.00092086033
82	0x3a79a462	0.0009523091
83	0xbb924b40	-0.004464537
84	0x39ca8162	0.0003862484
85	0xbaff5009	-0.0019478808
86	0x3a4e1b48	0.00078623416
87	0xbb591d79	-0.003312914
88	0x3bd25216	0.006418477
89	0x3ab6195e	0.0013893058
90	0x3b961085	0.004579606
91	0x3b06d8eb	0.002057607
92	0x38e8915f	0.000110896995
93	0xb7827173	-1.5550037e-05
94	0xbb27dbdc	-0.0025613224
95	0x39149d4f	0.00014172982
96	0x3b416405	0.002950908
97	0x3beafe11	0.0071714004
98	0x3b19552f	0.002339672
99	0x3b83ebfb	0.004025934
100	0x2eaa77dc	7.751996e-11
101	0x3c14fe23	0.009093794
102	0xbb5aecef	-0.0033405384
103	0x3b90dbe5	0.0044207447
104	0x3aa37cb9	0.0012473083
105	0x39fed320	0.00048603956
106	0x3bb06b9d	0.0053839223
107	0x3b39f6d1	0.0028375874
108	0x379b8f86	1.8544273e-05
109	0x3b093f2c	0.0020942194
110	0x3bdf15b7	0.0068080085
111	0x3b4b0b5d	0.0030982115
112	0x3b973775	0.0046147653
113	0xbb826c4e	-0.003980196
114	0x3beca6ff	0.007222056
115	0x3b55ec2e	0.0032641995
116	0x398fd5ca	0.0002743437
117	0xbac341a9	-0.0014896888
118	0x3907ccb6	0.00012950864
119	0xb9b1a892	-0.00033885665
120	0xbae8c447	-0.001775869
121	0x3c082055	0.00830849
122	0xba684a9c	-0.00088612153
123	0x3af7225f	0.0018854848
124	0x3bf93e24	0.0076062847
125	0xbb999423	-0.0046868487
126	0x3aaebd49	0.0013331558
127	0x3a7b0108	0.0009575044
128	0x3a2922e2	0.00064520363
129	0x3aab8a5f	0.0013087502
130	0x39aa8f5e	0.00032531744
131	0x3af2441a	0.0018483431
132	0x3aa115f9	0.0012289874
133	0x3bab8b4e	0.0052351123
134	0xab06ef0f	-4.7938124e-13
135	0x3add20fa	0.001687079
136	0xba369029	-0.00069642306
137	0xb900fb88	-0.00012300734
138	0x3a5d13cf	0.00084334327
139	0xba17d040	-0.00057912245
140	0x3b0bdb02	0.0021340256
141	0xba8cb150	-0.0010733996
142	0xbb3759ef	-0.0027977189
143	0x3b1d9cb2	0.0024049697
144	0x3b1d1d0d	0.0023973614
145	0x3a0b3478	0.00053102477
146	0x3a28a608	0.0006433432
147	0xbb4a9c77	-0.0030916014
148	0x3a37effb	0.0007016656
149	0xbab0c7d3	-0.0013487287
150	0x39b938bd	0.00035328223
151	0xbaf403b3	-0.0018616825
152	0x3b705627	0.0036672445
153	0x3a51a3b2	0.000799711
154	0x3b177cd3	0.0023115173
155	0x3a6b0be0	0.0008966308
156	0x37bdcc5e	2.2625722e-05
157	0x393f73e1	0.00018258348
158	0xbb03c0b4	-0.0020103874
159	0x3a0aff42	0.00053023186
160	0x3ad9f995	0.0016630167
161	0x3b82688b	0.0039797476
162	0x3acdd6ab	0.0015704235
163	0x3b36131a	0.0027782382
164	0x1a96645a	6.220067e-23
165	0x3b9e663d	0.004833965
166	0xbb12a162	-0.0022374024
167	0x3b1066fb	0.0022034037
168	0x39a4de28	0.00031446037
169	0x3a1d1fc5	0.0005993809
170	0x3b098e47	0.0020989345
171	0x3ace9218	0.0015760092
172	0xb9e8ceaf	-0.0004440448
173	0x3a887dbd	0.001041345
174	0x3b73a824	0.0037179077
175	0x3b02cd41	0.0019958767
176	0x3b318f15	0.002709334
177	0xbb137bb9	-0.0022504164
178	0x3b6670a9	0.0035162366
179	0x3acdb86d	0.0015695222
180	0xb9be993f	-0.000363538
181	0xba80ba0b	-0.000982107
182	0xb9d3a3cc	-0.00040367094
183	0xb9371898	-0.00017461402
184	0xba9fbb87	-0.0012186625
185	0x3b9926a5	0.0046737962
186	0xba202abc	-0.00061098835
187	0x3aa2b8af	0.0012414659
188	0x3b89e1e4	0.0042078365
189	0xbb28fe20	-0.0025786236
190	0x3a90c324	0.0011044485
191	0x3a1f94f7	0.0006087566
192	0x00000000	0.0
193	0x00000000	0.0
194	0x00000000	0.0
195	0x00000000	0.0
196	0x2322ef4a	8.832709e-18
197	0x21e9d91a	1.584616e-18
198	0x00000000	0.0
199	0x00000000	0.0
200	0x2559ca98	1.8890391e-16
201	0x2373e5f0	1.32217476e-17
202	0xa17135af	-8.1725026e-19
203	0x2287f30d	3.6849163e-18
204	0x00000000	0.0
205	0x2479d001	5.4169454e-17
206	0x2469aaf9	5.066864e-17
207	0x24cfda97	9.0142245e-17
208	0x244d4f3c	4.4519403e-17
209	0x00000000	0.0
210	0x23b85ac9	1.9987769e-17
211	0x25510fc1	1.8133198e-16
212	0x9ba59d5f	-2.739866e-22
213	0x24d529e2	9.244498e-17
214	0x00000000	0.0
215	0x23f84e65	2.6921415e-17
216	0x23bc0af5	2.0387641e-17
217	0x00000000	0.0
218	0x2309a0e8	7.460858e-18
219	0x24b21c5f	7.724326e-17
220	0x1a9b8bdc	6.433245e-23
221	0xa1c5739f	-1.3379844e-18
222	0x252687d8	1.444423e-16
223	0x1c5e8279	7.362227e-22
224	0x00000000	0.0
225	0x24555798	4.6261207e-17
226	0x00000000	0.0
227	0x1f391cc4	3.9199068e-20
228	0x00000000	0.0
229	0x227f0e53	3.4566527e-18
230	0x25644dfe	1.9802272e-16
231	0x9aab70d1	-7.090621e-23
232	0x24246c0b	3.5653347e-17
233	0x2443bb29	4.2442416e-17
234	0x24d3f081	9.191409e-17
235	0x00000000	0.0
236	0x22b5af92	4.924604e-18
237	0x24478b06	4.3269004e-17
238	0x2232c42b	2.4227349e-18
239	0x00000000	0.0
240	0x24ea4540	1.0159864e-16
241	0x242fdfdd	3.8136696e-17
242	0x23db1dfe	2.375673e-17
243	0x241d64f9	3.4129475e-17
244	0x2542e992	1.6905954e-16
245	0x22c126d0	5.235385e-18
246	0x258b95d5	2.4214186e-16
247	0x00000000	0.0
248	0x00000000	0.0
249	0x9c3ba635	-6.2087927e-22
250	0x24ec56cf	1.02495745e-16
251	0x1baaa050	2.822774e-22
252	0x1a8b03af	5.7495004e-23
253	0x00000000	0.0
254	0x2480da2f	5.588077e-17
255	0x00000000	0.0
