P3/Q2/cartpole/checkpoints/pg_CartPole-v1_lastFT.pth (torch, 81667 bytes, 18 tensors)

net.0.weight f4 [64, 4]
-0.0539324 0.17586637 0.3119321 -0.592652 -0.34891692 0.22377324 -0.11959015 0.3343412
0.32985842 0.33709612 -0.013014125 -0.14143367 -0.42676157 0.022696808 -0.036597587 0.48735005
0.06859838 -0.34321812 0.45766452 -0.19086598 0.14580055 -0.3440938 -0.6640689 -0.12003253
0.005761618 0.36255786 0.23401593 -0.36918274 -0.12391629 0.25090918 0.007563131 0.4914538
0.25144508 0.06463298 0.48648685 0.043690816 -0.08355426 -0.16934285 0.20492464 -0.30236334
-0.5022408 -0.534784 0.2413486 -0.3187031 0.011901366 -0.14285415 -0.21404995 -0.5081313
-0.4482393 0.4161456 -0.0863402 -0.55072474 0.45188957 0.12649868 -0.46458748 -0.22937787
0.40988243 -0.023929702 0.5890883 0.2684076 -0.48395807 -0.12787496 0.018684646 0.3560178
0.015843704 -0.19375543 0.6423294 0.23554866 -0.15256758 0.25976637 -0.059366453 0.24618849
-0.1674614 0.34812862 -0.28183377 -0.28800476 0.032409202 0.37276274 0.50586617 0.5597977
0.26673043 -0.41408187 0.6598625 0.5403152 -0.003204763 0.024910688 -0.14792699 0.014810562
-0.40318674 0.107114114 0.30644265 0.2931483 -0.47083896 -0.1496537 0.42808408 -0.197665
-0.11395809 0.3736293 -0.46685427 0.0309577 0.2385245 -0.40165928 0.30837792 -0.27605543
-0.45345747 -0.050407156 0.5261707 0.20185694 0.25204906 0.45452136 -0.28260744 -0.41625774
-0.35352668 -0.5245184 -0.22522412 -0.60913014 -0.07695334 -0.11053898 -0.32280695 -0.006100603
-0.40333495 -0.45937228 -0.33279175 -0.3260221 -0.31292793 -0.0067115473 -0.003108679 0.26357806
0.07034694 -0.09068457 -0.17448959 0.115772225 -0.32787204 0.016805138 -0.68590444 -0.27873942
-0.066655986 0.20034008 -0.24552223 -0.51727015 -0.26004824 -0.024499547 0.14581463 0.20551988
-0.040039927 0.34747258 0.6984877 0.5705046 -0.38686553 -0.2376923 -0.021304587 0.079192564
0.15740539 0.1661108 0.25452164 0.5174259 -0.28790107 0.42516422 0.074051164 -0.25417167
0.2772635 -0.020527503 0.2654621 -0.27987745 -0.4562237 -0.13160397 0.35516936 0.17134401
0.13539706 0.5182982 0.14160335 0.36791283 0.20636079 0.17635524 -0.5015833 -0.3019827
-0.48987532 0.31386393 0.16181679 0.53095454 0.33491677 0.51192605 0.2485137 -0.44389373
-0.45692673 0.10584033 0.014944033 0.10610996 0.463697 -0.455738 0.02905012 0.06467525
-0.069129944 -0.25715613 -0.49273735 -0.50327885 -0.23652956 -0.42595896 -0.14164814 -0.12694484
0.13011505 -0.12318601 0.3996972 0.2949156 0.41004372 0.36275962 -0.25192842 0.28280476
-0.24735495 0.49437493 -0.06922717 0.4152531 0.457562 -0.4772932 -0.69953114 -0.4311563
-0.47584814 0.4908131 -0.20783575 0.26980373 0.18942706 0.22023301 -0.18796258 0.39227137
0.07635033 -0.43985972 0.2916942 0.38515577 0.25493106 0.03484758 -0.34481198 -0.115079544
-0.35799703 -0.33727518 0.20043023 -0.5489437 0.4529639 0.39097813 -0.10867646 -0.25475487
0.26974025 0.2196959 0.4751028 0.55979836 0.25772625 0.20266733 -0.15490584 0.40256128
-0.027813355 -0.25296873 0.6210685 0.07841825 -0.23635064 -0.13001508 -0.3079121 -0.571009
00000000: 38e8 5cbd 5016 343e 90b5 9f3e 0bb8 17bf
00000010: 3da5 b2be d024 653e aeeb f4bd c52e ab3e
00000020: 34e3 a83e dd97 ac3e 3239 55bc fdd3 10be
00000030: 7e80 dabe a8ee b93c 5ae7 15bd f285 f93e
00000040: 4f7d 8c3d 49ba afbe 0153 ea3e 5f72 43be
00000050: bd4c 153e 102d b0be 6b00 2abf 9dd3 f5bd
00000060: f4cb bc3b 2fa1 b93e dfa1 6f3e 8505 bdbe
00000070: d3c7 fdbd 2b77 803e 24d4 f73b d59f fb3e
00000080: 69bd 803e 4c5e 843d ce14 f93e 24f5 323d
00000090: 7f1e abbd 3668 2dbe c4d7 513e 5ecf 9abe
000000a0: da92 00bf 9be7 08bf 1624 773e 0d2d a3be
000000b0: f2fd 423c 5c48 12be e92f 5bbe e514 02bf
000000c0: 9f7f e5be 0911 d53e 21d3 b0bd 4cfc 0cbf
000000d0: 125e e73e df88 013e 69de edbe 08e2 6abe
000000e0: 1cdc d13e 3908 c4bc 7ece 163f b96c 893e
000000f0: 5ac9 f7be a7f1 02be 8b10 993c f747 b63e
00000100: a8ca 813c d367 46be b36f 243f ab33 713e
00000110: ad3a 1cbe 1900 853e 3d2a 73bd d618 7c3e
00000120: 007b 2bbe ea3d b23e 844c 90be 5c75 93be
00000130: 83bf 043d c2da be3e 7280 013f e74e 0f3f
00000140: e490 883e 8a02 d4be c0ec 283f 1952 0a3f
00000150: 0007 52bb 8011 cc3c 2c7a 17be 00a8 723c
00000160: 7e6e cebe a55e db3d 0de6 9c3e 8917 963e
00000170: ce11 f1be d23e 19be d62d db3e b268 4abe
00000180: dc62 e9bd 574c bf3e 8607 efbe 019b fd3c
00000190: c43f 743e 49a6 cdbe b6e3 9d3e 2357 8dbe
000001a0: 942b e8be bc77 4ebd 1fb3 063f 96b3 4e3e
000001b0: 930c 813e 06b7 e83e ecb1 90be bc1f d5be
000001c0: 7301 b5be d646 06bf 27a1 66be f4ef 1bbf
000001d0: b699 9dbd 4362 e2bd f446 a5be 91e7 c7bb
000001e0: eb81 cebe d832 ebbe ae63 aabe 5eec a6be
000001f0: 1738 a0be 8aec dbbb fbba 4bbb b4f3 863e
00000200: 0e12 903d d5b8 b9bd 66ad 32be fd19 ed3d
00000210: d8de a7be eeaa 893c 6f97 2fbf efb6 8ebe
00000220: ef82 88bd f325 4d3e 2e6a 7bbe d16b 04bf
00000230: 0b25 85be 46b3 c8bc 6e50 153e ce73 523e
00000240: e800 24bd ede7 b13e 17d0 323f 970c 123f
00000250: 3d13 c6be 9c65 73be f586 aebc b62f a23d
00000260: e12e 213e f318 2a3e a950 823e 0676 043f
00000270: c567 93be 20af d93e 23a8 973d ca22 82be
00000280: 7bf5 8d3e 4b29 a8bc a6ea 873e 194c 8fbe
00000290: 2796 e9be 31c3 06be c2d8 b53e ce74 2f3e
000002a0: 87a5 0a3e 31af 043f 7800 113e 125f bc3e
000002b0: 3e50 533e 7896 343e c367 00bf 7a9d 9abe
000002c0: f0d0 fabe c6b2 a03e 4db3 253e a3ec 073f
000002d0: 367a ab3e 960d 033f 607a 7e3e 0a46 e3be
000002e0: 4df2 e9be d1c2 d83d d1d7 743c 2e50 d93d
000002f0: b169 ed3e 7e56 e9be 84fa ed3c 7574 843d
00000300: 0094 8dbd f8a9 83be 1248 fcbe e2d6 00bf
00000310: ce34 72be 4b17 dabe 360c 11be d4fd 01be
00000320: e13c 053e f248 fcbd 1da5 cc3e 2dff 963e
00000330: 40f1 d13e a1bb b93e c3fc 80be c9cb 903e
00000340: 9e4a 7dbe b61e fd3e f9c6 8dbd 0e9c d43e
00000350: 9145 ea3e c65f f4be 7914 33bf 85c0 dcbe
00000360: 5ea2 f3be db4b fb3e e5d2 54be b723 8a3e
00000370: 2bf9 413e c384 613e 4379 40be cbd7 c83e
00000380: 905d 9c3d 4b35 e1be f158 953e 2333 c53e
00000390: 5386 823e 56bc 0e3d 328b b0be d3ae ebbd
000003a0: 634b b7be 55af acbe 953d 4d3e 9387 0cbf
000003b0: e2ea e73e 492e c83e c491 debd 3b6f 82be
000003c0: 651b 8a3e f6f7 603e ad40 f33e f24e 0f3f
000003d0: b2f4 833e 0688 4f3e a39f 1ebe 831c ce3e
000003e0: d5d8 e3bc 1e85 81be 58fe 1e3f bf99 a03d
000003f0: e705 72be ac22 05be a8a6 9dbe a52d 12bf

net.0.bias f4 [64]
-0.15512 -0.47158542 -0.028252758 -0.11735009 -0.37023705 0.048362996 -0.39446333 0.22669674
-0.38460028 -0.19205531 0.4267607 0.2448837 -0.33145782 0.42111853 0.38449925 -0.04540361
0.036718283 0.44578877 -0.1362862 0.19139844 0.054206215 -0.11616331 -0.38298038 0.39263895
-0.46458817 -0.09799715 0.14048633 -0.40628234 -0.08575344 -0.27032864 -0.091347136 -0.28845206
-0.488953 0.36543715 0.41567725 0.36337897 0.26566872 -0.48905945 0.21541776 0.017913833
-0.2723819 0.14572586 0.11329538 -0.40648982 0.10134444 -0.4218811 0.1454759 -0.35137212
0.3240033 0.1043133 0.32505926 0.41572297 -0.006453038 0.1264656 0.3544197 0.08408493
-0.36329368 -0.21445079 0.038101085 0.47810882 -0.34162855 -0.49962243 0.2707586 0.09393329
00000000: c7d7 1ebe a573 f1be 5472 e7bc 3e55 f0bd
00000010: b68f bdbe 4718 463d 19f7 c9be 3123 683e
00000020: 54ea c4be 26aa 44be 6180 da3e cbc2 7a3e
00000030: d7b4 a9be d99c d73e 16dd c43e 23f9 39bd
00000040: e965 163d 6d3e e43e 9c8e 0bbe f4fd 433e
00000050: 5607 5e3d 08e7 edbd 0116 c4be f907 c93e
00000060: 80de edbe bbb2 c8bd a6db 0f3e 3d04 d0be
00000070: 809f afbd 8468 8abe 3514 bbbd fdaf 93be
00000080: 0c58 fabe 941a bb3e a6d3 d43e cf0c ba3e
00000090: bb05 883e 0066 fabe 7996 5c3e 08c0 923c
000000a0: a475 8bbe 2939 153e 6807 e83d 6f1f d0be
000000b0: ac8d cf3d cd00 d8be a2f7 143e 0ce7 b3be
000000c0: c3e3 a53e 36a2 d53d 2b6e a63e a4d9 d43e
000000d0: 0274 d3bb 3380 013e 8076 b53e b834 ac3d
000000e0: a101 babe fd98 5bbe e20f 1c3d aeca f43e
000000f0: f0e9 aebe 83ce ffbe dfa0 8a3e 1960 c03d

net.2.weight f4 [64, 64]
0.0076988395 0.0635535 0.09712449 0.05658179 0.116727665 -0.08335348 0.018425208 0.053348918
0.112554766 -0.023587132 -0.079342976 -0.10834002 -0.17934299 -0.05957696 0.16249608 0.08254001
0.13577491 0.19547676 -0.012896903 0.12563048 0.10118565 0.09258057 0.10232626 -0.008671129
-0.1259664 -0.0744981 0.2025795 0.058313053 -0.15470286 -0.00088793156 0.06555384 -0.056619838
-0.07042464 -0.08155186 -0.045187477 0.18011242 0.012782205 -0.09610697 0.054646574 -0.055678364
-0.10116651 -0.018994085 0.20688264 -0.04450456 0.19394894 -0.1294228 0.14739636 -0.013895879
-0.018787157 0.05519534 0.18868728 0.0671548 0.08814729 -0.117657766 0.075002134 -0.023498124
-0.01567699 0.05906169 -0.11695734 0.08554934 0.15774742 -0.007072634 -0.016405564 0.0067871283
0.09876609 -0.0061935796 0.13563861 0.019987874 -0.12501751 0.2079443 -0.018173352 0.0008973914
0.11512452 -0.030382043 0.08919601 0.06213439 -0.037215378 0.06340072 -0.03897728 -0.030590752
0.025866687 -0.04211928 0.14439872 -0.15405121 -0.09635282 0.07553379 0.03512756 0.016573247
-0.05164577 0.10763901 -0.146344 -0.05422237 0.03279604 0.051612247 -0.04457292 -0.00094079453
-0.021861019 0.09423478 0.0826828 -0.055069923 -0.17989321 0.078659914 -0.14488064 -0.03213762
0.06877212 0.05615784 -0.024865758 0.06494345 -0.056284506 0.06345607 0.06174589 0.047455814
0.07153372 0.10577903 0.10463545 -0.026440458 0.060122166 0.24071623 -0.04972061 0.054913692
0.003910029 -0.06318059 0.12260003 -0.056376487 0.09007126 0.11034287 -0.08232712 0.23581368
0.035632543 0.039196435 0.06366064 -0.047134615 0.10533514 0.18114445 0.0002698943 -0.019172853
0.041747745 0.10751216 0.04791894 -0.004688959 0.01010732 -0.034119423 -0.11665248 -0.09890226
0.005008589 -0.101654336 0.005687142 -0.14022122 0.067021914 -0.08848715 0.023859058 0.12937357
0.005196739 0.066684164 0.070708044 -0.10566081 0.15964618 -0.046390384 0.02416415 -0.06285228
0.08547656 -0.044538822 0.0020792782 -0.07866157 -0.02346456 -0.025186598 0.011742012 -0.038608704
0.086971655 0.092344984 0.015026459 -0.07486498 -0.030327713 -0.017685045 -0.025889935 -0.06192513
0.011985234 0.067864954 -0.027424004 -0.03322673 0.02920127 0.15297376 0.08105212 0.012464198
-0.09650425 0.101090245 -0.06033495 0.022897325 -0.12539577 0.11737397 0.06804159 0.14690286
0.11514453 0.04471642 -0.07016135 -0.09448392 0.08128046 0.058519382 0.056087043 -0.15235241
-0.032072753 0.09482267 0.074457385 0.1302001 0.16359924 0.15539686 -0.18226226 0.006172213
0.033619188 -0.030442663 0.14443669 0.020050958 0.0024371906 0.021918401 0.026374772 0.021592662
0.11934165 -0.029059874 -0.003166875 0.031861402 0.04491795 -0.112084374 0.17472488 0.0592181
-0.085797854 0.18619473 0.049895145 0.05020313 -0.11453531 0.075338125 0.011681636 0.1332183
0.026234534 0.02135654 0.026236387 0.14316955 -0.08943359 0.06421056 -0.02681207 -0.031316414
0.22608432 -0.016590534 -0.0044824434 -0.031006793 -0.06429976 0.24104236 0.049117554 0.0401896
-0.04489856 -0.016816514 -0.033140995 -0.044086434 -0.053785894 -0.07557158 -0.029192816 0.06576958
00000000: 8c46 fc3b 5628 823d 34e9 c63d 4fc2 673d
00000010: ea0e ef3d 3bb5 aabd 76f0 963c 6584 5a3d
00000020: 1d83 e63d cd39 c1bc 927e a2bd 5fe1 ddbd
00000030: b0a5 37be f806 74bd 5f65 263e bd0a a93d
00000040: 9408 0b3e 0f2b 483e 884d 53bc 47a5 003e
00000050: 6c3a cf3d e29a bd3d 6e90 d13d 5a11 0ebc
00000060: 56fd 00be 7692 98bd 0071 4f3e abd9 6e3d
00000070: 6d6a 1ebe 14c4 68ba 1741 863d 34ea 67bd
00000080: cb3a 90bd a904 a7bd 8116 39bd 646f 383e
00000090: 746c 513c bbd3 c4bd 16d5 5f3d ff0e 64bd
000000a0: 6330 cfbd 7c99 9bbc 0bd9 533e 6a4a 36bd
000000b0: 8d9a 463e 6987 04be 12ef 163e 8aab 63bc
000000c0: 86e7 99bc 8214 623d 3d37 413e 7588 893d
000000d0: 9186 b43d 8ef6 f0bd b89a 993d 237f c0bc
000000e0: 086d 80bc acea 713d 5487 efbd 7e34 af3d
000000f0: 8a88 213e 8ec1 e7bb f664 86bc 8f66 de3b
00000100: e045 ca3d 83f3 cabb d9e4 0a3e 9cbd a33c
00000110: 9704 00be 5aef 543e 48e0 94bc eb3e 6b3a
00000120: 68c6 eb3d c3e3 f8bc 66ac b63d a180 7e3d
00000130: 276f 18bd 3dd8 813d a4a6 1fbd 7599 fabc
00000140: 60e6 d33c 4485 2cbd 42dd 133e 9abf 1dbe
00000150: a154 c5bd 76b1 9a3d ebe1 0f3d 9ec4 873c
00000160: 848a 53bd d771 dc3d 34db 15be 4718 5ebd
00000170: 2455 063d 5d67 533d 1892 36bd a79f 76ba
00000180: e115 b3bc 2afe c03d 9a55 a93d 0091 61bd
00000190: ed35 38be 7318 a13d 975b 14be bda2 03bd
000001a0: 66d8 8c3d c305 663d 46b3 cbbc 1201 853d
000001b0: 958a 66bd 42f5 813d 42e9 7c3d 0761 423d
000001c0: 4580 923d ada2 d83d 1c4b d63d a999 d8bc
000001d0: a942 763d 517e 763e d7a7 4bbd 2eed 603d
000001e0: b31f 803b d364 81bd b915 fb3d 08eb 66bd
000001f0: 4877 b83d 71fb e13d 1f9b a8bd 2479 713e
00000200: 6ef3 113d 718c 203d 8260 823d 3a10 41bd
00000210: f3b9 d73d ee7d 393e 9a80 8d39 6310 9dbc
00000220: afff 2a3d 562f dc3d a746 443d d7a5 99bb
00000230: 2c99 253c cfc0 0bbd 7fe7 eebd 458d cabd
00000240: 171f a43b 2630 d0bd 345b ba3b 2796 0fbe
00000250: c942 893d c038 b5bd 1274 c33c 817a 043e
00000260: 6849 aa3b b591 883d 61cf 903d b264 d8bd
00000270: 4a7a 233e d803 3ebd e5f3 c53c b2b8 80bd
00000280: 560e af3d 576e 36bd 8044 083b 5119 a1bd
00000290: c038 c0bc 2054 cebc 9161 403c 2924 1ebd
000002a0: 321e b23d 5e1f bd3d 8931 763c d052 99bd
000002b0: d371 f8bc 3ae0 90bc 2117 d4bc 35a5 7dbd
000002c0: b75d 443c c8fc 8a3d 4ea8 e0bc c018 08bd
000002d0: 8037 ef3c 27a5 1c3e a7fe a53d a336 4c3c
000002e0: 05a4 c5bd 6708 cf3d c821 77bd 2c93 bb3c
000002f0: c067 00be c461 f03d 6459 8b3d b46d 163e
00000300: e5d0 eb3d 9128 373d c1b0 8fbd c980 c1bd
00000310: 5f76 a63d 05b2 6f3d 87bb 653d 4502 1cbe
00000320: b85e 03bd 6332 c23d 1d7d 983d 2d53 053e
00000330: 8f86 273e 5b20 1f3e f5a2 3abe 4640 ca3b
00000340: 46b4 093d e462 f9bc 36e7 133e e841 a43c
00000350: 46b9 1f3b 388e b33c e80f d83c 18e3 b03c
00000360: 6569 f43d f90e eebc 598b 4fbb 1a81 023d
00000370: e2fb 373d 7e8c e5bd 14eb 323e ae8e 723d
00000380: c9b6 afbd d5a9 3e3e da5e 4c3d cca1 4d3d
00000390: 7d91 eabd e04a 9a3d 5564 3f3c 616a 083e
000003a0: cee9 d63c e9f3 ae3c b1ed d63c 0a9b 123e
000003b0: f528 b7bd d380 833d fca4 dbbc a445 00bd
000003c0: a682 673e dfe8 87bc 76e1 92bb f501 febc
000003d0: 98af 83bd cfd3 763e 7d2f 493d da9d 243d
000003e0: 8de7 37bd c9c2 89bc dabe 07bd fa93 34bd
000003f0: 994e 5cbd 46c5 9abd c625 efbc 34b2 863d

net.2.bias f4 [64]
-0.010527301 0.115516886 0.025533143 -0.025066555 0.085091196 -0.009129833 -0.056126077 -0.087833844
0.02847867 0.01906154 0.0780774 0.15303874 -0.048183013 0.04074117 0.08697476 -0.0844342
-0.06095985 0.09443599 0.17990418 -0.014749176 -0.013713519 0.057760764 0.061674885 0.10029743
0.10241319 0.09841664 -0.046528704 -0.050487548 0.12322052 0.070698686 -0.0028064058 0.1597151
0.010682883 -0.03101001 -0.05530759 -0.03039906 0.15090477 0.16200182 -0.045899395 0.025257763
0.054074377 0.052813116 -0.0221382 0.11586697 -0.13236383 -0.10498756 0.119130924 0.07125642
-0.073638834 0.0876772 -0.036379345 0.0043644933 -0.03314249 0.1440647 0.16553682 0.017224051
-0.0806135 0.0019182671 -0.04222724 0.16769966 0.012866683 0.0047515635 0.071014635 0.08400938
00000000: b37a 2cbc 1e94 ec3d e22a d13c 6058 cdbc
00000010: 4b44 ae3d 4c95 15bc 75e4 65bd 3be2 b3bd
00000020: 1a4c e93c f226 9c3c 0be7 9f3d 30b6 1c3e
00000030: 8d5b 45bd 37e0 263d d31f b23d d6eb acbd
00000040: 09b1 79bd a867 c13d cd38 383e 87a6 71bc
00000050: abae 60bc 8d96 6c3d ce9e 7c3d bd68 cd3d
00000060: 02be d13d aa8e c93d e294 3ebd 08cc 4ebd
00000070: 0a5b fc3d 79ca 903d adeb 37bb 5b8c 233e
00000080: 4207 2f3c b408 febc 368a 62bd 7307 f9bc
00000090: c886 1a3e cee3 253e 0101 3cbd 5ee9 ce3c
000000a0: 187d 5d3d 9152 583d 2c5b b5bc a94b ed3d
000000b0: 628a 07be b803 d7bd eafa f33d e3ee 913d
000000c0: f5cf 96bd 1b90 b33d 8202 15bd 0604 8f3b
000000d0: 6bc0 07bd b285 133e 7c82 293e 7419 8d3c
000000e0: b118 a5bd 5d6e fb3a 78f6 2cbd 76b9 2b3e
000000f0: c8ce 523c 01b3 9b3b 1f70 913d 1c0d ac3d

net.4.weight f4 [2, 64]
-0.17973028 0.08598436 0.1298466 0.022141874 -0.04501123 0.18327497 -0.15019563 -0.07327953
0.22062148 -0.20877154 0.15804668 -0.1072075 -0.16136742 0.23670605 0.14698079 -0.0065098675
0.0048076566 0.19246897 -0.20600237 0.16595578 0.12518178 -0.028536987 0.056636527 0.14353934
-0.17221197 -0.16227311 -0.005592417 -0.013926253 -0.025754027 -0.03436352 -0.020176034 -0.12739491
-0.217657 0.11904116 -0.0031642246 0.21110234 0.16196388 0.08771865 0.05002689 0.0678913
0.13118927 0.20746507 -0.104304895 0.1432362 0.10963407 -0.041753165 -0.14150742 -0.061278816
-0.095723204 0.1315062 -0.01724779 -0.11263874 -0.033456687 0.12687922 0.17910384 -0.2075304
-0.03605253 -0.007491719 -0.03688848 0.16204433 0.047992792 0.0736175 0.15920769 0.06055187
0.1234196 -0.18432738 -0.07572342 -0.18245892 0.19041856 -0.16191737 0.13847135 -0.07778142
-0.0020530196 0.0075090844 -0.09270456 0.18701734 0.08159801 -0.2333457 -0.0876331 0.0044407663
-0.22297631 -0.06824964 0.025557555 -0.042303942 -0.08904707 0.12928621 -0.020833414 -0.064747006
0.15442829 0.07385943 -0.17961584 -0.020954385 0.19577222 0.031310257 0.17797431 0.17724063
0.15307069 -0.11716166 -0.06393854 -0.093403704 -0.19520815 -0.14590205 -0.08796173 0.0206273
0.045282576 -0.17827836 0.05848035 -0.15202886 0.113474935 -0.06522459 0.1530262 0.18490803
0.0666272 -0.10825953 -0.051377695 0.19471017 0.013332124 -0.15514527 -0.024980186 0.025576564
-0.01306799 -0.18373232 0.02676104 -0.21543136 -0.21910116 -0.12619646 -0.17751312 -0.15355617
00000000: 370b 38be 9118 b03d 82f6 043e e062 b53c
00000010: b25d 38bd 6fac 3b3e e2cc 19be 9413 96bd
00000020: 99ea 613e 35c8 55be fdd6 213e 9b8f dbbd
00000030: 803d 25be 1263 723e 2282 163e ba50 d5bb
00000040: 8c89 9d3b 9616 453e 49f2 52be 50f0 293e
00000050: a72f 003e 66c6 e9bc b4fb 673d fafb 123e
00000060: 5658 30be ec2a 26be 9840 b7bb f02a 64bc
00000070: 1cfa d2bc c3c0 0cbd 3648 a5bc d073 02be
00000080: 7ae1 5ebe dacb f33d e15e 4fbb 362b 583e
00000090: dcd9 253e d6a5 b33d ffe8 4c3d 980a 8b3d
000000a0: 7b56 063e b971 543e ce9d d5bd 83ac 123e
000000b0: d487 e03d 5e05 2bbd 52e7 10be 7fff 7abd
000000c0: 870a c4bd 90a9 063e 3d4b 8dbc 24af e6bd
000000d0: e109 09bd a0ec 013e ff66 373e d982 54be
000000e0: d1ab 13bd 187d f5bb 6018 17bd f3ee 253e
000000f0: 1794 443d c6c4 963d 5707 233e 3d05 783d
00000100: 6ac3 fc3d 51c0 3cbe e114 9bbd 83d6 3abe
00000110: 15fd 423e abcd 25be 6fcb 0d3e dd4b 9fbd
00000120: f48b 06bb c40e f63b e3db bdbd 7981 3f3e
00000130: dc1c a73d 2df2 6ebe fc78 b3bd d983 913b
00000140: e753 64be 78c6 8bbd 145e d13c e646 2dbd
00000150: 4f5e b6bd 9b63 043e d6aa aabc 149a 84bd
00000160: 7322 1e3e 9d43 973d 37ed 37be 88a8 abbc
00000170: 8378 483e 2f3f 003d e63e 363e 917e 353e
00000180: 90be 1c3e 74f2 efbd 36f2 82bd 714a bfbd
00000190: a5e4 47be 5967 15be 4825 b4bd 95fa a83c
000001a0: 397a 393d 9a8e 36be 1789 6f3d 74ad 1bbe
000001b0: 8c65 e83d 7894 85bd e6b2 1c3e 8858 3d3e
000001c0: d773 883d 2cb7 ddbd 6b71 52bd 1a62 473e
000001d0: fb6e 5a3c 67de 1ebe 3fa3 ccbc f185 d13c
000001e0: 1f1b 56bc 5324 3cbe f839 db3c 0a9a 5cbe
000001f0: 0e5c 60be a539 01be 00c6 35be d43d 1dbe

net.4.bias f4 [2]
0.038594596 -0.023498418
00000000: 5e15 1e3d c17f c0bc

exp_avg f4 [64, 4]
-0.00018711228 9.9064935e-05 2.7223805e-05 -0.00018303757 -1.7259441e-05 -1.1938886e-06 -1.16216185e-07 -8.1808616e-07
-7.593908e-05 -1.375534e-05 2.0646637e-05 -4.5720342e-05 4.4457476e-05 -5.5436067e-05 -2.8744304e-05 3.6730456e-05
-1.686947e-10 3.326869e-10 -1.5883033e-11 -9.679913e-11 -0.00040766288 -0.00023926544 0.00018638463 -0.00014931026
1.3496488e-05 -0.00018435027 -5.608875e-06 7.464387e-05 0.00052719 0.00017010873 -0.00018158776 0.00026926078
1.6677102e-09 3.0186115e-10 -2.0171122e-11 -9.82965e-11 5.4930006e-06 7.4937986e-07 -8.379653e-08 2.94027e-07
-0.00018633658 4.735261e-06 6.2450745e-05 -0.00015621922 -0.0006751376 -0.00020021203 0.00023222675 -0.0003819731
-0.00013187737 0.00015635543 3.138375e-05 -0.00016436006 -0.00034437576 -8.461443e-05 0.00010241915 -0.0001908856
0.0007139784 0.00017708685 -0.00020480489 0.00033414204 9.3350915e-05 6.024252e-07 -4.2656353e-05 1.7579112e-05
0.0002863848 0.00016111706 -0.00011572148 0.00010216948 8.55877e-05 4.838605e-05 -3.2247324e-05 2.4948182e-05
-0.00029679984 8.444427e-05 6.801992e-05 -0.0002377982 0.00071724615 0.00023070457 -0.00023214119 0.0004050546
0.00027813987 0.00010978873 -7.882668e-05 5.465236e-05 0.0 0.0 0.0 0.0
-3.718443e-05 -1.0665314e-05 -2.107662e-06 3.7353848e-06 -2.7406893e-06 2.638174e-05 -2.6111131e-06 -2.1193091e-05
-7.727905e-08 1.4889812e-07 9.867075e-09 -9.650374e-08 -1.7213733e-05 2.0178124e-05 1.658574e-05 -2.6680402e-05
0.00030584712 -6.314654e-05 -0.000106813946 0.00031035813 -4.065028e-05 -0.00012933569 1.4428162e-05 1.21e-05
-0.00031668422 -1.2756687e-05 4.7008867e-05 -9.846535e-05 -1.0479066e-06 -3.1788394e-07 -2.729873e-08 5.7695775e-08
-0.00027448373 7.100085e-05 5.469433e-05 -6.890087e-05 -2.6722535e-05 -6.407336e-06 -4.31625e-07 2.9993762e-06
-2.9394866e-22 -1.9795832e-21 1.142114e-22 2.1192654e-21 -0.00066343055 -0.00018350828 0.00022258578 -0.00037569774
-0.0005096194 -0.0002498814 0.00016886252 -0.00022504556 0.0002586328 9.124853e-05 -9.338606e-05 0.00013479528
0.0007324402 0.00022037233 -0.00025425965 0.0004196932 4.1545727e-06 9.621122e-07 6.71721e-08 -1.9223918e-07
0.00079344236 0.00024233769 -0.00024338724 0.00037458815 -8.652176e-05 -1.3763226e-05 2.39839e-05 -5.9402708e-05
-2.3456116e-06 -2.6379694e-06 2.637464e-07 1.6316336e-06 0.000113746195 -9.809026e-06 -4.734469e-05 0.00012505737
0.00057301414 0.00014436932 -0.0001725938 0.00023549015 -1.9844567e-05 -1.810262e-05 4.807601e-06 8.16529e-06
0.00045500352 -0.000120647055 -0.00014172439 0.00043032612 -4.873022e-06 -0.00011895862 1.0613485e-06 3.0013514e-05
1.1700051e-05 2.1683662e-05 -8.69689e-06 -2.598853e-06 -2.9022053e-06 -1.3733709e-05 -5.947321e-07 4.8879774e-06
-0.00064650044 -0.00018809536 0.0002213596 -0.00036431116 -0.00019910319 4.4511467e-05 9.202995e-05 -0.00023539376
0.00047280465 0.00016323039 -0.00016349278 0.0002397017 0.00029637307 8.91835e-05 -8.893534e-05 0.0001130672
0.00030346346 9.916632e-05 -8.996058e-05 0.00012820432 -0.0006133791 -2.5510863e-05 0.00018764283 -0.0004438442
0.00020681921 0.000111426525 -7.099347e-05 8.0055324e-05 0.00028600128 5.8376678e-05 -0.000120469194 0.00016002954
2.5897216e-05 -2.3455364e-05 -1.1533923e-05 2.8335724e-05 -2.358469e-05 -1.6391648e-05 6.834588e-06 -1.1128405e-08
-0.00036525392 0.0001115197 0.00011018647 -0.00030072717 -0.000225876 -6.222323e-05 7.1306036e-05 -0.00013404661
1.3819881e-07 8.4650355e-07 -6.6650074e-08 -4.1278616e-07 2.8737093e-08 1.2407567e-10 -4.62008e-09 1.1932384e-08
0.00028937624 2.0331421e-05 -0.00010332646 0.00019575884 -0.00055505114 -0.0005158786 0.00017188913 -0.00018135851
00000000: 9233 44b9 15c1 cf38 ad5e e437 c6ed 3fb9
00000010: 5ec8 90b7 b33d a0b5 8692 f9b3 749a 5bb5
00000020: 7c41 9fb8 bcc6 66b7 5132 ad37 d8c3 3fb8
00000030: da77 3a38 0684 68b8 ec1f f1b7 070f 1a38
00000040: 567b 39af 85e5 b62f 69b5 8bad 11dd d4ae
00000050: 96bb d5b9 54e3 7ab9 3e70 4339 2b90 1cb9
00000060: f96e 6237 264e 41b9 df33 bcb6 1f8a 9c38
00000070: 1f33 0a3a 375f 3239 9868 3eb9 922b 8d39
00000080: 5635 e530 2ef3 a52f 546d b1ad 0328 d8ae
00000090: 8450 b836 fe28 4935 a1f3 b3b3 c3da 9d34
000000a0: 5863 43b9 95e3 9e36 fdf7 8238 c7ce 23b9
000000b0: b8fb 30ba 02f0 51b9 e581 7339 9043 c8b9
000000c0: 9048 0ab9 57f3 2339 0ca2 0338 1158 2cb9
000000d0: 558d b4b9 0773 b1b8 ddc9 d638 7728 48b9
000000e0: 482a 3b3a 64b0 3939 e5c0 56b9 c92f af39
000000f0: 64c5 c338 58b6 2135 e9e9 32b8 db76 9337
00000100: eb25 9639 88f1 2839 7faf f2b8 d243 d638
00000110: 8c7d b338 20f2 4a38 4d41 07b8 d047 d137
00000120: cd9b 9bb9 ac17 b138 eba5 8e38 7859 79b9
00000130: 9305 3c3a 49e9 7139 ed6a 73b9 825d d439
00000140: 4dd3 9139 603e e638 c04f a5b8 863a 6538
00000150: 0000 0000 0000 0000 0000 0000 0000 0000
00000160: 7af6 1bb8 2def 32b7 5c71 0db6 6cad 7a36
00000170: afec 37b6 5b4e dd37 953a 2fb6 d1c7 b1b7
00000180: 9bf4 a5b3 cee0 1f34 db83 2932 7e3d cfb3
00000190: 3666 90b7 3144 a937 9b21 8b37 bacf dfb7
000001a0: 1b5a a039 8a6d 84b8 4d01 e0b8 90b7 a239
000001b0: e87f 2ab8 499e 07b9 7c10 7237 1b01 4b37
000001c0: a308 a6b9 8e05 56b7 632b 4538 2f7f ceb8
000001d0: cca5 8cb5 a3a9 aab4 8b7e eab2 2dcd 7733
000001e0: 95e8 8fb9 4be6 9438 9767 6538 df7e 90b8
000001f0: 352a e0b7 99fe d6b6 17ba e7b4 e448 4936
00000200: 5aae b19b b592 159d b712 0a1b 8e20 201d
00000210: 12ea 2dba 216c 40b9 ea65 6939 4cf9 c4b9
00000220: fb97 05ba 8402 83b9 b010 3139 35fa 6bb9
00000230: 1b99 8739 ae5c bf38 42d8 c3b8 d557 0d39
00000240: 3b01 403a bf13 6739 274e 85b9 450a dc39
00000250: 8267 8b36 ec21 8135 4140 9033 4e6a 4eb4
00000260: 04ff 4f3a 071c 7e39 c435 7fb9 5f64 c439
00000270: 0473 b5b8 9be8 66b7 0831 c937 2c27 79b8
00000280: 4d69 1db6 f807 31b6 0799 8d34 81fe da35
00000290: 068b ee38 7291 24b7 f993 46b8 d521 0339
000002a0: 5436 163a d861 1739 4cfa 34b9 e8ed 7639
000002b0: e277 a6b7 15db 97b7 fa50 a136 a7fd 0837
000002c0: 8a8d ee39 e503 fdb8 da9b 14b9 659d e139
000002d0: f182 a3b6 6c79 f9b8 a873 8e35 88c5 fb37
000002e0: 564b 4437 4fe5 b537 dce8 11b7 f467 2eb6
000002f0: 82c3 42b6 d569 66b7 aea5 1fb5 6803 a436
00000300: e979 29ba 773b 45b9 c41c 6839 0401 bfb9
00000310: 5bc6 50b9 d3b1 3a38 3400 c138 08d4 76b9
00000320: c4e2 f739 d328 2b39 426f 2bb9 6f58 7b39
00000330: 8562 9b39 0708 bb38 cc82 bab8 7e1e ed38
00000340: 2d1a 9f39 83f7 cf38 38a9 bcb8 966e 0639
00000350: 2dcb 20ba 2900 d6b7 fdc1 4439 c3b3 e8b9
00000360: 9cdd 5839 a9ad e938 54e2 94b8 60e3 a738
00000370: 71f2 9539 7bd9 7438 68a4 fcb8 9acd 2739
00000380: d93d d937 03c2 c4b7 d281 41b7 81b2 ed37
00000390: bcd7 c5b7 cc80 89b7 aa54 e536 3e2f 3fb2
000003a0: 8d7f bfb9 afdf e938 e913 e738 ebaa 9db9
000003b0: 21d9 6cb9 d87d 82b8 238a 9538 dd8e 0cb9
000003c0: cd63 1434 483b 6335 4421 8fb3 e69c ddb4
000003d0: 89d9 f632 326c 082f a7be 9eb1 2eff 4c32
000003e0: 6cb7 9739 658d aa37 f9b0 d8b8 9d44 4d39
000003f0: da80 11ba 073c 07ba 233d 3439 0e2b 3eb9

exp_avg_sq f4 [64, 4]
3.602623e-07 3.8455133e-07 8.1878575e-09 1.2184503e-07 4.4306248e-08 4.610711e-09 8.502811e-11 6.667844e-10
1.475784e-07 8.700521e-08 5.450056e-09 4.3895415e-08 6.834055e-07 2.618211e-07 7.4430866e-09 8.458263e-08
5.877838e-11 2.2808297e-10 4.2725236e-13 2.203406e-11 2.6948132e-06 1.4682842e-06 4.992498e-08 4.0075224e-07
4.4167624e-08 1.0619886e-07 5.2420135e-10 1.4499307e-08 2.800921e-06 1.4531719e-06 7.926039e-08 4.2901908e-07
4.9678537e-09 3.4641479e-09 2.6829653e-11 2.4159327e-10 1.604942e-08 5.2235762e-09 4.2521587e-11 5.638942e-10
2.5213404e-07 1.3794654e-07 6.545154e-09 5.0125607e-08 4.551154e-06 2.3220416e-06 1.2966179e-07 6.540498e-07
4.2168114e-07 2.142547e-07 3.8602033e-09 6.7609236e-08 7.039524e-07 4.941574e-07 2.4150859e-08 1.2731664e-07
2.2478466e-06 1.6893358e-06 1.1367222e-07 7.536349e-07 3.9086777e-07 1.9143181e-07 8.961244e-09 1.294945e-07
2.1353064e-06 9.337534e-07 4.2254822e-08 3.3510378e-07 9.477398e-08 5.158733e-08 2.5839637e-09 2.492784e-08
1.0127683e-06 7.9421466e-07 1.6372818e-08 2.3112251e-07 3.825287e-06 1.8866607e-06 7.995369e-08 4.972934e-07
1.0850032e-06 5.444748e-07 2.3888797e-08 1.7395455e-07 0.0 0.0 0.0 0.0
1.5469797e-07 1.6387256e-08 5.6361293e-10 3.852791e-09 3.8409307e-09 7.960487e-09 2.1386521e-09 4.4698943e-08
6.645673e-10 1.4832667e-09 5.0211883e-12 2.7309535e-10 2.627496e-07 1.4112882e-07 2.9620917e-09 2.6466887e-08
1.5870593e-06 9.437974e-07 6.1501346e-08 3.4430593e-07 2.8928025e-07 2.3195538e-07 2.1388133e-09 3.2345966e-08
1.2096375e-06 4.5917818e-07 1.5450537e-08 1.0566246e-07 1.1585976e-09 1.0686815e-09 2.5807863e-12 8.327093e-11
6.7391863e-07 2.562722e-07 8.501459e-09 5.185809e-08 3.5103465e-08 6.8174355e-09 1.236531e-10 1.5918076e-09
2.1598167e-13 4.5490656e-12 1.0142111e-14 4.1323668e-12 3.0257343e-06 1.8716453e-06 1.0666908e-07 6.5794836e-07
2.7228373e-06 1.3158743e-06 9.160886e-08 4.5879852e-07 7.713389e-07 4.5248336e-07 4.270948e-08 3.0673954e-07
4.5659685e-06 2.249173e-06 1.0339705e-07 5.8193507e-07 1.510487e-08 9.653186e-09 8.442405e-11 1.2868581e-09
3.663374e-06 2.3701891e-06 1.2022021e-07 5.9134e-07 9.988554e-08 6.589047e-08 8.26018e-09 5.817634e-08
2.431338e-07 5.473859e-08 5.693982e-10 5.8401013e-09 4.0835843e-07 2.2894746e-07 1.9395182e-08 1.1486883e-07
1.1407914e-06 6.379261e-07 2.9274895e-08 1.9911718e-07 1.6323949e-07 5.5098287e-08 4.172079e-10 4.270054e-09
2.9705393e-06 1.6601151e-06 7.257835e-08 4.5332544e-07 1.311913e-07 1.0281778e-07 1.0832546e-09 1.7083064e-08
3.5745238e-08 2.1473259e-08 1.8222149e-09 1.577618e-08 2.9390652e-09 3.9921697e-09 8.594179e-11 1.109561e-09
3.7973755e-06 1.7563891e-06 9.6389016e-08 5.1450013e-07 4.7392828e-07 1.8411657e-07 9.437562e-09 6.429274e-08
2.0618954e-06 1.1590089e-06 8.1335614e-08 5.1899235e-07 3.06915e-07 2.610533e-07 1.8066014e-08 1.8032583e-07
1.2301703e-06 6.357604e-07 1.9223819e-08 1.2384484e-07 2.8379848e-06 1.8872133e-06 7.2344434e-08 5.910101e-07
3.9648566e-07 2.1599304e-07 1.33539295e-08 8.486371e-08 7.5314307e-07 6.144151e-07 3.1035185e-08 1.7340392e-07
2.0721032e-08 3.919427e-08 3.3397124e-10 1.542244e-08 1.0411814e-07 2.0023098e-08 3.5351028e-10 2.124324e-09
2.5534537e-06 1.2531235e-06 6.2550285e-08 4.1357123e-07 4.6331053e-07 2.9833643e-07 2.5776474e-08 1.4615053e-07
9.089174e-08 4.137608e-08 3.297643e-10 3.279728e-09 7.190917e-09 1.8565061e-09 9.257695e-12 1.246702e-10
9.623307e-07 4.3588736e-07 3.528756e-08 2.4787397e-07 3.0643348e-06 1.5324971e-06 8.6094495e-08 4.2895314e-07
00000000: 136a c134 5574 ce34 94aa 0c32 82d4 0234
00000010: 3c4b 3e33 3e6c 9e31 92fa ba2e c848 3730
00000020: 0b76 1e34 9fd7 ba33 3343 bb31 8587 3c33
00000030: 4573 3735 6b90 8c34 15be ff31 cba3 b533
00000040: 4941 812e a6c7 7a2f 8e85 f02a 4bd0 c12d
00000050: 8ad8 3436 dc11 c535 196d 5633 f826 d734
00000060: d1b2 3d33 710f e433 6417 1030 a018 7932
00000070: 75f7 3b36 9b0a c335 dc35 aa33 ef53 e634
00000080: b4b1 aa31 ef0d 6e31 02ff eb2d 3bd1 842f
00000090: 0cdd 8932 107b b331 0d03 3b2e 8700 1b30
000000a0: 0a5d 8734 751e 1434 c9e3 e031 b049 5733
000000b0: 1db6 9836 5fd4 1b36 2939 0b34 f691 2f35
000000c0: 6a63 e234 e20d 6634 b5a2 8431 9230 9133
000000d0: 3ef7 3c35 3da6 0435 4d74 cf32 88b4 0834
000000e0: b6d9 1636 23bd e235 f71b f433 654d 4a35
000000f0: 75d8 d134 608c 4d34 f8f3 1932 2d0b 0b34
00000100: 494c 0f36 0ca7 7a35 ab7b 3533 50e8 b334
00000110: 8c86 cb33 df90 5d33 9291 3131 e620 d632
00000120: 74ee 8735 0432 5535 35a4 8c32 792a 7834
00000130: f75a 8036 2b39 fd35 02b3 ab33 be7d 0535
00000140: 6da0 9135 0628 1235 0534 cd32 43c8 3a34
00000150: 0000 0000 0000 0000 0000 0000 0000 0000
00000160: 0e1b 2634 f5c3 8c32 bcec 1a30 8261 8431
00000170: 2ff9 8331 98c2 0832 91f7 1231 02fb 3f33
00000180: c4ac 3630 cfdb cb30 d8aa b02c c122 962f
00000190: 0810 8d34 3289 1734 ab8d 4b31 4d59 e332
000001a0: f102 d535 4359 7d35 b912 8433 0cd9 b834
000001b0: 604e 9b34 690f 7934 67fa 1231 c4ec 0a33
000001c0: d45a a235 f884 f634 17b8 8432 8de8 e233
000001d0: 873c 9f30 e3e0 9230 509b 352c 5e1d b72e
000001e0: 56e7 3435 c895 8934 d00d 1232 93ba 5e33
000001f0: abc4 1633 cc3e ea31 41f5 072f c0c6 da30
00000200: 7a2c 732a 570e a02c 3bb4 3628 0d65 912c
00000210: b80d 4b36 3e35 fb35 f211 e533 de9d 3035
00000220: fdb9 3636 199d b035 81ba c433 ca50 f634
00000230: 010e 4f35 d7ec f234 926f 3733 f6ad a434
00000240: 5f35 9936 7ff0 1636 210b de33 4636 1c35
00000250: f6bf 8132 29d7 2532 84a6 b92e 4bdd b030
00000260: 49d8 7536 8a0f 1f36 e115 0134 93bc 1e35
00000270: a880 d633 ab7f 8d33 a8e8 0d32 90dd 7933
00000280: 0e88 8234 b719 6b33 d683 1c30 13aa c831
00000290: 5b3c db34 99d4 7534 759a a632 cfad f633
000002a0: 4b1d 9935 f33d 2b35 2d78 fb32 eacc 5534
000002b0: ee46 2f34 35a5 6c33 cb5c e52f cbb7 9231
000002c0: 7a59 4736 1fd1 de35 5fdc 9b33 9360 f334
000002d0: 97dd 0c34 accc dc33 a2e1 9430 0ebe 9232
000002e0: 4e86 1933 3274 b832 7d71 fa30 3084 8732
000002f0: 95f8 4931 7f2b 8931 edfc bc2e 357f 9830
00000300: 6ad6 7e36 12bd eb35 6cfe ce33 2e1c 0a35
00000310: 3570 fe34 94b1 4534 d622 2232 4f11 8a33
00000320: 185f 0a36 3e8f 9b35 baaa ae33 e250 0b35
00000330: 14c6 a434 e426 8c34 962f 9b32 969f 4134
00000340: 541c a535 1fa9 2a35 a021 a532 36fa 0434
00000350: 3574 3e36 284c fd35 c65b 9b33 e8a5 1e35
00000360: 93dc d434 b7eb 6734 346b 6532 513e b633
00000370: 992b 4a35 49ee 2435 8c4b 0533 e830 3a34
00000380: 08fe b132 8e56 2833 469a b72f 4e7a 8432
00000390: 8e97 df33 42ff ab32 2658 c22f 81fb 1131
000003a0: 005c 2b36 ff30 a835 6253 8633 cc08 de34
000003b0: eabc f834 0c2b a034 116b dd32 8ded 1c34
000003c0: 4330 c333 7bb5 3133 334a b52f 9661 6131
000003d0: fa13 f731 0028 ff30 f4dc 222d 8b13 092f
000003e0: 6e29 8135 e703 ea34 158f 1733 8a13 8534
000003f0: dfa4 4d36 33b0 cd35 f3e2 b833 df4a e634

exp_avg f4 [64]
0.0005198323 9.31758e-06 6.434153e-05 6.064071e-05 -2.943911e-10 0.0014457736 -0.0002028876 -0.001250983
1.0290618e-09 -2.9581631e-06 0.0006243529 0.0016106877 0.000531213 0.0007334831 -0.0015592193 -0.00028264435
-0.0017771344 -0.00027346818 0.0005287118 -0.001875948 -0.0012644801 0.0 2.1956985e-05 -1.3908197e-05
1.150732e-07 4.2392785e-06 -0.0015608732 -0.00010100826 0.001054315 5.1230086e-07 0.00045112657 2.2789969e-05
7.829014e-22 0.0015284506 0.001310394 -0.0006770605 -0.001768618 -3.1546397e-06 -0.0017013827 0.00014011833
-3.379405e-06 -0.00072770234 -0.0011916782 -3.1310086e-05 -0.0018286791 -0.0001238992 -0.00013141391 1.0924685e-05
0.001554787 0.0010542773 -0.0011705854 -0.00066748407 -0.0004088857 0.0017723278 -0.0005128164 -0.00040974832
2.8903738e-05 -3.5331763e-05 0.0039579477 0.00050925073 -3.729389e-07 2.5486722e-08 -0.00095379254 0.0025327608
00000000: 5b45 083a b452 1c37 19ef 8638 7758 7e38
00000010: ddd7 a1af 1d80 bd3a 3abe 54b9 06f8 a3ba
00000020: e56e 8d30 db84 46b6 9dab 233a b61d d33a
00000030: 1a41 0b3a 3847 403a b85e ccba e22f 94b9
00000040: bcee e8ba 4760 8fb9 4099 0a3a 5fe2 f5ba
00000050: e9bc a5ba 0000 0000 4430 b837 4057 69b7
00000060: 291e f733 203f 8e36 3796 ccba 66d4 d3b8
00000070: f130 8a3a 0c85 0935 2f85 ec39 162d bf37
00000080: 109e 6c1c 4b56 c83a 87c1 ab3a c37c 31ba
00000090: f9d0 e7ba 4cb4 53b6 ee00 dfba baec 1239
000000a0: bcc9 62b6 47c3 3eba 1632 9cba f352 03b8
000000b0: 4ab0 efba f0ea 01b9 27cc 09b9 2a49 3737
000000c0: ffc9 cb3a ad2f 8a3a 546e 99ba 19fa 2eba
000000d0: b65f d6b9 744d e83a 876e 06ba 7dd3 d6b9
000000e0: 4e76 f237 3131 14b8 acb1 813b 3d7f 053a
000000f0: 5538 c8b4 e5ed da32 ef07 7aba adfc 253b

exp_avg_sq f4 [64]
1.059713e-06 1.6790855e-08 3.9485118e-07 1.2875335e-06 9.5042e-11 1.25722e-05 8.2507874e-08 8.969271e-06
1.9009654e-09 7.2530786e-09 1.2911615e-06 1.474306e-05 6.750745e-07 3.4510476e-06 1.0399498e-05 1.1218108e-06
8.369853e-06 3.115594e-07 2.2655406e-06 1.3782526e-05 3.9217903e-06 0.0 8.988925e-08 5.1604626e-08
6.2403754e-10 3.5706475e-07 7.501147e-06 2.8939675e-07 2.6614168e-06 3.7359427e-10 1.5287811e-06 2.5322425e-08
5.8052955e-13 1.2082832e-05 8.834897e-06 2.8557392e-06 1.5448142e-05 9.9744275e-09 1.4870747e-05 3.2746524e-07
1.1797474e-07 1.8676681e-06 5.25765e-06 5.5486783e-08 1.36515455e-05 1.4676293e-07 1.549965e-07 6.079287e-09
1.2373928e-05 2.239276e-06 7.01272e-06 1.635392e-06 2.8815887e-06 1.4796806e-05 1.5150267e-06 4.0349323e-06
6.894471e-08 6.333346e-08 1.0261566e-05 2.1081169e-06 4.1231083e-08 2.2007476e-09 3.5649016e-06 1.3151281e-05
00000000: 763b 8e35 7b3b 9032 effb d334 50cf ac35
00000010: e4ff d02e 30ed 5237 2f2f b133 ba7a 1637
00000020: 23a2 0231 c136 f931 f94b ad35 f658 7737
00000030: c436 3535 8c98 6736 8179 2e37 2091 9635
00000040: 3f6c 0c37 6644 a734 b109 1836 803b 6737
00000050: ec97 8336 0000 0000 2309 c133 e3a3 5d33
00000060: bd88 2b30 9bb2 bf34 5db2 fb36 635e 9b34
00000070: cb9a 3236 b862 cd2f 8530 cd35 9a84 d932
00000080: 9067 232b 5eb7 4a37 9839 1437 3aa5 3f36
00000090: a296 8137 ff5b 2b32 5f7d 7937 7bce af34
000000a0: 4d59 fd33 96ac fa35 df6a b036 5d50 6e33
000000b0: f108 6537 e395 1d34 1d6d 2634 f9e1 d031
000000c0: 9e99 4f37 7846 1636 ce4e eb36 a47f db35
000000d0: 5161 4136 cc3f 7837 ec57 cb35 ce63 8736
000000e0: c10e 9433 f001 8833 1729 2c37 2c79 0d36
000000f0: 0e16 3133 f63b 1731 8b3c 6f36 52a4 5c37

exp_avg f4 [64, 64]
-2.4596175e-05 1.2370245e-06 3.5425088e-05 -8.551952e-06 -2.5056615e-11 -1.7018078e-06 8.563881e-06 -6.21211e-05
1.6250003e-10 1.6564589e-07 -0.0003288554 -0.00013866415 -1.1161827e-05 -7.964558e-05 -0.000103264996 -2.490734e-05
-4.0502604e-05 -0.00017381189 -1.4376579e-05 -3.5854286e-05 -3.3172855e-05 0.0 4.398068e-06 -0.00029293686
3.738434e-08 3.2355132e-07 -0.00013237039 1.6137254e-05 -2.357311e-05 -8.187846e-09 -1.5888649e-05 5.0594444e-06
3.6796852e-23 -0.00019116055 -0.00019763473 -0.00019122817 -9.213341e-05 2.8365394e-06 -2.6471529e-05 -4.5292873e-05
3.161076e-08 -0.00013124946 2.6453128e-05 -3.6791363e-07 -6.449351e-05 1.8697212e-05 -0.000121209974 3.9166366e-06
-0.0001767129 -8.243324e-05 -0.00012386349 -4.080287e-05 1.3758161e-05 -5.1169645e-06 -0.00016468708 4.4219094e-05
9.508405e-06 1.3872227e-06 -0.000105923085 -0.0001101011 7.169675e-08 -1.0591387e-09 -0.00016384422 -0.000110368215
2.335668e-05 -1.0861625e-06 -2.7295297e-05 1.6973089e-06 2.2482974e-11 -3.475247e-06 -7.503451e-06 4.3740696e-05
-1.4679344e-10 -1.4750238e-07 0.00026771423 0.00012403661 1.0668334e-05 7.219505e-05 7.4129544e-05 1.2029895e-05
2.3747174e-05 0.00014255379 1.4477653e-05 2.3214014e-05 5.756438e-06 0.0 -3.8182716e-06 0.00024425416
-3.3719008e-08 -3.1456534e-07 0.00010305958 -1.3878732e-05 2.1229867e-05 7.110838e-09 1.3855745e-05 -4.168465e-06
-2.4096012e-23 0.0001658185 0.0001818885 0.00015112536 6.912094e-05 -2.4747212e-06 1.030355e-05 4.6367913e-05
-3.0237327e-08 0.00010107219 -1.8356299e-05 3.2034254e-07 4.8378897e-05 -1.6129286e-05 0.000101239275 -3.5649584e-06
0.00015206976 6.1099265e-05 8.8980174e-05 3.1987078e-05 -7.674708e-06 1.1368761e-06 0.00014235803 -4.2327683e-05
-8.93485e-06 -1.2509552e-06 9.3412265e-05 0.00010678556 2.1325834e-09 6.184605e-10 0.00012555583 9.9277175e-05
2.6104603e-05 -7.8662276e-07 1.7467559e-05 6.155862e-06 1.6173401e-11 3.5876049e-06 -2.9634305e-06 8.776197e-05
-1.1824053e-10 -1.07742956e-07 0.0002418417 0.00014042262 1.6424383e-05 0.00016877693 0.00013552059 1.7465733e-05
2.2837874e-05 0.00020942798 2.2308624e-05 7.336953e-05 1.1964382e-05 0.0 -2.8036593e-06 0.00023756815
-7.969621e-09 -2.346273e-07 9.600916e-05 -6.4579945e-07 1.6348991e-05 5.185482e-09 1.0965626e-05 -3.2563182e-06
-3.8112925e-23 0.00019944564 0.00024143 0.00017391893 0.00011704943 -1.7993099e-06 5.9985112e-05 6.524984e-05
7.26297e-09 9.233791e-05 4.5201818e-05 4.130029e-08 6.4452026e-05 -1.9265251e-07 0.00010195903 -2.7951899e-06
0.00016914941 5.330902e-05 0.00012049437 0.00014584648 1.8904608e-05 2.5419868e-05 0.00019919327 4.4470817e-06
-7.114309e-06 -1.0532947e-07 7.2916686e-05 0.0002218664 -1.4634767e-08 9.21252e-11 0.00012416193 8.819865e-05
1.7758943e-05 -8.097321e-07 -2.266506e-05 3.7512987e-06 1.6776608e-11 -1.2632414e-06 -5.6834033e-06 3.6324836e-05
-1.2515282e-10 -1.1083307e-07 0.0002113483 9.4044364e-05 8.366067e-06 5.2744803e-05 5.8868874e-05 1.2736826e-05
2.1005942e-05 0.00011154235 1.09603125e-05 1.9027939e-05 1.03046605e-05 0.0 -2.8791164e-06 0.00019143072
-2.5557412e-08 -1.1560886e-07 8.34738e-05 -1.0727511e-05 1.6379781e-05 5.348847e-09 1.1382078e-05 -3.1148454e-06
-3.0905324e-23 0.0001284443 0.00013665465 0.000120499324 5.5218217e-05 -1.8530571e-06 1.0251472e-05 3.4441324e-05
-2.3001311e-08 8.2095234e-05 -1.6043925e-05 2.418969e-07 4.075322e-05 -1.2432715e-05 8.0336824e-05 -2.5221427e-06
0.00011741539 5.012258e-05 7.231185e-05 2.3350523e-05 -6.306449e-06 1.7117333e-06 0.000110518566 -3.2292937e-05
-6.2130403e-06 -9.477718e-07 7.153223e-05 7.725183e-05 -2.1754731e-08 4.12512e-10 0.000100538935 7.549497e-05
00000000: e253 ceb7 d707 a635 6695 1438 5b7a 0fb7
00000010: 7b66 dcad ac69 e4b5 97ad 0f37 0347 82b8
00000020: b1ab 322f 65dc 3134 3a6a acb9 6066 11b9
00000030: af43 3bb7 6507 a7b8 f98f d8b8 1bf0 d0b7
00000040: 57e1 29b8 4641 36b9 f032 71b7 3f62 16b8
00000050: 1523 0bb8 0000 0000 1e93 9336 5295 99b9
00000060: 8490 2033 8eb4 ad34 e8cc 0ab9 7d5e 8737
00000070: debe c5b7 87aa 0cb2 9d48 85b7 4cc4 a936
00000080: 4cf0 311a 4572 48b9 2b3c 4fb9 6c84 48b9
00000090: bf37 c1b8 605b 3e36 2d0f deb7 daf8 3db8
000000a0: 66c4 0733 02a0 09b9 a9e7 dd37 aa85 c5b4
000000b0: b140 87b8 f5d7 9c37 1c32 feb8 a76b 8336
000000c0: 024c 39b9 02e0 acb8 5ae1 01b9 c023 2bb8
000000d0: dad2 6637 64b2 abb6 daaf 2cb9 e477 3938
000000e0: 4a86 1f37 9c30 ba35 0623 deb8 14e6 e6b8
000000f0: b5f7 9933 2191 91b0 99cd 2bb9 7c75 e7b8
00000100: 17ee c337 42c8 91b5 34f8 e4b7 17cf e335
00000110: 28c3 c52d 4a38 69b6 27c6 fbb6 3776 3738
00000120: ae66 21af 2561 1eb4 ff5b 8c39 d30f 0239
00000130: 25fc 3237 6c67 9738 ff75 9b38 01d4 4937
00000140: ab34 c737 7e7a 1539 0ce5 7237 b7bb c237
00000150: 6d27 c136 0000 0000 b41e 80b6 3d0f 8039
00000160: 71d2 10b3 88e1 a8b4 b121 d838 b3d8 68b7
00000170: cb16 b237 9853 f431 f975 6837 d7de 8bb6
00000180: d60a e999 91df 2d39 53b9 3e39 6877 1e39
00000190: 06f5 9038 6313 26b6 69dd 2c37 2b7b 4238
000001a0: 4bde 01b3 b8f6 d338 dafb 99b7 8bfb ab34
000001b0: 72ea 4a38 614d 87b7 6c50 d438 853d 6fb6
000001c0: ea74 1f39 6b22 8038 de9a ba38 dd29 0638
000001d0: 9fc2 00b7 c496 9835 f145 1539 0189 31b8
000001e0: e3e6 15b7 7ee6 a7b5 54e6 c338 10f2 df38
000001f0: ce8c 1231 4a00 2a30 a3a7 0339 0733 d038
00000200: 35fb da37 4e28 53b5 4c87 9237 748e ce36
00000210: 4343 8e2d 95c2 7036 59df 46b6 d90c b838
00000220: c001 02af 5160 e7b3 e396 7d39 693e 1339
00000230: 18c7 8937 b6f9 3039 881a 0e39 6083 9237
00000240: f693 bf37 e599 5b39 6823 bb37 f7dd 9938
00000250: a1ba 4837 0000 0000 8026 3cb6 b71b 7939
00000260: c4ea 08b2 dced 7bb4 8658 c938 005b 2db5
00000270: 3125 8937 fb2b b231 01f9 3737 1f87 5ab6
00000280: 844d 389a 4822 5139 5f28 7d39 025e 3639
00000290: 6f78 f538 d17f f1b5 8698 7b38 bed6 8838
000002a0: c28d f931 8aa5 c138 1597 3d38 2662 3133
000002b0: 6b2a 8738 ebdb 4eb4 d6d2 d538 ff94 3bb6
000002c0: b35d 3139 2098 5f38 ecb1 fc38 5eee 1839
000002d0: 5695 9e37 c03c d537 89de 5039 2438 9536
000002e0: 73b7 eeb6 7d31 e2b3 d9ea 9838 cfa4 6839
000002f0: 636c 7bb2 e195 ca2e 7731 0239 4af7 b838
00000300: 0af9 9437 5e5c 59b5 d920 beb7 d2be 7b36
00000310: 9091 932d a58c a9b5 10b4 beb6 7f5b 1838
00000320: 639b 09af 2003 eeb3 619d 5d39 af39 c538
00000330: fc5b 0c37 4d3a 5d38 f9e9 7638 40b0 5537
00000340: eb35 b037 d8eb e938 2fe2 3737 309e 9f37
00000350: 2ee2 2c37 0000 0000 d836 41b6 cbba 4839
00000360: 5889 dbb2 a544 f8b3 a80e af38 4ffa 33b7
00000370: 5067 8937 f5c8 b731 a7f5 3e37 a308 51b6
00000380: f072 159a 01af 0639 f44a 0f39 95b4 fc38
00000390: 1c9a 6738 8fb6 f8b5 bdfd 2b37 1775 1038
000003a0: 6b94 c5b2 8b2a ac38 1196 86b7 0fde 8134
000003b0: 70ee 2a38 1b96 50b7 817a a838 1542 29b6
000003c0: e83c f638 b63a 5238 21a6 9738 dee0 c337
000003d0: fc9b d3b6 b5be e535 34c6 e738 4772 07b8
000003e0: 9c79 d0b6 626a 7eb5 9303 9638 4302 a238
000003f0: 29df bab2 e7c7 e22f 6ed8 d238 0e53 9e38

exp_avg_sq f4 [64, 64]
3.5337253e-09 4.0118772e-10 3.60183e-08 2.4777304e-08 2.0971868e-11 1.0893454e-08 1.2141244e-09 1.04667315e-07
4.2630965e-10 1.4035739e-10 3.875541e-07 7.958529e-08 8.79067e-09 2.4486852e-07 2.33583e-07 5.6296326e-08
1.83728e-08 2.397496e-07 5.432235e-09 9.792726e-08 8.1240536e-08 0.0 1.9622453e-09 2.8629557e-07
1.2849734e-10 2.5972942e-09 1.1637894e-07 7.519339e-09 3.0482433e-08 4.379341e-12 3.417367e-08 2.199346e-09
3.4358849e-16 1.9276516e-07 2.1449628e-07 2.195707e-07 1.7881919e-07 2.6181197e-09 1.0466186e-07 3.435523e-08
1.3191805e-09 1.2246345e-07 4.9708337e-08 6.530025e-10 9.0455146e-08 1.3811394e-08 8.580409e-08 3.5978422e-09
1.4284448e-07 5.615269e-08 1.6872357e-07 2.5858887e-07 1.2505968e-08 6.651702e-08 2.2999772e-07 2.699958e-08
3.08095e-09 1.9321138e-09 4.8310543e-08 3.4308763e-07 1.6706263e-09 5.799989e-10 1.240437e-07 4.1586024e-08
2.5594122e-09 2.9084776e-10 2.4609697e-08 1.5295079e-08 1.31215195e-11 7.952571e-09 8.1918367e-10 4.2266024e-08
2.9614064e-10 8.44169e-11 2.7037757e-07 5.7653352e-08 6.3728374e-09 1.7634088e-07 1.1933915e-07 3.4936512e-08
8.0024165e-09 1.4910638e-07 3.841588e-09 3.316429e-08 2.7990156e-08 0.0 1.3765221e-09 2.0041396e-07
6.9580224e-11 1.9127768e-09 6.7426875e-08 5.303214e-09 2.0719536e-08 2.491388e-12 2.331542e-08 1.5256082e-09
9.76536e-16 1.4321401e-07 1.5696345e-07 1.2724529e-07 5.984012e-08 1.6935479e-09 3.8385423e-08 2.3302396e-08
9.911555e-10 7.3940676e-08 2.7882678e-08 4.908688e-10 4.6945427e-08 9.512844e-09 5.8506412e-08 2.5688727e-09
1.0565216e-07 3.926756e-08 7.9300506e-08 1.6116896e-07 7.2636794e-09 4.5247017e-08 1.4467821e-07 1.3979824e-08
1.6809392e-09 1.4281388e-09 3.424721e-08 2.3758828e-07 1.1111849e-09 3.9969117e-10 6.837749e-08 2.8971993e-08
6.8724176e-10 1.8996799e-10 2.139721e-09 1.0806516e-08 1.5354575e-11 4.329496e-09 4.8069097e-11 1.7925878e-08
1.9612487e-11 9.4509324e-11 1.566736e-07 2.0728132e-08 3.2249472e-09 3.9672088e-08 3.6018882e-08 2.5111136e-08
5.768066e-09 5.960265e-08 1.1883204e-09 8.500873e-09 1.9765293e-08 0.0 9.051274e-10 1.09723096e-07
3.4253117e-12 1.104107e-09 4.4159734e-08 1.9512401e-10 1.5642746e-08 2.982888e-12 1.7402852e-08 1.0636777e-09
1.782886e-14 6.5312435e-08 5.2350877e-08 6.722111e-08 2.0344018e-08 1.4633188e-09 1.14424505e-08 9.830275e-09
1.1759681e-10 4.894547e-08 3.3583845e-09 2.8798419e-11 2.818177e-08 3.7218312e-10 3.4731638e-08 1.2895807e-09
4.412344e-08 2.6425969e-08 3.5580015e-08 3.4152418e-08 2.9610743e-09 1.402726e-08 6.5903116e-08 2.2657898e-09
1.7340085e-09 1.4728492e-10 2.2154481e-08 4.9874128e-08 7.1711616e-11 2.1234788e-11 3.8343302e-08 1.4292585e-08
1.89251e-09 1.6382218e-10 1.3570487e-08 8.9579935e-09 7.460408e-12 4.4815747e-09 5.0074705e-10 3.1745483e-08
1.5067442e-10 4.8790964e-11 1.5475506e-07 3.4292025e-08 3.875462e-09 9.888375e-08 7.913971e-08 2.0684196e-08
5.3239573e-09 8.842152e-08 2.3913078e-09 2.6804962e-08 2.4246392e-08 0.0 8.0033297e-10 1.1370293e-07
3.960598e-11 1.0201445e-09 4.2621547e-08 2.95645e-09 1.1657684e-08 1.4338312e-12 1.3089132e-08 8.593601e-10
3.0419213e-15 8.029988e-08 9.212621e-08 8.097461e-08 5.074745e-08 9.461176e-10 2.9872403e-08 1.4567934e-08
5.3538207e-10 4.561173e-08 1.618553e-08 2.7646574e-10 3.038396e-08 5.222076e-09 3.3895155e-08 1.3777931e-09
5.977135e-08 2.2173387e-08 5.7359475e-08 9.2479524e-08 4.6243738e-09 2.6560667e-08 8.611457e-08 8.135547e-09
9.657394e-10 7.6034695e-10 1.9467404e-08 1.3468771e-07 4.695778e-10 1.88419e-10 4.4885365e-08 1.8026105e-08
00000000: f4d5 7231 278e dc2f 8ab2 1a33 ded5 d432
00000010: 7378 b82d eb25 3b32 34de a630 77c5 e033
00000020: c05d ea2f 1853 1a2f 0811 d034 7ae8 aa33
00000030: c705 1732 7976 8334 cece 7a34 77ca 7133
00000040: 37d2 9d32 efb6 8034 72a6 ba31 154c d233
00000050: 7576 ae33 0000 0000 2fd8 0631 2ab4 9934
00000060: c948 0d2f 157c 3231 00ec f933 672e 0132
00000070: caeb 0233 9915 9a2c 59c6 1233 4e23 1731
00000080: b610 c625 e2fa 4e34 4a50 6634 22c3 6b34
00000090: 7201 4034 73ea 3331 77c2 e033 fa8d 1333
000000a0: 8a4e b530 7f7e 0334 e57e 5533 f77e 3330
000000b0: 3e40 c233 2747 6d32 4c43 b833 e93d 7731
000000c0: cb60 1934 892c 7133 622a 3534 2fd4 8a34
000000d0: d4d9 5632 1ed8 8e33 4bf5 7634 b4ec e732
000000e0: a5b8 5331 1bc6 0431 017e 4f33 9b31 b834
000000f0: f09b e530 cb6d 1f30 df30 0534 519c 3233
00000100: a8e1 2f31 2fe5 9f2f 4c65 d332 3c62 8332
00000110: 12d6 662d c79f 0832 ed2c 6130 fc87 3533
00000120: 17ce a22f 7da2 b92e 6928 9134 889e 7733
00000130: 12f8 da31 3658 3d34 b223 0034 1a0d 1633
00000140: 007b 0932 0d1a 2034 f7fe 8331 8670 0e33
00000150: 016f f032 0000 0000 1130 bd30 5f31 5734
00000160: 2f02 992e ed71 0331 51cc 9033 9037 b631
00000170: befa b132 db50 2f2c 2747 c832 91ad d130
00000180: d2bb 8c26 5ec6 1934 c989 2834 eba0 0834
00000190: 7481 8033 6bc2 e830 38dd 2433 832a c832
000001a0: 2f39 8830 51c9 9e33 a882 ef32 d2ed 0630
000001b0: 0ba1 4933 ee6d 2332 7b48 7b33 1688 3031
000001c0: e4e2 e233 24a7 2833 ea4b aa33 c90d 2d34
000001d0: 0094 f931 9f55 4233 d858 1b34 eb2b 7032
000001e0: ca06 e730 2b48 c430 3517 1333 c51b 7f34
000001f0: 58b8 9830 88bb db2f ecd6 9233 16de f832
00000200: 57e8 3c30 3cdf 502f 5f0a 1331 8fa7 3932
00000210: 6e0f 872d a6c2 9431 fe68 532e 6cfb 9932
00000220: 6583 ac2d 05d4 cf2e 1c3a 2834 a50d b232
00000230: df9d 5d31 ec63 2a33 2eb3 1a33 f9b3 d732
00000240: 7230 c631 cffd 7f33 4f52 a330 3c0b 1232
00000250: 57c8 a932 0000 0000 aecc 7830 e9a0 eb33
00000260: ee08 712c 50bf 9730 24aa 3d33 878a 562f
00000270: c35e 8632 efe6 512c 477d 9532 d530 9230
00000280: 8d96 a028 e441 8c33 66d8 6033 325b 9033
00000290: f8c0 ae32 f41d c930 6e94 4432 02e2 2832
000002a0: 8f4c 012f 1d38 5233 53c9 6631 4650 fd2d
000002b0: 5e14 f232 1e9c cc2f d72b 1533 163d b130
000002c0: 3c82 3d33 52ff e232 a4d0 1833 fbae 1233
000002d0: c57b 4b31 8bfc 7032 9f86 8d33 32b4 1b31
000002e0: 0052 ee30 05f1 212f 384e be32 2f35 5633
000002f0: 0db2 9d2e 7ec8 ba2d e8ae 2433 748b 7532
00000300: 630d 0231 d81f 342f a223 6932 ace5 1932
00000310: b13e 032d 59fc 9931 f1a4 0930 8758 0833
00000320: 14ab 252f be95 562e bf2a 2634 7b48 1333
00000330: ed28 8531 eb59 d433 84f3 a933 07ad b132
00000340: 06ee b631 3fe2 bd33 5554 2431 bc40 e632
00000350: 6146 d032 0000 0000 6dfe 5b30 d92c f433
00000360: 5f30 2e2e 2535 8c30 e30e 3733 6b2a 4b31
00000370: 0947 4832 37cb c92b 9cde 6032 1738 6c30
00000380: 8b31 5b27 5371 ac33 ebd6 c533 43e4 ad33
00000390: 69f5 5933 8e08 8230 0e4d 0033 7446 7a32
000003a0: 2a2a 1330 a1e6 4333 5b08 8b32 18fd 972f
000003b0: 847f 0233 de6d b331 1e94 1133 c95c bd30
000003c0: a65b 8033 cb77 be32 695b 7633 2899 c633
000003d0: 6ce4 9e31 8627 e432 fced b833 84c4 0b32
000003e0: efba 8430 a900 5130 4639 a732 ad9e 1034
000003f0: 9a13 0130 3c2b 4f2f fbc7 4033 d3d7 9a32
