P3/Q2/cartpole/checkpoints/pg_CartPole-v1_lastTF.pth (torch, 81923 bytes, 18 tensors)

net.0.weight f4 [64, 4]
0	0x3e460009	0.19335951
1	0xbebe8c86	-0.37216586
2	0x3f42881f	0.75988954
3	0x3ea3d2a8	0.31996655
4	0x3e0bf886	0.13669023
5	0xbedabeb2	-0.42723614
6	0x3e42f430	0.19038463
7	0x3d12e8b9	0.035866473
8	0xbe92a59b	-0.28641972
9	0xbe436c9c	-0.190844
10	0xbcb47bcf	-0.022031693
11	0x3e855c64	0.2604705
12	0x3ecf8dfa	0.40538007
13	0x3eafaaf9	0.3431013
14	0x3e0f23d7	0.13978516
15	0xbe53781c	-0.20651287
16	0xbed061d0	-0.40699625
17	0xbc417847	-0.0118084615
18	0xbe7380a5	-0.23779543
19	0xbe884c12	-0.26620537
20	0xbeb73eac	-0.35790002
21	0xbdf6b8a0	-0.12046933
22	0xbee5387a	-0.4476965
23	0xbef85cd9	-0.48508337
24	0xbe39deb0	-0.18151355
25	0xbe997889	-0.29974774
26	0xbf3c13c6	-0.7346767
27	0xbedef12f	-0.43543383
28	0x3ed8dbaf	0.42355105
29	0xbe229167	-0.15875779
30	0xbf35bea0	-0.70993996
31	0xbef71508	-0.48258233
32	0xba8817bb	-0.0010383049
33	0x3dac411b	0.084108554
34	0x3f0c31f3	0.54763716
35	0x3e47cdf9	0.19512166
36	0xbeb4d8d6	-0.35321683
37	0x3f082e29	0.53195435
38	0x3e810629	0.25200012
39	0xbec5f636	-0.38664407
40	0x3db8acc2	0.09017326
41	0x3eff5d1e	0.4987573
42	0x3e894666	0.26811522
43	0xbebd8ca5	-0.37021366
44	0xbe1b4a3b	-0.15165035
45	0x3e26a743	0.16274743
46	0x3e8cce5f	0.275012
47	0xbecbe746	-0.39824885
48	0xbd5061bc	-0.050874457
49	0xbcbabf50	-0.022796303
50	0x3d030369	0.031985674
51	0xbef6878a	-0.48150283
52	0x3e4d6a3e	0.2006006
53	0x3ea9c469	0.33157662
54	0x3d9a5be3	0.07537057
55	0xbf0eab0b	-0.5572974
56	0x3e37b3a7	0.17939626
57	0xbe3b8ac5	-0.18314655
58	0xbeebaa12	-0.4602819
59	0xbd980f64	-0.074248105
60	0x3d435993	0.047692847
61	0xbdcd775d	-0.10032532
62	0x3ec97e89	0.3935435
63	0x3f001efa	0.50047266
64	0xbebbf230	-0.36708212
65	0x3ee56e06	0.44810504
66	0x3e4c851c	0.19972652
67	0xbebdbc08	-0.3705752
68	0x3ea73249	0.32655552
69	0xbe61b3bb	-0.22041218
70	0x3f261671	0.6487799
71	0x3f05b5cc	0.52230525
72	0x3ee09c51	0.4386926
73	0x3e8faeab	0.2806295
74	0x3e11fee8	0.14257395
75	0x3e83772d	0.2567686
76	0xbea0c497	-0.31399986
77	0xbed684be	-0.4189815
78	0x3e908394	0.28225386
79	0x3ec019fe	0.3751983
80	0x3d9e3c48	0.077263415
81	0xbef5148a	-0.47867233
82	0x3e8eb97d	0.2787589
83	0xbd97de09	-0.07415397
84	0x3ea8b79c	0.32952583
85	0xbedbc479	-0.42923334
86	0x3e193315	0.14960892
87	0x3f138bbe	0.57635105
88	0xbee729b6	-0.4514901
89	0xbedf2d98	-0.43589473
90	0x3ddbad20	0.1072638
91	0x3f19a5a6	0.60018384
92	0x3d876bec	0.06612381
93	0x3e411f81	0.18859674
94	0xbe8d71fa	-0.2762602
95	0x3efd9666	0.49528807
96	0x3e4e5d20	0.20152712
97	0xbe8c9986	-0.2746088
98	0x3e45f574	0.19331914
99	0x3e1dc579	0.15407361
100	0xbe9edfd7	-0.3103015
101	0xbece13a0	-0.40249348
102	0x3dc1501b	0.09439107
103	0x3efd5d74	0.49485362
104	0xbed1eea9	-0.41002396
105	0xbee83145	-0.4535009
106	0xbd407586	-0.04698708
107	0xbeea23df	-0.45730492
108	0x3e98e647	0.29863188
109	0x3e188f63	0.14898448
110	0xbe0c9db4	-0.13732034
111	0xbef7ba08	-0.48384118
112	0x3c762d85	0.015025501
113	0xbdf7642b	-0.120796524
114	0x3eb69358	0.3565929
115	0xbdd53496	-0.104104206
116	0xbeccf380	-0.40029526
117	0xbf0c9ac4	-0.54923654
118	0xbee407fa	-0.44537336
119	0xbf14aef3	-0.5807945
120	0xbe43ded3	-0.1912797
121	0x3ca0907d	0.019600147
122	0x3eda0772	0.42583805
123	0x3f096d05	0.53681976
124	0xbd791bcc	-0.060817525
125	0xbea7ec97	-0.3279769
126	0xbee05288	-0.43812966
127	0xbea34dba	-0.31895238
128	0x3f004e5c	0.50119567
129	0x3ebe3503	0.3714982
130	0x3d7bbecf	0.061461266
131	0xbf203476	-0.6258005
132	0xbd596bd2	-0.05308134
133	0xbe0e848a	-0.13917747
134	0xbefa70bf	-0.48914143
135	0x3d853e3c	0.06506011
136	0xbed81a81	-0.4220772
137	0xbeb956e9	-0.3619912
138	0x3f31bd66	0.69429624
139	0x3e5adbdf	0.21372937
140	0xbe0b4cfb	-0.13603584
141	0xbe98eaa6	-0.29866523
142	0x3ef86cd8	0.4852054
143	0x3f002e5e	0.5007075
144	0xbeacfc26	-0.33786124
145	0xbee5b47e	-0.44864267
146	0x3f0c6f15	0.54857
147	0x3e900ed7	0.28136322
148	0xbe15ca8e	-0.1462805
149	0xbefbddd1	-0.4919267
150	0xbe072e02	-0.13201144
151	0xbebee21a	-0.37281877
152	0x3ece113c	0.40247524
153	0x3ec4bdb2	0.38425976
154	0x3c2aebd0	0.010432199
155	0x3edbeb59	0.42952994
156	0xbdbe53e3	-0.09293344
157	0x3e2400dd	0.16015954
158	0x3d8e3ece	0.06945573
159	0x3f1abcaf	0.6044416
160	0x3ee9ccb5	0.45663992
161	0x3e919b70	0.28438902
162	0xbefcde0c	-0.49388158
163	0xbeaa8cb0	-0.3331046
164	0xbe2712f6	-0.16315827
165	0x3e1005f4	0.14064771
166	0xbbeded48	-0.007260952
167	0xbea3c518	-0.31986308
168	0x3e0bbb95	0.13645776
169	0xbea72252	-0.32643372
170	0xbe9f477b	-0.31109223
171	0xbf1e4341	-0.6182137
172	0xbeb97e13	-0.36229
173	0x3b99f1c6	0.004698011
174	0xbe84459a	-0.25834352
175	0xbeda56a2	-0.4264422
176	0xbe4bd0cf	-0.19903873
177	0x3ecb2d0d	0.3968281
178	0xbe3b9572	-0.18318728
179	0x3f18f7da	0.5975319
180	0xbe181c23	-0.14854483
181	0xbea954d2	-0.33072525
182	0xbe0f63f0	-0.14002967
183	0x3e730ec5	0.23736103
184	0xbe544a1b	-0.20731394
185	0xbeed01c0	-0.46290398
186	0xbe8b9925	-0.27265278
187	0xbed4ec94	-0.41586745
188	0xbeff192d	-0.49823895
189	0xbec43383	-0.3832055
190	0x3e94afe1	0.29040435
191	0x3f074779	0.52843434
192	0xbd308f49	-0.043105397
193	0xbe537e66	-0.20653686
194	0xbc1d4a38	-0.009600215
195	0x3eaf4c68	0.3423798
196	0xbeb9d8f5	-0.36298338
197	0xbe9f07e8	-0.3106072
198	0xbedb28d4	-0.42804587
199	0xbe8401cc	-0.2578262
200	0x3e02f886	0.12790117
201	0xbeabd22e	-0.33558792
202	0xbe253681	-0.16134073
203	0x3eb113ba	0.34585363
204	0xbe23e939	-0.16006936
205	0xbe51f96e	-0.20505306
206	0xbf10fabb	-0.56632584
207	0x3df59eb5	0.119931616
208	0xbdac6edd	-0.08419583
209	0xbedb7e11	-0.4286962
210	0xbee47c83	-0.44626245
211	0xbecd7466	-0.40127867
212	0xbe3f1e03	-0.18663792
213	0xbdf34aa3	-0.1187947
214	0xbe541b38	-0.20713508
215	0x3ea30988	0.3184321
216	0xbd26f295	-0.040758688
217	0xbec63f0a	-0.3871997
218	0xbf48cdbe	-0.7843894
219	0xbe9707d8	-0.29498172
220	0x3e0a9e04	0.1353684
221	0xbdd3c3e6	-0.10340099
222	0x3e6e5a81	0.23276712
223	0x3f0005f9	0.50009114
224	0x38ecc3e6	0.00011289846
225	0xbe94804b	-0.2900413
226	0xbf086d94	-0.532922
227	0x3e5d3da1	0.21605541
228	0xbef695ff	-0.48161313
229	0xbeb4e9d6	-0.35334653
230	0xbe51f2af	-0.20502733
231	0xbe75868d	-0.23977108
232	0xbf003779	-0.50084645
233	0xbece74e1	-0.40323547
234	0x3db2fbf3	0.08739462
235	0x3eba72fe	0.36415857
236	0x3ebe62ab	0.37184653
237	0x3eda1b50	0.42598963
238	0x3d913da4	0.07091835
239	0x3eeb4ab5	0.45955434
240	0xbe8787d2	-0.2647081
241	0x3e7134fb	0.23555367
242	0xbd959212	-0.07303251
243	0xbdc5bc57	-0.096550636
244	0x3e316108	0.1732217
245	0x3dfaa9e3	0.122394346
246	0x3e8f4ff7	0.27990696
247	0xbebe0402	-0.37112433
248	0x3da6b88d	0.08140669
249	0x3eb6d811	0.3571172
250	0xbeb27b47	-0.34859678
251	0xbeb9e04a	-0.3630393
252	0x3aa4bffe	0.0012569425
253	0xbda6b2e8	-0.081395924
254	0x3eebbe5a	0.46043664
255	0xbe464bae	-0.19364807

net.0.bias f4 [64]
0	0x3efbbdd2	0.4916826
1	0xbe98c0df	-0.2983465
2	0xbcc99761	-0.024608316
3	0x3dea41cf	0.11438333
4	0x3d056f41	0.032576803
5	0xbeab9d6c	-0.3351854
6	0xbde94aee	-0.11391245
7	0x3efa562f	0.48893878
8	0x3f0187f2	0.5059806
9	0xbda389b4	-0.07985249
10	0x3e25873a	0.16164866
11	0x3d2f93d0	0.042865574
12	0xbdec7358	-0.115454376
13	0xbe1d0b88	-0.1533643
14	0xbec8b478	-0.39200187
15	0x3ef267fd	0.47344962
16	0xbea5ce32	-0.32383877
17	0xbdca25d8	-0.09870499
18	0x3f0b92ef	0.5452108
19	0x3e93c9a7	0.28864786
20	0xbe637764	-0.22213513
21	0x3e9e7bb5	0.30953756
22	0x3d14a705	0.036292095
23	0xbe03fba9	-0.1288897
24	0xbed60926	-0.41803855
25	0x3e1319f3	0.14365368
26	0x3ee76345	0.45192924
27	0xbed14ee3	-0.40880498
28	0xbe874d3e	-0.2642612
29	0xbe0919b1	-0.13388707
30	0x3e270567	0.16310655
31	0x3daa50b7	0.083161764
32	0x3d979f54	0.07403436
33	0xbef2bf68	-0.47411656
34	0xbb538330	-0.0032274239
35	0xbe344e70	-0.17608047
36	0xbefa6201	-0.48902896
37	0x3ed49d65	0.41526332
38	0x3dadff8d	0.08496008
39	0x3cbb6711	0.022876294
40	0x3ebe78aa	0.37201434
41	0x3e1fe506	0.1561471
42	0x3ecb0851	0.39654782
43	0x3d149b86	0.03628113
44	0x3deee696	0.116650745
45	0xbefa1797	-0.48846123
46	0xbe6cc11c	-0.2312054
47	0xbea788bd	-0.3272151
48	0xbefc2a16	-0.4925086
49	0x3d811e2a	0.063045815
50	0x3ebed6fb	0.37273392
51	0xbe912aa8	-0.28352857
52	0x3e023035	0.12713702
53	0x3e6ce11a	0.23132744
54	0x3e4318f5	0.19052489
55	0x3e80cf13	0.25157985
56	0x3ec18200	0.37794495
57	0xbe8bd025	-0.2730724
58	0x3ef33bc0	0.47506523
59	0x3e0d3cb9	0.13792695
60	0x3e78df01	0.24303819
61	0x3ee46fed	0.44616643
62	0x3e94ae2c	0.29039133
63	0xbea2fe85	-0.31834808

net.2.weight f4 [64, 64]
0	0xbcca7f36	-0.024718862
1	0xbd48fbf6	-0.049068414
2	0x3c35719c	0.01107445
3	0x3db3caa9	0.08778889
4	0xbd8f8938	-0.07008594
5	0xbdce7f31	-0.100828536
6	0xbe58169b	-0.21102373
7	0xbdd06770	-0.10175979
8	0x3e4e0c0f	0.20121787
9	0x3dea1d30	0.11431348
10	0x3d369d14	0.044583395
11	0xbac05aa2	-0.0014675448
12	0xbd7ef577	-0.062245812
13	0x3d5d4de7	0.05402937
14	0x3d8ffe7c	0.07030961
15	0x3cee7698	0.029109284
16	0x3dc2447e	0.0948572
17	0x3e2dc2bc	0.16968817
18	0xbcfe05e8	-0.031008676
19	0x3e2a23b9	0.1661519
20	0xbde73240	-0.11288881
21	0x3e291f9a	0.16515961
22	0x3ddda247	0.108219676
23	0x3e326178	0.17419994
24	0xbda65c61	-0.08123089
25	0x3d9894c5	0.074502505
26	0x3d431050	0.04762298
27	0xbe48abbe	-0.19596764
28	0x3d527e7d	0.05139016
29	0xbd818c32	-0.06325568
30	0x3daeed42	0.08541347
31	0xbd4219bf	-0.047387835
32	0xbdf536a7	-0.11973315
33	0xbdbcfaa9	-0.09227497
34	0x3e19537c	0.14973253
35	0x3da8d0df	0.08242964
36	0x3d851fa2	0.06500174
37	0xbddb2fd3	-0.10702481
38	0x3e3cf48e	0.18452665
39	0xbb4c8635	-0.0031207923
40	0xbd93ade4	-0.072109014
41	0xbca84378	-0.020539984
42	0xbb723840	-0.0036959797
43	0xbe0dd3b4	-0.1385029
44	0x3c99b5e7	0.018763496
45	0xbd2ee34d	-0.04269724
46	0xbe4cfb7c	-0.20017809
47	0x3e0b2fa9	0.135924
48	0xbd98dae7	-0.07463627
49	0xbc558c1a	-0.013033891
50	0xbdb2195c	-0.08696243
51	0xbe038d09	-0.1284677
52	0xbe1e784f	-0.15475582
53	0x3c134251	0.008987979
54	0x3d3a3247	0.045458104
55	0x3da1297d	0.078692414
56	0xbdbee89b	-0.0932171
57	0xbb6a8899	-0.0035786985
58	0x3e00369d	0.12520833
59	0x3d892f90	0.06698525
60	0x3a4ce608	0.000781626
61	0xbce373cb	-0.027765175
62	0xbdf9b587	-0.12192827
63	0xbc3195a4	-0.0108389
64	0x3dd87d53	0.10570779
65	0xbd72a366	-0.05923786
66	0xbd5a5480	-0.05330324
67	0x3deb8930	0.11500776
68	0x3d928743	0.071547054
69	0xbd840b0f	-0.06447422
70	0xbcb79e5e	-0.022414383
71	0x3d48c4dc	0.049015865
72	0x3d6dc0c5	0.058045167
73	0x3c8ae927	0.016956879
74	0xbdf32396	-0.11872022
75	0xbabefd71	-0.0014571381
76	0xbc856501	-0.016283514
77	0x3deadcd8	0.11467904
78	0x3ddcda78	0.10783857
79	0xbd8b7e1f	-0.06811165
80	0x3d8c7780	0.0685873
81	0x3dc58736	0.0964493
82	0xbdc087a7	-0.09400874
83	0xbdb1210a	-0.0864888
84	0xbde9d9e0	-0.114185095
85	0xbcae518c	-0.021279119
86	0x3d2597d9	0.040428016
87	0x3d99d390	0.075110555
88	0x3dc97f72	0.098387614
89	0x3d77a261	0.06045759
90	0xbbebec41	-0.0071997945
91	0xbd967928	-0.073473275
92	0xbcc159b8	-0.023602352
93	0x3d02c8c8	0.03192976
94	0xbd456e1f	-0.048200723
95	0xbd2061fd	-0.03915595
96	0xbb6f23f3	-0.0036489933
97	0xbde24bf4	-0.11049643
98	0xbd48b13c	-0.04899715
99	0xbc8406e0	-0.01611656
100	0xbde36858	-0.11103886
101	0x3cb4cd7b	0.022070637
102	0xbdddb3eb	-0.10825332
103	0x3ca9b7c9	0.020717518
104	0xbe0c26f3	-0.13686733
105	0x3d3734f8	0.04472825
106	0xbda95cac	-0.08269629
107	0x3d8492cf	0.06473314
108	0x3dbc588b	0.09196576
109	0xbd97adf8	-0.07406229
110	0xbcfd76de	-0.03094047
111	0xbdd218a2	-0.102586046
112	0xbc1b5ba0	-0.009482294
113	0x3cc49927	0.02399881
114	0x3ddf0281	0.108891495
115	0xbcdc0db0	-0.026861995
116	0xbd31010a	-0.04321388
117	0xbc8ca0e6	-0.017166566
118	0x3dcbd29f	0.09952282
119	0xbdafe835	-0.08589212
120	0xbe0d4bf4	-0.13798505
121	0xbdf34c0c	-0.11879739
122	0xbe0087c3	-0.12551789
123	0xbdc381ef	-0.09546267
124	0x3d24fd15	0.04028042
125	0xbdb6bdec	-0.089229435
126	0xbde738d5	-0.11290137
127	0x3d998802	0.074966446
128	0x3d248fe8	0.040176302
129	0xbd3e65f0	-0.046483934
130	0x3db5918b	0.08865651
131	0x3e03180b	0.1280214
132	0x3e21e8f8	0.15811527
133	0x3be38feb	0.0069446466
134	0x3e4f0e49	0.20220293
135	0x3dd44f24	0.103666574
136	0xbde24156	-0.11047618
137	0x3e19c43b	0.15016262
138	0x3e2274fc	0.15864938
139	0x3c96ac47	0.018392695
140	0x3d7945f8	0.060857743
141	0x3d258c6c	0.04041712
142	0x3dc7e383	0.09760191
143	0x3d3e6c7f	0.04649019
144	0x3e1b28a6	0.15152225
145	0xbe254ee0	-0.1614337
146	0x3ddb9bfa	0.107231095
147	0xbbdea828	-0.006794948
148	0x3d0adff7	0.033904996
149	0xbcffbfbc	-0.031219356
150	0x3d0fac6e	0.03507655
151	0x3d0c626c	0.03427355
152	0xbc8aeda3	-0.016959017
153	0x3d7f4acd	0.062327195
154	0x3b20656b	0.0024474512
155	0x3daf531f	0.08560776
156	0xbdb72c06	-0.08943944
157	0x3dce8bd4	0.10085264
158	0xbe06c862	-0.13162377
159	0x3e6b3016	0.22967562
160	0x3ded4d97	0.11587065
161	0xbb89f0b2	-0.0042096013
162	0xbd9ddbda	-0.07707949
163	0xbbb55ed4	-0.005534986
164	0xbc1f8e67	-0.009738541
165	0x3c05c935	0.008165647
166	0x3d10c7a3	0.03534664
167	0xbe387566	-0.18013534
168	0x3df44019	0.11926288
169	0x3e222c6a	0.15837255
170	0x3d8146b5	0.063123144
171	0x3e383387	0.17988406
172	0xbe16536f	-0.14680265
173	0x3dc7074d	0.097181894
174	0x3c9e1304	0.019296177
175	0xba912b54	-0.0011075535
176	0xbd9d4b7f	-0.07680415
177	0x3d89e2ce	0.06732713
178	0xbdab4b70	-0.08363998
179	0xbcdf8183	-0.027283436
180	0x3e63ad11	0.22233988
181	0x3c632530	0.013863847
182	0x3e1de566	0.1541954
183	0xbe04d154	-0.12970477
184	0xbd443a52	-0.04790718
185	0xbb91507e	-0.0044346442
186	0xbccfb13e	-0.02535307
187	0xbce29fae	-0.027664032
188	0x3d53561f	0.051595803
189	0xbce4aaa9	-0.027913408
190	0x3d9c9c16	0.076469585
191	0xbdc2fc85	-0.095208205
192	0xbe17bcd9	-0.14818133
193	0x3d5bc27a	0.053652264
194	0xbd5c98f4	-0.053856805
195	0x3d9a3f31	0.07531584
196	0xbc8f829e	-0.017518338
197	0x3daa576e	0.08317457
198	0x3e933303	0.28749856
199	0x3baed326	0.0053352294
200	0xbc17745d	-0.009244052
201	0x39bdec3a	0.00036224892
202	0xbd8c4ef7	-0.06850999
203	0x3da271fe	0.079318985
204	0x3db828a0	0.089921236
205	0x3b39b1e9	0.0028334802
206	0xbc7ac0d2	-0.015304761
207	0x3bea03e4	0.007141577
208	0x3d8315de	0.06400655
209	0xbdacdc48	-0.08440453
210	0xbc732cda	-0.014842236
211	0xbd42a72f	-0.04752272
212	0x3c47a09f	0.012184291
213	0x3cb4317a	0.021996249
214	0xbe14c473	-0.14528064
215	0x3d003313	0.03129871
216	0xbd33682b	-0.043800514
217	0x3d9da5ca	0.076976374
218	0x3e08147b	0.13289063
219	0xbc798764	-0.015230034
220	0xbcce5a86	-0.02518965
221	0x3dea5ccd	0.114434816
222	0xbdd8e3fd	-0.1059036
223	0x3b4bc4af	0.0031092574
224	0x3e01b604	0.1266709
225	0xbc46e32f	-0.012139126
226	0xbc34058b	-0.01098765
227	0xbb5ca2ee	-0.003366645
228	0x3d50421c	0.050844297
229	0x3e04eca9	0.12980904
230	0xbd5625b2	-0.052282043
231	0x3bc79763	0.0060910448
232	0x3e0e8dab	0.1392123
233	0x3ca57e8c	0.020201944
234	0x3e4ca61d	0.19985242
235	0x3e0cd1d9	0.13751926
236	0xbd560d79	-0.052258942
237	0xbc8672d0	-0.016412169
238	0x3c29f111	0.010372416
239	0xbdb88ee2	-0.09011628
240	0x3b0cd3b6	0.0021488494
241	0x3d9b0dee	0.07571016
242	0x3d0ff3cf	0.035144623
243	0xbce73c92	-0.028227124
244	0x3d3de400	0.046360016
245	0x3c2d77c0	0.010587633
246	0x3d19b422	0.037525304
247	0xbc9a34fd	-0.018824095
248	0xbe03c3ab	-0.1286761
249	0xbc056c44	-0.008143488
250	0x3d6f7019	0.058456514
251	0xbdb06ab9	-0.08614106
252	0x3dedf9b9	0.116198964
253	0xbc11b0b5	-0.008892228
254	0x3d9eff26	0.077635095
255	0x3dabe23d	0.08392761

net.2.bias f4 [64]
0	0x3dbdd1a4	0.092685014
1	0xbd7e51b7	-0.062089648
2	0x3c6d4209	0.014481076
3	0x3dc6e12b	0.09710916
4	0x3bca5842	0.006175072
5	0x3e100133	0.14062957
6	0x3d4f424e	0.050600342
7	0x3d38336e	0.044970922
8	0x3bfd240b	0.007725244
9	0x3c7fe14a	0.015617678
10	0x3d6322c6	0.055453084
11	0xbcf8bfd9	-0.030364918
12	0x3ce7b1f9	0.028283106
13	0x3dd59f9f	0.10430836
14	0xbc55ad09	-0.013041743
15	0x3dc999ba	0.09843774
16	0x3bc8ebb9	0.006131616
17	0x3db70e96	0.08938329
18	0xbd4d865f	-0.050176974
19	0x3e1e0e1b	0.15435068
20	0x3d655726	0.055991314
21	0x3dcfc9eb	0.10145935
22	0x3cfed658	0.031108066
23	0xbd68dea6	-0.05685296
24	0x3dc3cfe2	0.09561135
25	0x3dad6178	0.08465856
26	0xbd66ef2e	-0.056380443
27	0xbcf28e02	-0.02960873
28	0x3d94fd58	0.07274884
29	0x3e2a9781	0.16659357
30	0x3ca48847	0.020084513
31	0xbc945206	-0.018105518
32	0x3c516151	0.01277955
33	0x3d843c9e	0.06456874
34	0x3e0d463a	0.1379632
35	0x3c29a194	0.010353465
36	0x3de48c33	0.111595534
37	0xbd2ff907	-0.0429621
38	0x3de06a6f	0.109578006
39	0xbd37ffeb	-0.044921797
40	0x3e2522b8	0.16126525
41	0x3d4ad452	0.04951889
42	0x3e18bb7b	0.14915268
43	0x3d280fa1	0.04103053
44	0xba61813e	-0.00086023274
45	0x3dc9231a	0.09821148
46	0xbd904a38	-0.07045406
47	0xbd5c28e4	-0.053749934
48	0x3e2e2177	0.17004953
49	0x3db4ef4a	0.08834703
50	0xbd401141	-0.046891455
51	0x3c1101f7	0.008850566
52	0xbdbe0a6d	-0.09279332
53	0xbdc13649	-0.09434182
54	0x3d722c65	0.05912437
55	0x3dd0558c	0.10172567
56	0x3d974fec	0.07388291
57	0x3d886e0a	0.06661613
58	0xbc441721	-0.011968405
59	0x3da3d061	0.079987295
60	0x3ced39c4	0.028958209
61	0x3ded5997	0.115893535
62	0x3dd793cd	0.10526238
63	0x3e225980	0.15854454

net.4.weight f4 [2, 64]
0	0xbe3206d9	-0.17385425
1	0x3d4c23df	0.049838897
2	0x3e130021	0.14355518
3	0xb96db586	-0.00022669704
4	0xbd951be0	-0.07280707
5	0xbe61dbfd	-0.22056575
6	0x3df8039f	0.12110066
7	0xbe3dd6da	-0.1853899
8	0xbe0cf344	-0.13764673
9	0x3d9ae912	0.07563986
10	0x3dd7ceec	0.10537514
11	0xbd550afa	-0.05201242
12	0xbd6a8f19	-0.057265375
13	0x3dcc47c3	0.09974625
14	0x3caea4ca	0.021318812
15	0x3db23280	0.08701038
16	0x3d9b9bd5	0.07598082
17	0x3e1ea744	0.15493494
18	0xbdc150a5	-0.0943921
19	0x3e1f6cb3	0.15568809
20	0x3bf0d1a5	0.0073492103
21	0x3db90fb8	0.09036201
22	0xbe48350d	-0.19551487
23	0xbe637501	-0.22212602
24	0xbd835c67	-0.06414109
25	0x3e3cd375	0.1844004
26	0x3e2fac4d	0.17155571
27	0xbcb7b3f9	-0.022424685
28	0x3e4514b8	0.19246185
29	0x3e609b1c	0.2193417
30	0x3dd0a515	0.10187737
31	0xbd7dc260	-0.06195295
32	0xbdeaec0c	-0.114708036
33	0xbe4b189c	-0.19833606
34	0xbdb42b10	-0.08797276
35	0x3d8fe88c	0.07026777
36	0xbbc537dd	-0.0060186223
37	0x3d1545de	0.036443584
38	0xbe3a2100	-0.18176651
39	0xbd75f4ce	-0.060047917
40	0xbe0acec6	-0.1355544
41	0x3e0eb006	0.13934335
42	0xbdc0eee3	-0.09420564
43	0xbdd87372	-0.105688944
44	0xbc21aa12	-0.009867208
45	0xbe60c600	-0.21950531
46	0x3d8e9847	0.06962638
47	0x3d1c9195	0.038224775
48	0xbe0b108a	-0.13580528
49	0xbdd1be89	-0.1024142
50	0x3e124e0c	0.14287585
51	0xbe1cea84	-0.15323836
52	0xbd7a8395	-0.061160643
53	0x3d775857	0.06038698
54	0x3c340986	0.010988599
55	0xbe5e5f37	-0.21716009
56	0xbe2410c8	-0.16022027
57	0x3e4e0be2	0.2012172
58	0x3e621f95	0.2208236
59	0xbb27f15c	-0.002562604
60	0xbe6b78ac	-0.22995251
61	0x3e3dc42a	0.18531862
62	0x3da0bb1c	0.07848188
63	0xbdcf79a7	-0.10130625
64	0x3e3c69df	0.18399762
65	0x3dd9714c	0.10617313
66	0xbe693142	-0.22772697
67	0xbe0209dd	-0.12699075
68	0x3dbeaa5e	0.09309839
69	0x3ddba6e6	0.10725193
70	0xbe561b40	-0.20908833
71	0x3e03e7dc	0.12881416
72	0x3e074e9d	0.13213582
73	0xbe5db063	-0.21649317
74	0xbde42eb7	-0.11141723
75	0x3de539c9	0.11192662
76	0x3d9061c3	0.070498966
77	0xbdecb7a3	-0.115584634
78	0xbbdc465f	-0.006722256
79	0xbe0986b8	-0.13430297
80	0x3d2a253b	0.041539412
81	0xbe674e84	-0.22588545
82	0x3db9a2e1	0.0906427
83	0xbdd34f0e	-0.10317813
84	0xbe367076	-0.17816338
85	0xbe01f6c1	-0.12691785
86	0x3dbb6150	0.0914942
87	0x3dfc2c65	0.12313155
88	0x3e20b036	0.15692219
89	0xbe01b942	-0.12668326
90	0xbe514fff	-0.20440672
91	0xbc124fd2	-0.008930163
92	0xbe1531ad	-0.14569731
93	0xbe110677	-0.14162622
94	0xbcff90ff	-0.03119707
95	0xbdc89ad0	-0.09795153
96	0x3e3b1354	0.18269092
97	0x3c067bd7	0.008208237
98	0x3d9a16b2	0.0752386
99	0xbe65778d	-0.22408886
100	0x3e538095	0.20654519
101	0x3d1a2a81	0.03763819
102	0x3e142e81	0.14470865
103	0x3d69cf22	0.057082303
104	0x3e358a06	0.17728433
105	0xbd8179bb	-0.06322046
106	0x3e5eb53e	0.21748826
107	0x3e09670a	0.13418213
108	0x3da4e74d	0.080519296
109	0x3e087489	0.13325705
110	0x3d81f604	0.06345752
111	0xbe216bd8	-0.15763795
112	0x3e14f799	0.14547576
113	0xbdbaa137	-0.091127805
114	0xbe2f2277	-0.17102991
115	0x3e0424e4	0.12904698
116	0xbdad16c7	-0.0845161
117	0xbd9c4380	-0.07630062
118	0xbbbfff4c	-0.005859291
119	0x3dfacd57	0.12246197
120	0x3e49efe3	0.19720416
121	0xbe36a76b	-0.17837302
122	0xbdda17c1	-0.10649062
123	0x3dbaa894	0.09114185
124	0x3e605d77	0.21910654
125	0xbe06c139	-0.13159646
126	0xbe4660c5	-0.19372852
127	0x3e117446	0.14204511

net.4.bias f4 [2]
0	0xbd4f11bb	-0.05055402
1	0xbdb9218f	-0.09039604

exp_avg f4 [64, 4]
0	0xbd372dd8	-0.044721454
1	0xbc682f77	-0.014171473
2	0xbc38f3bf	-0.011288582
3	0xbc6f0cb4	-0.014590431
4	0xb8c55b59	-9.410707e-05
5	0xb98004da	-0.00024417677
6	0xb7e94906	-2.7809769e-05
7	0x38a3cd7e	7.8107216e-05
8	0xbbc1fa97	-0.005919765
9	0xb8a89c6a	-8.039999e-05
10	0xb9b22baa	-0.00033983338
11	0xba841c50	-0.0010079239
12	0xbaac5cce	-0.0013150217
13	0x3c1c9f02	0.009559395
14	0x3b302739	0.0026878847
15	0x3b44d06e	0.003003146
16	0x3d4f2f70	0.05058235
17	0xb8d6f67f	-0.00010250229
18	0x3c0ab3f6	0.008465758
19	0x3bf6b804	0.0075292606
20	0x3dc8450b	0.09778794
21	0xbbd251f1	-0.0064184596
22	0x3a59c537	0.00083072804
23	0x3c7f4139	0.015579515
24	0x3e0bee19	0.13665046
25	0xbcae8859	-0.02130525
26	0x3b6ec889	0.0036435446
27	0x3c39ce28	0.011340655
28	0x3d32bd4b	0.043637555
29	0x3cd693cd	0.026193524
30	0x3c3fc0f4	0.011703718
31	0x3c07d170	0.00828968
32	0xbd4bbe4d	-0.04974203
33	0xbc3b1741	-0.011419118
34	0xbc1dcb41	-0.009630979
35	0xbc81f559	-0.015864061
36	0x3c88c668	0.01669617
37	0xba920dad	-0.0011142992
38	0x3a91819c	0.0011101249
39	0x3ae7b91e	0.0017679071
40	0x3c2b534e	0.010456873
41	0x3b00616f	0.0019589325
42	0x3ad22434	0.0016032518
43	0x3b8c2e15	0.0042779543
44	0x3bd55875	0.006510789
45	0xbac8d2d4	-0.0015321621
46	0x3a570726	0.00082026643
47	0x3ac2312b	0.0014815679
48	0x3d8fe04b	0.07025202
49	0xbc89517d	-0.01676249
50	0xbb54a22f	-0.0032445302
51	0x3bab990f	0.005236752
52	0x3c0fedc2	0.008784713
53	0x3b1d66db	0.0024017605
54	0x3b1dfb4f	0.002410609
55	0x3bd3bb8c	0.0064615663
56	0x363fb050	2.8563845e-06
57	0x366aa6b8	3.496576e-06
58	0xb39936a5	-7.1345575e-08
59	0xb69fb0f7	-4.7591707e-06
60	0xbd487ceb	-0.048947256
61	0xbc293fef	-0.010330184
62	0xbc12db23	-0.008963379
63	0xbc6cacb8	-0.014445476
64	0x3bfaa02b	0.007648488
65	0x3aa5cbbf	0.0012649222
66	0x3a07b5be	0.0005176923
67	0x3afac71a	0.0019132823
68	0xbcbd9ece	-0.023147013
69	0xbcb60b58	-0.022222206
70	0xbade5f19	-0.0016965597
71	0xbb99f54d	-0.0046984316
72	0xbc8a16b7	-0.016856534
73	0xbbe0ff4c	-0.0068663713
74	0xbb3593f4	-0.0027706595
75	0xbb597124	-0.003317901
76	0xbd2f4aa3	-0.04279579
77	0xbbbb84af	-0.005722604
78	0xbbe414be	-0.0069604805
79	0xbc2596c9	-0.010106751
80	0xbb0a9f2e	-0.0021152007
81	0xb94762c6	-0.00019014915
82	0x3a0d4edf	0.0005390476
83	0x3927f0d1	0.00016016072
84	0xbcdbb485	-0.026819477
85	0xbc1b0d5d	-0.009463635
86	0xbbe6fbec	-0.0070490744
87	0xbc0dd6c6	-0.008657163
88	0xbcfb32b8	-0.030663833
89	0xba2f1a06	-0.0006679598
90	0xbb504daf	-0.0031784584
91	0xbbd294b2	-0.0064264173
92	0xbc30b65c	-0.010785665
93	0xbc34cdba	-0.011035377
94	0x37065385	8.006468e-06
95	0xbb6f5d78	-0.0036524218
96	0xba90ebcc	-0.0011056601
97	0xb8272364	-3.9848863e-05
98	0x381c57e8	3.7275167e-05
99	0xb912f670	-0.0001401545
100	0xbd0b3169	-0.033982668
101	0x3afe94e1	0.0019423031
102	0xbb87e045	-0.004146608
103	0xbbdf8a10	-0.0068218783
104	0x3ca356e2	0.01993889
105	0xbb1a0339	-0.0023500456
106	0x3ba2d331	0.0049690236
107	0x3c017467	0.007901288
108	0x3b6a1ed7	0.0035723948
109	0x3ba915d8	0.0051600747
110	0x39277241	0.00015968924
111	0xba91576a	-0.0011088673
112	0xa4916b3f	-6.306541e-17
113	0xa5142e35	-1.2852609e-16
114	0x22973672	4.098628e-18
115	0x23ab2184	1.8554052e-17
116	0x3d78b4c0	0.06071925
117	0x3c0d0b17	0.008608601
118	0x3bd2851d	0.0064245597
119	0x3bd3232e	0.0064434027
120	0xbdbc7b38	-0.092031896
121	0xbcbe50b5	-0.023231843
122	0xbc8a6b32	-0.016896818
123	0xbcccb634	-0.024989225
124	0x3d78d4fd	0.060749996
125	0x3aa44ea8	0.0012535648
126	0x3c325b9e	0.010886101
127	0x3c9adb92	0.018903527
128	0xbbdaa1eb	-0.006672134
129	0x3d025860	0.031822562
130	0x3be570d5	0.007001976
131	0x3c290dab	0.0103182
132	0xa59c9f40	-2.7169598e-16
133	0xa5989df2	-2.6474825e-16
134	0xa3154147	-8.091129e-18
135	0x2503f599	1.144565e-16
136	0xbd24847a	-0.040165402
137	0x399e0e0a	0.00030146568
138	0xbb8d7f1e	-0.004318132
139	0xbbc9a03a	-0.0061531337
140	0x3c40bbbc	0.011763509
141	0xbc02aaeb	-0.00797532
142	0xbb78b61a	-0.0037950338
143	0xbb2c4a6b	-0.0026289474
144	0x3b9bc0bb	0.0047532
145	0x39d07acf	0.0003976435
146	0xba08b0ef	-0.00052143534
147	0xba2012a0	-0.0006106291
148	0x3ce282d1	0.027650269
149	0xbb6299d1	-0.0034576545
150	0x3bbc982b	0.0057554445
151	0x3c1dfd95	0.009642978
152	0xbaf635bc	-0.0018784325
153	0xbc3ad371	-0.011402951
154	0xbb9e4993	-0.004830548
155	0xbbf0f872	-0.0073538357
156	0xbe05e135	-0.13074191
157	0xbd11103f	-0.035415884
158	0xbc3eece3	-0.011653158
159	0xbcdc0cf8	-0.026861653
160	0x3cbae5f1	0.022814723
161	0xbad25879	-0.0016048095
162	0x3be9924d	0.007128036
163	0x3c536a47	0.012903756
164	0x3c0a858b	0.008454691
165	0x3a02cd37	0.0004989686
166	0x3b16fa45	0.0023037356
167	0x3b8dc569	0.0043265116
168	0x3dc4e4de	0.096139655
169	0xbc635058	-0.013874136
170	0x3c2ed0f3	0.010669935
171	0x3cc63733	0.024196243
172	0x3d3f979f	0.046775457
173	0xbbcc3eeb	-0.0062330863
174	0x3bf01025	0.0073261433
175	0x3c19a24c	0.0093770735
176	0xbda58e77	-0.08083814
177	0xbca663cb	-0.020311257
178	0xbc1af3ab	-0.009457509
179	0xbca132b7	-0.019677503
180	0xbb67b23f	-0.0035354046
181	0xbaf01b23	-0.0018318634
182	0x398ca488	0.00026825466
183	0x39d06c27	0.0003975343
184	0x3c24dfd5	0.010063131
185	0xbb516809	-0.003195288
186	0x3b856f2d	0.004072091
187	0xbac80e63	-0.0015263077
188	0xbbd6fe7a	-0.0065610977
189	0xbbc35060	-0.005960509
190	0xba81f897	-0.0009916004
191	0xbac3eaf3	-0.001494734
192	0x38b9c977	8.859013e-05
193	0x37f99f38	2.9757255e-05
194	0xb756d8ef	-1.2805903e-05
195	0xb7f46b77	-2.9137109e-05
196	0x3d55e8af	0.052223857
197	0x3b2e6499	0.0026610254
198	0x3c102413	0.008797663
199	0x3c180034	0.009277392
200	0xbc300e96	-0.010745665
201	0xbb74d954	-0.0037360983
202	0xbb748213	-0.0037308976
203	0xbb7de364	-0.0038740272
204	0xbc4153fe	-0.01179981
205	0xbb6522d2	-0.0034963381
206	0x3b066305	0.0020505798
207	0x3b422e92	0.002962981
208	0x3d840332	0.06445922
209	0x3b777942	0.0037761484
210	0x3c4ea57d	0.012612698
211	0x3cbff0cf	0.023430256
212	0xbc0a8145	-0.008453672
213	0xbb042eb0	-0.002016943
214	0xbacef8dd	-0.001579072
215	0xbb1b533f	-0.0023700742
216	0x3d9c1c40	0.07622576
217	0xbc170701	-0.009217978
218	0x3c4388fe	0.011934517
219	0x3cd760e2	0.026291315
220	0xbc572b52	-0.013132887
221	0xbc8c8aa1	-0.017155947
222	0xbc76cc96	-0.0150634255
223	0xbc4769ba	-0.012171203
224	0x3b0e125e	0.0021678428
225	0x3968e1bb	0.00022209335
226	0x3994db7a	0.00028392283
227	0x3a43b2ab	0.0007465283
228	0x3ca3d6d8	0.019999906
229	0x3b3d0b94	0.0028846012
230	0x3afde5e9	0.0019370887
231	0x3b68505d	0.003544829
232	0xbcb644bc	-0.022249572
233	0xbaafb339	-0.0013404853
234	0xbb9c8f03	-0.0047777905
235	0xbbe2b417	-0.006918441
236	0x3a9f20d8	0.0012140526
237	0xbc928bdf	-0.017888961
238	0xbbcf9dd8	-0.006335955
239	0xbbea9062	-0.007158325
240	0x3b22e60d	0.002485636
241	0x3ab206a3	0.00135823
242	0x39d24315	0.000401043
243	0x3a8da756	0.0010807316
244	0x3ba30ad8	0.004975658
245	0x3ac260ac	0.0014829836
246	0x3a81498c	0.0009863838
247	0x3ad5e1e4	0.0016317931
248	0x3ceb9f93	0.028762614
249	0x3a04aac4	0.00050608465
250	0x3bb7cfd2	0.005609491
251	0x3c772666	0.0150848385
252	0x9b12f4b9	-1.2155911e-22
253	0x1ca21317	1.0725195e-21
254	0x9b10b770	-1.1970673e-22
255	0x9d15f893	-1.9848496e-21

exp_avg_sq f4 [64, 4]
0	0x3ca76453	0.02043358
1	0x3c0e30e0	0.008678645
2	0x394b73db	0.00019402748
3	0x3ab6c3ef	0.0013943891
4	0x36a33499	4.8639017e-06
5	0x36e03d5e	6.6828643e-06
6	0x33b4079d	8.383288e-08
7	0x35c41e35	1.4611929e-06
8	0x38f8ccea	0.0001186373
9	0x3833580b	4.2758922e-05
10	0x356bc751	8.7834366e-07
11	0x37119acf	8.678718e-06
12	0x391f964d	0.00015219413
13	0x392f53e9	0.0001672056
14	0x3703c49b	7.853984e-06
15	0x389ba6d1	7.422048e-05
16	0x3c6743b2	0.014115261
17	0x3bfb52ff	0.007669806
18	0x39018280	0.00012351014
19	0x3a87ada0	0.0010351427
20	0x3c95191b	0.018200448
21	0x3b87bec6	0.004142615
22	0x3882ba64	6.233601e-05
23	0x3a03f001	0.0005033017
24	0x3d236252	0.039888687
25	0x3c671042	0.014102997
26	0x393575be	0.00017305368
27	0x3abf04fa	0.0014573627
28	0x3c3ae6ae	0.011407537
29	0x3c2fa9ab	0.010721604
30	0x396377c4	0.00021693023
31	0x3af05990	0.0018337239
32	0x3c6d5946	0.0144866165
33	0x3be6c6e3	0.007042752
34	0x390a16ae	0.00013169154
35	0x3a88fce4	0.0010451344
36	0x398a3d38	0.00026367023
37	0x3907b904	0.00012943527
38	0x3653c91f	3.1558518e-06
39	0x37d5f6a2	2.5506426e-05
40	0x3900393b	0.00012228351
41	0x3856bfed	5.120032e-05
42	0x365d8134	3.3006772e-06
43	0x37eda982	2.8331535e-05
44	0x3922412d	0.00015473804
45	0x38b4ed0b	8.6272215e-05
46	0x368714c8	4.025733e-06
47	0x37f4a6aa	2.9164676e-05
48	0x3b85f960	0.0040885657
49	0x3a7faf5e	0.000975361
50	0x37a243a5	1.9343404e-05
51	0x39b8fa41	0.00035281669
52	0x3a1c25e0	0.00059565715
53	0x3a5be8df	0.00083888875
54	0x370e4fa3	8.482401e-06
55	0x3911253e	0.00013842151
56	0x35d711bd	1.6023911e-06
57	0x34d495b3	3.9596998e-07
58	0x31ee8da1	6.942813e-09
59	0x33961978	6.989552e-08
60	0x3c327325	0.01089171
61	0x3bb053d5	0.0053810873
62	0x38ca7116	9.6531745e-05
63	0x3a488e68	0.0007650615
64	0x395d90ac	0.00021130097
65	0x38c491dc	9.373177e-05
66	0x35a104f9	1.1996882e-06
67	0x374c5386	1.2178794e-05
68	0x3af214ca	0.001846933
69	0x3b1f746e	0.0024330872
70	0x3814e52c	3.5499383e-05
71	0x39e864fe	0.00044325733
72	0x3a522fb5	0.0008017973
73	0x3a281b29	0.00064127386
74	0x3771fcbb	1.4423563e-05
75	0x38f6a6b4	0.00011761245
76	0x3c194e88	0.009357102
77	0x3b8236db	0.0039738244
78	0x38b5a2e2	8.661092e-05
79	0x3a229ab5	0.0006202863
80	0x392a0917	0.0001621585
81	0x391f6c01	0.00015203656
82	0x35c0fe4a	1.4379123e-06
83	0x37a58300	1.9730534e-05
84	0x3bd2fd77	0.006438907
85	0x3b7c80d3	0.0038528934
86	0x38caf104	9.677003e-05
87	0x3a300d05	0.0006715807
88	0x3b858abb	0.004075376
89	0x3acd3d30	0.0015658494
90	0x3804b982	3.164402e-05
91	0x3964199c	0.00021753315
92	0x3a26ebb9	0.0006367523
93	0x39dd6c90	0.0004223329
94	0x36ec0b79	7.0346837e-06
95	0x386b2c89	5.6069843e-05
96	0x37decbb9	2.6559328e-05
97	0x3814a9a0	3.5443925e-05
98	0x346522c3	2.1339933e-07
99	0x369d2b5c	4.6840123e-06
100	0x3b9449b1	0.0045253863
101	0x3af062b2	0.001833996
102	0x382597bc	3.948038e-05
103	0x39851a03	0.00025387117
104	0x3b9de199	0.004818153
105	0x3b2dad1a	0.0026500882
106	0x38722908	5.773551e-05
107	0x39f1ac8f	0.00046095668
108	0x3a0b0def	0.00053045055
109	0x39a778df	0.00031942778
110	0x36227027	2.4205162e-06
111	0x381fdf7b	3.8116686e-05
112	0x312968ad	2.4652238e-09
113	0x31e83b8d	6.758859e-09
114	0x2ce4fee3	6.508448e-12
115	0x2fe721c4	4.2042647e-10
116	0x3cd01009	0.025398271
117	0x3c194084	0.009353761
118	0x3913db15	0.00014100627
119	0x3a99b18f	0.001172589
120	0x3d341faa	0.04397551
121	0x3caea889	0.021320598
122	0x39c0cadd	0.0003677224
123	0x3b39b0c4	0.002833412
124	0x3cf654e1	0.03006977
125	0x3c323206	0.010876184
126	0x397192e6	0.00023038275
127	0x3af3e0a8	0.0018606381
128	0x3b247ea2	0.0025099893
129	0x3b47c939	0.0030484928
130	0x38c22058	9.256665e-05
131	0x3a34d8d7	0.0006898767
132	0x32469876	1.15597825e-08
133	0x33030d5b	3.051296e-08
134	0x2e825d8b	5.928332e-11
135	0x3109deef	2.0062847e-09
136	0x3bf3cb7e	0.0074400296
137	0x3b3d546f	0.0028889438
138	0x384dfb20	4.9109687e-05
139	0x39c35deb	0.00037263273
140	0x3c6a0584	0.014283542
141	0x3ba680f1	0.005081289
142	0x386a47de	5.585688e-05
143	0x3a1e051a	0.0006027982
144	0x3a065d26	0.00051255745
145	0x3927e2c6	0.00016010841
146	0x35e20dfe	1.6842384e-06
147	0x3760e704	1.3405228e-05
148	0x3c002462	0.007821174
149	0x3b74d168	0.003735626
150	0x38c43e0f	9.3575676e-05
151	0x3a359ca6	0.00069279445
152	0x3ae9abd2	0.0017827696
153	0x3b3c5f36	0.0028743274
154	0x38b3f0df	8.580251e-05
155	0x3a4412ae	0.000747959
156	0x3d4a44a5	0.04938187
157	0x3ca1611a	0.019699622
158	0x39987b46	0.00029083545
159	0x3b2be342	0.0026227986
160	0x3b206989	0.0024476966
161	0x3b39d10a	0.0028353357
162	0x38abf235	8.19903e-05
163	0x3a2b6139	0.00065376196
164	0x39a8b432	0.00032177713
165	0x397a9d78	0.0002390052
166	0x36cfd94f	6.194379e-06
167	0x38280394	4.0057654e-05
168	0x3cf7e819	0.03026204
169	0x3c703c48	0.01466281
170	0x39a69c3a	0.00031778385
171	0x3b21cd74	0.002468911
172	0x3c38653c	0.011254605
173	0x3bca5eed	0.006175867
174	0x38c6ce7d	9.479837e-05
175	0x3a503e1d	0.0007943826
176	0x3ce2ea44	0.027699597
177	0x3c1b663b	0.009484823
178	0x3962ead1	0.00021640515
179	0x3af10c5c	0.0018390524
180	0x388abb4d	6.61524e-05
181	0x3857ce59	5.145217e-05
182	0x345fa36b	2.0827945e-07
183	0x36b2c20f	5.327405e-06
184	0x3c8c30ae	0.017113056
185	0x3bbdd289	0.00579292
186	0x3887a6c7	6.468366e-05
187	0x3a15b70d	0.00057111756
188	0x3b254b87	0.002522202
189	0x3a5f673c	0.0008522158
190	0x3748728a	1.1947597e-05
191	0x38d2f1e3	0.00010058635
192	0x36f0de7b	7.1784575e-06
193	0x3746b0b2	1.184286e-05
194	0x32dec17a	2.5932184e-08
195	0x35f58ac6	1.8294311e-06
196	0x3c93a2a4	0.018021889
197	0x3c04c244	0.008102957
198	0x39199570	0.00014646887
199	0x3a991756	0.0011679928
200	0x3ac09098	0.001469153
201	0x3a217898	0.00061596325
202	0x379d2170	1.8731429e-05
203	0x38eb11d3	0.00011208993
204	0x3b2cdd49	0.0026377013
205	0x3ab51b25	0.0013817294
206	0x36e26a45	6.7476963e-06
207	0x39034339	0.00012518176
208	0x3d462fe8	0.04838553
209	0x3c93b280	0.018029451
210	0x39d3eefa	0.00040423108
211	0x3b56a4de	0.0032752077
212	0x39ebed50	0.00044999504
213	0x3948e7ed	0.00019159885
214	0x36ac0103	5.1261172e-06
215	0x38040975	3.148006e-05
216	0x3d189d2a	0.03725926
217	0x3c630cad	0.013858003
218	0x39a34917	0.0003114424
219	0x3b1f4492	0.0024302346
220	0x3c974f86	0.018470537
221	0x3c1388ea	0.009004811
222	0x39579964	0.0002056114
223	0x3aae736a	0.0013309543
224	0x3902c1c1	0.00012469945
225	0x387d7bd1	6.0435214e-05
226	0x35d072f0	1.5530659e-06
227	0x37599113	1.2967986e-05
228	0x3b356123	0.0027676306
229	0x3a95479a	0.0011389137
230	0x37694d95	1.3905946e-05
231	0x3904f465	0.00012679545
232	0x3b7d065f	0.0038608534
233	0x3aeaf9bd	0.0017927211
234	0x3821bfbf	3.856397e-05
235	0x39994b32	0.0002923846
236	0x3b0878ed	0.002082403
237	0x3b496d08	0.0030735154
238	0x38c92173	9.590657e-05
239	0x3a5a037a	0.0008316558
240	0x394423f7	0.00018705415
241	0x38931013	7.0125e-05
242	0x36134562	2.1945093e-06
243	0x3788bad3	1.629946e-05
244	0x390a41d3	0.00013185227
245	0x38d685f5	0.000102292666
246	0x36e88707	6.929858e-06
247	0x38145a14	3.536984e-05
248	0x3b83c2f4	0.004021043
249	0x3ad78cb5	0.0016445132
250	0x383f9e00	4.5685098e-05
251	0x39a777c3	0.00031941952
252	0x281f6502	8.848176e-15
253	0x2bfeb8ff	1.8099132e-12
254	0x285504f2	1.18249476e-14
255	0x2c9ef48e	4.517781e-12

exp_avg f4 [64]
0	0x3e1641a7	0.14673482
1	0x39896b75	0.00026210738
2	0x3bf9249c	0.007603241
3	0xbceb8b5b	-0.028752973
4	0xbdf29ca5	-0.11846284
5	0xbdce6ce6	-0.100793645
6	0xbe0f72a4	-0.14008576
7	0xbe151e5c	-0.14562362
8	0x3df50eef	0.11965739
9	0xbc95eba8	-0.018300846
10	0xbcece271	-0.02891657
11	0xbcadbea0	-0.021209061
12	0xbcd55e98	-0.026046082
13	0xbc803204	-0.01564885
14	0x35bb41de	1.3951756e-06
15	0x3de88d7f	0.11355113
16	0xbba2e283	-0.00497085
17	0xbc2d6e96	-0.010585448
18	0x3d1ad769	0.037803087
19	0x3dd1d0b8	0.10244888
20	0x39865483	0.00025621438
21	0x3dd6b854	0.104843765
22	0x3d66e3fc	0.056369767
23	0xbcbd216e	-0.02308723
24	0xb9e4d81b	-0.0004364856
25	0x3d9a44f6	0.075326845
26	0xbd9fcc20	-0.07802606
27	0x3bbcc40e	0.005760676
28	0x2493d483	6.4111097e-17
29	0xbde90872	-0.11378564
30	0x3e5baf06	0.21453485
31	0xbe48aeee	-0.1959798
32	0xbdbfd4ec	-0.093667835
33	0x2513f89c	1.283445e-16
34	0x3d6c324f	0.057665166
35	0xbc40986d	-0.011755091
36	0xbb87f585	-0.0041491413
37	0xbdb98555	-0.09058634
38	0x3d3ad7ab	0.045615833
39	0x3e355b23	0.17710547
40	0xbda9320f	-0.08261501
41	0xbcef1867	-0.02918644
42	0xbe4573b8	-0.19282424
43	0xbdd88295	-0.105717815
44	0x3e1538c2	0.14572433
45	0x3b04b589	0.0020249805
46	0x3acab3e3	0.0015464987
47	0x3c0e2fed	0.008678419
48	0xb7ff0b8f	-3.0403751e-05
49	0xbe20097e	-0.15628621
50	0x3d2fa88c	0.04288535
51	0x3b817cc5	0.0039516413
52	0xbe6e60f9	-0.2327918
53	0x3cac4ef1	0.021033736
54	0xbe596732	-0.21230772
55	0x3e05e455	0.13075383
56	0xbb9c8be6	-0.0047774194
57	0xbcfcaa6b	-0.03084298
58	0x3d8e8db3	0.06960621
59	0x3d760185	0.060060043
60	0xbbd5e1f5	-0.0065271803
61	0xbc6b4310	-0.014359251
62	0xbd9f0b73	-0.07765856
63	0x1c8108a2	8.538735e-22

exp_avg_sq f4 [64]
0	0x3d0f5b5a	0.03499923
1	0x371ce93e	9.3526305e-06
2	0x3913a675	0.00014081023
3	0x3a66fb92	0.00088112906
4	0x3cd08836	0.025455575
5	0x3c25d989	0.010122665
6	0x3d1983d7	0.037479248
7	0x3d2861ae	0.04110878
8	0x3cca8100	0.024719715
9	0x39e3fb73	0.00043484158
10	0x39875cca	0.0002581834
11	0x39a5a795	0.0003159611
12	0x3b331fae	0.0027332115
13	0x3afe892f	0.0019419546
14	0x3527ddbc	6.2535014e-07
15	0x3c9742c8	0.018464461
16	0x397a2e77	0.00023859167
17	0x3bc6e5f3	0.0060698926
18	0x3b3e570f	0.002904359
19	0x3c841383	0.016122585
20	0x3987258c	0.0002577718
21	0x3c928c3f	0.01788914
22	0x3bb6986b	0.005572369
23	0x3a8fd0e7	0.0010972292
24	0x37f8a0de	2.9638813e-05
25	0x3bed311e	0.0072385212
26	0x3c2ed2b0	0.010670349
27	0x39c39029	0.00037300706
28	0x30bc95d1	1.3721381e-09
29	0x3ceb34c2	0.02871168
30	0x3dabd652	0.08390488
31	0x3d5e8339	0.054324362
32	0x3c7f491f	0.015581398
33	0x31a01bc9	4.6597717e-09
34	0x3c177177	0.009243361
35	0x3c56201e	0.013069181
36	0x39a36e39	0.00031171905
37	0x3c847ed7	0.016173763
38	0x3c70851a	0.014680171
39	0x3d8a23f4	0.06745139
40	0x3c5ed41b	0.013600375
41	0x3a505836	0.0007947715
42	0x3d63655e	0.055516593
43	0x3ca3e05e	0.020004448
44	0x3d38b977	0.045098748
45	0x38568112	5.1141782e-05
46	0x3c606b2d	0.013697428
47	0x3afff45f	0.0019527784
48	0x36c93103	5.9959725e-06
49	0x3d07f80f	0.03319555
50	0x3b19e91f	0.0023484898
51	0x3b00cb9c	0.001965261
52	0x3daf8e75	0.085720934
53	0x3a172e9c	0.0005767138
54	0x3d8b63a7	0.068061166
55	0x3d222032	0.039581485
56	0x39aec83d	0.00033337055
57	0x3b355088	0.0027666409
58	0x3bd0cb35	0.0063718804
59	0x3c826750	0.015918404
60	0x396e15c5	0.00022705559
61	0x39b11b9e	0.00033780647
62	0x3c08a432	0.008339928
63	0x2b677711	8.2232924e-13

exp_avg f4 [64, 64]
0	0x3c89bcb5	0.016813615
1	0xb7d18713	-2.497764e-05
2	0x3b8afd58	0.0042416267
3	0x38cc716f	9.748607e-05
4	0x3c371c63	0.0111762015
5	0x3b03b461	0.0020096528
6	0x3af839af	0.001893809
7	0x3c9d5e7d	0.019210095
8	0x3cad6b0f	0.021169214
9	0x3bdd511b	0.0067540533
10	0x3bbe72f7	0.0058120447
11	0x3bba2043	0.0056801154
12	0x3a4a6f2f	0.0007722256
13	0xba9b02b9	-0.0011826373
14	0xb6ea3397	-6.9797493e-06
15	0x3c924b44	0.017858155
16	0x3b1d7b3c	0.0024029752
17	0xbaba7d92	-0.0014228097
18	0x3c5fa389	0.01364983
19	0x3c95b28e	0.018273618
20	0x38f0783b	0.000114664865
21	0x3c0bb1ad	0.008526248
22	0x3c04d765	0.008107995
23	0xba6294b3	-0.0008643374
24	0xb7d9941e	-2.5937388e-05
25	0x3c2a2404	0.010384563
26	0x3d0cbc8f	0.03435951
27	0xb8435620	-4.6571833e-05
28	0xa1e70307	-1.565397e-18
29	0x3bbdd98e	0.005793757
30	0x3be7a277	0.007068928
31	0x3c08479b	0.008317853
32	0x3a3785fa	0.000700086
33	0xa2f248f5	-6.5671478e-18
34	0x3bd2bf95	0.0064315298
35	0xb9572081	-0.00020516106
36	0xbae52852	-0.001748333
37	0x3cdf2a27	0.02724178
38	0xbb1d5428	-0.002400646
39	0xba73544a	-0.00092822744
40	0x3c299fa7	0.0103530055
41	0x3c4d7a78	0.012541406
42	0x3cb28c4b	0.021795413
43	0x3c34f246	0.011044091
44	0x3bb082de	0.0053866943
45	0xba028bce	-0.0004979939
46	0x39a91e8b	0.00032256948
47	0x3a85240b	0.0010157836
48	0xb72546e6	-9.851274e-06
49	0x3c4c1fc4	0.012458745
50	0x3c7a826d	0.015289885
51	0xb9dfda35	-0.0004269645
52	0x3c3d1054	0.011539537
53	0x3c70149f	0.014653354
54	0x3c69b8d5	0.014265259
55	0x3bde3b62	0.0067819813
56	0x3ca30024	0.019897528
57	0x3b362a8e	0.002779636
58	0x3d03f84a	0.03221921
59	0xbb01d050	-0.0019808002
60	0x3c8d64e4	0.017260022
61	0x3c972954	0.018452324
62	0x3c5a280a	0.01331521
63	0x194282a7	1.005595e-23
64	0x1d966487	3.9808612e-21
65	0x1c359165	6.0075794e-22
66	0x25174c49	1.3123009e-16
67	0x218a350e	9.365287e-19
68	0x25e41f71	3.9573e-16
69	0x2552fc8c	1.8300163e-16
70	0x2276e8c6	3.3462446e-18
71	0x2310d865	7.852079e-18
72	0x25877283	2.3496363e-16
73	0x26253eef	5.7331166e-16
74	0x25ae4816	3.0233036e-16
75	0x25b34ac4	3.1102213e-16
76	0x23bb0468	2.0276447e-17
77	0x24368354	3.9576198e-17
78	0x00000000	0.0
79	0x24439bae	4.241575e-17
80	0x25f67bee	4.2758176e-16
81	0x00000000	0.0
82	0xa31b1919	-8.4078815e-18
83	0x252dc45c	1.5071887e-16
84	0x1c99ea22	1.0185213e-21
85	0x1d445294	2.5983076e-21
86	0x252c5b69	1.4949593e-16
87	0x00000000	0.0
88	0x00000000	0.0
89	0x24fa1128	1.0844928e-16
90	0x2603c790	4.5720213e-16
91	0x1f00d418	2.7280494e-20
92	0x00000000	0.0
93	0x2547f50a	1.7343521e-16
94	0x250ca022	1.219732e-16
95	0x22dfe6f9	6.0688823e-18
96	0x240d09ad	3.0582697e-17
97	0x00000000	0.0
98	0x253c7ce2	1.6348713e-16
99	0x00000000	0.0
100	0x211d502a	5.3299765e-19
101	0x25591ea3	1.883213e-16
102	0xa201594d	-1.7530035e-18
103	0x23eba1ad	2.5547223e-17
104	0x2452685a	4.562488e-17
105	0x25c60062	3.4347784e-16
106	0x246fa298	5.1962586e-17
107	0x25e635c0	3.9935062e-16
108	0x2592a44d	2.5438297e-16
109	0x00000000	0.0
110	0xa2b70ed6	-4.9617958e-18
111	0x24d298b7	9.133169e-17
112	0x00000000	0.0
113	0x2599f1fc	2.6705244e-16
114	0x1d908eb0	3.826402e-21
115	0x00000000	0.0
116	0x23e37849	2.4662332e-17
117	0x2534b877	1.567501e-16
118	0x224c112f	2.7656252e-18
119	0x1c54ec8e	7.0450656e-22
120	0x23e515e8	2.4837507e-17
121	0x25653c6b	1.9883054e-16
122	0x25eb8bc5	4.0860713e-16
123	0xa2d86f20	-5.8664575e-18
124	0x2608ba5d	4.743705e-16
125	0x255a0425	1.890989e-16
126	0x258ac9cb	2.4075924e-16
127	0x00000000	0.0
128	0xbc7ea1cb	-0.015541504
129	0x37db3f4e	2.6136313e-05
130	0xbb65f7ef	-0.0035090407
131	0xba801df8	-0.0009774556
132	0xbc18fea1	-0.009338052
133	0xbafe7ffe	-0.0019416807
134	0xbab34d60	-0.0013679676
135	0xbc992476	-0.018694144
136	0xbc9ed4d7	-0.0193886
137	0xbbc5b96b	-0.0060340664
138	0xbbc0558d	-0.0058695734
139	0xbba1ef49	-0.004941855
140	0xba099aac	-0.0005249183
141	0x3a0feb59	0.00054900866
142	0x370719db	8.052647e-06
143	0xbc856a67	-0.016286088
144	0xbb1a1606	-0.0023511662
145	0x3ac051c7	0.0014672809
146	0xbc62c651	-0.013841228
147	0xbc82609d	-0.01591521
148	0xb8e56f04	-0.00010940249
149	0xbc09e5a3	-0.008416566
150	0xbbdce083	-0.006740631
151	0x3a5a2304	0.0008321258
152	0x37e0583a	2.6743965e-05
153	0xbc13ba62	-0.009016605
154	0xbcf8787c	-0.030330889
155	0x3619d44d	2.2922352e-06
156	0x21d3f0a1	1.436161e-18
157	0xbb9ccf51	-0.004785456
158	0xbbc63b11	-0.0060495217
159	0xbbf0983a	-0.0073423656
160	0xbac7dd39	-0.0015248425
161	0x22df068d	6.0451207e-18
162	0xbbac0be9	-0.0052504432
163	0x3a097aed	0.00052444526
164	0x3af3d00d	0.0018601433
165	0xbcc8b3e3	-0.02449984
166	0x3ad54333	0.0016270637
167	0x3ad4d421	0.0016237536
168	0xbc2f7188	-0.01070822
169	0xbc395e0e	-0.011313928
170	0xbca79213	-0.020455396
171	0xbc17eb4b	-0.009272407
172	0xbb8e3a95	-0.0043404796
173	0x3a02e1d9	0.00049927604
174	0xb9971810	-0.00028818892
175	0xb93b3674	-0.00017853995
176	0x372699b6	9.93016e-06
177	0xbc2d2a16	-0.010569116
178	0xbc682e8f	-0.014171257
179	0x39e69dce	0.00043986592
180	0xbc274659	-0.010209643
181	0xbc53ea9d	-0.012934354
182	0xbc5398b7	-0.012914828
183	0xbbd0c06a	-0.006370594
184	0xbc9559f0	-0.018231362
185	0xbb23869e	-0.0024952064
186	0xbce58cf7	-0.028021319
187	0x3a8f8700	0.0010950267
188	0xbc7bdf34	-0.01537304
189	0xbc9046dd	-0.017611915
190	0xbc526446	-0.01284129
191	0x992908ef	-8.738899e-24
192	0xbbb1210a	-0.00540555
193	0x36d7992a	6.42533e-06
194	0xbabd78d9	-0.0014455571
195	0xb9afe24b	-0.00033547202
196	0xbb5e7477	-0.003394393
197	0xba2a1a3b	-0.0006488894
198	0xb9e9fd77	-0.0004463007
199	0xbbcae34c	-0.0061916467
200	0xbbdf9adf	-0.006823882
201	0xbb0a1891	-0.0021071772
202	0xbb00d792	-0.001965974
203	0xbadcadba	-0.0016836443
204	0xb9351740	-0.00017270166
205	0x393f7899	0.00018260106
206	0x3630cb2b	2.6344303e-06
207	0xbbbe22fa	-0.0058025094
208	0xba4bb4b6	-0.00077707635
209	0x3a00e3f4	0.000491678
210	0xbb99dcf3	-0.0046955287
211	0xbbbe6f11	-0.00581158
212	0xb81d7a1f	-3.754545e-05
213	0xbb3be1b4	-0.0028668465
214	0xbb3573af	-0.002768736
215	0x3994d05f	0.00028384008
216	0x37121901	8.7081e-06
217	0xbb622230	-0.003450524
218	0xbc2d714a	-0.010586092
219	0x3598143c	1.1330771e-06
220	0x20e42054	3.8646095e-19
221	0xbad6ea42	-0.0016396719
222	0xbb1d1be4	-0.0023972923
223	0xbb217309	-0.0024635217
224	0xba094a9c	-0.0005237253
225	0x21f8c211	1.6856503e-18
226	0xbb0bf47f	-0.0021355448
227	0x38380684	4.3875087e-05
228	0x3a0fcda0	0.00054856576
229	0xbc0a3952	-0.008436518
230	0x3a130382	0.00056081277
231	0x399df932	0.00030131039
232	0xbb69b164	-0.0035658712
233	0xbb80a35e	-0.003925725
234	0xbbdf3901	-0.0068122153
235	0xbb5773e6	-0.0032875477
236	0xbaee6fee	-0.0018191317
237	0x392836d4	0.00016042154
238	0xb8d1b088	-9.998778e-05
239	0xb9c50f81	-0.0003758632
240	0x365d3da1	3.296744e-06
241	0xbb77aaad	-0.003779094
242	0xbba16b58	-0.0049261265
243	0x390fa31e	0.00013698309
244	0xbb60e4c8	-0.0034316052
245	0xbb9907fb	-0.004670141
246	0xbb8f14b5	-0.004366482
247	0xbb1601a3	-0.002288916
248	0xbbd00fa3	-0.0063495203
249	0xba74f796	-0.00093447545
250	0xbc256dab	-0.010096948
251	0x39d0e19f	0.00039840952
252	0xbbb2b2f0	-0.00545346
253	0xbbc2345d	-0.0059266523
254	0xbb8dd4db	-0.004328353
255	0x9854a13e	-2.7481764e-24
