Mountaincart/checkpoints/best_model.pth (torch, 304693 bytes, 24 tensors)

net.0.weight f4 [128, 2]
-0.55193913 -12.439157 0.17554988 -0.0238375 -0.20104434 -0.39022857 0.2308899 -0.36222222
0.059889805 -3.094705 5.617082 8.178299 0.09157617 -0.3364459 0.016443677 -0.60073334
-0.7016752 -7.8610964 -0.606156 6.0011983 -0.028916536 -0.3371423 -0.22153138 -4.7150908
0.5554369 1.8536366 0.87589777 0.137051 0.49730143 2.0017576 0.15509702 0.70547736
-0.35947514 -4.7942963 0.5298446 -1.0533283 0.7895749 -1.95651 -0.51371205 -1.3292059
0.12438319 0.13004637 -0.64703417 -1.3510915 0.19635138 -0.034287725 0.22242142 -0.51132244
-0.20040846 -2.715653 -0.27529857 -2.070628 -0.2161133 -3.0694318 0.39823228 -4.057268
0.47339812 -2.7333677 0.084649414 -0.32068002 -0.6087896 -2.767141 0.3916592 -0.29689386
-0.21753137 -3.288667 -0.23104922 -3.3290718 -0.50393593 -0.6987924 -0.0982043 -6.8914733
-0.19625519 -0.15295225 -0.5615269 -0.024730451 1.9776175 5.289007 0.33629724 -4.617411
-0.53842866 6.9867535 -0.43711716 -1.9022546 0.3430181 -0.5310405 0.18997757 -0.18142195
0.092706375 0.1341298 0.02690526 -1.6580139 0.30945307 -0.17635657 0.018753812 -1.6828047
0.12197331 0.13387424 -0.45293364 -2.054937 -0.07697287 -0.41559052 -0.28177103 -9.687691
0.043506477 -3.3296561 0.5985864 0.020798879 0.5474393 -3.0019808 0.089404866 -9.351321
-0.19460869 0.38896778 0.7835537 -0.59227407 -0.39754656 -1.6596278 -0.39505166 -0.6855044
-0.2720699 -5.2197537 -0.16232227 0.1976967 0.04594823 -5.0696397 -0.7937724 2.4160044
-0.41676927 0.28938404 0.36329904 -4.227599 0.14568834 -0.5881353 0.035522375 0.19954948
-0.12023029 -0.5624807 -0.25704074 0.4360888 -0.441946 7.334881 0.121168494 -0.48465982
0.0325966 -6.4175496 -0.13032936 -0.46329686 0.66424704 -3.539386 0.34613714 0.110493354
-0.29949638 -2.971116 -1.2889284 6.5505357 0.07575186 -0.5544964 -0.14254487 0.4511879
0.5901631 -3.3151438 0.815433 -0.3313028 -0.19886805 -0.35421383 0.443307 -2.0837078
0.8447227 -3.8739555 -0.17806056 -2.410369 0.9980633 -1.4595944 -0.13623519 -1.1625242
-0.6290971 -2.128316 -0.6514881 -4.5886216 -0.6559591 1.8988786 0.12031163 2.5880132
-0.11469251 -2.7224126 0.10130644 -1.5131218 -0.558366 -3.303354 0.57323515 -5.065648
0.5328124 0.108393766 -0.5108345 -1.1830795 -0.17976126 -3.0843236 0.11067585 -0.029598804
0.1377142 -2.492539 -0.27679834 -0.28890365 -0.33683586 -2.7859106 0.15261249 -5.4945116
-0.14705239 -0.807299 -0.15775903 0.21790156 -0.5593274 -4.2155285 -0.54730165 -2.7314386
1.4409485 2.7719076 -0.53645986 -0.3468886 0.02185008 2.574161 0.22397272 -5.8223467
-0.58996415 -2.3301926 0.0034913053 -2.7890043 0.4850028 -1.1374115 0.2872162 -0.5288654
-0.17333335 -0.079609856 -0.24479267 -3.403108 0.966352 -4.386481 -0.008351903 0.01232652
0.38985792 0.29313183 -0.37447184 -0.8414536 -0.4827938 -0.26112732 -0.03360933 0.05217173
-0.1554706 -2.4941502 0.011746511 -0.6425469 0.9513916 0.4651251 0.5253063 -2.0136325
00000000: e24b 0dbf c906 47c1 59c3 333e dc46 c3bc
00000010: 91de 4dbe 0acc c7be 676e 6c3e 3175 b9be
00000020: 034f 753d a60f 46c0 23bf b340 50da 0241
00000030: 498c bb3d a342 acbe e4b4 863c a9c9 19bf
00000040: fca0 33bf 1a8e fbc0 0a2d 1bbf d109 c040
00000050: 5fe2 ecbc ea9d acbe 1fd9 62be 06e2 96c0
00000060: 1d31 0e3f f743 ed3f d63a 603f 1957 0c3e
00000070: 4b9e fe3e cc1c 0040 c1d1 1e3e 2a9a 343f
00000080: 200d b8be e06a 99c0 e5a3 073f 76d3 86bf
00000090: 9521 4a3f eb6e fabf a282 03bf 6b23 aabf
000000a0: 9dbc fe3d e02a 053e 08a4 25bf 91f0 acbf
000000b0: 5610 493e 4971 0cbd 71c2 633e 07e6 02bf
000000c0: e037 4dbe 42cd 2dc0 eff3 8cbe 2b85 04c0
000000d0: ce4c 5dbe 9271 44c0 1ae5 cb3e 24d5 81c0
000000e0: 3d61 f23e 7fef 2ec0 ac5c ad3d 2c30 a4be
000000f0: a3d9 1bbf d718 31c0 8e87 c83e 7902 98be
00000100: 8bc0 5ebe 8579 52c0 2b98 6cbe 830f 55c0
00000110: f201 01bf 0fe4 32bf 561f c9bd f386 dcc0
00000120: 1ff7 48be 849f 1cbe 3ac0 0fbf 8497 cabc
00000130: 9222 fd3f 8c3f a940 272f ac3e d5c1 93c0
00000140: 76d6 09bf 7c93 df40 d2cd dfbe 147d f3bf
00000150: 12a0 af3e 45f2 07bf 7b89 423e adc6 39be
00000160: d7dc bd3d 5359 093e 6b68 dc3c cd39 d4bf
00000170: a270 9e3e d196 34be 98a1 993c 2566 d7bf
00000180: 25cd f93d 5416 093e ebe6 e7be 1684 03c0
00000190: f4a3 9dbd 48c8 d4be 4b44 90be c800 1bc1
000001a0: d933 323d 1619 55c0 f53c 193f 6962 aa3c
000001b0: fb24 0c3f 7420 40c0 e619 b73d 039f 15c1
000001c0: 8047 47be c926 c73e fa96 483f 469f 17bf
000001d0: 398b cbbe af6e d4bf 3644 cabe 377d 2fbf
000001e0: bf4c 8bbe 3908 a7c0 cf37 26be 0171 4a3e
000001f0: 3634 3c3d 7d3a a2c0 ab34 4bbf d19f 1a40
00000200: c862 d5be 252a 943e 5502 ba3e 7e48 87c0
00000210: 532f 153e 0990 16bf e97f 113d b356 4c3e
00000220: 4c3b f6bd bcfe 0fbf d89a 83be 0847 df3e
00000230: bf46 e2be 58b7 ea40 3027 f83d 5525 f8be
00000240: 0384 053d 915c cdc0 0f75 05be 3f35 edbe
00000250: 180c 2a3f 4d85 62c0 e338 b13e 574a e23d
00000260: 9757 99be c426 3ec0 9bfb a4bf fd9d d140
00000270: cb23 9b3d 7af3 0dbf 48f7 11be 1a02 e73e
00000280: ee14 173f 512b 54c0 38c0 503f 85a0 a9be
00000290: 11a4 4bbe 845b b5be 23f9 e23e 785b 05c0
000002a0: bf3f 583f e3ee 77c0 8255 36be 7c43 1ac0
000002b0: 1481 7f3f fdd3 babf 3d81 0bbe 98cd 94bf
000002c0: 820c 21bf 5436 08c0 edc7 26bf fdd5 92c0
000002d0: f0ec 27bf 740e f33f f265 f63d 02a2 2540
000002e0: e8e3 eabd 023c 2ec0 c079 cf3d faad c1bf
000002f0: 13f1 0ebf 276a 53c0 8abf 123f ca19 a2c0
00000300: 6566 083f 8dfd dd3d 0dc6 02bf 266f 97bf
00000310: 5613 38be 8f65 45c0 05aa e23d 3179 f2bc
00000320: f404 0d3e c285 1fc0 83b8 8dbe 2eeb 93be
00000330: c075 acbe 5c4c 32c0 7346 1c3e 0ad3 afc0
00000340: e794 16be 26ab 4ebf 958b 21be 9621 5f3e
00000350: 1530 0fbf 9ce5 86c0 f61b 0cbf e4cf 2ec0
00000360: 0071 b83f ef66 3140 6f55 09bf 629b b1be
00000370: f0fe b23c 0ebf 2440 1b59 653e aa50 bac0
00000380: e407 17bf e021 15c0 62ce 643b 0c7f 32c0
00000390: 4952 f83e b396 91bf 000e 933e b963 07bf
000003a0: 4c7e 31be 7e0a a3bd eeaa 7abe 85cc 59c0
000003b0: d862 773f 0d5e 8cc0 6cd6 08bc 2cf5 493c
000003c0: 759b c73e 6015 963e c6ba bfbe 8169 57bf
000003d0: c030 f7be 7bb2 85be f0a9 09bd 06b2 553d
000003e0: af33 1fbe 28a0 1fc0 7074 403c f47d 24bf
000003f0: 668e 733f e124 ee3e 797a 063f 5bdf 00c0

net.0.bias f4 [128]
-0.4395857 -0.16020902 -0.63535583 -0.120398 0.2645704 1.2345371 -0.26248088 -0.44051194
0.087572485 0.41500074 0.7513563 0.16225523 0.3710416 0.7596671 0.2659528 -0.46012446
0.1924766 0.5958981 0.6562373 0.45955753 -0.6673401 0.52591693 -0.7033241 0.7155895
0.107845 0.2882837 0.118080266 0.41373488 0.38083518 -0.2169117 0.62897956 -0.22365123
0.12289378 0.12759188 -0.6658246 -0.1302569 -0.3174202 -0.7029869 0.407116 0.3698811
-0.7898874 0.21762238 -0.25319576 0.45739985 -0.30789638 0.60672826 0.7409761 0.37590405
-0.6744181 0.36649868 -0.6988694 0.15753345 0.16994712 -0.5556313 0.43629453 -0.04270119
-0.24176191 0.46915472 0.2816111 0.32349375 0.18036154 -0.5357619 0.2519741 -0.72154444
-0.5661459 0.3839005 -0.6606833 -0.448335 -0.4448588 -0.5347647 -0.7222917 0.71933115
0.025669489 -0.6918475 0.45562404 -0.41971853 0.43463376 -1.0261544 -0.054122563 0.34859085
0.47531673 0.46283728 -0.35502413 0.341583 0.44894597 0.45983827 0.58955204 0.6324786
0.4037983 -0.496099 -0.7942427 0.481093 0.6102094 0.65218884 0.27246577 0.30457425
-0.5749881 -0.6818445 0.5828174 -0.47193587 0.6410807 -0.47406152 0.29272094 0.05534652
0.27714533 -0.5491429 -0.6572064 0.47509885 0.6544219 -0.6784236 0.5859123 0.31391606
0.5061972 0.32623613 0.5381541 -0.6259604 -0.21263936 0.13328084 0.4885033 -0.33890727
-0.4254941 0.43562028 -0.6069395 -0.36506277 0.3909312 0.32336193 0.5182654 0.5702103
00000000: 6011 e1be d50d 24be aea6 22bf 3a93 f6bd
00000010: c575 873e 5005 9e3f e563 86be c88a e1be
00000020: 3459 b33d fa7a d43e e358 403f 3c26 263e
00000030: 2af9 bd3e 8b79 423f f72a 883e 6f95 ebbe
00000040: 9618 453e c78c 183f 2bff 273f 204b eb3e
00000050: cdd6 2abf 7ea2 063f 0c0d 34bf e030 373f
00000060: d7dd dc3d ec99 933e 11d4 f13d 0fd5 d33e
00000070: d4fc c23e 1a1e 5ebe ce04 213f d404 65be
00000080: bcaf fb3d 72a7 023e 7b73 2abf 1162 05be
00000090: e784 a2be f3f6 33bf 8271 d03e 0e61 bd3e
000000a0: 1036 4abf 67d8 5e3e e0a2 81be 5030 ea3e
000000b0: 98a4 9dbe 8b52 1b3f 9cb0 3d3f 7f76 c03e
000000c0: aaa6 2cbf b7a5 bb3e 1be9 32bf 7350 213e
000000d0: 9e06 2e3e da3d 0ebf ff61 df3e 71e7 2ebd
000000e0: 6f90 77be 0c35 f03e 552f 903e f9a0 a53e
000000f0: b2b0 383e b127 09bf c002 813e 23b7 38bf
00000100: f0ee 10bf 9b8e c43e 8a22 29bf 2a8c e5be
00000110: 88c4 e3be 57e6 08bf 1ce8 38bf 1626 383f
00000120: d248 d23c eb1c 31bf 8e47 e93e 59e5 d6be
00000130: 5188 de3e 0759 83bf 9faf 5dbd 807a b23e
00000140: b75c f33e 02f9 ec3e b9c5 b5be f8e3 ae3e
00000150: 3fdc e53e ec6f eb3e e2ec 163f 1eea 213f
00000160: a7be ce3e b000 febe 7d53 4bbf d251 f63e
00000170: af36 1c3f d9f5 263f a280 8b3e 28f1 9b3e
00000180: 6c32 13bf 5c8d 2ebf 8533 153f 94a1 f1be
00000190: dd1d 243f 31b8 f2be 85df 953e 08b3 623d
000001a0: fee5 8d3e a194 0cbf ae3e 28bf 2840 f33e
000001b0: 3288 273f 2bad 2dbf 59fe 153f 9bb9 a03e
000001c0: 2496 013f 6c08 a73e 78c4 093f f13e 20bf
000001d0: 22be 59be c67a 083e 1b1d fa3e 4185 adbe
000001e0: 5dda d9be 9f09 df3e 6360 1bbf 82e9 babe
000001f0: 2228 c83e b28f a53e 0bad 043f 4df9 113f

net.2.weight f4 [128, 128]
-1.7229105 -0.07491661 0.026045552 0.025193224 0.039774477 0.21346445 -0.03686434 -0.05489646
-2.8230715 -0.44033217 -0.0017876298 -0.5050709 -2.5399427 -0.0016190903 -2.283872 -0.039837684
-0.12159985 0.11846787 0.19351178 0.036310654 0.032081876 -0.031469055 0.005060867 0.039702047
-0.031958688 0.026708797 -0.05505912 0.44661403 0.2612614 -0.071899466 0.07925521 -0.0634847
-0.34515613 -0.17524508 -0.0494561 -0.27091295 -0.011045962 0.26588622 -0.036662936 0.5031011
-5.484209 0.10522223 -0.038853705 0.018517964 0.052502815 0.12124997 0.019506725 0.059418384
-0.036460333 0.06289177 -0.050745584 -2.0856557 -0.17276244 -0.024243562 0.24631782 -1.872814
-0.0067477734 1.1840404 -0.023930373 -0.045865986 -0.26891539 0.021855269 -0.35997722 -4.0163946
0.036836557 0.26564142 -0.042346824 0.015564915 -0.014030053 -0.032657463 -5.9403687 0.026755838
-3.0568306 0.033412114 -0.94887614 0.055283893 0.034629308 -4.685347 -0.04963304 -0.010425351
0.8477637 -0.43181023 0.049817048 0.40596136 0.3576972 0.11560512 0.48542866 0.051220734
0.09059347 -2.0884538 -0.1714049 -0.120431446 0.14977783 0.10221604 0.04001514 -5.310527
0.0107785715 0.6808126 0.027947798 -0.056501105 0.16266501 -0.04263119 0.015561919 -1.9047493
0.007414006 -0.018481772 -2.0974088 0.01449571 0.36704743 0.63976425 -0.036892373 -0.66772914
-0.035637736 0.14439179 0.363889 -0.07886568 -0.010620667 -0.052864898 -1.3545265 -0.0871339
0.08533061 0.112926774 0.040613182 -0.067828864 0.100031994 -0.06264647 0.42533243 0.47657087
0.067487344 -0.044653837 -0.06668953 0.046645604 0.052869756 -0.0016682881 0.04688781 0.07299789
-0.0820927 0.023860868 0.014450341 0.009420663 0.07045597 0.03351174 0.075805575 -0.048932437
0.0027030564 -0.023924774 -0.007971634 0.056157418 -0.07994557 -0.08430177 -0.009133538 -0.07155698
0.00050756393 0.003177651 -0.023220174 0.0020076968 -0.009249105 0.020268451 0.000721965 0.05852306
0.08149802 -0.007568499 -0.08086321 0.010485324 0.07884609 0.058296423 -0.044701777 0.030119192
-0.073637374 0.009065492 0.07614263 0.07987904 -0.0720248 0.0033370503 -0.065791875 -0.080361605
-0.0008475099 -0.05781926 0.059360642 0.0042580646 0.04793855 -0.047169097 -0.025776781 0.018398954
0.06812415 -0.06727931 -0.037417036 -0.000602721 0.006920449 0.046542734 -0.021384636 -0.06638997
-0.081213035 0.07151933 0.02111652 -0.059955787 0.061450493 -0.078677334 -0.035736322 -0.07650906
0.014791721 -0.051670086 0.0577602 -0.07789917 0.07483731 -0.08490236 -0.023092173 -0.060756516
-0.08432022 -0.0008148566 -0.05688303 0.060600296 -0.06251488 -0.045144152 -0.08166969 -0.0863002
-0.085599795 -0.0686908 -0.04652873 0.04392631 0.07288019 -0.023733491 0.069835454 -0.070206344
0.012177858 0.052705053 -0.026126273 -0.045400828 0.032001995 -0.006220938 0.031949114 -0.03769572
-0.08133465 0.06689732 -0.038162842 -0.05551277 -0.07443642 0.06325644 -0.021428743 -0.06349683
0.07830052 0.05271051 0.016008848 -0.05717789 0.06280847 0.028069768 0.024281958 -0.033643804
-0.078118406 -0.027555494 -0.033120364 0.042814147 0.027249107 -0.07392791 -0.071528025 -0.020748451
00000000: 5588 dcbf e16d 99bd 7b5d d53c 0562 ce3c
00000010: 90ea 223d 6d96 5a3e 10ff 16bd 1cdb 60bd
00000020: 34ad 34c0 3873 e1be e74e eaba 544c 01bf
00000030: 6c8e 22c0 a837 d4ba f52a 12c0 d72c 23bd
00000040: 5809 f9bd 489f f23d f427 463e 7bba 143d
00000050: 4968 033d b2e5 00bd a1d5 a53b 9d9e 223d
00000060: 1de7 02bd 68cc da3c ac85 61bd 98aa e43e
00000070: 0ec4 853e 0740 93bd 8e50 a23d 4404 82bd
00000080: 4eb8 b0be 7273 33be 7b92 4abd 1ab5 8abe
00000090: 1ffa 34bc 3d22 883e e02b 16bd 3ccb 003f
000000a0: a47e afc0 c17e d73d 1025 1fbd fcb2 973c
000000b0: 310d 573d e751 f83d 91cc 9f3c b160 733d
000000c0: 6e57 15bd 66cd 803d 9ada 4fbd 627b 05c0
000000d0: a3e8 30be 6f9a c6bc bd3a 7c3e 5fb8 efbf
000000e0: 6d1c ddbb a38e 973f a109 c4bc f9dd 3bbd
000000f0: 47af 89be d209 b33c ef4e b8be 4e86 80c0
00000100: eee1 163d 2702 883e dd73 2dbd fc03 7f3c
00000110: 4fde 65bc d5c3 05bd 8017 bec0 0f2f db3c
00000120: 1da3 43c0 24db 083d 8ce9 72bf 5d71 623d
00000130: 76d7 0d3d 5dee 95c0 044c 4bbd 17cf 2abc
00000140: 0b07 593f 3b16 ddbe f60c 4c3d 2bda cf3e
00000150: 1624 b73e 61c2 ec3d 1b8a f83e d5cc 513d
00000160: 1289 b93d 3aa9 05c0 c484 2fbe c3a4 f6bd
00000170: 5c5f 193e a556 d13d eae6 233d d6ef a9c0
00000180: 9b98 303c bc49 2e3f c8f2 e43c b46d 67bd
00000190: a891 263e 0b9e 2ebd 6bf7 7e3c d3ce f3bf
000001a0: 31f1 f23b 1667 97bc f23b 06c0 6a7f 6d3c
000001b0: a4ed bb3e 97c7 233f 751c 17bd 4cf0 2abf
000001c0: e0f8 11bd 71db 133e a94f ba3e 5484 a1bd
000001d0: 4e02 2ebc dd88 58bd 2061 adbf 4273 b2bd
000001e0: d1c1 ae3d 2746 e73d 025a 263d dce9 8abd
000001f0: 93dd cc3d cb4c 80bd 2cc5 d93e 1901 f43e
00000200: ce36 8a3d f1e6 36bd 8594 88bd 760f 3f3d
00000210: f58d 583d 76aa daba 6f0d 403d eb7f 953d
00000220: 3820 a8bd de77 c33c 20c1 6c3c 2059 1a3c
00000230: 384b 903d 9b43 093d f43f 9b3d 616d 48bd
00000240: c325 313b e3fd c3bc 759b 02bc 5205 663d
00000250: 81ba a3bd 68a6 acbd d6a4 15bc 778c 92bd
00000260: 0a0e 053a 2340 503b 3c38 bebc 9093 033b
00000270: 8f89 17bc 060a a63c 4042 3d3a e0b5 6f3d
00000280: 6fe8 a63d 2c01 f8bb 9c9b a5bd a3ca 2b3c
00000290: 0f7a a13d 3bc8 6e3d 3619 37bd 86bc f63c
000002a0: 31cf 96bd 6e87 143c abf0 9b3d 9f97 a33d
000002b0: bd81 93bd 6ab2 5a3b e4bd 86bd a094 a4bd
000002c0: 6d2b 5eba e3d3 6cbd 2524 733d 3c87 8b3b
000002d0: 375b 443d 6234 41bd d429 d3bc 67b9 963c
000002e0: ad84 8b3d bcc9 89bd 9b42 19bd ecff 1dba
000002f0: efc4 e23b 98a3 3e3d d52e afbc 77f7 87bd
00000300: 0553 a6bd ba78 923d 8dfc ac3c 3394 75bd
00000310: 83b3 7b3d 9521 a1bd 4060 12bd c8b0 9cbd
00000320: f958 723c 03a4 53bd f695 6c3d 9a89 9fbd
00000330: 4e44 993d 4ae1 adbd cc2b bdbc d3db 78bd
00000340: 14b0 acbd 1a9c 55ba 2efe 68bd 0438 783d
00000350: cd07 80bd 13e9 38bd 7042 a7bd 29be b0bd
00000360: f24e afbd c3ad 8cbd e994 3ebd 13ec 333d
00000370: 3642 953d bd6c c2bc e405 8f3d 58c8 8fbd
00000380: a385 473c 41e1 573d c406 d6bc 38f6 39bd
00000390: 8614 033d 03d9 cbbb 13dd 023d d466 1abd
000003a0: c892 a6bd 7601 893d a450 1cbd 5c61 63bd
000003b0: 1f72 98bd 988c 813d 558b afbc a00a 82bd
000003c0: 065c a03d fae6 573d fd24 833c 5d33 6abd
000003d0: baa1 803d 92f2 e53c f5ea c63c 16ce 09bd
000003e0: 8bfc 9fbd 0fbc e1bc 38a9 07bd e35d 2f3d
000003f0: 8539 df3c 8467 97bd 497d 92bd a8f8 a9bc

net.2.bias f4 [128]
0.009452409 -0.05053741 0.029277803 -0.03823768 0.4528272 0.023876857 -0.046178814 -0.01687942
-0.04636361 0.081076205 0.028730188 0.11533469 -0.0051116077 0.030085798 -0.060009975 -0.033285346
-0.035448648 -0.022759378 0.33906636 0.07656431 -0.07524848 -0.049352843 0.18626057 -0.0034246526
0.07152032 -0.01904497 -0.08325687 0.035157256 -0.030256221 0.08239977 -0.009273311 0.46448585
-0.0484179 0.14210655 0.48185098 0.46927112 0.008477756 -0.103571475 -0.061663955 -0.008156095
-0.053693853 -0.039638046 -0.07873188 0.051232096 0.21800879 -0.0071711247 0.066000395 0.02996192
-0.03314372 -0.08711304 0.052668687 -0.07953954 -0.067009576 -0.10565538 -0.066890486 -0.079360135
0.076763056 -0.05896613 0.08684666 0.018596064 -0.04821491 -0.03426886 -0.009283075 -0.053585894
-0.033001773 0.016543318 -0.06750099 -0.0091590015 0.036934063 -0.07131892 -0.10184506 0.08329047
0.37400964 -0.03484892 -0.08331541 -0.09745721 0.06640695 -0.051858816 0.06343099 -0.0056645772
0.056978453 -0.07278129 0.41131592 -0.08759891 -0.08274831 0.17762652 0.0464079 0.0694657
-0.06851092 0.04397074 0.05919498 -0.12958124 0.048485853 0.11531876 0.0013832838 -0.0025107744
0.4221332 0.027931869 -0.033065647 -0.007712548 0.058320977 0.00034094293 -0.12830304 0.12917343
-0.07045961 -0.027014853 0.050970476 0.00064102875 -0.027077632 0.03471568 -0.058592852 -0.0760856
0.039578624 -0.051603705 -0.080528766 0.440824 -0.06596928 -0.012423237 0.13702938 0.007576818
0.14751576 0.049677543 -0.005306327 0.060668137 0.015104502 0.3812895 -0.048077222 -0.024472551
00000000: 47de 1a3c 5100 4fbd 01d8 ef3c 1d9f 1cbd
00000010: f7d8 e73e 6699 c33c ff25 3dbd b646 8abc
00000020: c5e7 3dbd 480b a63d 925b eb3c 9834 ec3d
00000030: 467f a7bb 7e76 f63c 05cd 75bd 3756 08bd
00000040: 9a32 11bd e071 babc 1b9a ad3e c0cd 9c3d
00000050: e01b 9abd 3526 4abd 17bb 3e3e 2370 60bb
00000060: 3f79 923d 3204 9cbc 9482 aabd 0e01 103d
00000070: e5db f7bc 36c1 a83d 16ef 17bc 17d1 ed3e
00000080: d951 46bd 6184 113e 2cb5 f63e 4e44 f03e
00000090: 49e6 0a3c 481d d4bd 5893 7cbd 24a1 05bc
000000a0: 16ee 5bbd 815b 22bd 2e3e a1bd bfd8 513d
000000b0: b23d 5f3e c1fb eabb 372b 873d b372 f53c
000000c0: b6c1 07bd 5268 b2bd 1fbb 573d a0e5 a2bd
000000d0: 513c 89bd d961 d8bd e1fd 88bd 9187 a2bd
000000e0: f335 9d3d 7886 71bd a9dc b13d c656 983c
000000f0: ff7c 45bd 815d 0cbd 0a18 18bc e27c 5bbd
00000100: de2c 07bd da85 873c f63d 8abd a30f 16bc
00000110: 2c48 173d a70f 92bd 2594 d0bd 3294 aa3d
00000120: 317e bf3e bebd 0ebd 45a1 aabd a597 c7bd
00000130: 5e00 883d e969 54bd 1be8 813d eb9d b9bb
00000140: 3d62 693d 5b0e 95bd 0098 d23e 0f67 b3bd
00000150: f277 a9bd bae3 353e 3616 3e3d 0844 8e3d
00000160: 744f 8cbd aa1a 343d 6f76 723d f2b0 04be
00000170: 1a99 463d 3e2c ec3d 4d4f b53a ce8b 24bb
00000180: d821 d83e 60d1 e43c d86f 07bd 8bb9 fcbb
00000190: fae1 6e3d 96c0 b239 df61 03be 0a46 043e
000001a0: 214d 90bd 414e ddbc 6bc6 503d b60a 283a
000001b0: e9d1 ddbc 0732 0e3d 0fff 6fbd c4d2 9bbd
000001c0: 321d 223d 685e 53bd 44ec a4bd afb3 e13e
000001d0: e71a 87bd d58a 4bbc 6e51 0c3e f546 f83b
000001e0: 5f0e 173e ae7a 4b3d b2e0 adbb 277f 783d
000001f0: e078 773c 6138 c33e 9fec 44bd a97a c8bc

net.4.weight f4 [3, 128]
-2.4242394 -0.00070455833 -0.06693259 0.029800551 -0.50173783 0.07458099 -0.7962607 0.059910916
0.02278934 -2.1179187 -0.017515061 -2.285573 0.073294066 0.015045289 0.07762645 -0.8493009
-0.108417206 0.0014896804 -0.45902136 -0.057087094 -0.04236122 0.004192979 -3.0214055 0.0037420185
-4.531415 0.040527355 0.011284664 0.0790241 -0.083374396 -1.7163469 -0.07859914 -0.44813654
0.058331184 -2.1259847 -0.43858674 -0.46807992 0.05053397 0.012553966 0.057145458 0.00084845576
0.086240545 0.08287468 -0.049418867 -0.059848186 -1.3967656 0.06538483 0.02954896 -0.03745778
-1.2905936 -0.0037943015 -0.024939625 -0.0044726655 -0.01883512 0.06641877 -0.005963887 0.016417965
-2.4351842 0.68970007 -1.3344347 0.048220914 0.03084892 -2.47668 -0.0011055856 -0.044510897
-0.051749196 -0.06672966 -0.04114695 -2.0751815 -0.0029770967 -0.04375805 -0.04184562 0.02707838
-0.464668 -0.045217644 0.04826 0.014605967 0.025474988 0.009813987 -0.039165076 0.052464966
0.005107191 0.03127951 -0.40265778 -0.04243862 0.052853033 -0.81646484 0.04831027 0.015018582
-0.05802309 0.027518919 -2.2654197 -2.0416448 -0.07951301 -1.219137 -0.8664912 -0.032496504
-0.5056315 -0.037395883 -0.036649413 3.0093572 -1.1542724 -3.2536998 0.023807684 -1.8925818
-0.014269097 2.976608 -2.395171 0.03293354 0.058368187 -0.024234742 0.024094258 -1.1435771
-0.0068046893 0.03579166 -2.254526 -0.45891976 -0.021085478 0.008217792 -1.6537868 -3.066681
-3.7217364 -2.396662 0.06532919 0.08106559 0.01906061 4.4491506 -0.6704026 -0.020638116
-2.0126503 -0.086715505 0.046129577 -0.00742323 -0.54887396 0.050701164 -1.2022942 0.042490195
-0.00855998 -2.4550397 0.046945624 -3.0632896 0.01604404 -0.044932514 0.0018778633 -1.3943781
-0.069808014 -0.023059763 -0.40391362 0.04456717 0.02802203 -0.08347707 -1.9640899 -0.06964778
-6.0980897 0.06884695 0.013942816 0.015194876 0.085032575 -1.840219 0.030228164 -0.39970386
0.055218946 -1.7918772 -0.45791754 -0.48284099 0.029700913 0.07736116 0.07300877 -0.03867496
-0.028276173 -0.046449702 0.03224022 0.062166806 -1.1485052 0.020517781 -0.08171717 -0.008594421
-1.4563149 -0.0052948557 0.015721904 0.051314555 -0.07569302 0.03405038 -0.057002157 -0.05846959
-2.9513025 -0.16691436 -2.241297 -0.02546677 0.07194969 -3.3106408 0.060516983 0.013570803
0.019312276 -0.00014131653 0.042054746 -2.5117228 0.044207737 -0.06408045 0.02297853 -0.0723446
-0.39845222 0.022100164 -0.027643869 -0.0147857405 -0.048218925 0.027078908 -0.020523366 -0.083659515
0.030199517 -0.087824956 -0.47924328 0.068083346 0.021123389 -0.18874745 0.037337624 0.057695553
0.0797919 0.047441844 -1.0010743 -2.4298198 0.045790665 -1.3057863 -1.3709189 -0.007834224
-0.39046162 0.049780317 0.04543289 3.3547108 -1.4885046 -4.8562627 0.62673527 -1.7742791
0.07566529 2.82308 -1.5604714 -0.006907552 0.033453576 0.08001936 0.048526604 -1.2158734
0.04957353 0.052171003 -2.1526866 -0.44379708 -0.020121926 0.065805905 -1.8338809 -5.2519445
-4.223175 -2.205723 0.032558914 -0.07731651 0.014903527 3.886795 -0.99215513 0.05257272
00000000: bd26 1bc0 1cb2 38ba f413 89bd 4920 f43c
00000010: e471 00bf ebbd 983d bed7 4bbf 2665 753d
00000020: b6b0 ba3c fb8b 07c0 bf7b 8fbc d446 12c0
00000030: 331b 963d 8480 763c 9efa 9e3d c96b 59bf
00000040: d709 debd 6141 c33a d904 ebbe 28d4 69bd
00000050: f582 2dbd 4265 893b b55e 41c0 a73c 753b
00000060: 5a01 91c0 0300 263d 50e3 383c 63d7 a13d
00000070: 32c0 aabd 41b1 dbbf 96f8 a0bd 2772 e5be
00000080: aeec 6e3d 2210 08c0 718e e0be 2ca8 efbe
00000090: b5fc 4e3d 26af 4d3c 5b11 6a3d e76a 5e3a
000000a0: e29e b03d 33ba a93d 706b 4abd 5f23 75bd
000000b0: 37c9 b2bf 7be8 853d a910 f23c 546d 19bd
000000c0: 2c32 a5bf d1a9 78bb 2f4e ccbc 708f 92bb
000000d0: 1c4c 9abc 9006 883d b66c c3bb f87e 863c
000000e0: 0fda 1bc0 2f90 303f c2ce aabf 4b83 453d
000000f0: e0b6 fc3c ed81 1ec0 4ce9 90ba 0f51 36bd
00000100: f7f6 53bd 8fa9 88bd b489 28bd c6cf 04c0
00000110: 651b 43bb a43b 33bd 5066 2bbd 7bd3 dd3c
00000120: f7e8 edbe 2336 39bd 47ac 453d de4d 6f3c
00000130: ecb0 d03c d8ca 203c 8f6b 20bd 81e5 563d
00000140: 395a a73b f21e 003d 2929 cebe 1ed4 2dbd
00000150: 6c7c 583d d703 51bf fde0 453d 8010 763c
00000160: 9fa9 6dbd 5b6f e13c a3fc 10c0 4faa 02c0
00000170: b8d7 a2bd ae0c 9cbf 5ed2 5dbf 0e1b 05bd
00000180: 1171 01bf 6d2c 19bd b21d 16bd 4f99 4040
00000190: 33bf 93bf 9e3c 50c0 5508 c33c 1f40 f2bf
000001a0: eec8 69bc bf80 3e40 7b4a 19c0 52e5 063d
000001b0: 7b13 6f3d f087 c6bc 5261 c53c bc60 92bf
000001c0: dff9 debb 479a 123d 274a 10c0 88f7 eabe
000001d0: 74bb acbc eba3 063c 49af d3bf 8044 44c0
000001e0: ee30 6ec0 e962 19c0 4fcb 853d b705 a63d
000001f0: ff24 9c3c 715f 8e40 819f 2bbf 4411 a9bc
00000200: 43cf 00c0 e697 b1bd 5ef2 3c3d 913e f3bb
00000210: 0183 0cbf 06ac 4f3d c7e4 99bf 330a 2e3d
00000220: 293f 0cbc 5f1f 1dc0 0e4a 403d f00c 44c0
00000230: ca6e 833c 280b 38bd a322 f63a fb7a b2bf
00000240: 81f7 8ebd d4e7 bcbc c4cd cebe 118c 363d
00000250: 758e e53c 07f6 aabd 4c67 fbbf 7fa3 8ebd
00000260: 8d23 c3c0 a1ff 8c3d 6970 643c eef3 783c
00000270: 8f25 ae3d 4c8c ebbf 0ea1 f73c fca5 ccbe
00000280: 432d 623d 3b5c e5bf 2b74 eabe ef36 f7be
00000290: 544f f33c 876f 9e3d 9f85 953d a369 1ebd
000002a0: 6fa3 e7bc 0b42 3ebd 520e 043d 9fa2 7e3d
000002b0: 3802 93bf e814 a83c 555b a7bd 9dcf 0cbc
000002c0: 8768 babf 7880 adbb 39cb 803c 362f 523d
000002d0: f104 9bbd 6978 0b3d 187b 69bd cf7d 6fbd
000002e0: 24e2 3cc0 99eb 2abe 6971 0fc0 b09f d0bc
000002f0: 5c5a 933d 8ae1 53c0 a8e0 773d 1358 5e3c
00000300: c734 9e3c 5e2e 14b9 9941 2c3d 11c0 20c0
00000310: 2c13 353d 9c3c 83bd 783d bc3c 6829 94bd
00000320: ee01 ccbe 670b b53c 6575 e2bc e43f 72bc
00000330: 3581 45bd 96d4 dd3c 9e20 a8bc ae55 abbd
00000340: fa64 f73c 92dd b3bd 605f f5be 486f 8b3d
00000350: f50a ad3c 0347 41be 56ef 183d 2c52 6c3d
00000360: f069 a33d 6152 423d 3423 80bf 2b82 1bc0
00000370: fe8e 3b3d 0124 a7bf 457a afbf 1e5b 00bc
00000380: 96ea c7be 72e6 4b3d d717 3a3d 95b3 5640
00000390: 5287 bebf 8166 9bc0 b971 203f 941b e3bf
000003a0: 67f6 9a3d 58ad 3440 87bd c7bf bf58 e2bb
000003b0: 9e06 093d 31e1 a33d d5c3 463d bda1 9bbf
000003c0: 9d0d 4b3d 43b1 553d 9ec5 09c0 5f39 e3be
000003d0: bdd6 a4bc 3fc5 863d 9cbc eabf ee0f a8c0
000003e0: 4024 87c0 912a 0dc0 7f5c 053d 1e58 9ebd
000003f0: ec2d 743c 40c1 7840 e1fd 7dbf 7e56 573d

net.4.bias f4 [3]
-0.48966002 -0.16986917 -0.42965537
00000000: b8b4 fabe 2ff2 2dbe cafb dbbe

net.0.weight f4 [128, 2]
-0.55882406 -12.432324 0.17554988 -0.0238375 -0.20104434 -0.39022857 0.2308899 -0.36222222
0.057257313 -3.0871344 5.611582 8.133782 0.09157617 -0.3364459 0.016443677 -0.60073334
-0.70516455 -7.8449407 -0.6049651 5.997647 -0.031793162 -0.32742977 -0.22074242 -4.7126656
0.55461884 1.8497111 0.87740684 0.13930164 0.49596068 1.9980192 0.15509702 0.70547736
-0.35962978 -4.790077 0.5295664 -1.0480733 0.7908941 -1.9539765 -0.51545364 -1.3221176
0.12438319 0.13004637 -0.6483891 -1.3453848 0.19635138 -0.034287725 0.21899992 -0.50655544
-0.20152387 -2.709325 -0.27699098 -2.0651047 -0.21692632 -3.0640187 0.39849117 -4.056956
0.4706733 -2.7299948 0.084649414 -0.32068002 -0.6102532 -2.7604234 0.3916592 -0.29689386
-0.21763095 -3.285555 -0.23217517 -3.3235104 -0.50393593 -0.6987924 -0.09901192 -6.8937216
-0.19625519 -0.15295225 -0.5615269 -0.024730451 1.976762 5.2791758 0.33850157 -4.617045
-0.53842866 6.9867535 -0.4386081 -1.897646 0.3430181 -0.5310405 0.18670626 -0.17711006
0.092706375 0.1341298 0.024041891 -1.6500231 0.3066764 -0.17404427 0.015071959 -1.6731092
0.12197331 0.13387424 -0.4531797 -2.0497603 -0.07697287 -0.41559052 -0.28777453 -9.667329
0.039016746 -3.3278735 0.5985864 0.020798879 0.5457276 -2.9995635 0.08535779 -9.352406
-0.19460869 0.38896778 0.7822982 -0.5914651 -0.39853033 -1.6556034 -0.3929146 -0.68580437
-0.2705398 -5.219178 -0.16232227 0.1976967 0.040092137 -5.067957 -0.793217 2.4307485
-0.41676927 0.28938404 0.3644071 -4.22816 0.14568834 -0.5881353 0.035522375 0.19954948
-0.12023029 -0.5624807 -0.25704074 0.4360888 -0.441946 7.334881 0.117924616 -0.47863358
0.04170904 -6.403356 -0.13032936 -0.46329686 0.66564566 -3.5527122 0.34613714 0.110493354
-0.30168983 -2.965125 -1.2890329 6.5647807 0.07575186 -0.5544964 -0.14483747 0.45625293
0.5893545 -3.3131914 0.8107012 -0.34023076 -0.19886805 -0.35421383 0.44232118 -2.0795572
0.8435115 -3.8446753 -0.18020712 -2.404475 0.993913 -1.4551637 -0.14000463 -1.1522939
-0.62933326 -2.126637 -0.6521713 -4.5744724 -0.6559591 1.8988786 0.118368156 2.5874221
-0.11777937 -2.7162719 0.09909429 -1.5084283 -0.56032676 -3.296542 0.5714492 -5.097675
0.5328124 0.108393766 -0.5108345 -1.1830795 -0.18243036 -3.0737197 0.11067585 -0.029598804
0.13470097 -2.4874725 -0.27679834 -0.28890365 -0.3374536 -2.7841976 0.14073056 -5.5077806
-0.14872436 -0.8058778 -0.15775903 0.21790156 -0.5601297 -4.2179756 -0.54938483 -2.7251787
1.443136 2.7663672 -0.53645986 -0.3468886 0.020441052 2.5741713 0.2222387 -5.82456
-0.59093845 -2.3213716 0.0012058271 -2.7835433 0.4842309 -1.13045 0.2872162 -0.5288654
-0.17333335 -0.079609856 -0.24639082 -3.3962753 0.96770275 -4.4108143 -0.008351903 0.01232652
0.38985792 0.29313183 -0.37609133 -0.8351389 -0.4827938 -0.26112732 -0.03360933 0.05217173
-0.1571881 -2.4860532 0.009495624 -0.6368801 0.9516244 0.4717835 0.5241669 -2.0076864
00000000: 180f 0fbf cdea 46c1 59c3 333e dc46 c3bc
00000010: 91de 4dbe 0acc c7be 676e 6c3e 3175 b9be
00000020: a586 6a3d 9c93 45c0 1492 b340 f923 0241
00000030: 498c bb3d a342 acbe e4b4 863c a9c9 19bf
00000040: aa85 34bf c109 fbc0 fede 1abf b9ec bf40
00000050: 8c39 02bd e0a4 a7be 4d0a 62be 28ce 96c0
00000060: 80fb 0d3f 55c3 ec3f bc9d 603f 17a5 0e3e
00000070: 8fee fd3e 18bf ff3f c1d1 1e3e 2a9a 343f
00000080: 6521 b8be 5048 99c0 aa91 073f 4427 86bf
00000090: 0978 4a3f e71b fabf c5f4 03bf 263b a9bf
000000a0: 9dbc fe3d e02a 053e d4fc 25bf 9235 acbf
000000b0: 5610 493e 4971 0cbd 8441 603e 9ead 01bf
000000c0: 465c 4ebe 9565 2dc0 c3d1 8dbe ad2a 04c0
000000d0: ef21 5ebe e218 44c0 0907 cc3e 95d2 81c0
000000e0: 17fc f03e 3cb8 2ec0 ac5c ad3d 2c30 a4be
000000f0: 8e39 1cbf c7aa 30c0 8e87 c83e 7902 98be
00000100: a6da 5ebe 8846 52c0 54bf 6dbe 65b4 54c0
00000110: f201 01bf 0fe4 32bf c3c6 cabd 5e99 dcc0
00000120: 1ff7 48be 849f 1cbe 3ac0 0fbf 8497 cabc
00000130: 8a06 fd3f 02ef a840 1450 ad3e d5be 93c0
00000140: 76d6 09bf 7c93 df40 3e91 e0be 10e6 f2bf
00000150: 12a0 af3e 45f2 07bf ed2f 3f3e 575c 35be
00000160: d7dc bd3d 5359 093e 80f3 c43c f533 d3bf
00000170: b004 9d3e a938 32be 61f0 763c 7128 d6bf
00000180: 25cd f93d 5416 093e 2b07 e8be 462f 03c0
00000190: f4a3 9dbd 48c8 d4be 2f57 93be 61ad 1ac1
000001a0: 06d0 1f3d e1fb 54c0 f53c 193f 6962 aa3c
000001b0: ceb4 0b3f d9f8 3fc0 11d0 ae3d 74a3 15c1
000001c0: 8047 47be c926 c73e b244 483f 426a 17bf
000001d0: 2b0c ccbe d0ea d3bf 1a2c c9be e090 2fbf
000001e0: 3184 8abe 8203 a7c0 cf37 26be 0171 4a3e
000001f0: a737 243d b42c a2c0 4510 4bbf 6291 1b40
00000200: c862 d5be 252a 943e 9193 ba3e 164d 87c0
00000210: 532f 153e 0990 16bf e97f 113d b356 4c3e
00000220: 4c3b f6bd bcfe 0fbf d89a 83be 0847 df3e
00000230: bf46 e2be 58b7 ea40 7682 f13d 760f f5be
00000240: 19d7 2a3d 4be8 ccc0 0f75 05be 3f35 edbe
00000250: c167 2a3f a35f 63c0 e338 b13e 574a e23d
00000260: 1777 9abe 9cc4 3dc0 08ff a4bf af12 d240
00000270: cb23 9b3d 7af3 0dbf 4650 14be fc99 e93e
00000280: f0df 163f 540b 54c0 1d8a 4f3f ba32 aebe
00000290: 11a4 4bbe 845b b5be ec77 e23e 7717 05c0
000002a0: 5ff0 573f 290f 76c0 3788 38be ebe2 19c0
000002b0: 1571 7e3f ce42 babf 605d 0fbe 5e7e 93bf
000002c0: fc1b 21bf d21a 08c0 b3f4 26bf 1462 92c0
000002d0: f0ec 27bf 740e f33f 016b f23d 5398 2540
000002e0: 4f36 f1bd 66d7 2dc0 f2f1 ca3d 2e14 c1bf
000002f0: 9371 0fbf 8bfa 52c0 7f4a 123f 2720 a3c0
00000300: 6566 083f 8dfd dd3d 0dc6 02bf 266f 97bf
00000310: 06cf 3abe d3b7 44c0 05aa e23d 3179 f2bc
00000320: 0def 093e c032 1fc0 83b8 8dbe 2eeb 93be
00000330: b8c6 acbe 4b30 32c0 ac1b 103e bd3f b0c0
00000340: 334b 18be 024e 4ebf 958b 21be 9621 5f3e
00000350: a964 0fbf a8f9 86c0 7ca4 0cbf 5469 2ec0
00000360: aeb8 b83f 290c 3140 6f55 09bf 629b b1be
00000370: fe73 a73c 39bf 2440 8b92 633e cc62 bac0
00000380: be47 17bf 5a91 14c0 d80c 9e3a 9325 32c0
00000390: 1ded f73e 96b2 90bf 000e 933e b963 07bf
000003a0: 4c7e 31be 7e0a a3bd e04d 7cbe 935c 59c0
000003b0: 5ebb 773f 6425 8dc0 6cd6 08bc 2cf5 493c
000003c0: 759b c73e 6015 963e 0b8f c0be aacb 55bf
000003d0: c030 f7be 7bb2 85be f0a9 09bd 06b2 553d
000003e0: ebf5 20be 7f1b 1fc0 8993 1b3c 930a 23bf
000003f0: a89d 733f 9b8d f13e cd2f 063f ef7d 00c0

net.0.bias f4 [128]
-0.43457577 -0.16020902 -0.63535583 -0.120398 0.2655275 1.2229147 -0.26248088 -0.44051194
0.08671339 0.41463396 0.7527041 0.16247001 0.3717631 0.7581817 0.26706287 -0.46012446
0.19304985 0.595261 0.6547445 0.4601834 -0.6673401 0.5271104 -0.7033241 0.7165794
0.10858844 0.28916976 0.11890882 0.4132387 0.38053024 -0.2169117 0.629893 -0.22365123
0.12305901 0.12848595 -0.6658246 -0.13063987 -0.3174202 -0.7029869 0.40401334 0.36864737
-0.7898874 0.21757104 -0.25319576 0.45831105 -0.30789638 0.60775757 0.74128443 0.37719443
-0.6744181 0.3678314 -0.6988694 0.1615255 0.17000999 -0.5556313 0.43559074 -0.04621521
-0.24176191 0.46919817 0.28204796 0.32366157 0.17962576 -0.5357619 0.25209996 -0.7208031
-0.5661459 0.38303876 -0.6606833 -0.448335 -0.4448588 -0.5347647 -0.7222917 0.720414
0.02424401 -0.6918475 0.45406225 -0.41971853 0.4352113 -1.0236989 -0.054122563 0.3491263
0.47445965 0.4661935 -0.35502413 0.3409175 0.44895837 0.46080402 0.5906973 0.6338567
0.4039676 -0.4948401 -0.7942427 0.4808519 0.6110067 0.65277404 0.2736278 0.30274138
-0.5749881 -0.6818445 0.5838979 -0.47193587 0.6416347 -0.47406152 0.29365128 0.04978755
0.27789974 -0.5491429 -0.65432966 0.47628343 0.6523289 -0.6784236 0.5861625 0.31555495
0.50766563 0.3269555 0.5380324 -0.6259604 -0.21263936 0.13468301 0.4854452 -0.33890727
-0.4254941 0.43665582 -0.6069395 -0.36506277 0.39184165 0.32426694 0.5171084 0.57019883
00000000: b780 debe d50d 24be aea6 22bf 3a93 f6bd
00000010: 38f3 873e 7888 9c3f e563 86be c88a e1be
00000020: ca96 b13d e74a d43e 37b1 403f 8a5e 263e
00000030: bc57 be3e 3218 423f 77bc 883e 6f95 ebbe
00000040: dcae 453e 0663 183f 569d 273f 299d eb3e
00000050: cdd6 2abf b5f0 063f 0c0d 34bf bf71 373f
00000060: 9e63 de3d 0f0e 943e 7886 f33d 0694 d33e
00000070: dcd4 c23e 1a1e 5ebe ab40 213f d404 65be
00000080: 5d06 fc3d d291 033e 7b73 2abf 75c6 05be
00000090: e784 a2be f3f6 33bf d6da ce3e 59bf bc3e
000000a0: 1036 4abf f1ca 5e3e e0a2 81be bfa7 ea3e
000000b0: 98a4 9dbe 0096 1b3f d1c4 3d3f a11f c13e
000000c0: aaa6 2cbf 6654 bc3e 1be9 32bf f166 253e
000000d0: 1917 2e3e da3d 0ebf c005 df3e 294c 3dbd
000000e0: 6f90 77be be3a f03e 9768 903e f8b6 a53e
000000f0: d1ef 373e b127 09bf 3f13 813e 8d86 38bf
00000100: f0ee 10bf a81d c43e 8a22 29bf 2a8c e5be
00000110: 88c4 e3be 57e6 08bf 1ce8 38bf 0d6d 383f
00000120: 609b c63c eb1c 31bf d97a e83e 59e5 d6be
00000130: 04d4 de3e 9108 83bf 9faf 5dbd afc0 b23e
00000140: 60ec f23e eab0 ee3e b9c5 b5be bd8c ae3e
00000150: dfdd e53e 81ee eb3e f037 173f 6f44 223f
00000160: d7d4 ce3e ae5b fdbe 7d53 4bbf 3832 f63e
00000170: ef6a 1c3f 331c 273f f118 8c3e eb00 9b3e
00000180: 6c32 13bf 5c8d 2ebf 557a 153f 94a1 f1be
00000190: 2c42 243f 31b8 f2be 7659 963e 08ee 4b3d
000001a0: e048 8e3e a194 0cbf 2682 27bf 6cdb f33e
000001b0: 07ff 263f 2bad 2dbf bf0e 163f 6b90 a13e
000001c0: 60f6 013f b666 a73e 7ebc 093f f13e 20bf
000001d0: 22be 59be 58ea 093e 468c f83e 4185 adbe
000001e0: 5dda d9be 5a91 df3e 6360 1bbf 82e9 babe
000001f0: 789f c83e 5106 a63e 3761 043f 8df8 113f

net.2.weight f4 [128, 128]
-1.7229105 -0.07491661 0.026045552 0.025193224 0.034803234 0.20774272 -0.03686434 -0.05489646
-2.7985425 -0.43683174 -0.0011337093 -0.50348645 -2.539998 -0.0026655493 -2.2837865 -0.039837684
-0.12418393 0.117204666 0.19085763 0.037644707 0.032081876 -0.029974692 0.005060867 0.039814174
-0.03427923 0.026865277 -0.05641637 0.43944886 0.25522956 -0.071899466 0.08011942 -0.0634847
-0.3456991 -0.17645839 -0.0494561 -0.27091295 -0.011045962 0.26588622 -0.039894994 0.49230686
-5.484209 0.10631744 -0.038853705 0.018563338 0.052502815 0.121188104 0.019593544 0.05880283
-0.036460333 0.06377984 -0.050745584 -2.0856605 -0.1879316 -0.024243562 0.24056649 -1.872814
-0.0067477734 1.1810722 -0.022894826 -0.04429778 -0.26773405 0.021855269 -0.37471944 -4.0163946
0.036836557 0.25687447 -0.042346824 0.015564915 -0.014030053 -0.032657463 -5.9403687 0.027080955
-3.0568306 0.033412114 -0.956629 0.055283893 0.03448257 -4.685347 -0.04963304 -0.009001461
0.84200555 -0.43461403 0.049817048 0.40070742 0.34615248 0.11547163 0.48169744 0.051768295
0.09190884 -2.0884538 -0.1714049 -0.11891369 0.14956385 0.10210233 0.04033833 -5.3419766
0.0107785715 0.6808126 0.027676504 -0.056501105 0.16194272 -0.04263119 0.015321966 -1.9047493
0.008095799 -0.018481772 -2.0974088 0.0152643975 0.36543924 0.63976425 -0.035345536 -0.6864939
-0.03460183 0.14216244 0.36245993 -0.07886568 -0.010620667 -0.054732345 -1.3680637 -0.0871339
0.08533061 0.114187405 0.040613182 -0.067828864 0.09955302 -0.06247776 0.42301583 0.47443247
0.067487344 -0.044653837 -0.06668953 0.046645604 0.052869756 -0.0016682881 0.04688781 0.07299789
-0.0820927 0.023860868 0.014450341 0.009420663 0.07045597 0.03351174 0.075805575 -0.048932437
0.0027030564 -0.023924774 -0.007971634 0.056157418 -0.07994557 -0.08430177 -0.009133538 -0.07155698
0.00050756393 0.003177651 -0.023220174 0.0020076968 -0.009249105 0.020268451 0.000721965 0.05852306
0.08149802 -0.007568499 -0.08086321 0.010485324 0.07884609 0.058296423 -0.044701777 0.030119192
-0.073637374 0.009065492 0.07614263 0.07987904 -0.0720248 0.0033370503 -0.065791875 -0.080361605
-0.0008475099 -0.05781926 0.059360642 0.0042580646 0.04793855 -0.047169097 -0.025776781 0.018398954
0.06812415 -0.06727931 -0.037417036 -0.000602721 0.006920449 0.046542734 -0.021384636 -0.06638997
-0.081213035 0.07151933 0.02111652 -0.059955787 0.061450493 -0.078677334 -0.035736322 -0.07650906
0.014791721 -0.051670086 0.0577602 -0.07789917 0.07483731 -0.08490236 -0.023092173 -0.060756516
-0.08432022 -0.0008148566 -0.05688303 0.060600296 -0.06251488 -0.045144152 -0.08166969 -0.0863002
-0.085599795 -0.0686908 -0.04652873 0.04392631 0.07288019 -0.023733491 0.069835454 -0.070206344
0.012177858 0.052705053 -0.026126273 -0.045400828 0.032001995 -0.006220938 0.031949114 -0.03769572
-0.08133465 0.06689732 -0.038162842 -0.05551277 -0.07443642 0.06325644 -0.021428743 -0.06349683
0.07830052 0.05271051 0.016008848 -0.05717789 0.06280847 0.028069768 0.024281958 -0.033643804
-0.078118406 -0.027555494 -0.033120364 0.042814147 0.027249107 -0.07392791 -0.071528025 -0.020748451
00000000: 5588 dcbf e16d 99bd 7b5d d53c 0562 ce3c
00000010: d68d 0e3d 82ba 543e 10ff 16bd 1cdb 60bd
00000020: 521b 33c0 69a8 dfbe f998 94ba 7de4 00bf
00000030: 548f 22c0 7fb0 2ebb 8f29 12c0 d72c 23bd
00000040: 2554 febd 0009 f03d 2f70 433e 5631 1a3d
00000050: 4968 033d 7c8d f5bc a1d5 a53b 3014 233d
00000060: 6168 0cbd 9214 dc3c da14 67bd 71ff e03e
00000070: 73ad 823e 0740 93bd a715 a43d 4404 82bd
00000080: 79ff b0be 82b1 34be 7b92 4abd 1ab5 8abe
00000090: 1ffa 34bc 3d22 883e ef68 23bd a50f fc3e
000000a0: a47e afc0 f5bc d93d 1025 1fbd 2412 983c
000000b0: 310d 573d 7831 f83d a482 a03c 3cdb 703d
000000c0: 6e57 15bd 019f 823d 9ada 4fbd 767b 05c0
000000d0: 2471 40be 6f9a c6bc 1057 763e 5fb8 efbf
000000e0: 6d1c ddbb 602d 973f ee8d bbbc 9771 35bd
000000f0: 7014 89be d209 b33c 3adb bfbe 4e86 80c0
00000100: eee1 163d 0d85 833e dd73 2dbd fc03 7f3c
00000110: 4fde 65bc d5c3 05bd 8017 bec0 e1d8 dd3c
00000120: 1da3 43c0 24db 083d a3e5 74bf 5d71 623d
00000130: 983d 0d3d 5dee 95c0 044c 4bbd dd7a 13bc
00000140: ad8d 573f bb85 debe f60c 4c3d 8629 cd3e
00000150: e63a b13e 647c ec3d 0ca1 f63e fe0a 543d
00000160: b43a bc3d 3aa9 05c0 c484 2fbe 0589 f3bd
00000170: 4427 193e 071b d13d ce39 253d 79f1 aac0
00000180: 9b98 303c bc49 2e3f d6b9 e23c b46d 67bd
00000190: 50d4 253e 0b9e 2ebd fc08 7b3c d3ce f3bf
000001a0: 3ea4 043c 1667 97bc f23b 06c0 8617 7a3c
000001b0: da1a bb3e 97c7 233f 7bc6 10bd 10be 2fbf
000001c0: a6ba 0dbd 0893 113e 5994 b93e 5484 a1bd
000001d0: 4e02 2ebc 062f 60bd b61c afbf 4273 b2bd
000001e0: d1c1 ae3d 16db e93d 025a 263d dce9 8abd
000001f0: 74e2 cb3d aee8 7fbd 8895 d83e d0e8 f23e
00000200: ce36 8a3d f1e6 36bd 8594 88bd 760f 3f3d
00000210: f58d 583d 76aa daba 6f0d 403d eb7f 953d
00000220: 3820 a8bd de77 c33c 20c1 6c3c 2059 1a3c
00000230: 384b 903d 9b43 093d f43f 9b3d 616d 48bd
00000240: c325 313b e3fd c3bc 759b 02bc 5205 663d
00000250: 81ba a3bd 68a6 acbd d6a4 15bc 778c 92bd
00000260: 0a0e 053a 2340 503b 3c38 bebc 9093 033b
00000270: 8f89 17bc 060a a63c 4042 3d3a e0b5 6f3d
00000280: 6fe8 a63d 2c01 f8bb 9c9b a5bd a3ca 2b3c
00000290: 0f7a a13d 3bc8 6e3d 3619 37bd 86bc f63c
000002a0: 31cf 96bd 6e87 143c abf0 9b3d 9f97 a33d
000002b0: bd81 93bd 6ab2 5a3b e4bd 86bd a094 a4bd
000002c0: 6d2b 5eba e3d3 6cbd 2524 733d 3c87 8b3b
000002d0: 375b 443d 6234 41bd d429 d3bc 67b9 963c
000002e0: ad84 8b3d bcc9 89bd 9b42 19bd ecff 1dba
000002f0: efc4 e23b 98a3 3e3d d52e afbc 77f7 87bd
00000300: 0553 a6bd ba78 923d 8dfc ac3c 3394 75bd
00000310: 83b3 7b3d 9521 a1bd 4060 12bd c8b0 9cbd
00000320: f958 723c 03a4 53bd f695 6c3d 9a89 9fbd
00000330: 4e44 993d 4ae1 adbd cc2b bdbc d3db 78bd
00000340: 14b0 acbd 1a9c 55ba 2efe 68bd 0438 783d
00000350: cd07 80bd 13e9 38bd 7042 a7bd 29be b0bd
00000360: f24e afbd c3ad 8cbd e994 3ebd 13ec 333d
00000370: 3642 953d bd6c c2bc e405 8f3d 58c8 8fbd
00000380: a385 473c 41e1 573d c406 d6bc 38f6 39bd
00000390: 8614 033d 03d9 cbbb 13dd 023d d466 1abd
000003a0: c892 a6bd 7601 893d a450 1cbd 5c61 63bd
000003b0: 1f72 98bd 988c 813d 558b afbc a00a 82bd
000003c0: 065c a03d fae6 573d fd24 833c 5d33 6abd
000003d0: baa1 803d 92f2 e53c f5ea c63c 16ce 09bd
000003e0: 8bfc 9fbd 0fbc e1bc 38a9 07bd e35d 2f3d
000003f0: 8539 df3c 8467 97bd 497d 92bd a8f8 a9bc

net.2.bias f4 [128]
0.010167711 -0.05053741 0.029277803 -0.03823768 0.45315078 0.023876857 -0.047214493 -0.01687942
-0.04636361 0.081076205 0.028730188 0.11596891 -0.0051116077 0.030085798 -0.060009975 -0.033546794
-0.035448648 -0.022759378 0.33946532 0.07656431 -0.07524848 -0.049352843 0.185922 -0.0034246526
0.071735054 -0.01904497 -0.08325687 0.035157256 -0.030256221 0.082999244 -0.009273311 0.46479884
-0.0484179 0.14264761 0.48223642 0.4696895 0.008477756 -0.103571475 -0.061663955 -0.008156095
-0.053693853 -0.039638046 -0.07873188 0.051232096 0.21542208 -0.0071711247 0.066000395 0.02996192
-0.034462564 -0.08711304 0.052668687 -0.07953954 -0.067009576 -0.10565538 -0.066890486 -0.079360135
0.07834946 -0.058414824 0.08691756 0.018596064 -0.04821491 -0.033164114 -0.009283075 -0.053585894
-0.033001773 0.016543318 -0.06750099 -0.009594075 0.036934063 -0.07131892 -0.10184506 0.08329047
0.37433663 -0.03484892 -0.08331541 -0.09745721 0.06640695 -0.051858816 0.06343099 -0.0056645772
0.056978453 -0.07278129 0.41164494 -0.08759891 -0.08274831 0.184315 0.0464079 0.0694657
-0.06851092 0.04397074 0.058922846 -0.12958124 0.048485853 0.11400934 0.0011055314 -0.0025107744
0.4226766 0.027931869 -0.033065647 -0.0077659525 0.058205597 0.0027288022 -0.13137273 0.1280158
-0.07045961 -0.029136254 0.059229787 0.00064102875 -0.027077632 0.03471568 -0.058592852 -0.075594656
0.039578624 -0.051603705 -0.07908412 0.44117472 -0.06596928 -0.012423237 0.1374241 0.008183235
0.14738165 0.049677543 -0.005306327 0.060668137 0.015104502 0.38234875 -0.050181504 -0.024472551
00000000: 7996 263c 5100 4fbd 01d8 ef3c 1d9f 1cbd
00000010: 6103 e83e 6699 c33c fc63 41bd b646 8abc
00000020: c5e7 3dbd 480b a63d 925b eb3c 1c81 ed3d
00000030: 467f a7bb 7e76 f63c 05cd 75bd 5d68 09bd
00000040: 9a32 11bd e071 babc 66ce ad3e c0cd 9c3d
00000050: e01b 9abd 3526 4abd 5662 3e3e 2370 60bb
00000060: d4e9 923d 3204 9cbc 9482 aabd 0e01 103d
00000070: e5db f7bc 82fb a93d 16ef 17bc 1dfa ed3e
00000080: d951 46bd 3712 123e b1e7 f63e 247b f03e
00000090: 49e6 0a3c 481d d4bd 5893 7cbd 24a1 05bc
000000a0: 16ee 5bbd 815b 22bd 2e3e a1bd bfd8 513d
000000b0: 9b97 5c3e c1fb eabb 372b 873d b372 f53c
000000c0: 9e28 0dbd 5268 b2bd 1fbb 573d a0e5 a2bd
000000d0: 513c 89bd d961 d8bd e1fd 88bd 9187 a2bd
000000e0: af75 a03d 6244 6fbd d501 b23d c656 983c
000000f0: ff7c 45bd 18d7 07bd 0a18 18bc e27c 5bbd
00000100: de2c 07bd da85 873c f63d 8abd 7830 1dbc
00000110: 2c48 173d a70f 92bd 2594 d0bd 3294 aa3d
00000120: 0da9 bf3e bebd 0ebd 45a1 aabd a597 c7bd
00000130: 5e00 883d e969 54bd 1be8 813d eb9d b9bb
00000140: 3d62 693d 5b0e 95bd 20c3 d23e 0f67 b3bd
00000150: f277 a9bd 12bd 3c3e 3616 3e3d 0844 8e3d
00000160: 744f 8cbd aa1a 343d 1559 713d f2b0 04be
00000170: 1a99 463d bb7d e93d 7ae7 903a ce8b 24bb
00000180: 1169 d83e 60d1 e43c d86f 07bd 8879 febb
00000190: fe68 6e3d b4d5 323b 9386 06be 9316 033e
000001a0: 214d 90bd 27af eebc ef9a 723d b60a 283a
000001b0: e9d1 ddbc 0732 0e3d 0fff 6fbd 5fd1 9abd
000001c0: 321d 223d 685e 53bd dbf6 a1bd a7e1 e13e
000001d0: e71a 87bd d58a 4bbc e7b8 0c3e fa12 063c
000001e0: 37eb 163e ae7a 4b3d b2e0 adbb 277f 783d
000001f0: e078 773c 37c3 c33e 1f8b 4dbd a97a c8bc

net.4.weight f4 [3, 128]
-2.4447527 -0.00070455833 -0.06693259 0.029800551 -0.50287205 0.07458099 -0.7924792 0.059910916
0.02278934 -2.1179187 -0.017515061 -2.2828188 0.073294066 0.015045289 0.07762645 -0.8437777
-0.108417206 0.0014896804 -0.46003893 -0.057087094 -0.04236122 0.004192979 -3.0185783 0.0037420185
-4.517553 0.040527355 0.011284664 0.0790241 -0.083374396 -1.7193305 -0.07859914 -0.44903332
0.058331184 -2.1208792 -0.4397593 -0.4692741 0.05053397 0.012553966 0.057145458 0.00084845576
0.086240545 0.08287468 -0.049418867 -0.059848186 -1.3954172 0.06538483 0.02954896 -0.03745778
-1.2858311 -0.0037943015 -0.024939625 -0.0044726655 -0.01883512 0.06641877 -0.005963887 0.016417965
-2.4133148 0.6930919 -1.3152901 0.048220914 0.03084892 -2.4306083 -0.0011055856 -0.044510897
-0.051749196 -0.06672966 -0.04114695 -2.0667233 -0.0029770967 -0.04375805 -0.04184562 0.02707838
-0.46559545 -0.045217644 0.04826 0.014605967 0.025474988 0.009813987 -0.039165076 0.052464966
0.005107191 0.03127951 -0.40384567 -0.04243862 0.052853033 -0.8106392 0.04831027 0.015018582
-0.05802309 0.027518919 -2.2591925 -2.0416448 -0.07951301 -1.2218752 -0.8649462 -0.032496504
-0.5067309 -0.037395883 -0.036649413 3.001767 -1.152195 -3.2428572 0.024203692 -1.9054939
-0.014269097 2.981928 -2.395171 0.03293354 0.058368187 -0.024234742 0.024094258 -1.1381853
-0.0068046893 0.03579166 -2.255066 -0.4599797 -0.021085478 0.008217792 -1.6580653 -3.049415
-3.7185237 -2.396662 0.06532919 0.08106559 0.01906061 4.4427414 -0.6652519 -0.020638116
-2.024694 -0.086715505 0.046129577 -0.00742323 -0.5501864 0.050701164 -1.1941246 0.042490195
-0.00855998 -2.4550397 0.046945624 -3.0554302 0.01604404 -0.044932514 0.0018778633 -1.3863847
-0.069808014 -0.023059763 -0.40517098 0.04456717 0.02802203 -0.08347707 -1.9708952 -0.06964778
-6.0734024 0.06884695 0.013942816 0.015194876 0.085032575 -1.8370814 0.030228164 -0.4008637
0.055218946 -1.7963566 -0.45932472 -0.48428446 0.029700913 0.07736116 0.07300877 -0.03867496
-0.028276173 -0.046449702 0.03224022 0.062166806 -1.1541933 0.020517781 -0.08171717 -0.008594421
-1.4437056 -0.0052948557 0.015721904 0.051314555 -0.07569302 0.03405038 -0.057002157 -0.05846959
-2.9313574 -0.16565973 -2.2254229 -0.02546677 0.07194969 -3.2886045 0.060516983 0.013570803
0.019312276 -0.00014131653 0.042054746 -2.5007482 0.044207737 -0.06408045 0.02297853 -0.0723446
-0.399652 0.022100164 -0.027643869 -0.0147857405 -0.048218925 0.027078908 -0.020523366 -0.083659515
0.030199517 -0.087824956 -0.4806493 0.068083346 0.021123389 -0.18493593 0.037337624 0.057695553
0.0797919 0.047441844 -1.0071232 -2.4298198 0.045790665 -1.3095233 -1.3640808 -0.007834224
-0.39182395 0.049780317 0.04543289 3.347463 -1.48033 -4.8499107 0.62843454 -1.7698681
0.07566529 2.8248355 -1.5604714 -0.006907552 0.033453576 0.08001936 0.048526604 -1.2041346
0.04957353 0.052171003 -2.14603 -0.4450882 -0.020121926 0.065805905 -1.82816 -5.2357006
-4.2217646 -2.205723 0.032558914 -0.07731651 0.014903527 3.8795724 -0.983521 0.05257272
00000000: d476 1cc0 1cb2 38ba f413 89bd 4920 f43c
00000010: 39bc 00bf ebbd 983d ebdf 4abf 2665 753d
00000020: b6b0 ba3c fb8b 07c0 bf7b 8fbc b419 12c0
00000030: 331b 963d 8480 763c 9efa 9e3d d101 58bf
00000040: d709 debd 6141 c33a 398a ebbe 28d4 69bd
00000050: f582 2dbd 4265 893b 6330 41c0 a73c 753b
00000060: cb8f 90c0 0300 263d 50e3 383c 63d7 a13d
00000070: 32c0 aabd 0613 dcbf 96f8 a0bd b2e7 e5be
00000080: aeec 6e3d 7cbc 07c0 2228 e1be b244 f0be
00000090: b5fc 4e3d 26af 4d3c 5b11 6a3d e76a 5e3a
000000a0: e29e b03d 33ba a93d 706b 4abd 5f23 75bd
000000b0: 089d b2bf 7be8 853d a910 f23c 546d 19bd
000000c0: 1d96 a4bf d1a9 78bb 2f4e ccbc 708f 92bb
000000d0: 1c4c 9abc 9006 883d b66c c3bb f87e 863c
000000e0: c073 1ac0 796e 313f 6d5b a8bf 4b83 453d
000000f0: e0b6 fc3c 168f 1bc0 4ce9 90ba 0f51 36bd
00000100: f7f6 53bd 8fa9 88bd b489 28bd 3245 04c0
00000110: 651b 43bb a43b 33bd 5066 2bbd 7bd3 dd3c
00000120: 8762 eebe 2336 39bd 47ac 453d de4d 6f3c
00000130: ecb0 d03c d8ca 203c 8f6b 20bd 81e5 563d
00000140: 395a a73b f21e 003d dcc4 cebe 1ed4 2dbd
00000150: 6c7c 583d 0d86 4fbf fde0 453d 8010 763c
00000160: 9fa9 6dbd 5b6f e13c 9c96 10c0 4faa 02c0
00000170: b8d7 a2bd 6866 9cbf 1d6d 5dbf 0e1b 05bd
00000180: 1eb9 01bf 6d2c 19bd b21d 16bd f31c 4040
00000190: 207b 93bf f98a 4fc0 d246 c63c 39e7 f3bf
000001a0: eec8 69bc e9d7 3e40 7b4a 19c0 52e5 063d
000001b0: 7b13 6f3d f087 c6bc 5261 c53c 0eb0 91bf
000001c0: dff9 debb 479a 123d 0053 10c0 7682 ebbe
000001d0: 74bb acbc eba3 063c 7c3b d4bf 9e29 43c0
000001e0: 4bfc 6dc0 e962 19c0 4fcb 853d b705 a63d
000001f0: ff24 9c3c f02a 8e40 f34d 2abf 4411 a9bc
00000200: 9694 01c0 e697 b1bd 5ef2 3c3d 913e f3bb
00000210: 04d9 0cbf 06ac 4f3d 13d9 98bf 330a 2e3d
00000220: 293f 0cbc 5f1f 1dc0 0e4a 403d 2b8c 43c0
00000230: ca6e 833c 280b 38bd a322 f63a 0e75 b1bf
00000240: 81f7 8ebd d4e7 bcbc 9272 cfbe 118c 363d
00000250: 758e e53c 07f6 aabd 4b46 fcbf 7fa3 8ebd
00000260: 5059 c2c0 a1ff 8c3d 6970 643c eef3 783c
00000270: 8f25 ae3d 7c25 ebbf 0ea1 f73c 023e cdbe
00000280: 432d 623d 03ef e5bf 9c2c ebbe 22f4 f7be
00000290: 544f f33c 876f 9e3d 9f85 953d a369 1ebd
000002a0: 6fa3 e7bc 0b42 3ebd 520e 043d 9fa2 7e3d
000002b0: 9bbc 93bf e814 a83c 555b a7bd 9dcf 0cbc
000002c0: 58cb b8bf 7880 adbb 39cb 803c 362f 523d
000002d0: f104 9bbd 6978 0b3d 187b 69bd cf7d 6fbd
000002e0: 5c9b 3bc0 b4a2 29be 546d 0ec0 b09f d0bc
000002f0: 5c5a 933d 7f78 52c0 a8e0 773d 1358 5e3c
00000300: c734 9e3c 5e2e 14b9 9941 2c3d 420c 20c0
00000310: 2c13 353d 9c3c 83bd 783d bc3c 6829 94bd
00000320: 309f ccbe 670b b53c 6575 e2bc e43f 72bc
00000330: 3581 45bd 96d4 dd3c 9e20 a8bc ae55 abbd
00000340: fa64 f73c 92dd b3bd aa17 f6be 486f 8b3d
00000350: f50a ad3c d85f 3dbe 56ef 183d 2c52 6c3d
00000360: f069 a33d 6152 423d 6ae9 80bf 2b82 1bc0
00000370: fe8e 3b3d 769e a7bf 339a aebf 1e5b 00bc
00000380: 269d c8be 72e6 4b3d d717 3a3d d53c 5640
00000390: 747b bdbf 7832 9bc0 16e1 203f 0a8b e2bf
000003a0: 67f6 9a3d 1bca 3440 87bd c7bf bf58 e2bb
000003b0: 9e06 093d 31e1 a33d d5c3 463d 1521 9abf
000003c0: 9d0d 4b3d 43b1 553d 8e58 09c0 9ae2 e3be
000003d0: bdd6 a4bc 3fc5 863d 2601 eabf dc8a a7c0
000003e0: b218 87c0 912a 0dc0 7f5c 053d 1e58 9ebd
000003f0: ec2d 743c ea4a 7840 08c8 7bbf 7e56 573d

net.4.bias f4 [3]
-0.49074617 -0.17056745 -0.42920005
00000000: 1543 fbbe 3ca9 2ebe 1cc0 dbbe
