Mountaincart/checkpoints/best_model.pth (torch, 300789 bytes, 24 tensors)

net.0.weight f4 [128, 2]
0	0xbea509b0	-0.32233953
1	0xc0ac6458	-5.387249
2	0x3f34e065	0.706549
3	0x3e45e45b	0.19325392
4	0x3e94892a	0.29010898
5	0x3eb5a41d	0.3547677
6	0xbf6a5bc6	-0.91546285
7	0xc0917b66	-4.5463133
8	0x3e84a832	0.25909573
9	0xc061e971	-3.5298731
10	0x3f23b139	0.63942295
11	0xbff5c26d	-1.9199959
12	0xbee606e1	-0.44927123
13	0xc06d5f43	-3.7089393
14	0x3e07fc59	0.13279857
15	0x3de5ef31	0.11227263
16	0x3e058ea5	0.13042696
17	0x3ec836ab	0.39104208
18	0x3e0a43b6	0.13502392
19	0xbd531985	-0.05153801
20	0x3f18316e	0.59450424
21	0xc0489fb8	-3.1347485
22	0xbe091a1b	-0.13388865
23	0xc052a9ab	-3.2916057
24	0x3d591dc6	0.05300691
25	0x3e74b24d	0.23896141
26	0xbf01462e	-0.5049771
27	0x3fcce844	1.6008382
28	0xbeafb614	-0.34318602
29	0x3ef20ff1	0.47277787
30	0x3e899d5d	0.2687787
31	0xbf228dda	-0.634977
32	0xbef96a7f	-0.48714063
33	0xc06817fd	-3.6264641
34	0x3f24e054	0.644048
35	0xc0a94657	-5.2898364
36	0xbeb4e2ad	-0.3532919
37	0xc057ddf9	-3.3729231
38	0xbea50ca8	-0.32236218
39	0xc081dcdd	-4.058211
40	0xbedf1472	-0.43570286
41	0xbefe7612	-0.49699455
42	0xbc677601	-0.014127255
43	0xc052af5e	-3.2919536
44	0x3f06287c	0.52405524
45	0xbe72af5a	-0.23699704
46	0x3eb22997	0.34797356
47	0xbff3863a	-1.9025338
48	0xbd3bacfd	-0.04581927
49	0xbed64246	-0.41847438
50	0xbe913689	-0.2836192
51	0x3e9ae571	0.30253175
52	0x3e5e3045	0.21698101
53	0x40cd4135	6.41421
54	0x3e201994	0.15634757
55	0xc0214568	-2.5198612
56	0xbea37776	-0.3192708
57	0xc048afd8	-3.1357327
58	0xbedefc38	-0.43551803
59	0xc04743a8	-3.1135044
60	0xbe340510	-0.17580056
61	0xc064487c	-3.566924
62	0x3eb17664	0.34660637
63	0xc0725580	-3.7864685
64	0xbe2155b0	-0.15755343
65	0xbf134140	-0.5752144
66	0x3dd80402	0.105476394
67	0xc0799a6b	-3.90005
68	0x3bc23e9b	0.0059278733
69	0x40baa84f	5.8330455
70	0xbdafd166	-0.085848615
71	0xc03e14a3	-2.9700096
72	0xbeeb8c77	-0.46005604
73	0xc0f3f441	-7.623566
74	0xbeeae1f4	-0.45875514
75	0xc095471f	-4.664932
76	0x3f0b9caa	0.54535925
77	0xc08dfd93	-4.437204
78	0x3f05cf4c	0.52269435
79	0x40ed6cdd	7.419539
80	0xbe93bae5	-0.28853527
81	0xc0742a71	-3.8150904
82	0x3eff6162	0.49878985
83	0xc00b7669	-2.1791022
84	0xbec36b91	-0.38168004
85	0xc07ebae6	-3.9801574
86	0x3de1356b	0.10996517
87	0xc062e25c	-3.5450659
88	0x3f091cfb	0.53559846
89	0x3e9cb83e	0.30609316
90	0xbda0cced	-0.078515865
91	0x3ef11398	0.4708526
92	0x3f4af084	0.7927325
93	0xbfda7da5	-1.7069594
94	0xbd9a0616	-0.07520692
95	0xbf00cd20	-0.50312996
96	0x3e43af7d	0.19109912
97	0xbee9c5d1	-0.45658734
98	0xbec39c2e	-0.38205093
99	0xc06a1819	-3.6577208
100	0x3e98ed8a	0.29868728
101	0xbe568de9	-0.20952572
102	0xbea369cf	-0.31916663
103	0xc02b1777	-2.6733072
104	0xbe79617e	-0.24353597
105	0xc068795b	-3.632407
106	0xbf2703fd	-0.6524046
107	0xc0b2dc8c	-5.589422
108	0x3e364b53	0.17802171
109	0xbf27860c	-0.65438914
110	0xbe5f8c1d	-0.21830793
111	0xc06f0ceb	-3.7351635
112	0x3e89c503	0.2690812
113	0xc00bbbb3	-2.1833313
114	0xbf52422d	-0.82132226
115	0xc0b756a8	-5.729328
116	0x3ed846b4	0.42241442
117	0x40f46cb1	7.638268
118	0x4004c4e5	2.0745175
119	0x413cc779	11.798699
120	0x3fb2c9c9	1.396783
121	0x3fa1b7b3	1.2634186
122	0xbe52a11b	-0.2056927
123	0xc066d04d	-3.6064637
124	0xbec906d2	-0.39263016
125	0xc083e58b	-4.1217704
126	0xbeaa267c	-0.33232486
127	0x3ee26a26	0.4422161
128	0xbde47777	-0.111555986
129	0x40b02348	5.504307
130	0xbda877a3	-0.08225944
131	0xbe18aa09	-0.14908613
132	0x3e8fc710	0.2808156
133	0x3df830fe	0.121187195
134	0xbe07146a	-0.13191381
135	0xbf0dbb3a	-0.5536381
136	0x3ef3c915	0.4761435
137	0xc01efdcb	-2.4842403
138	0xbe3c91d9	-0.18415011
139	0xc051a4c5	-3.2756817
140	0xbef6f078	-0.48230338
141	0xc06c874f	-3.6957586
142	0xbe2cadf3	-0.16863231
143	0x3ea4dc0e	0.32199138
144	0x3f8fb8f1	1.1228315
145	0x40fcbeb5	7.8982797
146	0x3e704ff8	0.23468006
147	0xbf1a5cca	-0.60297835
148	0x3e5a17b4	0.21298105
149	0xc0264c1c	-2.5983953
150	0xbdc3266b	-0.09528812
151	0xc047be6c	-3.1209974
152	0x3eda48c3	0.42633638
153	0xc01f2e54	-2.4872026
154	0xbe7fd1c7	-0.24982367
155	0x40a00d50	5.001625
156	0x3eb91913	0.36151943
157	0xc04099d1	-3.0093882
158	0xbe0a9082	-0.13531688
159	0xc06d70bb	-3.7100055
160	0x3d1fe630	0.039037883
161	0xc06729d7	-3.6119287
162	0xbd9a4ff4	-0.07534781
163	0xc0597408	-3.397707
164	0xbf2bfec7	-0.67185634
165	0xc0594a24	-3.3951502
166	0x3d8b072d	0.06788478
167	0xbe8a6ecd	-0.2703766
168	0x3e1a57fb	0.15072624
169	0xc0b6a917	-5.708141
170	0x3e44c042	0.19213966
171	0xc02f6e91	-2.7411234
172	0x3e35fc75	0.17772086
173	0xc05cc55b	-3.4495456
174	0x3de86485	0.113472976
175	0xc0ce743a	-6.451688
176	0xbdbab127	-0.091158204
177	0x409ab108	4.8341103
178	0x3ead2adb	0.3382176
179	0xbec71b0d	-0.38887826
180	0x3f498664	0.7872069
181	0x3f0cb1ce	0.5495881
182	0xbe9c6973	-0.305492
183	0xc07f872f	-3.992626
184	0xbd25f940	-0.040520906
185	0x3e6d0ba9	0.23148979
186	0x3e90ca98	0.28279567
187	0x3ee481c8	0.44630265
188	0xbfb867d7	-1.440669
189	0xc0b40611	-5.6257405
190	0x3ee334ea	0.44376308
191	0xbfca1b93	-1.5789665
192	0xbf04568f	-0.5169458
193	0x3ffc8f47	1.9731225
194	0x3dd27284	0.10275748
195	0xc05bd74a	-3.4350152
196	0xbec61f21	-0.38695624
197	0xc088c134	-4.2735844
198	0xbed4c95e	-0.4155988
199	0xc06b6c1b	-3.6784732
200	0x3e0f901a	0.14019814
201	0x40c4d1a8	6.150593
202	0x3ea48e3a	0.3213976
203	0x3ec7a14d	0.3899025
204	0xbe4984f3	-0.19679622
205	0xc05823e4	-3.3771906
206	0x3e9122a3	0.28346738
207	0xbf1d8aa0	-0.6153965
208	0x3d300cb7	0.042980876
209	0xc038c721	-2.8871539
210	0x3f03b299	0.51444393
211	0x3f01fe2a	0.5077845
212	0xbebd80b8	-0.37012267
213	0x4069d9d3	3.65392
214	0x3ded3bd7	0.11583679
215	0xc111f4b9	-9.122247
216	0x3e9a5144	0.30140126
217	0xc0341d69	-2.814295
218	0xbf6d0cff	-0.92597955
219	0xc057605f	-3.365257
220	0xbf1dcc80	-0.6164017
221	0xc10192b6	-8.098318
222	0x3db61a0c	0.08891687
223	0x3ec8239f	0.39089677
224	0xbf217cad	-0.63080865
225	0x3d6dea78	0.058084935
226	0x3efd4eee	0.4947428
227	0x3f0c0746	0.546986
228	0x3e4bda4b	0.19907491
229	0x3e6e7679	0.23287381
230	0x3ed31628	0.4122784
231	0xc0291ece	-2.6425052
232	0x3e8bb0e3	0.2728339
233	0x3dbdc47d	0.09265993
234	0x3d9a50d0	0.07534945
235	0xc0743a5e	-3.8160625
236	0x3f0ca969	0.54946
237	0xc03c69ba	-2.943953
238	0x3d86d1aa	0.06582959
239	0xc058d50a	-3.3880029
240	0xbea3c6ac	-0.31987512
241	0xc08091d1	-4.0178
242	0x3ed8a907	0.42316458
243	0xc037989c	-2.8686895
244	0xbea0974e	-0.31365436
245	0xc063727d	-3.5538628
246	0xbeda2ec9	-0.4261382
247	0xc061ed45	-3.5301068
248	0x3d878960	0.06617999
249	0xbf021dca	-0.50826705
250	0x3d08d8d5	0.033409912
251	0xc0e9d612	-7.3073816
252	0x3e5ede6f	0.21764539
253	0x3f2d368a	0.67661345
254	0x3dee254a	0.11628206
255	0xbe8c9556	-0.27457684

net.0.bias f4 [128]
0	0xbee39b39	-0.44454363
1	0xbf023394	-0.5085995
2	0xbe47ea0c	-0.19522876
3	0xbf208855	-0.62708026
4	0x3ea7da59	0.32783774
5	0x3f132b4d	0.57487947
6	0x3ebadb2f	0.3649535
7	0xbf122d4e	-0.5710038
8	0xbe4480db	-0.1918978
9	0xbf292f51	-0.66087824
10	0x3f225980	0.63417816
11	0x3e829469	0.25503853
12	0xbf332d89	-0.69991356
13	0xbec45e37	-0.3835313
14	0xbeed6ac4	-0.46370518
15	0xbeb1ca41	-0.3472462
16	0xbf4d8d9f	-0.8029422
17	0x3e9d0b0b	0.30672488
18	0x3e83dbfa	0.25753766
19	0x3e7cc355	0.24683888
20	0xbf1134c6	-0.5672115
21	0x3de57e85	0.11205772
22	0xbeba516c	-0.36390245
23	0x3eca61c6	0.3952772
24	0xbecc9144	-0.3995458
25	0xbf188c35	-0.5958894
26	0xbe355d9a	-0.17711487
27	0x3e7e354d	0.2482502
28	0x3eed9d19	0.46408918
29	0x3f061701	0.5237885
30	0x3eac41e1	0.33644012
31	0x3f3f37dc	0.7469461
32	0xbf06024c	-0.52347255
33	0x3f332736	0.69981706
34	0xbe4f78f7	-0.20260988
35	0x3c0c8e76	0.008578887
36	0xbec14476	-0.37747544
37	0x3eaa142e	0.3321852
38	0x3ee88463	0.45413503
39	0xbe52d1b7	-0.20587812
40	0x3e3ca158	0.18420923
41	0x3eefd5ff	0.46842954
42	0x3f1dc965	0.6163543
43	0x3e8ecb16	0.27889317
44	0xbf13f2fe	-0.5779265
45	0xbe248594	-0.16066581
46	0x3f0a0de9	0.53927475
47	0xbf33a895	-0.7017911
48	0xbe80a56e	-0.25126213
49	0x3e8a2a7a	0.26985532
50	0xbeb6cc92	-0.3570295
51	0x3f1ccb1d	0.61247426
52	0x3e5214e8	0.20515788
53	0x3e4eab26	0.20182475
54	0xbf2c1725	-0.67222816
55	0x3f2aaa5b	0.6666619
56	0x3ea52adf	0.3225927
57	0xbf206b6a	-0.626639
58	0xbe3d2519	-0.18471183
59	0x3f6347b1	0.8878127
60	0x3f4eb78a	0.8074881
61	0x3f247548	0.64241457
62	0x3e93eb16	0.28890294
63	0xbeed71c2	-0.46375853
64	0xbe80b3fd	-0.2513732
65	0xbf2eb1eb	-0.6824023
66	0xbe93d304	-0.2887193
67	0xbeab5a2a	-0.33467227
68	0x3f32126e	0.6955937
69	0x3dea0db3	0.11428394
70	0x3eaa29ab	0.33234915
71	0xbedf538d	-0.43618432
72	0xbe8d0916	-0.27545995
73	0xbf09ac0f	-0.53778166
74	0x3f0b7e50	0.5448961
75	0x3e81fa8e	0.2538647
76	0x3f0bff2d	0.5468624
77	0xbe9cc537	-0.30619213
78	0x3ec2b9e9	0.38032463
79	0x3deb14e1	0.11478592
80	0x3f131a81	0.57462317
81	0x3e74ee16	0.23918948
82	0xbf0fc484	-0.56159234
83	0xbd377b14	-0.04479511
84	0x3e887069	0.26648262
85	0x3ecd1e28	0.4006207
86	0x3f37218b	0.7153556
87	0x3e8a4542	0.27005965
88	0x3e95592a	0.2916959
89	0xbe690b1b	-0.22758143
90	0x3eea0dc4	0.45713627
91	0x3f2d564d	0.6770981
92	0xbf250df2	-0.64474404
93	0xbef405c2	-0.47660643
94	0xbf41380e	-0.7547616
95	0x3ece3e26	0.4028179
96	0xbe7e573b	-0.24837963
97	0x3e934ec0	0.2877102
98	0x3e8c2f5f	0.2737989
99	0x3f0ae671	0.54257876
100	0xbe3a6b82	-0.18205073
101	0xbf3061b0	-0.6889906
102	0x3debb653	0.11509385
103	0xbef72149	-0.48267582
104	0x3eaad2ab	0.33363852
105	0xbf080a94	-0.5314114
106	0xbeb37482	-0.35049826
107	0x3d5b4d69	0.05354062
108	0x3f33fc21	0.70306593
109	0xbe7c377d	-0.24630542
110	0xbe975344	-0.29555714
111	0xbd929e6c	-0.07159123
112	0xbea46278	-0.32106376
113	0xbf157729	-0.5838495
114	0xbe295512	-0.16536358
115	0x3ef75cf6	0.4831311
116	0xbf318b23	-0.6935293
117	0x3eaa397b	0.3324698
118	0x3f153f92	0.58300126
119	0x3e921e1c	0.28538597
120	0x3e779879	0.24179257
121	0x3ef53330	0.47890615
122	0x3eaaeca3	0.33383664
123	0x3eb3a42d	0.35086194
124	0xbebe6a98	-0.371907
125	0xbd8b536b	-0.0680302
126	0xbe94e574	-0.2908131
127	0xbf1af71d	-0.60533315

net.2.weight f4 [128, 128]
0	0x3d05e903	0.03269292
1	0xbd109058	-0.035293907
2	0xbd582e6e	-0.052778654
3	0x3b8a8c4c	0.0042281505
4	0xbc2e363e	-0.0106330495
5	0xbdabc9bd	-0.08388088
6	0xbd5f4acf	-0.054514702
7	0xbd6edb94	-0.058314875
8	0xbdb0290b	-0.08601578
9	0x3d9d09e0	0.07667899
10	0xbd3e1cf2	-0.046414323
11	0xbd57d95e	-0.052697532
12	0xbd2f269a	-0.042761423
13	0x3dafedd8	0.08590287
14	0x3d16645f	0.036716815
15	0xbace5b3d	-0.0015743744
16	0xbcad582a	-0.021160204
17	0xbce85ed1	-0.028365524
18	0xbdad24a8	-0.08454257
19	0xbc95e874	-0.018299319
20	0xbda09025	-0.078399934
21	0xbd51b1c2	-0.051194914
22	0xbd530e1e	-0.051527135
23	0xbd8c3122	-0.06845309
24	0xbcc3e1bc	-0.02391135
25	0x3d03004e	0.031982712
26	0xbd83709b	-0.06417962
27	0xbda0af6b	-0.07845958
28	0x3d26640e	0.040622763
29	0xbd8ee7db	-0.06977817
30	0xbd2d5cb5	-0.04232474
31	0xbdab28fd	-0.08357427
32	0x3c538905	0.012911086
33	0x3d47fdb3	0.04882593
34	0x3db400f2	0.08789243
35	0xbd3eb7ec	-0.04656212
36	0x3dab6d36	0.0837044
37	0x3d9a824b	0.07544383
38	0x3d0bc39d	0.0341221
39	0x3caf2369	0.02137919
40	0x3bad73d5	0.0052933493
41	0x3c44ccb2	0.012011694
42	0x3d9b34a9	0.075784035
43	0xbd43b2a9	-0.047777805
44	0xbd7355f1	-0.059408132
45	0xbcb743ce	-0.022371199
46	0x3d936b6d	0.07198224
47	0xbd9af8bf	-0.07566976
48	0x3d1e8b7d	0.038707245
49	0xbc1e08e5	-0.009645675
50	0xbda10850	-0.078629136
51	0xbd7598bb	-0.05996011
52	0x3bc9855c	0.006149931
53	0xbcf44d4c	-0.029822014
54	0x3d7a8d78	0.06117007
55	0xbd201251	-0.039079968
56	0x3cd82b7b	0.02638792
57	0xbd6ddc23	-0.058071267
58	0x3d0ba111	0.03408915
59	0xbcaab760	-0.020839393
60	0xbd517aec	-0.051142618
61	0x3d9fd2f7	0.0780391
62	0x3db09b7d	0.08623407
63	0x3a4cf408	0.0007818346
64	0x3cc84527	0.024447037
65	0x3cf43536	0.02981053
66	0x3b254424	0.0025217617
67	0x3ceb0bb7	0.02869211
68	0xbda33e71	-0.07970894
69	0xbc2adebb	-0.01042908
70	0xbcfd57fd	-0.030925745
71	0x3cf90d85	0.030401954
72	0x3dada44b	0.08478602
73	0x3c7cfac3	0.015440646
74	0xbdb273ec	-0.087135166
75	0xbcfeaf22	-0.03108937
76	0x3d8c3975	0.068468966
77	0xbcd15608	-0.025553718
78	0xbd052727	-0.03250804
79	0xbd04f69b	-0.032461744
80	0xbd9fcd3f	-0.078028195
81	0xbd6e173c	-0.058127627
82	0xbc64162e	-0.013921304
83	0x3d2324b5	0.03982993
84	0xbda0212c	-0.07818827
85	0x3cdc490c	0.0268903
86	0xbccc3a42	-0.024930123
87	0xbcf69191	-0.030098708
88	0x3d2caede	0.042158954
89	0x3d987f64	0.07446173
90	0x3d25007e	0.040283673
91	0x3d29c4e4	0.041447535
92	0xbcf18965	-0.02948446
93	0xbdaf7c1d	-0.085685946
94	0x3d0c07e8	0.034187227
95	0xbd221c24	-0.03957762
96	0xbd60c4fb	-0.054875355
97	0xbd861ab1	-0.0654806
98	0x3d9a35cb	0.075297914
99	0xbd00cddf	-0.031446334
100	0xbd65ba3a	-0.056085803
101	0x3d3dd3e1	0.04634464
102	0xbc9dacbf	-0.01924741
103	0x3c810ca0	0.01575309
104	0x3cd72141	0.026260974
105	0xbd9b18da	-0.075730994
106	0x3cbe4348	0.023225442
107	0xbda211cf	-0.07913553
108	0xbd6cfecd	-0.057860184
109	0x3cb149b7	0.021641595
110	0x3c4fd881	0.012685896
111	0xbdaf1f14	-0.085508496
112	0x3d1c3fc0	0.038146734
113	0xbd8bb338	-0.06821293
114	0x3d4928aa	0.049111046
115	0xbbef2ac9	-0.0072988016
116	0x3d586363	0.052829158
117	0xbd37ddb9	-0.044889186
118	0xbd5da097	-0.05410823
119	0x3b416606	0.0029510274
120	0xbbb2910a	-0.005449419
121	0x3db1af57	0.086760215
122	0xbd5aac6d	-0.053387094
123	0x3ccc2df3	0.024924254
124	0xbd731121	-0.059342507
125	0xbd02ec38	-0.031963557
126	0x3db264d1	0.087106355
127	0xbcb0aa9e	-0.021565732
128	0xbfb058d2	-1.3777106
129	0xbd953b88	-0.07286745
130	0x3d3d22ac	0.046175644
131	0xbf1ebc81	-0.62006384
132	0x3e755c6c	0.23961037
133	0x3ebb0308	0.3652575
134	0x3c052eb5	0.008128812
135	0xbd12f392	-0.035876818
136	0x3d912b52	0.07088341
137	0xbd23153e	-0.03981518
138	0x3ec9ee35	0.3943955
139	0x3c2db5c5	0.010602419
140	0x3da44ab3	0.0802206
141	0xc0df9cb3	-6.9878783
142	0x3cc3ebdb	0.023916176
143	0xbd37ed36	-0.044903956
144	0x3ea6a1fe	0.32545465
145	0x3f0b68e9	0.54456955
146	0xbdeefe24	-0.11669567
147	0x3cd64717	0.026156945
148	0x3e869af1	0.26290086
149	0x3dbf9309	0.093542166
150	0x3da8fa5a	0.08250876
151	0x3ec46cc9	0.38364246
152	0xbc973bc1	-0.01846111
153	0x3cf5b3bc	0.02999293
154	0xc137d715	-11.49001
155	0x3e0e4577	0.13893686
156	0xbc2cc1eb	-0.0105442805
157	0xb8c87b48	-9.559706e-05
158	0x3de31cd3	0.11089482
159	0x3da379a2	0.07982184
160	0x3d0ef272	0.034899183
161	0x3d60364f	0.054739293
162	0xc12371d5	-10.215291
163	0x3daa2d0b	0.083093725
164	0x3efdb908	0.4955523
165	0xbd3a658a	-0.04550699
166	0xbf30770b	-0.68931645
167	0xc167515a	-14.457361
168	0xbdf9949f	-0.1218655
169	0x3eab3847	0.33441374
170	0xbd09200d	-0.03347783
171	0x3e9b8012	0.30371147
172	0x3bb6b1b9	0.0055753854
173	0x3d8ba1b0	0.06817949
174	0xbf3eb9f9	-0.7450252
175	0xbd9c18b2	-0.07621898
176	0x3d1664c8	0.036717206
177	0xbd0bfd67	-0.03417721
178	0x3d1469b8	0.036233634
179	0xbb09c7d9	-0.002102366
180	0x3e70a855	0.23501714
181	0x3db4cfc0	0.08828688
182	0x3c969d68	0.018385604
183	0xbd8d05dd	-0.06885884
184	0x3ed984fd	0.42484275
185	0xbf6bd36b	-0.92119473
186	0xc141f1c5	-12.121526
187	0xbe03c88d	-0.12869473
188	0x3f52613a	0.82179606
189	0x3d995b9f	0.074881785
190	0x3db86aae	0.090047225
191	0xbcf93def	-0.03042504
192	0xc10de6cf	-8.86885
193	0x3d25b4b7	0.040455546
194	0xbd9f09b6	-0.07765524
195	0xbdaa32f4	-0.083105
196	0x3db407c6	0.08790545
197	0xbd92281b	-0.07136556
198	0xbd50a4b8	-0.050938338
199	0xbd292573	-0.04129548
200	0xc0a87e2b	-5.2654014
201	0xbda5f41d	-0.081032015
202	0x3e0e5c82	0.13902476
203	0x3e13677d	0.14394946
204	0x3d66d2f1	0.056353513
205	0xc1127ccf	-9.155471
206	0x3eb64ed6	0.35607022
207	0x3deb1654	0.11478868
208	0x3e24953f	0.16072558
209	0x3e0a8279	0.13526334
210	0xbedcebc8	-0.43148637
211	0x3d234d31	0.039868537
212	0xbf47bd7f	-0.78023523
213	0x3cfe8e41	0.031073691
214	0x3e1a1794	0.15048057
215	0xbec3aba1	-0.3821688
216	0xbf3c3f14	-0.7353375
217	0x3d3606ef	0.044440206
218	0xbf2906b3	-0.6602585
219	0xbd44f33b	-0.048083525
220	0xbbfa4c83	-0.0076385154
221	0x3d5e6fc3	0.054305803
222	0xbf390670	-0.7227545
223	0x3eab120a	0.334122
224	0xbfe88926	-1.8166854
225	0x3e6b5ce0	0.22984648
226	0x3d8ef929	0.06981117
227	0x3cb18767	0.02167101
228	0xc128edf3	-10.558093
229	0xbb8cf693	-0.004301855
230	0xbc85a4ee	-0.016313996
231	0x3a8820b2	0.001038572
232	0x3e02ad73	0.12761478
233	0x3d872174	0.065981776
234	0xc0fc9a55	-7.8938394
235	0x3f788470	0.97077084
236	0xbc1ad0da	-0.009449208
237	0xbf334484	-0.7002642
238	0x3ef8f570	0.48624754
239	0xbd7ad658	-0.06123957
240	0xc008e9bc	-2.139266
241	0x3db019ab	0.08598646
242	0x3db39ba1	0.08769918
243	0x3e326f17	0.1742519
244	0x3da0e9cf	0.078570955
245	0x3e4f3b25	0.20237406
246	0x3ec6a9d4	0.38801444
247	0x3e3d2c4c	0.18473929
248	0xbd149204	-0.036272064
249	0x3eedca1a	0.46443254
250	0x3b3005de	0.0026858966
251	0x3da1171c	0.07865736
252	0xbcea0e2c	-0.02857121
253	0xbeb8b3f2	-0.36074787
254	0xbd8154d4	-0.06315008
255	0xbcd279c2	-0.025692824

net.2.bias f4 [128]
0	0x3c91b502	0.017786507
1	0xbd609278	-0.054827183
2	0x3cbebd02	0.023283485
3	0xbdc109e4	-0.094257146
4	0x3e852f89	0.2601283
5	0xbb8d8eaa	-0.0043199854
6	0x3d14f9be	0.036370985
7	0x3dc8fcf7	0.09813874
8	0x3b963163	0.004583524
9	0x3d613f39	0.054991934
10	0x3d8162b6	0.06317656
11	0xbd3d86d1	-0.04627115
12	0xbd47d152	-0.048783608
13	0xbda74def	-0.081691615
14	0x3cd3a840	0.025837064
15	0xbd33b73d	-0.04387592
16	0x3d9a1d50	0.07525122
17	0x3d789486	0.060688518
18	0x3e974958	0.29548144
19	0xbd3a29bb	-0.045449954
20	0xbce8581f	-0.028362332
21	0xbd38bdc5	-0.045102853
22	0xbd873691	-0.066022046
23	0x3d20c617	0.039251413
24	0xbd8c8ecf	-0.06863176
25	0xbb827b6b	-0.0039819977
26	0x3bddadde	0.0067651113
27	0x3e0a03f4	0.1347807
28	0xbd202115	-0.03909405
29	0xbd586d14	-0.0528384
30	0x3eb2c8b7	0.34918758
31	0xbde22b91	-0.11043466
32	0x3d2a2715	0.041541178
33	0xbd5d5a34	-0.054041103
34	0xbdce02b5	-0.1005911
35	0xbdb27e33	-0.08715477
36	0xbddac608	-0.10682303
37	0xbd3487b3	-0.044074725
38	0x3d56ed51	0.052472416
39	0x3ea1c7fc	0.31597888
40	0xbcbd91a4	-0.023140736
41	0x3d630050	0.05542022
42	0x3d8b61bc	0.06805751
43	0x3eb8ee54	0.3611933
44	0xbd6c85c2	-0.05774475
45	0xbc7848de	-0.015154092
46	0xbd15f4d7	-0.03661045
47	0x3d1f2acc	0.038859174
48	0x3c4ba4f5	0.012429466
49	0xbc09953e	-0.0083973985
50	0xbd0e9844	-0.03481318
51	0x3eb30e86	0.34972018
52	0x3d0f2297	0.034945097
53	0x3b87db32	0.004146003
54	0xbcac85f3	-0.021059966
55	0xbd1f3655	-0.038870174
56	0x3d3010cc	0.04298477
57	0x3e5d40fd	0.21606822
58	0x3eb83ead	0.35985318
59	0x3d665d10	0.056241095
60	0xbdb46e7f	-0.08810138
61	0xbcf22177	-0.029556973
62	0xbdd001d1	-0.101565965
63	0x3c8575cc	0.016291521
64	0xbcd8c3b4	-0.026460506
65	0xbd553b57	-0.052058544
66	0xbd949057	-0.07254093
67	0x3d8328fd	0.06404302
68	0x3e9b194b	0.30292735
69	0xbcb6b045	-0.022300849
70	0x3ebe9f17	0.3723075
71	0xbd8a8579	-0.06763739
72	0x3d8e2838	0.06941265
73	0x3d19ec2d	0.03757875
74	0xbd4ca8f3	-0.04996581
75	0xbcc85512	-0.024454627
76	0x3e9dc9f1	0.30818132
77	0xbce5f17d	-0.028069252
78	0x3d0018f6	0.031273805
79	0xbde0a235	-0.109684385
80	0x3dfcfda5	0.12353066
81	0x3d54b85f	0.051933642
82	0x3d78c946	0.060738824
83	0xbdd0364d	-0.10166607
84	0xbd7e6f32	-0.062117763
85	0xbd3eb777	-0.046561684
86	0x3e44bea5	0.1921335
87	0xbda4b474	-0.08042231
88	0x3acc9876	0.0015609402
89	0x3b2c14c0	0.0026257485
90	0x3e0ec215	0.13941224
91	0x3cbf595a	0.023358036
92	0xbdd35a9e	-0.10320018
93	0x3d04eeee	0.032454424
94	0x3d618fdf	0.055068847
95	0x3dc1bb62	0.094595686
96	0x3edb3d65	0.42820278
97	0x3c908131	0.017639728
98	0xbda70775	-0.08155719
99	0x3daa586e	0.08317648
100	0xbd06a358	-0.03287062
101	0x3c0324c4	0.008004371
102	0x3ce07991	0.027401717
103	0x3d0df9d4	0.034662083
104	0xbd8287b1	-0.06373537
105	0x3ecb7448	0.39737153
106	0xbdab985e	-0.08378671
107	0xbdaea37e	-0.085272774
108	0x3d1c5317	0.03816518
109	0x3a43155b	0.0007441842
110	0xbcb724a0	-0.022356331
111	0xbd5d580e	-0.054039054
112	0x3e6492ad	0.22321577
113	0xbb48e3e0	-0.0030653402
114	0xbbfdeb44	-0.007748993
115	0x39719db8	0.00023042306
116	0xbcbee56b	-0.023302754
117	0xbd994261	-0.07483364
118	0xbd76228c	-0.06009154
119	0x3e8495c2	0.25895506
120	0x3d6608e7	0.056160834
121	0x3d44f93f	0.048089262
122	0xbda47ea1	-0.08031965
123	0x3e85cc22	0.26132303
124	0xbd0d2ea3	-0.034468304
125	0xbdae4177	-0.0850858
126	0xbe8cbbd0	-0.2748704
127	0xbca34725	-0.019931385

net.4.weight f4 [3, 128]
0	0xbc5c45dd	-0.013444391
1	0xbf2d5368	-0.6770539
2	0xc03f3e1e	-2.9881663
3	0xbd1a7daa	-0.0377175
4	0x3fc140ef	1.5097941
5	0xbd0151ce	-0.031572156
6	0x3c24742c	0.010037463
7	0xbf4aeb89	-0.7926565
8	0xbd9ac52a	-0.07557137
9	0x3d1d84cc	0.038456723
10	0xc0163446	-2.3469405
11	0xbd3f6a0c	-0.046731994
12	0xbd1e2662	-0.038610823
13	0xbd4b8f4a	-0.049697198
14	0xbcc9e47f	-0.024645088
15	0x3c2328e3	0.009958479
16	0xbd3e645b	-0.046482425
17	0xbd80a3d1	-0.062812455
18	0xbf06c2cf	-0.52641004
19	0xbdca52aa	-0.09879048
20	0x3c70e36d	0.01470266
21	0xbda9db49	-0.082937784
22	0x3d8adffc	0.06781003
23	0xbd63d92c	-0.055627033
24	0xbd8b5152	-0.0680262
25	0x3d686f61	0.056746844
26	0x3cc439ba	0.023953307
27	0xc04712c7	-3.110521
28	0xbf987219	-1.190982
29	0x3bd4f270	0.0064986274
30	0xbf01b93b	-0.50673264
31	0x3d637c7a	0.055538632
32	0xbdac7198	-0.08420104
33	0xbd995045	-0.07486013
34	0x3c916802	0.01774979
35	0xbd9cc650	-0.076550126
36	0x3bfd7050	0.007734336
37	0xbd9cadae	-0.07650314
38	0x3d17b949	0.037041936
39	0xbf098dcd	-0.53731996
40	0x3c074ae4	0.008257601
41	0xbcf21af4	-0.029553868
42	0x3d94878a	0.072524145
43	0xbf028788	-0.50988054
44	0xbdaf3f91	-0.08557046
45	0x3b595fc7	0.003316866
46	0x3d808ba8	0.06276637
47	0x3cd1a25f	0.02559012
48	0xbcb71da8	-0.022353008
49	0x3d872b5c	0.06600067
50	0x3b813b40	0.0039438307
51	0xbf115642	-0.56772244
52	0xc001edc2	-2.0301366
53	0xbd57f6c2	-0.05272556
54	0x3d270c67	0.040783312
55	0xbf5304cb	-0.8242919
56	0xbc39e1a8	-0.011345305
57	0x3fd10496	1.6329525
58	0xbef67f48	-0.48143983
59	0xbd53ebac	-0.051738426
60	0xbdad72eb	-0.084691845
61	0xbc3f1e35	-0.011664917
62	0x3d2fc12e	0.04290884
63	0xc0381d79	-2.8767989
64	0xbd2b2593	-0.04178388
65	0xbd247ca9	-0.040157948
66	0xbd9f4681	-0.077771194
67	0x3d083d06	0.03326132
68	0xc052cb17	-3.2936456
69	0xbde9ff14	-0.114256054
70	0xbf0c4382	-0.5479051
71	0x3ced9038	0.028999433
72	0x400cd1a8	2.2002964
73	0x3d1d4768	0.038398176
74	0xbf8f1dc6	-1.1180961
75	0x3d10563f	0.0352385
76	0xbf057828	-0.5213647
77	0x3d51f207	0.051256206
78	0x3c111775	0.00885569
79	0x3d3e39b1	0.046441738
80	0x3faf303f	1.3686599
81	0xbd60ae3e	-0.05485367
82	0x3d489f44	0.048980013
83	0xbf188812	-0.59582627
84	0xbc7693d2	-0.015049892
85	0x3af1ccab	0.0018447837
86	0xbf81295e	-1.0090749
87	0xba9c33c4	-0.0011917283
88	0xbd8f8c73	-0.070092104
89	0x3c89c868	0.016819194
90	0x4001efc5	2.0302594
91	0xbd7c0cee	-0.06153577
92	0xbb346e40	-0.0027531534
93	0x3c33a973	0.010965693
94	0x3c86f652	0.016474877
95	0xc003ae69	-2.0575202
96	0xc0359efe	-2.837829
97	0x3bb40418	0.005493652
98	0xbd3ac65c	-0.045599326
99	0xc08587af	-4.172813
100	0xbd86382d	-0.065536834
101	0x3b590eed	0.0033120469
102	0xbd2fc0c3	-0.04290844
103	0xc00619da	-2.0953279
104	0xbd69def1	-0.05709738
105	0xbefc4e98	-0.49278712
106	0xbad7b69b	-0.0016457619
107	0xbd6f163c	-0.058370814
108	0xbfad11d9	-1.3521072
109	0x3c49deaf	0.012321158
110	0xbb7745f7	-0.0037730911
111	0x3b94ec8c	0.0045448
112	0xbf083643	-0.53207797
113	0x3d8731db	0.06601306
114	0x3d802c35	0.06258432
115	0x3c5c97b6	0.013463905
116	0x3d0ec1bf	0.03485274
117	0x3d82890b	0.06373795
118	0xbd5ac04e	-0.053406052
119	0xbfbfa884	-1.4973302
120	0xbd0cd216	-0.03438004
121	0x3bb3b968	0.0054847486
122	0xbb6bb33f	-0.0035964993
123	0x3f4e8321	0.80668837
124	0x3d320a26	0.04346671
125	0xbd4c25d5	-0.049840767
126	0xbf5f85a5	-0.873133
127	0xbf2f710a	-0.6853186
128	0xbcb256db	-0.021769932
129	0xc00435aa	-2.0657754
130	0xbfe8dc55	-1.819224
131	0x3c0e93b4	0.008702207
132	0x3ff9f21f	1.9527014
133	0x3d51b31c	0.051196203
134	0x3d70917a	0.058732487
135	0xbdeb078d	-0.114760496
136	0x3dac6270	0.08417213
137	0xbb36bdd1	-0.0027884135
138	0xbfb3b796	-1.4040401
139	0x3d3e8e84	0.046522632
140	0x3d2f6a4f	0.042825993
141	0xbd2f7f74	-0.04284616
142	0xbaa1b1ad	-0.0012336277
143	0x3d6afe34	0.057371333
144	0x3d7454a7	0.059651043
145	0x3d93a8b7	0.07209914
146	0xbef3d31a	-0.47621995
147	0xbc73f0f8	-0.014888994
148	0x3c7c4aec	0.015398722
149	0x3d6920b2	0.056915946
150	0x3d846adc	0.06465694
151	0xbd9d0c88	-0.07668406
152	0x3d256473	0.040379
153	0x3c49b43d	0.012311039
154	0xbd928817	-0.07154863
155	0xc02053f9	-2.5051253
156	0xbf8b3f09	-1.0878612
157	0x3cdd1bbe	0.026990768
158	0xbee3da58	-0.4450252
159	0x3dad877c	0.08473107
160	0xbc8d8487	-0.017275108
161	0x3ce0b548	0.027430192
162	0x3ca1b43b	0.01973926
163	0x3d5a8af9	0.05335519
164	0xbdc66fd1	-0.09689296
165	0x3d92ce30	0.071682334
166	0x3d3bb658	0.045828193
167	0xbef2c93f	-0.47419164
168	0xbd240dc8	-0.040052205
169	0x3d81c464	0.06336287
170	0x3d92ac10	0.071617246
171	0xbeff41fa	-0.49855024
172	0x3d6a6323	0.05722345
173	0x3c6cec77	0.0144606745
174	0x3d168fa0	0.036758065
175	0x3d2a2284	0.041536823
176	0x3d1f6dec	0.03892319
177	0xbc481caf	-0.01221387
178	0xbc0cf255	-0.008602698
179	0xbee0c335	-0.4389893
180	0xc0242163	-2.5645378
181	0xbc3afe69	-0.011413195
182	0xbd9a9752	-0.07548393
183	0xbfe075e1	-1.7535974
184	0x3d0e834f	0.034793194
185	0x3fe1e151	1.7646886
186	0xbf0fc968	-0.56166697
187	0x3d8114f3	0.06302824
188	0xbcffb715	-0.03121523
189	0x3d7cc4e3	0.061711203
190	0x3d56d0fc	0.052445397
191	0xc01ec7f7	-2.480955
192	0x3c20f4e1	0.009824009
193	0xbb6f5cfd	-0.0036523931
194	0xbd0364af	-0.03207844
195	0xbda46168	-0.08026391
196	0xc0569582	-3.3528752
197	0xbfa5cc3e	-1.2952955
198	0xbee8b63d	-0.45451537
199	0xbd7ac250	-0.061220467
200	0x4007df7d	2.1230156
201	0x3d2314a6	0.039814614
202	0xbfcbba50	-1.5916233
203	0xbcd703d1	-0.026246937
204	0xbf0ebb35	-0.55754405
205	0x3a8ad8d8	0.0010593189
206	0x3da591d0	0.08084452
207	0x3d25cc25	0.04047789
208	0x3f91c914	1.1389489
209	0x3dab3057	0.083588295
210	0xbd16e08d	-0.036835242
211	0xbfbc425d	-1.4707752
212	0x3d07227b	0.032991868
213	0xbdc6b5af	-0.09702622
214	0xbf286dcd	-0.6579254
215	0x3d808921	0.06276155
216	0x3d0f20a9	0.034943257
217	0xbd63c9c5	-0.055612344
218	0x40014043	2.0195472
219	0xba319dcb	-0.0006775527
220	0x3c3bfe69	0.01147423
221	0xbd9dcfdf	-0.07705664
222	0x3d6aaf26	0.05729594
223	0xbf8a9ef3	-1.0829757
224	0xc03dbed1	-2.9647715
225	0xbb8e9cfc	-0.00435221
226	0xbcc9ffe9	-0.02465816
227	0xc02ea642	-2.7288976
228	0x3d33bdf2	0.043882318
229	0x3d620544	0.055180803
230	0xbc9025fd	-0.01759624
231	0xbff32711	-1.8996297
232	0xbd1d54c8	-0.03841093
233	0xbf0c77de	-0.548704
234	0x3ca5a5a1	0.02022058
235	0x3d82c583	0.063853286
236	0xc01a9461	-2.4153063
237	0x3d83324f	0.0640608
238	0xbd529909	-0.051415477
239	0x3d57bf15	0.052672464
240	0xbefdbc5b	-0.49557766
241	0xbd89f971	-0.0673703
242	0xbccfeae9	-0.025380569
243	0x3d0b79c2	0.034051664
244	0x3c14ef15	0.009090205
245	0x3d988fe0	0.07449317
246	0x3db299cb	0.0872074
247	0xbf7c4a63	-0.98551005
248	0x3b81bf6b	0.0039595864
249	0x3d51a959	0.051186893
250	0xbcad74aa	-0.021173794
251	0xbc08e33e	-0.00835496
252	0xbd8505a6	-0.06495218
253	0x3d29a67b	0.041418534
254	0xbfbbb72e	-1.4665277
255	0xbfaaa366	-1.3331115

net.4.bias f4 [3]
0	0xbedd19df	-0.431838
1	0xbde3ce0e	-0.11123286
2	0xbe7543ff	-0.2395172

net.0.weight f4 [128, 2]
0	0xbea509d2	-0.32234055
1	0xc0ac7fcd	-5.3906007
2	0x3f34e065	0.706549
3	0x3e45e45b	0.19325392
4	0x3e94892a	0.29010898
5	0x3eb5a41d	0.3547677
6	0xbf6a9c5f	-0.91644853
7	0xc090f961	-4.5304418
8	0x3e84b792	0.25921303
9	0xc06246eb	-3.5355785
10	0x3f238d97	0.63887924
11	0xbff69f0c	-1.9267287
12	0xbee5ab79	-0.44857386
13	0xc06d8d80	-3.7117615
14	0x3e07fc59	0.13279857
15	0x3de5ef31	0.11227263
16	0x3e058ea5	0.13042696
17	0x3ec836ab	0.39104208
18	0x3e0a43b6	0.13502392
19	0xbd531985	-0.05153801
20	0x3f18359f	0.5945682
21	0xc048efda	-3.1396394
22	0xbe08f0fb	-0.13373177
23	0xc0530b4a	-3.297564
24	0x3d591dc6	0.05300691
25	0x3e74b24d	0.23896141
26	0xbf012eaf	-0.5046186
27	0x3fd08aeb	1.6292394
28	0xbeafb614	-0.34318602
29	0x3ef20ff1	0.47277787
30	0x3e899d5d	0.2687787
31	0xbf228dda	-0.634977
32	0xbef96a7f	-0.48714063
33	0xc06817fd	-3.6264641
34	0x3f24c992	0.6437007
35	0xc0a9be16	-5.304454
36	0xbeb4ef70	-0.35338926
37	0xc057ee43	-3.3739173
38	0xbea53bd7	-0.32272217
39	0xc081f435	-4.0610604
40	0xbedf1472	-0.43570286
41	0xbefe7612	-0.49699455
42	0xbc74f174	-0.014950145
43	0xc052dc4e	-3.2946963
44	0x3f06287c	0.52405524
45	0xbe72af5a	-0.23699704
46	0x3eb1f892	0.34759957
47	0xbff42e26	-1.9076583
48	0xbd3bacfd	-0.04581927
49	0xbed64246	-0.41847438
50	0xbe913689	-0.2836192
51	0x3e9ae571	0.30253175
52	0x3e5e4b44	0.21708399
53	0x40cd458b	6.414739
54	0x3e1f954f	0.155843
55	0xc021a5bb	-2.5257404
56	0xbea3381f	-0.31878754
57	0xc048da3a	-3.1383195
58	0xbede945e	-0.4347257
59	0xc0476571	-3.1155665
60	0xbe33cbfd	-0.17558284
61	0xc064849c	-3.5705938
62	0x3eb18724	0.34673417
63	0xc0729208	-3.790163
64	0xbe2155b0	-0.15755343
65	0xbf134140	-0.5752144
66	0x3dd84271	0.10559548
67	0xc079d994	-3.903905
68	0x3c1e6bb8	0.009669237
69	0x40ba9b59	5.8314633
70	0xbdb08394	-0.086188465
71	0xc03da724	-2.9633265
72	0xbeec75bd	-0.46183577
73	0xc0f3981e	-7.612319
74	0xbeead2b8	-0.4586389
75	0xc09548fe	-4.66516
76	0x3f0bb671	0.5457526
77	0xc08e1aca	-4.44077
78	0x3f05a493	0.52204245
79	0x40ed4882	7.415101
80	0xbe93e1f3	-0.28883323
81	0xc0744ada	-3.8170686
82	0x3eff2fc5	0.49841133
83	0xc00bca54	-2.1842241
84	0xbec34fbb	-0.38146767
85	0xc07edf96	-3.9823966
86	0x3de0f5dc	0.10984394
87	0xc063467a	-3.5511765
88	0x3f091cfb	0.53559846
89	0x3e9cb83e	0.30609316
90	0xbda0cced	-0.078515865
91	0x3ef11398	0.4708526
92	0x3f4aa5b2	0.7915908
93	0xbfdaf9bb	-1.7107462
94	0xbd9a0616	-0.07520692
95	0xbf00cd20	-0.50312996
96	0x3e43af7d	0.19109912
97	0xbee9c5d1	-0.45658734
98	0xbec368c0	-0.38165855
99	0xc06a0670	-3.656643
100	0x3e98ed8a	0.29868728
101	0xbe568de9	-0.20952572
102	0xbea32f05	-0.3187181
103	0xc02b35fb	-2.6751697
104	0xbe796573	-0.24355106
105	0xc068b013	-3.6357467
106	0xbf27099d	-0.65249044
107	0xc0b29500	-5.5806885
108	0x3e364b53	0.17802171
109	0xbf27860c	-0.65438914
110	0xbe5f4002	-0.21801761
111	0xc06f3ecd	-3.738208
112	0x3e89a728	0.26885343
113	0xc00c0d5a	-2.188315
114	0xbf524c5d	-0.8214777
115	0xc0b6c07a	-5.7109957
116	0x3ed775bc	0.42082012
117	0x40f46bed	7.6381745
118	0x4004c9fc	2.0748281
119	0x413c932e	11.785933
120	0x3fb298b7	1.3952855
121	0x3fa1a8fa	1.2629693
122	0xbe52495e	-0.205358
123	0xc066f98e	-3.6089816
124	0xbec91c42	-0.39279372
125	0xc083eef0	-4.122917
126	0xbeaa267c	-0.33232486
127	0x3ee26a26	0.4422161
128	0xbde5fd9b	-0.11230012
129	0x40b01e6c	5.5037136
130	0xbda877a3	-0.08225944
131	0xbe18aa09	-0.14908613
132	0x3e8fc710	0.2808156
133	0x3df830fe	0.121187195
134	0xbe07146a	-0.13191381
135	0xbf0dbb3a	-0.5536381
136	0x3ef3bc90	0.476048
137	0xc01f3ea4	-2.4881983
138	0xbe3da669	-0.18520512
139	0xc051e716	-3.2797294
140	0xbef6c139	-0.48194292
141	0xc06c87b7	-3.6957834
142	0xbe2cadf3	-0.16863231
143	0x3ea4dc0e	0.32199138
144	0x3f8f830b	1.1211866
145	0x40fc435e	7.8832235
146	0x3e704ff8	0.23468006
147	0xbf1a5cca	-0.60297835
148	0x3e5a4117	0.21313892
149	0xc02686b6	-2.601972
150	0xbdc3a160	-0.09552264
151	0xc0482469	-3.1272223
152	0x3eda445d	0.42630282
153	0xc01f6e43	-2.4911048
154	0xbe801280	-0.25014114
155	0x40a0204e	5.0039434
156	0x3eb8e3a8	0.36111188
157	0xc0410390	-3.0158424
158	0xbe0ba44d	-0.13636895
159	0xc06d8ced	-3.7117264
160	0x3d2110d9	0.039322708
161	0xc0676b5e	-3.6159282
162	0xbd99fd8e	-0.07519065
163	0xc059d118	-3.403387
164	0xbf2c017f	-0.6718978
165	0xc05891ff	-3.383911
166	0x3d8b072d	0.06788478
167	0xbe8a6ecd	-0.2703766
168	0x3e1a6ec9	0.15081324
169	0xc0b66040	-5.6992493
170	0x3e44d24c	0.19220847
171	0xc02fb6df	-2.7455366
172	0x3e363da0	0.17796946
173	0xc05cfd63	-3.4529655
174	0x3de98beb	0.1140364
175	0xc0ce41ba	-6.4455233
176	0xbdbab5bd	-0.09116695
177	0x409adae4	4.83922
178	0x3ead2adb	0.3382176
179	0xbec71b0d	-0.38887826
180	0x3f49aa75	0.7877572
181	0x3f0bc48d	0.5459679
182	0xbe9c3b8f	-0.3051419
183	0xc07fb510	-3.9954262
184	0xbd25f940	-0.040520906
185	0x3e6d0ba9	0.23148979
186	0x3e90ca98	0.28279567
187	0x3ee481c8	0.44630265
188	0xbfb86b05	-1.440766
189	0xc0b38229	-5.6096387
190	0x3ee30caf	0.44345614
191	0xbfcaf98a	-1.5857403
192	0xbf04631d	-0.51713735
193	0x3ffe2a07	1.9856576
194	0x3dd17b3b	0.102285825
195	0xc05c423c	-3.4415426
196	0xbec5dca9	-0.38644913
197	0xc088c1c2	-4.273652
198	0xbed48872	-0.4151035
199	0xc06b992b	-3.6812236
200	0x3e12da5b	0.14341109
201	0x40c4c108	6.1485634
202	0x3ea48e3a	0.3213976
203	0x3ec7a14d	0.3899025
204	0xbe495582	-0.19661525
205	0xc0584aac	-3.3795576
206	0x3e9122a3	0.28346738
207	0xbf1d8aa0	-0.6153965
208	0x3d309141	0.043107275
209	0xc0391335	-2.8917973
210	0x3f03b299	0.51444393
211	0x3f01fe2a	0.5077845
212	0xbebcd09c	-0.36877906
213	0x406a4d90	3.660984
214	0x3de64124	0.11242893
215	0xc112071d	-9.126737
216	0x3e9a647a	0.30154783
217	0xc0345b77	-2.8180826
218	0xbf6cc278	-0.92484236
219	0xc056da8b	-3.3570888
220	0xbf1ecceb	-0.6203143
221	0xc1015934	-8.084278
222	0x3db61a0c	0.08891687
223	0x3ec8239f	0.39089677
224	0xbf21ba1e	-0.6317462
225	0x3d990450	0.07471526
226	0x3efd4eee	0.4947428
227	0x3f0c0746	0.546986
228	0x3e4bda4b	0.19907491
229	0x3e6e7679	0.23287381
230	0x3ed2f642	0.41203505
231	0xc0296307	-2.6466691
232	0x3e8bb0e3	0.2728339
233	0x3dbdc47d	0.09265993
234	0x3d9a7009	0.075409
235	0xc0748e34	-3.8211794
236	0x3f0caaa4	0.54947877
237	0xc03cb805	-2.9487317
238	0x3d86f201	0.06589127
239	0xc059296d	-3.3931534
240	0xbea3fa09	-0.320267
241	0xc0809fbb	-4.0194983
242	0x3ed89cd4	0.4230715
243	0xc037ea76	-2.8736854
244	0xbea05ce7	-0.3132088
245	0xc063afb0	-3.557598
246	0xbed9df8c	-0.42553365
247	0xc0621711	-3.5326579
248	0x3d878960	0.06617999
249	0xbf021dca	-0.50826705
250	0x3d0e235c	0.03470169
251	0xc0e9b7d1	-7.3036885
252	0x3e5ede6f	0.21764539
253	0x3f2d368a	0.67661345
254	0x3dee254a	0.11628206
255	0xbe8c9556	-0.27457684

net.0.bias f4 [128]
0	0xbee33113	-0.44373378
1	0xbf023394	-0.5085995
2	0xbe47ea0c	-0.19522876
3	0xbf20a8de	-0.6275767
4	0x3ea788f9	0.3272169
5	0x3f131c1f	0.57464784
6	0x3ebacd9b	0.3648499
7	0xbf122d4e	-0.5710038
8	0xbe4480db	-0.1918978
9	0xbf292f51	-0.66087824
10	0x3f223b08	0.63371325
11	0x3e8236aa	0.2543233
12	0xbf332d89	-0.69991356
13	0xbec40577	-0.3828542
14	0xbeed6ac4	-0.46370518
15	0xbeb1ca41	-0.3472462
16	0xbf4d8d9f	-0.8029422
17	0x3e9cb998	0.30610347
18	0x3e83ee04	0.2576753
19	0x3e7cb69f	0.2467904
20	0xbf1134c6	-0.5672115
21	0x3de87b4d	0.11351643
22	0xbeba516c	-0.36390245
23	0x3eca32ca	0.39491874
24	0xbecc9144	-0.3995458
25	0xbf188c35	-0.5958894
26	0xbe32dc47	-0.17466842
27	0x3e7d8899	0.24759139
28	0x3eed8d51	0.46396878
29	0x3f0610d7	0.52369446
30	0x3eac21c9	0.33619526
31	0x3f3f27c8	0.74670076
32	0xbf06024c	-0.52347255
33	0x3f3315c5	0.6995509
34	0xbe505c79	-0.20347776
35	0x3c2883ea	0.010285357
36	0xbec087f2	-0.37603718
37	0x3eaa51e7	0.33265612
38	0x3ee81017	0.45324776
39	0xbe52fc8e	-0.20604154
40	0x3e3bb84a	0.1833202
41	0x3eefb20d	0.4681553
42	0x3f1dc67e	0.61631
43	0x3e8e5ef3	0.27806816
44	0xbf13f2fe	-0.5779265
45	0xbe248594	-0.16066581
46	0x3f0a5356	0.5403341
47	0xbf33a895	-0.7017911
48	0xbe80a56e	-0.25126213
49	0x3e8a8232	0.27052456
50	0xbeb6cc92	-0.3570295
51	0x3f1cce12	0.6125194
52	0x3e51e0a1	0.20495845
53	0x3e4ec3d3	0.20191889
54	0xbf2c1725	-0.67222816
55	0x3f2a9e16	0.6664747
56	0x3ea4f6d7	0.32219574
57	0xbf2085a6	-0.6270393
58	0xbe3c243e	-0.183732
59	0x3f634dc0	0.8879051
60	0x3f4ec499	0.80768734
61	0x3f246fe8	0.64233255
62	0x3e94098c	0.28913534
63	0xbeed71c2	-0.46375853
64	0xbe80921b	-0.2511147
65	0xbf2eb1eb	-0.6824023
66	0xbe93d304	-0.2887193
67	0xbeab5a2a	-0.33467227
68	0x3f320978	0.695457
69	0x3de99e05	0.11407093
70	0x3eaa49d6	0.33259457
71	0xbedf538d	-0.43618432
72	0xbe8df8ff	-0.2772903
73	0xbf09ac0f	-0.53778166
74	0x3f0b7226	0.5447105
75	0x3e8172a8	0.25282788
76	0x3f0bf354	0.54668164
77	0xbe9bfe96	-0.3046767
78	0x3ec27c6d	0.37985554
79	0x3deb1ed5	0.1148049
80	0x3f130366	0.5742706
81	0x3e742a72	0.23844317
82	0xbf101170	-0.5627661
83	0xbd377b14	-0.04479511
84	0x3e88d3e0	0.26724148
85	0x3eccffa4	0.40038788
86	0x3f371536	0.7151674
87	0x3e8a404a	0.27002174
88	0x3e959f52	0.29223114
89	0xbe690b1b	-0.22758143
90	0x3eea3e89	0.45750836
91	0x3f2d4eba	0.6769825
92	0xbf250df2	-0.64474404
93	0xbef405c2	-0.47660643
94	0xbf4131ab	-0.7546641
95	0x3ece0a0b	0.40242037
96	0xbe7d075d	-0.2470984
97	0x3e92d205	0.28675857
98	0x3e8c7d71	0.27439454
99	0x3f0ad99b	0.5423829
100	0xbe3a58ab	-0.18197887
101	0xbf3061b0	-0.6889906
102	0x3debfb62	0.11522557
103	0xbef72149	-0.48267582
104	0x3eaaa3ff	0.33328244
105	0xbf080a94	-0.5314114
106	0xbeb2e725	-0.34941974
107	0x3d534583	0.051579963
108	0x3f33f07d	0.7028883
109	0xbe7bcc5a	-0.24589673
110	0xbe96540e	-0.29361004
111	0xbd929e6c	-0.07159123
112	0xbea40f2b	-0.32042822
113	0xbf157729	-0.5838495
114	0xbe295512	-0.16536358
115	0x3ef744e6	0.48294753
116	0xbf318b23	-0.6935293
117	0x3ea9f3a5	0.331937
118	0x3f152467	0.5825867
119	0x3e91db91	0.28487828
120	0x3e77eedc	0.24212211
121	0x3ef4fd5c	0.47849548
122	0x3eaac78b	0.33355364
123	0x3eb3a053	0.35083255
124	0xbebe6a98	-0.371907
125	0xbd8b1dd5	-0.067927994
126	0xbe94e574	-0.2908131
127	0xbf1af71d	-0.60533315

net.2.weight f4 [128, 128]
0	0x3d05e903	0.03269292
1	0xbd109058	-0.035293907
2	0xbd582e6e	-0.052778654
3	0x3b8a8c4c	0.0042281505
4	0xbc2e363e	-0.0106330495
5	0xbdabc9bd	-0.08388088
6	0xbd5f4acf	-0.054514702
7	0xbd6edb94	-0.058314875
8	0xbdb0290b	-0.08601578
9	0x3d9d09e0	0.07667899
10	0xbd3e1cf2	-0.046414323
11	0xbd57d95e	-0.052697532
12	0xbd2f269a	-0.042761423
13	0x3dafedd8	0.08590287
14	0x3d16645f	0.036716815
15	0xbace5b3d	-0.0015743744
16	0xbcad582a	-0.021160204
17	0xbce85ed1	-0.028365524
18	0xbdad24a8	-0.08454257
19	0xbc95e874	-0.018299319
20	0xbda09025	-0.078399934
21	0xbd51b1c2	-0.051194914
22	0xbd530e1e	-0.051527135
23	0xbd8c3122	-0.06845309
24	0xbcc3e1bc	-0.02391135
25	0x3d03004e	0.031982712
26	0xbd83709b	-0.06417962
27	0xbda0af6b	-0.07845958
28	0x3d26640e	0.040622763
29	0xbd8ee7db	-0.06977817
30	0xbd2d5cb5	-0.04232474
31	0xbdab28fd	-0.08357427
32	0x3c538905	0.012911086
33	0x3d47fdb3	0.04882593
34	0x3db400f2	0.08789243
35	0xbd3eb7ec	-0.04656212
36	0x3dab6d36	0.0837044
37	0x3d9a824b	0.07544383
38	0x3d0bc39d	0.0341221
39	0x3caf2369	0.02137919
40	0x3bad73d5	0.0052933493
41	0x3c44ccb2	0.012011694
42	0x3d9b34a9	0.075784035
43	0xbd43b2a9	-0.047777805
44	0xbd7355f1	-0.059408132
45	0xbcb743ce	-0.022371199
46	0x3d936b6d	0.07198224
47	0xbd9af8bf	-0.07566976
48	0x3d1e8b7d	0.038707245
49	0xbc1e08e5	-0.009645675
50	0xbda10850	-0.078629136
51	0xbd7598bb	-0.05996011
52	0x3bc9855c	0.006149931
53	0xbcf44d4c	-0.029822014
54	0x3d7a8d78	0.06117007
55	0xbd201251	-0.039079968
56	0x3cd82b7b	0.02638792
57	0xbd6ddc23	-0.058071267
58	0x3d0ba111	0.03408915
59	0xbcaab760	-0.020839393
60	0xbd517aec	-0.051142618
61	0x3d9fd2f7	0.0780391
62	0x3db09b7d	0.08623407
63	0x3a4cf408	0.0007818346
64	0x3cc84527	0.024447037
65	0x3cf43536	0.02981053
66	0x3b254424	0.0025217617
67	0x3ceb0bb7	0.02869211
68	0xbda33e71	-0.07970894
69	0xbc2adebb	-0.01042908
70	0xbcfd57fd	-0.030925745
71	0x3cf90d85	0.030401954
72	0x3dada44b	0.08478602
73	0x3c7cfac3	0.015440646
74	0xbdb273ec	-0.087135166
75	0xbcfeaf22	-0.03108937
76	0x3d8c3975	0.068468966
77	0xbcd15608	-0.025553718
78	0xbd052727	-0.03250804
79	0xbd04f69b	-0.032461744
80	0xbd9fcd3f	-0.078028195
81	0xbd6e173c	-0.058127627
82	0xbc64162e	-0.013921304
83	0x3d2324b5	0.03982993
84	0xbda0212c	-0.07818827
85	0x3cdc490c	0.0268903
86	0xbccc3a42	-0.024930123
87	0xbcf69191	-0.030098708
88	0x3d2caede	0.042158954
89	0x3d987f64	0.07446173
90	0x3d25007e	0.040283673
91	0x3d29c4e4	0.041447535
92	0xbcf18965	-0.02948446
93	0xbdaf7c1d	-0.085685946
94	0x3d0c07e8	0.034187227
95	0xbd221c24	-0.03957762
96	0xbd60c4fb	-0.054875355
97	0xbd861ab1	-0.0654806
98	0x3d9a35cb	0.075297914
99	0xbd00cddf	-0.031446334
100	0xbd65ba3a	-0.056085803
101	0x3d3dd3e1	0.04634464
102	0xbc9dacbf	-0.01924741
103	0x3c810ca0	0.01575309
104	0x3cd72141	0.026260974
105	0xbd9b18da	-0.075730994
106	0x3cbe4348	0.023225442
107	0xbda211cf	-0.07913553
108	0xbd6cfecd	-0.057860184
109	0x3cb149b7	0.021641595
110	0x3c4fd881	0.012685896
111	0xbdaf1f14	-0.085508496
112	0x3d1c3fc0	0.038146734
113	0xbd8bb338	-0.06821293
114	0x3d4928aa	0.049111046
115	0xbbef2ac9	-0.0072988016
116	0x3d586363	0.052829158
117	0xbd37ddb9	-0.044889186
118	0xbd5da097	-0.05410823
119	0x3b416606	0.0029510274
120	0xbbb2910a	-0.005449419
121	0x3db1af57	0.086760215
122	0xbd5aac6d	-0.053387094
123	0x3ccc2df3	0.024924254
124	0xbd731121	-0.059342507
125	0xbd02ec38	-0.031963557
126	0x3db264d1	0.087106355
127	0xbcb0aa9e	-0.021565732
128	0xbfb25214	-1.3931298
129	0xbd953b88	-0.07286745
130	0x3d3d22ac	0.046175644
131	0xbf206bf0	-0.626647
132	0x3e75f71a	0.24020043
133	0x3ebaba58	0.36470294
134	0x3c0e896f	0.008699759
135	0xbd12f392	-0.035876818
136	0x3d912b52	0.07088341
137	0xbd23153e	-0.03981518
138	0x3ec9cbdc	0.39413345
139	0x3c3b0c6a	0.011416534
140	0x3da44ab3	0.0802206
141	0xc0df9cb3	-6.9878783
142	0x3cc3ebdb	0.023916176
143	0xbd37ed36	-0.044903956
144	0x3ea6a1fe	0.32545465
145	0x3f0badd5	0.5456212
146	0xbded6f4c	-0.11593494
147	0x3cde6221	0.0271464
148	0x3e869af1	0.26290086
149	0x3dc4a633	0.096020125
150	0x3da8fa5a	0.08250876
151	0x3ec44e99	0.38341215
152	0xbc973bc1	-0.01846111
153	0x3cf5b3bc	0.02999293
154	0xc137df44	-11.492008
155	0x3e0ed620	0.1394887
156	0xbc27ccdb	-0.010241712
157	0x3929cf09	0.00016194223
158	0x3de459c0	0.11149931
159	0x3da35568	0.07975274
160	0x3d0ef272	0.034899183
161	0x3d607ec2	0.054808386
162	0xc1239872	-10.224718
163	0x3d960f40	0.073271275
164	0x3ef65766	0.48113555
165	0xbd371096	-0.044693552
166	0xbf306e90	-0.68918705
167	0xc166b85c	-14.42001
168	0xbdf70752	-0.12061943
169	0x3eab0aa0	0.33406544
170	0xbd080413	-0.03320701
171	0x3e9bf14a	0.30457526
172	0x3bb6b1b9	0.0055753854
173	0x3d8ba1b0	0.06817949
174	0xbf3ef2f4	-0.7458947
175	0xbd9c18b2	-0.07621898
176	0x3d1664c8	0.036717206
177	0xbd08c87f	-0.033394333
178	0x3d1469b8	0.036233634
179	0xbb033892	-0.0020022732
180	0x3e71c986	0.23612031
181	0x3db9ab86	0.090659186
182	0x3c969d68	0.018385604
183	0xbd8cafc6	-0.068694636
184	0x3ed98af7	0.42488834
185	0xbf6db712	-0.9285747
186	0xc141d5da	-12.11471
187	0xbe07f5c2	-0.13277343
188	0x3f51f0f1	0.8200827
189	0x3d99b1f6	0.075046465
190	0x3dba20d6	0.09088294
191	0xbcf93def	-0.03042504
192	0xc10dcc95	-8.862447
193	0x3d25b4b7	0.040455546
194	0xbd9f09b6	-0.07765524
195	0xbdaa32f4	-0.083105
196	0x3db363f0	0.08759296
197	0xbd8e8662	-0.06959225
198	0xbd4e1355	-0.050311405
199	0xbd292573	-0.04129548
200	0xc0a7bb96	-5.2416487
201	0xbda5f41d	-0.081032015
202	0x3e0e4a39	0.13895501
203	0x3e143277	0.14472376
204	0x3d65db5f	0.05611741
205	0xc11293d3	-9.16109
206	0x3eb66330	0.3562255
207	0x3def967f	0.11698627
208	0x3e24bec2	0.16088393
209	0x3e0b7ce4	0.1362186
210	0xbedfbd08	-0.43698907
211	0x3d234d31	0.039868537
212	0xbf473839	-0.77820164
213	0x3cffb166	0.03121252
214	0x3e1a104e	0.15045282
215	0xbec27994	-0.37983382
216	0xbf3c985f	-0.7367
217	0x3d3606ef	0.044440206
218	0xbf2979eb	-0.6620166
219	0xbd441ca6	-0.047878884
220	0xbbfa4c83	-0.0076385154
221	0x3d5e6fc3	0.054305803
222	0xbf3a6f1f	-0.7282581
223	0x3eaad61a	0.33366472
224	0xbfe70398	-1.8047972
225	0x3e6c2601	0.23061372
226	0x3d90d912	0.07072653
227	0x3cb413f1	0.021982165
228	0xc128d9c0	-10.553162
229	0xbb8cf693	-0.004301855
230	0xbc6e05ee	-0.014527781
231	0x3a8820b2	0.001038572
232	0x3e03169a	0.1280159
233	0x3d872174	0.065981776
234	0xc0fc9a55	-7.8938394
235	0x3f7466e0	0.95469475
236	0xbc1d8ca6	-0.009616053
237	0xbf3338bd	-0.7000845
238	0x3ef2cdea	0.47422725
239	0xbd7ad658	-0.06123957
240	0xc008c0a6	-2.1367583
241	0x3db019ab	0.08598646
242	0x3db39ba1	0.08769918
243	0x3e32480f	0.174103
244	0x3da0e9cf	0.078570955
245	0x3e4ff142	0.20306876
246	0x3ec68979	0.38776758
247	0x3e3df063	0.18548732
248	0xbd107edf	-0.035277244
249	0x3eedbd9e	0.4643373
250	0x3b57d677	0.0032934227
251	0x3da240bc	0.07922503
252	0xbcea0e2c	-0.02857121
253	0xbebfddf4	-0.37474024
254	0xbd8154d4	-0.06315008
255	0xbcd279c2	-0.025692824

net.2.bias f4 [128]
0	0x3c91b502	0.017786507
1	0xbd622bac	-0.05521743
2	0x3cae8fa0	0.02130872
3	0xbdc109e4	-0.094257146
4	0x3e854fc7	0.26037428
5	0xbb8d8eaa	-0.0043199854
6	0x3d14f9be	0.036370985
7	0x3dc8bd59	0.0980174
8	0x3b963163	0.004583524
9	0x3d613f39	0.054991934
10	0x3d7b25ef	0.061315473
11	0xbd3d86d1	-0.04627115
12	0xbd47d152	-0.048783608
13	0xbda74def	-0.081691615
14	0x3cd3a840	0.025837064
15	0xbd33b73d	-0.04387592
16	0x3d9a1d50	0.07525122
17	0x3d789486	0.060688518
18	0x3e973953	0.29535922
19	0xbd3a29bb	-0.045449954
20	0xbce8581f	-0.028362332
21	0xbd38bdc5	-0.045102853
22	0xbd873691	-0.066022046
23	0x3d20c617	0.039251413
24	0xbd8c8ecf	-0.06863176
25	0xbb827b6b	-0.0039819977
26	0x3bddadde	0.0067651113
27	0x3e09b630	0.13448405
28	0xbd20440f	-0.039127406
29	0xbd586d14	-0.0528384
30	0x3eb2bee9	0.34911278
31	0xbde22b91	-0.11043466
32	0x3d2a2715	0.041541178
33	0xbd5d5a34	-0.054041103
34	0xbdce02b5	-0.1005911
35	0xbdb27e33	-0.08715477
36	0xbddac608	-0.10682303
37	0xbd3487b3	-0.044074725
38	0x3d56ed51	0.052472416
39	0x3ea1bd66	0.31589812
40	0xbcbd91a4	-0.023140736
41	0x3d630050	0.05542022
42	0x3d8b61bc	0.06805751
43	0x3eb8ded5	0.36107507
44	0xbd6c85c2	-0.05774475
45	0xbc7848de	-0.015154092
46	0xbd15f4d7	-0.03661045
47	0x3d1f2acc	0.038859174
48	0x3c4ba4f5	0.012429466
49	0xbc09953e	-0.0083973985
50	0xbd0e9844	-0.03481318
51	0x3eb2fe92	0.34959847
52	0x3d106b9e	0.03525888
53	0x3b87db32	0.004146003
54	0xbcac85f3	-0.021059966
55	0xbd1f5e4b	-0.038908284
56	0x3d3010cc	0.04298477
57	0x3e5ccfb2	0.21563604
58	0x3eb835a8	0.35978436
59	0x3d665d10	0.056241095
60	0xbdb46e7f	-0.08810138
61	0xbcf22177	-0.029556973
62	0xbdd001d1	-0.101565965
63	0x3c7d6f44	0.015468422
64	0xbcd8c3b4	-0.026460506
65	0xbd553b57	-0.052058544
66	0xbd949057	-0.07254093
67	0x3d8328fd	0.06404302
68	0x3e9b442b	0.30325446
69	0xbcba1090	-0.022712976
70	0x3ebe8819	0.3721321
71	0xbd8a8579	-0.06763739
72	0x3d8ca6d6	0.06867759
73	0x3d19ec2d	0.03757875
74	0xbd50df2d	-0.050994087
75	0xbcc85512	-0.024454627
76	0x3e9dbe24	0.30809128
77	0xbce5f17d	-0.028069252
78	0x3d0018f6	0.031273805
79	0xbde0a235	-0.109684385
80	0x3dfbf726	0.12302999
81	0x3d54b85f	0.051933642
82	0x3d78c946	0.060738824
83	0xbdd05948	-0.10173279
84	0xbd7e6f32	-0.062117763
85	0xbd3eb777	-0.046561684
86	0x3e45219d	0.19251104
87	0xbda4b474	-0.08042231
88	0x3acc9876	0.0015609402
89	0x3b2c14c0	0.0026257485
90	0x3e0e8ab8	0.13920105
91	0x3cbf595a	0.023358036
92	0xbdd35a9e	-0.10320018
93	0x3d04eeee	0.032454424
94	0x3d618fdf	0.055068847
95	0x3dc0f54c	0.09421787
96	0x3edbbc7c	0.4291724
97	0x3c908131	0.017639728
98	0xbda70775	-0.08155719
99	0x3da6107c	0.08108613
100	0xbd06a358	-0.03287062
101	0x3c0324c4	0.008004371
102	0x3ce07991	0.027401717
103	0x3d0b52c1	0.034014467
104	0xbd8287b1	-0.06373537
105	0x3ecb675d	0.39727297
106	0xbdab985e	-0.08378671
107	0xbdaea37e	-0.085272774
108	0x3d1ad68d	0.037802268
109	0x3a43155b	0.0007441842
110	0xbcb724a0	-0.022356331
111	0xbd5d580e	-0.054039054
112	0x3e64798f	0.22311996
113	0xbb48e3e0	-0.0030653402
114	0xbbfdeb44	-0.007748993
115	0x39719db8	0.00023042306
116	0xbcbee56b	-0.023302754
117	0xbd994261	-0.07483364
118	0xbd76228c	-0.06009154
119	0x3e844141	0.25831035
120	0x3d6608e7	0.056160834
121	0x3d44f93f	0.048089262
122	0xbda47ea1	-0.08031965
123	0x3e86a0c6	0.26294535
124	0xbd0d2ea3	-0.034468304
125	0xbdae4177	-0.0850858
126	0xbe8d2f78	-0.27575278
127	0xbc9fc87d	-0.01950478
