Mountaincart/checkpoints/last_model01.pth (torch, 287669 bytes, 24 tensors)

net.0.weight f4 [128, 2]
000000 5b ea 29 bf 36 37 27 bf 59 c3 33 3e dc 46 c3 bc
       -0.66373223 -0.6531862 0.17554988 -0.0238375
000010 91 de 4d be 0a cc c7 be 4e b6 84 3e 98 f2 aa be
       -0.20104434 -0.39022857 0.25920337 -0.3338821
000020 ce 21 04 bd b6 26 43 bf 37 6b 21 3f 16 be ff bd
       -0.0322588 -0.76230943 0.6305422 -0.12487428
000030 49 8c bb 3d a3 42 ac be e4 b4 86 3c a9 c9 19 bf
       0.09157617 -0.3364459 0.016443677 -0.60073334
000040 04 e0 06 bf 18 5d fc be 75 96 7a 3e ab d1 a3 3e
       -0.5268557 -0.49289775 0.24471457 0.319959
000050 1c 37 dd 3c 05 2e cf bd 9a 11 c6 be 74 4d cd be
       0.027003817 -0.101161994 -0.38685304 -0.40098155
000060 5f 39 72 be 08 a1 08 bf 4b 9c 17 3f 6c c1 a9 be
       -0.23654698 -0.53370714 0.5922286 -0.33155382
000070 05 63 95 be 52 4a 8d bf c1 d1 1e 3e 2a 9a 34 3f
       -0.29177108 -1.1038306 0.15509702 0.70547736
000080 31 5c 0c bf 94 2b 1b bf ac b3 f6 3e cf d2 0c bf
       -0.5482817 -0.6061337 0.48183954 -0.5500917
000090 63 e5 0c 3f d6 af 17 bf 44 48 16 bf d8 3c 81 be
       0.55037516 -0.5925268 -0.5870402 -0.25241733
0000a0 9d bc fe 3d e0 2a 05 3e a7 4a 2e bf 2a 13 3f 3d
       0.12438319 0.13004637 -0.6808266 0.046649136
0000b0 56 10 49 3e 49 71 0c bd dc d9 9f 3e 04 f9 43 be
       0.19635138 -0.034287725 0.312209 -0.1913796
0000c0 58 d2 11 bf 3f 37 a3 3e e4 d3 a2 be c3 20 7a be
       -0.56961584 0.31878087 -0.31802285 -0.2442656
0000d0 0d e8 f0 be a7 12 5b 3e 44 79 86 be c3 73 cc be
       -0.4705204 0.21393834 -0.26264393 -0.3993207
0000e0 27 bc 10 3e 5e b2 3b bf ac 5c ad 3d 2c 30 a4 be
       0.14134274 -0.7331904 0.084649414 -0.32068002
0000f0 94 39 2a bf 89 cc 4b bf 8e 87 c8 3e 79 02 98 be
       -0.6649411 -0.7960897 0.3916592 -0.29689386
000100 43 c2 bb be f2 47 2d bd bc 27 79 be 14 dd 5c bf
       -0.36671647 -0.04230494 -0.24331564 -0.8627484
000110 f2 01 01 bf 0f e4 32 bf b9 7b 24 3e 40 d3 87 3d
       -0.50393593 -0.6987924 0.16062821 0.066320896
000120 1f f7 48 be 84 9f 1c be 07 0b 16 bf de 9e 5b 3e
       -0.19625519 -0.15295225 -0.58610576 0.21447322
000130 e8 95 ee 3e a6 08 35 be dc 86 3c be 2f 91 44 be
       0.46598744 -0.1767908 -0.1841082 -0.19196008
000140 16 3f 2c 3f d6 cf 02 3f c0 1a 1d bf af f8 c0 3e
       0.6728376 0.5109838 -0.6136894 0.3768973
000150 12 a0 af 3e 45 f2 07 bf b9 c2 54 3e b3 32 2d be
       0.3430181 -0.5310405 0.20777406 -0.16913871
000160 d7 dc bd 3d 53 59 09 3e 09 62 a9 bb 46 64 00 bf
       0.092706375 0.1341298 -0.0051691574 -0.50153005
000170 2f 01 ab 3e ed 0b 85 be 7e 47 f4 bc b5 23 e1 be
       0.3339934 -0.2598566 -0.029819246 -0.43972555
000180 25 cd f9 3d 54 16 09 3e ab 48 ec be 63 1d 4a 3d
       0.12197331 0.13387424 -0.4614919 0.04934443
000190 f4 a3 9d bd 48 c8 d4 be eb 32 85 be 6d af 74 3e
       -0.07697287 -0.41559052 -0.2601541 0.23895045
0001a0 f8 7c a5 be 4a 6d 9c 3e f5 3c 19 3f 69 62 aa 3c
       -0.32321906 0.3055213 0.5985864 0.020798879
0001b0 67 7e ab 3e 6b 1b 62 bf 96 32 5e bf 44 77 68 be
       0.33494875 -0.88323087 -0.8679594 -0.22701746
0001c0 80 47 47 be c9 26 c7 3e a5 74 32 3f 39 09 c6 be
       -0.19460869 0.38896778 0.69709235 -0.3867891
0001d0 48 ac e7 be b3 ec c3 bb 92 cf 9f be ad 9f c5 3e
       -0.45248628 -0.0059791445 -0.3121305 0.38598385
0001e0 c8 e7 07 bf 54 a5 81 bf cf 37 26 be 01 71 4a 3e
       -0.53088045 -1.0128579 -0.16232227 0.1976967
0001f0 6b 9e 8d be 07 bb 2a bf 46 f3 07 3f 79 47 bd be
       -0.27659926 -0.6669163 0.5310558 -0.36968592
000200 c8 62 d5 be 25 2a 94 3e d7 b6 cf be 8d d0 31 bf
       -0.41676927 0.28938404 -0.40569183 -0.6945885
000210 53 2f 15 3e 09 90 16 bf e9 7f 11 3d b3 56 4c 3e
       0.14568834 -0.5881353 0.035522375 0.19954948
000220 4c 3b f6 bd bc fe 0f bf d8 9a 83 be 08 47 df 3e
       -0.12023029 -0.5624807 -0.25704074 0.4360888
000230 8e 7b 0f 3f dd 06 54 be 8e b9 dd 3d 02 bd b1 be
       0.56047904 -0.20705743 0.108264074 -0.34714514
000240 b9 1e ef be 0d f9 e2 bd 0f 75 05 be 3f 35 ed be
       -0.46703127 -0.11082659 -0.13032936 -0.46329686
000250 e2 78 26 bf 04 77 ae bb e3 38 b1 3e 57 4a e2 3d
       -0.650282 -0.0053242464 0.34613714 0.110493354
000260 3c 30 c5 be 77 de 62 bf 10 f4 20 3f 99 b2 ea be
       -0.38513362 -0.88620704 0.6287241 -0.45839384
000270 47 99 bb 3d 94 3b 0a bf ce 72 b7 3d 51 7e 39 be
       0.09160095 -0.5399716 0.08957444 -0.18114592
000280 85 ff 88 bd 5d d4 6c bf e7 f7 11 bf 7d 5f 91 bf
       -0.066893615 -0.9251154 -0.57018894 -1.1357266
000290 11 a4 4b be 84 5b b5 be 52 32 69 3e 6c 39 b7 be
       -0.19886805 -0.35421383 0.22773102 -0.35785997
0002a0 cd 68 81 3e 3a da 5a bf 3b 3e 3e be 48 f3 f9 be
       0.2527527 -0.8548924 -0.18578427 -0.4881842
0002b0 47 54 f4 3e 86 08 32 bf f3 a2 20 be 17 0b e4 be
       0.4772055 -0.69544256 -0.1568716 -0.4453971
0002c0 c3 70 39 bf 51 f1 36 be b6 2c 2c 3f ab 47 a3 3e
       -0.72437686 -0.17865492 0.67255723 0.31890616
0002d0 b0 3f ac 3e c8 b2 81 bd 6b d8 84 3e 29 4c 24 3e
       0.3364234 -0.06332928 0.25946364 0.16044678
0002e0 b7 30 26 be c2 22 54 bf 24 e9 24 3d ef fd 2d bf
       -0.1622952 -0.82865536 0.040261403 -0.67965597
0002f0 28 f9 23 bf 42 c1 45 bf af c5 e8 be aa 35 0c be
       -0.6405206 -0.77248013 -0.4546332 -0.13692346
000300 65 66 08 3f 8d fd dd 3d c5 6e 26 bf c2 c6 b9 be
       0.5328124 0.108393766 -0.6501277 -0.36284453
000310 54 e6 2f be 86 64 43 bf 05 aa e2 3d 31 79 f2 bc
       -0.17177707 -0.7632526 0.11067585 -0.029598804
000320 48 54 ca 3d f5 d4 5a bf 83 b8 8d be 2e eb 93 be
       0.098793566 -0.85481197 -0.27679834 -0.28890365
000330 47 53 90 be 82 54 8a bd 44 ef e9 be fa 2a 10 3f
       -0.28188536 -0.067544 -0.45690358 0.5631558
000340 04 10 99 3d 57 8d 27 3e 95 8b 21 be 96 21 5f 3e
       0.07473758 0.1636251 -0.15775903 0.21790156
000350 25 c1 a1 3e a3 56 09 3f 51 68 0b bf 74 06 a7 be
       0.3159267 0.5364782 -0.5445605 -0.3262211
000360 2d d9 13 3c 8f b7 0e 3e a3 22 0c bf 8a e7 cd bd
       0.009023947 0.1393721 -0.5474035 -0.10053928
000370 ba e3 4b 3e d2 81 b5 3e 1e 1f aa bd 67 da b8 3e
       0.1991109 0.35450608 -0.083067164 0.36104128
000380 b9 a3 19 bf 22 aa b6 bc 2f c5 4f bd c7 c7 fb be
       -0.60015446 -0.022297923 -0.05072516 -0.49175856
000390 ad 1f dd 3e fd 39 77 be 00 0e 93 3e b9 63 07 bf
       0.4318823 -0.24143215 0.2872162 -0.5288654
0003a0 4c 7e 31 be 7e 0a a3 bd 32 bf bb be 9c 02 27 bf
       -0.17333335 -0.079609856 -0.36669308 -0.65238357
0003b0 91 51 18 bf c4 cb 55 bf 6c d6 08 bc 2c f5 49 3c
       -0.5949946 -0.83514047 -0.008351903 0.01232652
0003c0 75 9b c7 3e 60 15 96 3e 51 f6 c6 be 29 be 11 3e
       0.38985792 0.29313183 -0.388598 0.14232697
0003d0 03 e5 02 bf 98 df 88 be f0 a9 09 bd 06 b2 55 3d
       -0.51130694 -0.26733088 -0.03360933 0.05217173
0003e0 11 04 24 be 00 43 02 bf 9f b1 d2 3d 58 34 b9 bd
       -0.16017176 -0.50883484 0.10287785 -0.09043187
0003f0 7c 89 e3 3e cc ed fa bd f7 9d f3 3e 23 91 02 bf
       0.4444083 -0.122523874 0.47581455 -0.5100271

net.0.bias f4 [128]
000000 71 20 85 bc d5 0d 24 be ae a6 22 bf 6b f1 bc bd
       -0.01625082 -0.16020902 -0.63535583 -0.09225734
000010 9d c4 df 3e 7f 54 94 be e5 63 86 be c8 8a e1 be
       0.43704692 -0.28970715 -0.26248088 -0.44051194
000020 d6 3e 8c be b7 ce 66 3e 4f 53 54 3f 2e 6c 6a 3e
       -0.2739169 0.22539793 0.8293962 0.2289283
000030 87 6f fa bd be bf 4f 3f 3e 0a 19 be 6f 95 eb be
       -0.122283034 0.8115195 -0.14945313 -0.46012446
000040 1b 6b 9e 3e f1 31 1f 3f de e1 46 3f 7a 2a 1a 3f
       0.3094109 0.6218558 0.77688396 0.60221064
000050 cd d6 2a bf 83 c2 37 3f 0c 0d 34 bf d7 3b 42 3f
       -0.6673401 0.71781176 -0.7033241 0.7587256
000060 47 2f 60 3e 12 ed f3 3e f5 e6 a2 3e 8f ea 0e 3e
       0.21893035 0.47641808 0.3181683 0.13956665
000070 b0 de db 3e 1a 1e 5e be af 72 4c 3f d4 04 65 be
       0.42943335 -0.2169117 0.79862493 -0.22365123
000080 85 a4 75 3e 9c c6 93 3e 7b 73 2a bf 1d bc 00 3e
       0.2398854 0.28862464 -0.6658246 0.1257176
000090 e7 84 a2 be c6 26 2a bf 84 13 c7 3e bf 20 cc 3d
       -0.3174202 -0.66465414 0.38882077 0.09967183
0000a0 ab a4 df bd 07 ed b5 3e e0 a2 81 be 6a 7e 00 3f
       -0.1092008 0.355324 -0.25319576 0.5019289
0000b0 98 a4 9d be 09 8a 36 3f c7 10 45 3f 78 d1 fb 3e
       -0.30789638 0.71304375 0.76978725 0.4918325
0000c0 aa a6 2c bf 23 b3 13 3f 1b e9 32 bf 08 35 9b 3d
       -0.6744181 0.57695216 -0.6988694 0.07578474
0000d0 f7 d2 57 3e da 3d 0e bf fd 5e 06 3f 79 4e e6 be
       0.2107657 -0.5556313 0.5248869 -0.44981745
0000e0 6f 90 77 be 11 bc d7 3d 64 7c f5 3e c7 bd 07 3f
       -0.24176191 0.10533918 0.47946465 0.5302395
0000f0 ce 2d 52 3e b1 27 09 bf ec 33 85 3e c1 b2 7c 3b
       0.20525286 -0.5357619 0.26016176 0.0038558694
000100 f0 ee 10 bf 55 7b 32 3d 8a 22 29 bf 2a 8c e5 be
       -0.5661459 0.04357465 -0.6606833 -0.448335
000110 88 c4 e3 be 57 e6 08 bf 19 af 39 be 01 5c 4e 3f
       -0.4448588 -0.5347647 -0.181332 0.80609137
000120 2d f2 d9 3d eb 1c 31 bf a0 0e b0 be 59 e5 d6 be
       0.106418945 -0.6918475 -0.34386158 -0.41971853
000130 c7 fe 1c 3f 44 a1 91 be 6f b2 1c bd 5e c7 b9 3e
       0.6132626 -0.28443348 -0.038256105 0.36284918
000140 aa 73 3e 3e 40 52 09 be b9 c5 b5 be 1b b6 72 3e
       0.1859881 -0.13410282 -0.35502413 0.2370228
000150 80 97 04 3f ec 51 1c 3f 85 98 1c 3f 25 d2 3d 3f
       0.5179367 0.610625 0.61170226 0.7414878
000160 d0 b0 16 3f e9 a0 5d 3d a6 93 f5 3c d8 bb c7 3e
       0.58863544 0.054108534 0.02997763 0.390105
000170 e4 35 40 3f 3e 62 3d 3f ad c3 02 3f e5 4f 75 be
       0.7508223 0.7397803 0.5107983 -0.23956259
000180 6c 32 13 bf f2 55 0a bf 12 32 3d 3f 94 a1 f1 be
       -0.5749881 -0.5403739 0.73904526 -0.47193587
000190 f2 48 3d 3f 31 b8 f2 be e6 9f 00 3f ed 21 7a be
       0.7393943 -0.47406152 0.50243986 -0.24427004
0001a0 bd db ad 3e a1 94 0c bf 78 b0 13 bd 3f b0 27 3f
       0.3395671 -0.5491429 -0.036056966 0.65503305
0001b0 5f 20 4c 3e 6b 5e 1d bf 34 e5 0e 3f f4 c1 4e 3e
       0.19934224 -0.61472195 0.55818486 0.20191175
0001c0 47 71 3e 3f 42 bb 00 3f 18 65 d1 3e f1 3e 20 bf
       0.743916 0.5028573 0.4089744 -0.6259604
0001d0 22 be 59 be 4d 45 c9 3e 5a c1 9d be 41 85 ad be
       -0.21263936 0.39310685 -0.30811578 -0.33890727
0001e0 5d da d9 be ba 0f 17 3f c2 11 14 bf 82 e9 ba be
       -0.4254941 0.5900837 -0.57839596 -0.36506277
0001f0 f1 ec 0a 3f 50 73 ca 3e 25 cf fc 3e 3d 69 ea 3e
       0.54267794 0.395411 0.4937679 0.45783415

net.2.weight f4 [128, 128]
000000 3f 3b 10 3e e1 6d 99 bd 7b 5d d5 3c b3 10 5a 3d
       0.140851 -0.07491661 0.026045552 0.053238582
000010 4a 1f 76 3d 61 a0 42 bc 10 ff 16 bd 1c db 60 bd
       0.060088433 -0.011879058 -0.03686434 -0.05489646
000020 3f 3f 0d bf 94 3a 32 3e 4a 18 eb 3d e8 19 3c 3e
       -0.5517463 0.17405158 0.11479242 0.18369257
000030 c0 42 bd be da 0f e5 3d 2e e0 f7 be d7 2c 23 bd
       -0.3696499 0.11184664 -0.48413223 -0.039837684
000040 09 0f 9c 3d 3a 11 5e 3e 7b b4 7d 3e 16 24 ec 3d
       0.07620055 0.21686259 0.24775879 0.1153032
000050 49 68 03 3d 75 7b 78 3d a1 d5 a5 3b f2 cb 38 3e
       0.032081876 0.060664613 0.005060867 0.18046549
000060 e8 e6 1b 3e 66 07 d8 3d a6 fc 3b 3e b3 0b 98 3d
       0.15224802 0.10548286 0.18358096 0.074241064
000070 3e c9 2e 3e 07 40 93 bd 8d c0 13 3e 44 04 82 bd
       0.17068955 -0.071899466 0.14428921 -0.0634847
000080 4a 15 4c 3e fe 89 5f 3d 7b 92 4a bd 12 58 8c 3d
       0.19929996 0.05457496 -0.0494561 0.068527356
000090 1f fa 34 bc dd bc 78 3d 44 8e 16 3e 32 f7 51 3d
       -0.011045962 0.06072699 0.14702708 0.051261134
0000a0 e0 0b 1a 3c 2e b8 4d 3e 10 25 1f bd 2b ed 2f 3e
       0.009402245 0.2008979 -0.038853705 0.17180316
0000b0 31 0d 57 3d 54 a1 4f 3e e3 69 21 3e fd 17 0e 3e
       0.052502815 0.20276386 0.15763049 0.13876338
0000c0 6e 57 15 bd 83 b0 21 3e 9a da 4f bd 36 b0 74 3d
       -0.036460333 0.1578999 -0.050745584 0.05973836
0000d0 45 42 2b 3e 6f 9a c6 bc 55 9c 32 3e 5f 62 13 bf
       0.16724499 -0.024243562 0.17442448 -0.5757198
0000e0 6d 1c dd bb 85 05 33 3f 6f 0c 88 3d d6 db 9b 3d
       -0.0067477734 0.699303 0.066429965 0.0761029
0000f0 e4 1d 2f 3e d2 09 b3 3c 46 61 bb 3d 09 45 a2 3d
       0.17101246 0.021855269 0.09149413 0.07923324
000100 ee e1 16 3d f8 47 5f 3d dd 73 2d bd fc 03 7f 3c
       0.036836557 0.054511994 -0.042346824 0.015564915
000110 4f de 65 bc d5 c3 05 bd 6a 45 01 3d fa b0 0a 3e
       -0.014030053 -0.032657463 0.03156034 0.13544074
000120 ee fa 1c 3e 24 db 08 3d dc c6 db be 5d 71 62 3d
       0.15330097 0.033412114 -0.42925155 0.055283893
000130 87 4c ab 3d b2 b7 3f bd 08 bc 81 bd ef d2 30 3e
       0.08364206 -0.046806045 -0.06334692 0.17267965
000140 0b d9 ff 3d 4a 19 a0 3d f6 0c 4c 3d 21 f5 54 3d
       0.124925695 0.078173235 0.049817048 0.051991586
000150 b8 c0 f4 3d 6d 54 42 3e 89 f4 62 3e f7 0d 14 3e
       0.11950821 0.18977518 0.22163595 0.14458452
000160 34 81 2b 3e 9d ee 8d 3d 90 0e f2 3d cc ed 10 3e
       0.16748506 0.069302775 0.11819184 0.14153212
000170 e3 58 58 3e 3f dd 36 3e 7d ce da 3d aa f6 04 bf
       0.21127658 0.17857836 0.10683916 -0.5193888
000180 9b 98 30 3c 31 54 8a 3e a2 47 bb 3d b4 6d 67 bd
       0.0107785715 0.27017358 0.09144522 -0.056501105
000190 e5 99 69 3e 0b 9e 2e bd 23 11 eb 3d bb a5 fa be
       0.22812612 -0.04263119 0.11477878 -0.48954567
0001a0 50 db 4a 3e 16 67 97 bc 8b 24 6d 3d 18 74 bc 3d
       0.19810224 -0.018481772 0.05789618 0.092018306
0001b0 c8 1f cc 3d 85 fa 3a 3d c9 4a 30 3e 09 78 21 3e
       0.09966999 0.04564907 0.17216028 0.15768446
0001c0 0b 3c 58 3d d8 e4 43 3e a0 85 4f 3e 54 84 a1 bd
       0.052791636 0.19130266 0.20265818 -0.07886568
0001d0 4e 02 2e bc 21 c3 ff 3d 9d 99 07 bf 42 73 b2 bd
       -0.010620667 0.1248839 -0.5296877 -0.0871339
0001e0 d1 c1 ae 3d 16 af 59 3e 9c 7d 05 3d dc e9 8a bd
       0.08533061 0.21258196 0.032590494 -0.067828864
0001f0 99 f8 2f 3e 14 67 b1 3d 89 88 4e 3e 23 0f 66 3e
       0.17184676 0.08662239 0.20169272 0.22466712
000200 ce 36 8a 3d f1 e6 36 bd 85 94 88 bd 76 0f 3f 3d
       0.067487344 -0.044653837 -0.06668953 0.046645604
000210 f5 8d 58 3d 76 aa da ba 6f 0d 40 3d eb 7f 95 3d
       0.052869756 -0.0016682881 0.04688781 0.07299789
000220 38 20 a8 bd de 77 c3 3c 20 c1 6c 3c 20 59 1a 3c
       -0.0820927 0.023860868 0.014450341 0.009420663
000230 38 4b 90 3d 9b 43 09 3d f4 3f 9b 3d 61 6d 48 bd
       0.07045597 0.03351174 0.075805575 -0.048932437
000240 c3 25 31 3b e3 fd c3 bc 75 9b 02 bc 52 05 66 3d
       0.0027030564 -0.023924774 -0.007971634 0.056157418
000250 81 ba a3 bd 68 a6 ac bd d6 a4 15 bc 77 8c 92 bd
       -0.07994557 -0.08430177 -0.009133538 -0.07155698
000260 0a 0e 05 3a 23 40 50 3b 3c 38 be bc 90 93 03 3b
       0.00050756393 0.003177651 -0.023220174 0.0020076968
000270 8f 89 17 bc 06 0a a6 3c 40 42 3d 3a e0 b5 6f 3d
       -0.009249105 0.020268451 0.000721965 0.05852306
000280 6f e8 a6 3d 2c 01 f8 bb 9c 9b a5 bd a3 ca 2b 3c
       0.08149802 -0.007568499 -0.08086321 0.010485324
000290 0f 7a a1 3d 3b c8 6e 3d 36 19 37 bd 86 bc f6 3c
       0.07884609 0.058296423 -0.044701777 0.030119192
0002a0 31 cf 96 bd 6e 87 14 3c ab f0 9b 3d 9f 97 a3 3d
       -0.073637374 0.009065492 0.07614263 0.07987904
0002b0 bd 81 93 bd 6a b2 5a 3b e4 bd 86 bd a0 94 a4 bd
       -0.0720248 0.0033370503 -0.065791875 -0.080361605
0002c0 6d 2b 5e ba e3 d3 6c bd 25 24 73 3d 3c 87 8b 3b
       -0.0008475099 -0.05781926 0.059360642 0.0042580646
0002d0 37 5b 44 3d 62 34 41 bd d4 29 d3 bc 67 b9 96 3c
       0.04793855 -0.047169097 -0.025776781 0.018398954
0002e0 ad 84 8b 3d bc c9 89 bd 9b 42 19 bd ec ff 1d ba
       0.06812415 -0.06727931 -0.037417036 -0.000602721
0002f0 ef c4 e2 3b 98 a3 3e 3d d5 2e af bc 77 f7 87 bd
       0.006920449 0.046542734 -0.021384636 -0.06638997
000300 05 53 a6 bd ba 78 92 3d 8d fc ac 3c 33 94 75 bd
       -0.081213035 0.07151933 0.02111652 -0.059955787
000310 83 b3 7b 3d 95 21 a1 bd 40 60 12 bd c8 b0 9c bd
       0.061450493 -0.078677334 -0.035736322 -0.07650906
000320 f9 58 72 3c 03 a4 53 bd f6 95 6c 3d 9a 89 9f bd
       0.014791721 -0.051670086 0.0577602 -0.07789917
000330 4e 44 99 3d 4a e1 ad bd cc 2b bd bc d3 db 78 bd
       0.07483731 -0.08490236 -0.023092173 -0.060756516
000340 14 b0 ac bd 1a 9c 55 ba 2e fe 68 bd 04 38 78 3d
       -0.08432022 -0.0008148566 -0.05688303 0.060600296
000350 cd 07 80 bd 13 e9 38 bd 70 42 a7 bd 29 be b0 bd
       -0.06251488 -0.045144152 -0.08166969 -0.0863002
000360 f2 4e af bd c3 ad 8c bd e9 94 3e bd 13 ec 33 3d
       -0.085599795 -0.0686908 -0.04652873 0.04392631
000370 36 42 95 3d bd 6c c2 bc e4 05 8f 3d 58 c8 8f bd
       0.07288019 -0.023733491 0.069835454 -0.070206344
000380 a3 85 47 3c 41 e1 57 3d c4 06 d6 bc 38 f6 39 bd
       0.012177858 0.052705053 -0.026126273 -0.045400828
000390 86 14 03 3d 03 d9 cb bb 13 dd 02 3d d4 66 1a bd
       0.032001995 -0.006220938 0.031949114 -0.03769572
0003a0 c8 92 a6 bd 76 01 89 3d a4 50 1c bd 5c 61 63 bd
       -0.08133465 0.06689732 -0.038162842 -0.05551277
0003b0 1f 72 98 bd 98 8c 81 3d 55 8b af bc a0 0a 82 bd
       -0.07443642 0.06325644 -0.021428743 -0.06349683
0003c0 06 5c a0 3d fa e6 57 3d fd 24 83 3c 5d 33 6a bd
       0.07830052 0.05271051 0.016008848 -0.05717789
0003d0 ba a1 80 3d 92 f2 e5 3c f5 ea c6 3c 16 ce 09 bd
       0.06280847 0.028069768 0.024281958 -0.033643804
0003e0 8b fc 9f bd 0f bc e1 bc 38 a9 07 bd e3 5d 2f 3d
       -0.078118406 -0.027555494 -0.033120364 0.042814147
0003f0 85 39 df 3c 84 67 97 bd 49 7d 92 bd a8 f8 a9 bc
       0.027249107 -0.07392791 -0.071528025 -0.020748451

net.2.bias f4 [128]
000000 1a 2c e3 3d 51 00 4f bd 01 d8 ef 3c ff 31 b7 bc
       0.11092396 -0.05053741 0.029277803 -0.022362707
000010 01 b3 38 3e 77 bd 22 3d 21 8b bf 3d e1 b2 82 ba
       0.18037035 0.03973147 0.093527086 -0.0009971523
000020 98 73 eb bc fa 88 55 3e 92 5b eb 3c f5 a7 4e 3e
       -0.028741643 0.20853034 0.028730188 0.20181258
000030 46 7f a7 bb 7e 76 f6 3c bf d0 34 bd 96 fe ea 3d
       -0.0051116077 0.030085798 -0.04414439 0.1147434
000040 6f b2 87 bc 87 61 e1 bb 4a cf b9 3d c0 cd 9c 3d
       -0.016564576 -0.0068780812 0.090727404 0.07656431
000050 e0 1b 9a bd 35 26 4a bd 07 80 2f 3e 23 70 60 bb
       -0.07524848 -0.049352843 0.17138682 -0.0034246526
000060 b0 6b 69 3e d4 fa 6d bb 97 0f 89 bd c6 0d 51 3d
       0.22794986 -0.0036312835 -0.06692427 0.051038526
000070 e5 db f7 bc 7a 46 45 3e e6 af 6f b9 1e 23 50 3e
       -0.030256221 0.19265166 -0.00022858343 0.20325896
000080 d9 51 46 bd b7 23 a9 3d a8 06 6f 3e 3a 96 60 3e
       -0.0484179 0.08258765 0.23342383 0.21932307
000090 08 8c c7 3c 1f 96 b3 bd 58 93 7c bd 4f 8c fc 3b
       0.024358764 -0.08768868 -0.061663955 0.007707156
0000a0 7b e0 1a bd 81 5b 22 bd 94 b9 80 bd 32 2f 89 3d
       -0.037811738 -0.039638046 -0.06285396 0.06698455
0000b0 b9 64 cc 3d c1 fb ea bb aa d5 a5 3d c8 c4 29 3d
       0.09980149 -0.0071711247 0.08097394 0.04144743
0000c0 2b 28 03 3e 52 68 b2 bd d3 6c 7b 3d a0 e5 a2 bd
       0.12808292 -0.08711304 0.06138308 -0.07953954
0000d0 51 3c 89 bd 67 0a b8 bd 24 53 59 bd 43 d8 9d bd
       -0.067009576 -0.08986359 -0.053057805 -0.07707264
0000e0 26 84 75 3e 7a b3 a8 bc 79 33 61 3e c6 56 98 3c
       0.23976192 -0.020593394 0.21992292 0.018596064
0000f0 fb 7c 35 bd 5e 3a de 3d 0a 18 18 bc e2 7c 5b bd
       -0.044308644 0.108509764 -0.009283075 -0.053585894
000100 94 74 8c bc da 85 87 3c e4 90 76 bd 72 43 a3 3d
       -0.017145433 0.016543318 -0.060196772 0.079718485
000110 75 d4 66 3d a7 0f 92 bd 68 6a c2 bd 32 94 aa 3d
       0.05635496 -0.07131892 -0.09492952 0.08329047
000120 64 ff e4 3d be bd 0e bd b1 15 8f bd de 1f a7 bd
       0.111815244 -0.03484892 -0.06986559 -0.08160375
000130 5e 00 88 3d a9 5e 13 bd 1b e8 81 3d eb 9d b9 bb
       0.06640695 -0.035978947 0.06343099 -0.0056645772
000140 3d 62 69 3d b7 3d 31 bd 30 ce 22 3e 0f 67 b3 bd
       0.056978453 -0.043271746 0.15898967 -0.08759891
000150 f2 77 a9 bd 11 da 36 3e 36 16 3e 3d 08 44 8e 3d
       -0.08274831 0.17856623 0.0464079 0.0694657
000160 74 4f 8c bd 7c 25 68 3d 77 63 41 3e 44 ed eb bc
       -0.06851092 0.056676373 0.18885599 -0.02879966
000170 64 d2 83 3d 73 48 c4 3d 92 f7 17 3e 19 12 5b 3c
       0.06436613 0.09584131 0.14840534 0.013371014
000180 d3 54 42 3e b1 68 33 3d d8 6f 07 bd b1 f9 63 bd
       0.1897767 0.043801013 -0.033065647 -0.055658046
000190 d7 9d 77 3e e3 7c 25 3e b1 cd 37 bd b7 16 10 3d
       0.24181305 0.16160922 -0.044873897 0.035177913
0001a0 c1 ca 5f bd 27 a7 5c bd 22 6e 02 3e b6 0a 28 3a
       -0.05463672 -0.053870346 0.12737325 0.00064102875
0001b0 e9 d1 dd bc 8d 9e 4a 3d 0f ff 6f bd d2 d3 93 3d
       -0.027077632 0.049467612 -0.058592852 0.07218136
0001c0 32 1d 22 3d f9 8c 3b bd bf 46 ab 3d 6f 99 35 3e
       0.039578624 -0.04578874 0.08363103 0.17734312
0001d0 e9 4b 4d bd d5 8a 4b bc 29 c9 5f 3e b7 af 3a 3e
       -0.05012122 -0.012423237 0.2185408 0.18231092
0001e0 91 16 b4 3b 45 d4 44 3e 76 c9 2c 3c c0 c6 9c 3d
       0.005495854 0.192216 0.010546079 0.07655096
0001f0 e0 78 77 3c b4 e3 04 3c de fa 33 3e a9 7a c8 bc
       0.015104502 0.008110929 0.17576167 -0.024472551

net.4.weight f4 [3, 128]
000000 ee 7b 20 be 1c b2 38 ba f4 13 89 bd 49 20 f4 3c
       -0.15672275 -0.00070455833 -0.06693259 0.029800551
000010 e3 89 71 be eb bd 98 3d 76 20 2a be 65 f9 9a 3d
       -0.23587756 0.07458099 -0.16613945 0.075670995
000020 f6 f8 64 3c 15 7d 13 be bf 7b 8f bc d6 d3 41 be
       0.013975373 -0.14403184 -0.017515061 -0.18928465
000030 33 1b 96 3d 84 80 76 3c 9e fa 9e 3d c1 c7 1a be
       0.073294066 0.015045289 0.07762645 -0.15115263
000040 c0 00 b5 bd 61 41 c3 3a 82 9d 45 be 28 d4 69 bd
       -0.08838034 0.0014896804 -0.19298366 -0.057087094
000050 f5 82 2d bd 42 65 89 3b 16 1e e9 bd a7 3c 75 3b
       -0.04236122 0.004192979 -0.113826916 0.0037420185
000060 6d b7 1c be 03 00 26 3d 50 e3 38 3c 63 d7 a1 3d
       -0.15304346 0.040527355 0.011284664 0.0790241
000070 32 c0 aa bd da 50 2a be 2a 48 8b bd 1a 30 49 be
       -0.083374396 -0.16632405 -0.068008736 -0.19647256
000080 ae ec 6e 3d cc 08 1f be 46 3f 2c be 29 23 46 be
       0.058331184 -0.155307 -0.16821012 -0.1934935
000090 34 fa 86 3d 26 af 4d 3c 5b 11 6a 3d e7 6a 5e 3a
       0.06590691 0.012553966 0.057145458 0.00084845576
0000a0 e2 9e b0 3d 33 ba a9 3d 70 6b 4a bd 5f 23 75 bd
       0.086240545 0.08287468 -0.049418867 -0.059848186
0000b0 9d 36 35 be 7b e8 85 3d 26 76 60 3c 4e 2f a1 bc
       -0.17696615 0.06538483 0.013700044 -0.019675877
0000c0 d0 b9 3f be d1 a9 78 bb 19 6d 2b bc 70 8f 92 bb
       -0.18723226 -0.0037943015 -0.010463023 -0.0044726655
0000d0 1c 4c 9a bc 90 06 88 3d c5 dc 1f 3c 94 80 53 3c
       -0.01883512 0.06641877 0.009757225 0.012909073
0000e0 4b 81 cf bd 12 da 99 3d 55 81 11 be 4b 83 45 3d
       -0.101320826 0.07512297 -0.14209493 0.048220914
0000f0 7e 68 94 3c 60 56 4d be 4c e9 90 ba 0f 51 36 bd
       0.018116232 -0.2005248 -0.0011055856 -0.044510897
000100 f7 f6 53 bd 8f a9 88 bd 98 a7 55 bd 16 08 eb bd
       -0.051749196 -0.06672966 -0.052161783 -0.11476152
000110 e2 7a 83 ba a4 3b 33 bd 7f 86 00 bd 7b d3 dd 3c
       -0.0010031129 -0.04375805 -0.031378265 0.02707838
000120 95 c2 57 be 23 36 39 bd 0e b1 04 3d de 4d 6f 3c
       -0.21070321 -0.045217644 0.032395415 0.014605967
000130 ec b0 d0 3c 87 0b d0 3c 8f 6b 20 bd 81 e5 56 3d
       0.025474988 0.025396122 -0.039165076 0.052464966
000140 39 5a a7 3b c5 30 e3 3c 56 f0 1a be 1e d4 2d bd
       0.005107191 0.027733216 -0.15130743 -0.04243862
000150 6c 7c 58 3d 08 55 45 be fd e0 45 3d 80 10 76 3c
       0.052853033 -0.19270718 0.04831027 0.015018582
000160 9f a9 6d bd 94 68 3a 3d 63 df a4 bd c2 4f 4c bd
       -0.05802309 0.04550989 -0.0805042 -0.04988075
000170 b8 d7 a2 bd 95 a4 23 be 2f 6a 21 be 0e 1b 05 bd
       -0.07951301 -0.15980752 -0.15763162 -0.032496504
000180 f6 15 54 be 6d 2c 19 bd b2 1d 16 bd c3 c5 15 bd
       -0.20711502 -0.037395883 -0.036649413 -0.036565553
000190 68 8b 3f be 85 92 e4 bd e8 da a2 bd d8 51 b3 bd
       -0.18705523 -0.11160759 -0.07951909 -0.08755845
0001a0 59 ab c5 bc 5d 15 3a 3d f3 41 8f bd 52 e5 06 3d
       -0.024129556 0.04543053 -0.06995001 0.03293354
0001b0 7b 13 6f 3d f0 87 c6 bc 52 61 c5 3c 5c bd 24 be
       0.058368187 -0.024234742 0.024094258 -0.1608786
0001c0 df f9 de bb f2 5b ca 3c 24 26 f0 bd 57 3f 4b be
       -0.0068046893 0.024702046 -0.11726025 -0.19848381
0001d0 74 bb ac bc eb a3 06 3c 62 e9 f9 bd 6f 6b e5 bd
       -0.021085478 0.008217792 -0.12202717 -0.11202132
0001e0 d1 25 40 3d c4 54 32 be 4f cb 85 3d b7 05 a6 3d
       0.046911065 -0.17415148 0.06532919 0.08106559
0001f0 ff 24 9c 3c 82 a4 fd bc a1 bf bf bd 44 11 a9 bc
       0.01906061 -0.030962233 -0.09362722 -0.020638116
000200 01 0f 47 be e6 97 b1 bd 5e f2 3c 3d 9e a3 c8 3b
       -0.19439317 -0.086715505 0.046129577 0.0061230203
000210 fb a7 9e be 06 ac 4f 3d e3 d0 b4 bd 33 0a 2e 3d
       -0.30987534 0.050701164 -0.088289045 0.042490195
000220 e7 4c 99 bc 62 d9 06 be 0e 4a 40 3d 23 2f 14 be
       -0.018713428 -0.13168862 0.046945624 -0.14471106
000230 ca 6e 83 3c 28 0b 38 bd a3 22 f6 3a 5a 78 e3 bd
       0.01604404 -0.044932514 0.0018778633 -0.111069396
000240 dc ef a3 bd d4 e7 bc bc 10 c2 01 be 11 8c 36 3d
       -0.08004734 -0.023059763 -0.12671685 0.04456717
000250 75 8e e5 3c 07 f6 aa bd 16 54 f5 bd 7f a3 8e bd
       0.02802203 -0.08347707 -0.11978929 -0.06964778
000260 1b 13 f4 bd a1 ff 8c 3d 69 70 64 3c ee f3 78 3c
       -0.119177066 0.06884695 0.013942816 0.015194876
000270 8f 25 ae 3d fb 8b 27 be d9 4f 39 3d 26 a0 09 be
       0.085032575 -0.16361992 0.045242164 -0.13439998
000280 43 2d 62 3d 74 09 c2 bd 42 c2 3e be 3f 39 5c be
       0.055218946 -0.09474459 -0.18628791 -0.21506213
000290 54 4f f3 3c 87 6f 9e 3d 9f 85 95 3d a3 69 1e bd
       0.029700913 0.07736116 0.07300877 -0.03867496
0002a0 6f a3 e7 bc 0b 42 3e bd 59 4b 44 3d 9f a2 7e 3d
       -0.028276173 -0.046449702 0.04792342 0.062166806
0002b0 02 65 6d bd e8 14 a8 3c 55 5b a7 bd 9f 87 ee 3b
       -0.057957657 0.020517781 -0.08171717 0.007279351
0002c0 8d 50 2c be 78 80 ad bb 39 cb 80 3c 36 2f 52 3d
       -0.16827603 -0.0052948557 0.015721904 0.051314555
0002d0 f1 04 9b bd 69 78 0b 3d 05 eb 07 bd 09 c9 7b bd
       -0.07569302 0.03405038 -0.033183116 -0.06147102
0002e0 6a ba 47 be b8 4a a3 3c 4f b9 1a be b0 9f d0 bc
       -0.19504705 0.01993309 -0.15109752 -0.02546677
0002f0 f1 07 55 3d 82 9f ad bd a8 e0 77 3d 13 58 5e 3c
       0.052009527 -0.08477689 0.060516983 0.013570803
000300 c7 34 9e 3c 5e 2e 14 b9 bc 78 42 3d 0f 26 54 be
       0.019312276 -0.00014131653 0.047478423 -0.20717643
000310 c6 99 96 3d 9c 3c 83 bd f6 01 81 3d 68 29 94 bd
       0.07353549 -0.06408045 0.06299202 -0.0723446
000320 7c f6 06 be 67 0b b5 3c 3f 69 2f bc e4 3f 72 bc
       -0.13179964 0.022100164 -0.010706245 -0.0147857405
000330 35 81 45 bd 96 d4 dd 3c 9e 20 a8 bc ae 55 ab bd
       -0.048218925 0.027078908 -0.020523366 -0.083659515
000340 fa 64 f7 3c f0 21 81 bd 5c d3 52 be 48 6f 8b 3d
       0.030199517 -0.06305301 -0.2058844 0.068083346
000350 f5 0a ad 3c c2 f9 3d be 56 ef 18 3d 2c 52 6c 3d
       0.021123389 -0.18552306 0.037337624 0.057695553
000360 f0 69 a3 3d ff 4c 01 3d a5 56 01 be bc 29 b9 bd
       0.0797919 0.03156757 -0.12630709 -0.09041163
000370 fe 8e 3b 3d 1c 39 0c be 6d 1e d8 bd 1e 5b 00 bc
       0.045790665 -0.1369366 -0.10552678 -0.007834224
000380 26 17 5a be 72 e6 4b 3d d7 17 3a 3d 42 65 22 3d
       -0.21297893 0.049780317 0.04543289 0.03964735
000390 c7 9e 64 be 8b 86 35 be f3 90 aa 3d b1 31 28 be
       -0.22326194 -0.17727105 0.08328428 -0.16425206
0003a0 67 f6 9a 3d 91 2d 0a bc a9 b5 08 be bf 58 e2 bb
       0.07566529 -0.008433715 -0.13350548 -0.006907552
0003b0 9e 06 09 3d 31 e1 a3 3d d5 c3 46 3d 7d 56 1d be
       0.033453576 0.08001936 0.048526604 -0.15365024
0003c0 9d 0d 4b 3d 1d a2 31 3c 20 6e d6 bd f3 ab 41 be
       0.04957353 0.0108418735 -0.104702234 -0.1891325
0003d0 bd d6 a4 bc 3f c5 86 3d 9e 11 41 be 06 90 1c be
       -0.020121926 0.065805905 -0.18854377 -0.15289316
0003e0 f1 f7 0d 3d 34 9e 02 be 7f 5c 05 3d 1e 58 9e bd
       0.034660283 -0.12755662 0.032558914 -0.07731651
0003f0 ec 2d 74 3c 46 ec 3b 3d 2d ac 1d be 7e 56 57 3d
       0.014903527 0.045879625 -0.15397711 0.05257272

net.4.bias f4 [3]
000000 ba 39 0e be 4a 5d 2f be 41 77 8b bd
       -0.13889208 -0.1712543 -0.06809855

net.0.weight f4 [128, 2]
000000 5b ea 29 bf 36 37 27 bf 59 c3 33 3e dc 46 c3 bc
       -0.66373223 -0.6531862 0.17554988 -0.0238375
000010 91 de 4d be 0a cc c7 be 4e b6 84 3e 98 f2 aa be
       -0.20104434 -0.39022857 0.25920337 -0.3338821
000020 ce 21 04 bd b6 26 43 bf 37 6b 21 3f 16 be ff bd
       -0.0322588 -0.76230943 0.6305422 -0.12487428
000030 49 8c bb 3d a3 42 ac be e4 b4 86 3c a9 c9 19 bf
       0.09157617 -0.3364459 0.016443677 -0.60073334
000040 04 e0 06 bf 18 5d fc be 75 96 7a 3e ab d1 a3 3e
       -0.5268557 -0.49289775 0.24471457 0.319959
000050 1c 37 dd 3c 05 2e cf bd 9a 11 c6 be 74 4d cd be
       0.027003817 -0.101161994 -0.38685304 -0.40098155
000060 5f 39 72 be 08 a1 08 bf 4b 9c 17 3f 6c c1 a9 be
       -0.23654698 -0.53370714 0.5922286 -0.33155382
000070 05 63 95 be 52 4a 8d bf c1 d1 1e 3e 2a 9a 34 3f
       -0.29177108 -1.1038306 0.15509702 0.70547736
000080 31 5c 0c bf 94 2b 1b bf ac b3 f6 3e cf d2 0c bf
       -0.5482817 -0.6061337 0.48183954 -0.5500917
000090 63 e5 0c 3f d6 af 17 bf 44 48 16 bf d8 3c 81 be
       0.55037516 -0.5925268 -0.5870402 -0.25241733
0000a0 9d bc fe 3d e0 2a 05 3e a7 4a 2e bf 2a 13 3f 3d
       0.12438319 0.13004637 -0.6808266 0.046649136
0000b0 56 10 49 3e 49 71 0c bd dc d9 9f 3e 04 f9 43 be
       0.19635138 -0.034287725 0.312209 -0.1913796
0000c0 58 d2 11 bf 3f 37 a3 3e e4 d3 a2 be c3 20 7a be
       -0.56961584 0.31878087 -0.31802285 -0.2442656
0000d0 0d e8 f0 be a7 12 5b 3e 44 79 86 be c3 73 cc be
       -0.4705204 0.21393834 -0.26264393 -0.3993207
0000e0 27 bc 10 3e 5e b2 3b bf ac 5c ad 3d 2c 30 a4 be
       0.14134274 -0.7331904 0.084649414 -0.32068002
0000f0 94 39 2a bf 89 cc 4b bf 8e 87 c8 3e 79 02 98 be
       -0.6649411 -0.7960897 0.3916592 -0.29689386
000100 43 c2 bb be f2 47 2d bd bc 27 79 be 14 dd 5c bf
       -0.36671647 -0.04230494 -0.24331564 -0.8627484
000110 f2 01 01 bf 0f e4 32 bf b9 7b 24 3e 40 d3 87 3d
       -0.50393593 -0.6987924 0.16062821 0.066320896
000120 1f f7 48 be 84 9f 1c be 07 0b 16 bf de 9e 5b 3e
       -0.19625519 -0.15295225 -0.58610576 0.21447322
000130 e8 95 ee 3e a6 08 35 be dc 86 3c be 2f 91 44 be
       0.46598744 -0.1767908 -0.1841082 -0.19196008
000140 16 3f 2c 3f d6 cf 02 3f c0 1a 1d bf af f8 c0 3e
       0.6728376 0.5109838 -0.6136894 0.3768973
000150 12 a0 af 3e 45 f2 07 bf b9 c2 54 3e b3 32 2d be
       0.3430181 -0.5310405 0.20777406 -0.16913871
000160 d7 dc bd 3d 53 59 09 3e 09 62 a9 bb 46 64 00 bf
       0.092706375 0.1341298 -0.0051691574 -0.50153005
000170 2f 01 ab 3e ed 0b 85 be 7e 47 f4 bc b5 23 e1 be
       0.3339934 -0.2598566 -0.029819246 -0.43972555
000180 25 cd f9 3d 54 16 09 3e ab 48 ec be 63 1d 4a 3d
       0.12197331 0.13387424 -0.4614919 0.04934443
000190 f4 a3 9d bd 48 c8 d4 be eb 32 85 be 6d af 74 3e
       -0.07697287 -0.41559052 -0.2601541 0.23895045
0001a0 f8 7c a5 be 4a 6d 9c 3e f5 3c 19 3f 69 62 aa 3c
       -0.32321906 0.3055213 0.5985864 0.020798879
0001b0 67 7e ab 3e 6b 1b 62 bf 96 32 5e bf 44 77 68 be
       0.33494875 -0.88323087 -0.8679594 -0.22701746
0001c0 80 47 47 be c9 26 c7 3e a5 74 32 3f 39 09 c6 be
       -0.19460869 0.38896778 0.69709235 -0.3867891
0001d0 48 ac e7 be b3 ec c3 bb 92 cf 9f be ad 9f c5 3e
       -0.45248628 -0.0059791445 -0.3121305 0.38598385
0001e0 c8 e7 07 bf 54 a5 81 bf cf 37 26 be 01 71 4a 3e
       -0.53088045 -1.0128579 -0.16232227 0.1976967
0001f0 6b 9e 8d be 07 bb 2a bf 46 f3 07 3f 79 47 bd be
       -0.27659926 -0.6669163 0.5310558 -0.36968592
000200 c8 62 d5 be 25 2a 94 3e d7 b6 cf be 8d d0 31 bf
       -0.41676927 0.28938404 -0.40569183 -0.6945885
000210 53 2f 15 3e 09 90 16 bf e9 7f 11 3d b3 56 4c 3e
       0.14568834 -0.5881353 0.035522375 0.19954948
000220 4c 3b f6 bd bc fe 0f bf d8 9a 83 be 08 47 df 3e
       -0.12023029 -0.5624807 -0.25704074 0.4360888
000230 8e 7b 0f 3f dd 06 54 be 8e b9 dd 3d 02 bd b1 be
       0.56047904 -0.20705743 0.108264074 -0.34714514
000240 b9 1e ef be 0d f9 e2 bd 0f 75 05 be 3f 35 ed be
       -0.46703127 -0.11082659 -0.13032936 -0.46329686
000250 e2 78 26 bf 04 77 ae bb e3 38 b1 3e 57 4a e2 3d
       -0.650282 -0.0053242464 0.34613714 0.110493354
000260 3c 30 c5 be 77 de 62 bf 10 f4 20 3f 99 b2 ea be
       -0.38513362 -0.88620704 0.6287241 -0.45839384
000270 47 99 bb 3d 94 3b 0a bf ce 72 b7 3d 51 7e 39 be
       0.09160095 -0.5399716 0.08957444 -0.18114592
000280 85 ff 88 bd 5d d4 6c bf e7 f7 11 bf 7d 5f 91 bf
       -0.066893615 -0.9251154 -0.57018894 -1.1357266
000290 11 a4 4b be 84 5b b5 be 52 32 69 3e 6c 39 b7 be
       -0.19886805 -0.35421383 0.22773102 -0.35785997
0002a0 cd 68 81 3e 3a da 5a bf 3b 3e 3e be 48 f3 f9 be
       0.2527527 -0.8548924 -0.18578427 -0.4881842
0002b0 47 54 f4 3e 86 08 32 bf f3 a2 20 be 17 0b e4 be
       0.4772055 -0.69544256 -0.1568716 -0.4453971
0002c0 c3 70 39 bf 51 f1 36 be b6 2c 2c 3f ab 47 a3 3e
       -0.72437686 -0.17865492 0.67255723 0.31890616
0002d0 b0 3f ac 3e c8 b2 81 bd 6b d8 84 3e 29 4c 24 3e
       0.3364234 -0.06332928 0.25946364 0.16044678
0002e0 b7 30 26 be c2 22 54 bf 24 e9 24 3d ef fd 2d bf
       -0.1622952 -0.82865536 0.040261403 -0.67965597
0002f0 28 f9 23 bf 42 c1 45 bf af c5 e8 be aa 35 0c be
       -0.6405206 -0.77248013 -0.4546332 -0.13692346
000300 65 66 08 3f 8d fd dd 3d c5 6e 26 bf c2 c6 b9 be
       0.5328124 0.108393766 -0.6501277 -0.36284453
000310 54 e6 2f be 86 64 43 bf 05 aa e2 3d 31 79 f2 bc
       -0.17177707 -0.7632526 0.11067585 -0.029598804
000320 48 54 ca 3d f5 d4 5a bf 83 b8 8d be 2e eb 93 be
       0.098793566 -0.85481197 -0.27679834 -0.28890365
000330 47 53 90 be 82 54 8a bd 44 ef e9 be fa 2a 10 3f
       -0.28188536 -0.067544 -0.45690358 0.5631558
000340 04 10 99 3d 57 8d 27 3e 95 8b 21 be 96 21 5f 3e
       0.07473758 0.1636251 -0.15775903 0.21790156
000350 25 c1 a1 3e a3 56 09 3f 51 68 0b bf 74 06 a7 be
       0.3159267 0.5364782 -0.5445605 -0.3262211
000360 2d d9 13 3c 8f b7 0e 3e a3 22 0c bf 8a e7 cd bd
       0.009023947 0.1393721 -0.5474035 -0.10053928
000370 ba e3 4b 3e d2 81 b5 3e 1e 1f aa bd 67 da b8 3e
       0.1991109 0.35450608 -0.083067164 0.36104128
000380 b9 a3 19 bf 22 aa b6 bc 2f c5 4f bd c7 c7 fb be
       -0.60015446 -0.022297923 -0.05072516 -0.49175856
000390 ad 1f dd 3e fd 39 77 be 00 0e 93 3e b9 63 07 bf
       0.4318823 -0.24143215 0.2872162 -0.5288654
0003a0 4c 7e 31 be 7e 0a a3 bd 32 bf bb be 9c 02 27 bf
       -0.17333335 -0.079609856 -0.36669308 -0.65238357
0003b0 91 51 18 bf c4 cb 55 bf 6c d6 08 bc 2c f5 49 3c
       -0.5949946 -0.83514047 -0.008351903 0.01232652
0003c0 75 9b c7 3e 60 15 96 3e 51 f6 c6 be 29 be 11 3e
       0.38985792 0.29313183 -0.388598 0.14232697
0003d0 03 e5 02 bf 98 df 88 be f0 a9 09 bd 06 b2 55 3d
       -0.51130694 -0.26733088 -0.03360933 0.05217173
0003e0 11 04 24 be 00 43 02 bf 9f b1 d2 3d 58 34 b9 bd
       -0.16017176 -0.50883484 0.10287785 -0.09043187
0003f0 7c 89 e3 3e cc ed fa bd f7 9d f3 3e 23 91 02 bf
       0.4444083 -0.122523874 0.47581455 -0.5100271

net.0.bias f4 [128]
000000 71 20 85 bc d5 0d 24 be ae a6 22 bf 6b f1 bc bd
       -0.01625082 -0.16020902 -0.63535583 -0.09225734
000010 9d c4 df 3e 7f 54 94 be e5 63 86 be c8 8a e1 be
       0.43704692 -0.28970715 -0.26248088 -0.44051194
000020 d6 3e 8c be b7 ce 66 3e 4f 53 54 3f 2e 6c 6a 3e
       -0.2739169 0.22539793 0.8293962 0.2289283
000030 87 6f fa bd be bf 4f 3f 3e 0a 19 be 6f 95 eb be
       -0.122283034 0.8115195 -0.14945313 -0.46012446
000040 1b 6b 9e 3e f1 31 1f 3f de e1 46 3f 7a 2a 1a 3f
       0.3094109 0.6218558 0.77688396 0.60221064
000050 cd d6 2a bf 83 c2 37 3f 0c 0d 34 bf d7 3b 42 3f
       -0.6673401 0.71781176 -0.7033241 0.7587256
000060 47 2f 60 3e 12 ed f3 3e f5 e6 a2 3e 8f ea 0e 3e
       0.21893035 0.47641808 0.3181683 0.13956665
000070 b0 de db 3e 1a 1e 5e be af 72 4c 3f d4 04 65 be
       0.42943335 -0.2169117 0.79862493 -0.22365123
000080 85 a4 75 3e 9c c6 93 3e 7b 73 2a bf 1d bc 00 3e
       0.2398854 0.28862464 -0.6658246 0.1257176
000090 e7 84 a2 be c6 26 2a bf 84 13 c7 3e bf 20 cc 3d
       -0.3174202 -0.66465414 0.38882077 0.09967183
0000a0 ab a4 df bd 07 ed b5 3e e0 a2 81 be 6a 7e 00 3f
       -0.1092008 0.355324 -0.25319576 0.5019289
0000b0 98 a4 9d be 09 8a 36 3f c7 10 45 3f 78 d1 fb 3e
       -0.30789638 0.71304375 0.76978725 0.4918325
0000c0 aa a6 2c bf 23 b3 13 3f 1b e9 32 bf 08 35 9b 3d
       -0.6744181 0.57695216 -0.6988694 0.07578474
0000d0 f7 d2 57 3e da 3d 0e bf fd 5e 06 3f 79 4e e6 be
       0.2107657 -0.5556313 0.5248869 -0.44981745
0000e0 6f 90 77 be 11 bc d7 3d 64 7c f5 3e c7 bd 07 3f
       -0.24176191 0.10533918 0.47946465 0.5302395
0000f0 ce 2d 52 3e b1 27 09 bf ec 33 85 3e c1 b2 7c 3b
       0.20525286 -0.5357619 0.26016176 0.0038558694
000100 f0 ee 10 bf 55 7b 32 3d 8a 22 29 bf 2a 8c e5 be
       -0.5661459 0.04357465 -0.6606833 -0.448335
000110 88 c4 e3 be 57 e6 08 bf 19 af 39 be 01 5c 4e 3f
       -0.4448588 -0.5347647 -0.181332 0.80609137
000120 2d f2 d9 3d eb 1c 31 bf a0 0e b0 be 59 e5 d6 be
       0.106418945 -0.6918475 -0.34386158 -0.41971853
000130 c7 fe 1c 3f 44 a1 91 be 6f b2 1c bd 5e c7 b9 3e
       0.6132626 -0.28443348 -0.038256105 0.36284918
000140 aa 73 3e 3e 40 52 09 be b9 c5 b5 be 1b b6 72 3e
       0.1859881 -0.13410282 -0.35502413 0.2370228
000150 80 97 04 3f ec 51 1c 3f 85 98 1c 3f 25 d2 3d 3f
       0.5179367 0.610625 0.61170226 0.7414878
000160 d0 b0 16 3f e9 a0 5d 3d a6 93 f5 3c d8 bb c7 3e
       0.58863544 0.054108534 0.02997763 0.390105
000170 e4 35 40 3f 3e 62 3d 3f ad c3 02 3f e5 4f 75 be
       0.7508223 0.7397803 0.5107983 -0.23956259
000180 6c 32 13 bf f2 55 0a bf 12 32 3d 3f 94 a1 f1 be
       -0.5749881 -0.5403739 0.73904526 -0.47193587
000190 f2 48 3d 3f 31 b8 f2 be e6 9f 00 3f ed 21 7a be
       0.7393943 -0.47406152 0.50243986 -0.24427004
0001a0 bd db ad 3e a1 94 0c bf 78 b0 13 bd 3f b0 27 3f
       0.3395671 -0.5491429 -0.036056966 0.65503305
0001b0 5f 20 4c 3e 6b 5e 1d bf 34 e5 0e 3f f4 c1 4e 3e
       0.19934224 -0.61472195 0.55818486 0.20191175
0001c0 47 71 3e 3f 42 bb 00 3f 18 65 d1 3e f1 3e 20 bf
       0.743916 0.5028573 0.4089744 -0.6259604
0001d0 22 be 59 be 4d 45 c9 3e 5a c1 9d be 41 85 ad be
       -0.21263936 0.39310685 -0.30811578 -0.33890727
0001e0 5d da d9 be ba 0f 17 3f c2 11 14 bf 82 e9 ba be
       -0.4254941 0.5900837 -0.57839596 -0.36506277
0001f0 f1 ec 0a 3f 50 73 ca 3e 25 cf fc 3e 3d 69 ea 3e
       0.54267794 0.395411 0.4937679 0.45783415

net.2.weight f4 [128, 128]
000000 3f 3b 10 3e e1 6d 99 bd 7b 5d d5 3c b3 10 5a 3d
       0.140851 -0.07491661 0.026045552 0.053238582
000010 4a 1f 76 3d 61 a0 42 bc 10 ff 16 bd 1c db 60 bd
       0.060088433 -0.011879058 -0.03686434 -0.05489646
000020 3f 3f 0d bf 94 3a 32 3e 4a 18 eb 3d e8 19 3c 3e
       -0.5517463 0.17405158 0.11479242 0.18369257
000030 c0 42 bd be da 0f e5 3d 2e e0 f7 be d7 2c 23 bd
       -0.3696499 0.11184664 -0.48413223 -0.039837684
000040 09 0f 9c 3d 3a 11 5e 3e 7b b4 7d 3e 16 24 ec 3d
       0.07620055 0.21686259 0.24775879 0.1153032
000050 49 68 03 3d 75 7b 78 3d a1 d5 a5 3b f2 cb 38 3e
       0.032081876 0.060664613 0.005060867 0.18046549
000060 e8 e6 1b 3e 66 07 d8 3d a6 fc 3b 3e b3 0b 98 3d
       0.15224802 0.10548286 0.18358096 0.074241064
000070 3e c9 2e 3e 07 40 93 bd 8d c0 13 3e 44 04 82 bd
       0.17068955 -0.071899466 0.14428921 -0.0634847
000080 4a 15 4c 3e fe 89 5f 3d 7b 92 4a bd 12 58 8c 3d
       0.19929996 0.05457496 -0.0494561 0.068527356
000090 1f fa 34 bc dd bc 78 3d 44 8e 16 3e 32 f7 51 3d
       -0.011045962 0.06072699 0.14702708 0.051261134
0000a0 e0 0b 1a 3c 2e b8 4d 3e 10 25 1f bd 2b ed 2f 3e
       0.009402245 0.2008979 -0.038853705 0.17180316
0000b0 31 0d 57 3d 54 a1 4f 3e e3 69 21 3e fd 17 0e 3e
       0.052502815 0.20276386 0.15763049 0.13876338
0000c0 6e 57 15 bd 83 b0 21 3e 9a da 4f bd 36 b0 74 3d
       -0.036460333 0.1578999 -0.050745584 0.05973836
0000d0 45 42 2b 3e 6f 9a c6 bc 55 9c 32 3e 5f 62 13 bf
       0.16724499 -0.024243562 0.17442448 -0.5757198
0000e0 6d 1c dd bb 85 05 33 3f 6f 0c 88 3d d6 db 9b 3d
       -0.0067477734 0.699303 0.066429965 0.0761029
0000f0 e4 1d 2f 3e d2 09 b3 3c 46 61 bb 3d 09 45 a2 3d
       0.17101246 0.021855269 0.09149413 0.07923324
000100 ee e1 16 3d f8 47 5f 3d dd 73 2d bd fc 03 7f 3c
       0.036836557 0.054511994 -0.042346824 0.015564915
000110 4f de 65 bc d5 c3 05 bd 6a 45 01 3d fa b0 0a 3e
       -0.014030053 -0.032657463 0.03156034 0.13544074
000120 ee fa 1c 3e 24 db 08 3d dc c6 db be 5d 71 62 3d
       0.15330097 0.033412114 -0.42925155 0.055283893
000130 87 4c ab 3d b2 b7 3f bd 08 bc 81 bd ef d2 30 3e
       0.08364206 -0.046806045 -0.06334692 0.17267965
000140 0b d9 ff 3d 4a 19 a0 3d f6 0c 4c 3d 21 f5 54 3d
       0.124925695 0.078173235 0.049817048 0.051991586
000150 b8 c0 f4 3d 6d 54 42 3e 89 f4 62 3e f7 0d 14 3e
       0.11950821 0.18977518 0.22163595 0.14458452
000160 34 81 2b 3e 9d ee 8d 3d 90 0e f2 3d cc ed 10 3e
       0.16748506 0.069302775 0.11819184 0.14153212
000170 e3 58 58 3e 3f dd 36 3e 7d ce da 3d aa f6 04 bf
       0.21127658 0.17857836 0.10683916 -0.5193888
000180 9b 98 30 3c 31 54 8a 3e a2 47 bb 3d b4 6d 67 bd
       0.0107785715 0.27017358 0.09144522 -0.056501105
000190 e5 99 69 3e 0b 9e 2e bd 23 11 eb 3d bb a5 fa be
       0.22812612 -0.04263119 0.11477878 -0.48954567
0001a0 50 db 4a 3e 16 67 97 bc 8b 24 6d 3d 18 74 bc 3d
       0.19810224 -0.018481772 0.05789618 0.092018306
0001b0 c8 1f cc 3d 85 fa 3a 3d c9 4a 30 3e 09 78 21 3e
       0.09966999 0.04564907 0.17216028 0.15768446
0001c0 0b 3c 58 3d d8 e4 43 3e a0 85 4f 3e 54 84 a1 bd
       0.052791636 0.19130266 0.20265818 -0.07886568
0001d0 4e 02 2e bc 21 c3 ff 3d 9d 99 07 bf 42 73 b2 bd
       -0.010620667 0.1248839 -0.5296877 -0.0871339
0001e0 d1 c1 ae 3d 16 af 59 3e 9c 7d 05 3d dc e9 8a bd
       0.08533061 0.21258196 0.032590494 -0.067828864
0001f0 99 f8 2f 3e 14 67 b1 3d 89 88 4e 3e 23 0f 66 3e
       0.17184676 0.08662239 0.20169272 0.22466712
000200 ce 36 8a 3d f1 e6 36 bd 85 94 88 bd 76 0f 3f 3d
       0.067487344 -0.044653837 -0.06668953 0.046645604
000210 f5 8d 58 3d 76 aa da ba 6f 0d 40 3d eb 7f 95 3d
       0.052869756 -0.0016682881 0.04688781 0.07299789
000220 38 20 a8 bd de 77 c3 3c 20 c1 6c 3c 20 59 1a 3c
       -0.0820927 0.023860868 0.014450341 0.009420663
000230 38 4b 90 3d 9b 43 09 3d f4 3f 9b 3d 61 6d 48 bd
       0.07045597 0.03351174 0.075805575 -0.048932437
000240 c3 25 31 3b e3 fd c3 bc 75 9b 02 bc 52 05 66 3d
       0.0027030564 -0.023924774 -0.007971634 0.056157418
000250 81 ba a3 bd 68 a6 ac bd d6 a4 15 bc 77 8c 92 bd
       -0.07994557 -0.08430177 -0.009133538 -0.07155698
000260 0a 0e 05 3a 23 40 50 3b 3c 38 be bc 90 93 03 3b
       0.00050756393 0.003177651 -0.023220174 0.0020076968
000270 8f 89 17 bc 06 0a a6 3c 40 42 3d 3a e0 b5 6f 3d
       -0.009249105 0.020268451 0.000721965 0.05852306
000280 6f e8 a6 3d 2c 01 f8 bb 9c 9b a5 bd a3 ca 2b 3c
       0.08149802 -0.007568499 -0.08086321 0.010485324
000290 0f 7a a1 3d 3b c8 6e 3d 36 19 37 bd 86 bc f6 3c
       0.07884609 0.058296423 -0.044701777 0.030119192
0002a0 31 cf 96 bd 6e 87 14 3c ab f0 9b 3d 9f 97 a3 3d
       -0.073637374 0.009065492 0.07614263 0.07987904
0002b0 bd 81 93 bd 6a b2 5a 3b e4 bd 86 bd a0 94 a4 bd
       -0.0720248 0.0033370503 -0.065791875 -0.080361605
0002c0 6d 2b 5e ba e3 d3 6c bd 25 24 73 3d 3c 87 8b 3b
       -0.0008475099 -0.05781926 0.059360642 0.0042580646
0002d0 37 5b 44 3d 62 34 41 bd d4 29 d3 bc 67 b9 96 3c
       0.04793855 -0.047169097 -0.025776781 0.018398954
0002e0 ad 84 8b 3d bc c9 89 bd 9b 42 19 bd ec ff 1d ba
       0.06812415 -0.06727931 -0.037417036 -0.000602721
0002f0 ef c4 e2 3b 98 a3 3e 3d d5 2e af bc 77 f7 87 bd
       0.006920449 0.046542734 -0.021384636 -0.06638997
000300 05 53 a6 bd ba 78 92 3d 8d fc ac 3c 33 94 75 bd
       -0.081213035 0.07151933 0.02111652 -0.059955787
000310 83 b3 7b 3d 95 21 a1 bd 40 60 12 bd c8 b0 9c bd
       0.061450493 -0.078677334 -0.035736322 -0.07650906
000320 f9 58 72 3c 03 a4 53 bd f6 95 6c 3d 9a 89 9f bd
       0.014791721 -0.051670086 0.0577602 -0.07789917
000330 4e 44 99 3d 4a e1 ad bd cc 2b bd bc d3 db 78 bd
       0.07483731 -0.08490236 -0.023092173 -0.060756516
000340 14 b0 ac bd 1a 9c 55 ba 2e fe 68 bd 04 38 78 3d
       -0.08432022 -0.0008148566 -0.05688303 0.060600296
000350 cd 07 80 bd 13 e9 38 bd 70 42 a7 bd 29 be b0 bd
       -0.06251488 -0.045144152 -0.08166969 -0.0863002
000360 f2 4e af bd c3 ad 8c bd e9 94 3e bd 13 ec 33 3d
       -0.085599795 -0.0686908 -0.04652873 0.04392631
000370 36 42 95 3d bd 6c c2 bc e4 05 8f 3d 58 c8 8f bd
       0.07288019 -0.023733491 0.069835454 -0.070206344
000380 a3 85 47 3c 41 e1 57 3d c4 06 d6 bc 38 f6 39 bd
       0.012177858 0.052705053 -0.026126273 -0.045400828
000390 86 14 03 3d 03 d9 cb bb 13 dd 02 3d d4 66 1a bd
       0.032001995 -0.006220938 0.031949114 -0.03769572
0003a0 c8 92 a6 bd 76 01 89 3d a4 50 1c bd 5c 61 63 bd
       -0.08133465 0.06689732 -0.038162842 -0.05551277
0003b0 1f 72 98 bd 98 8c 81 3d 55 8b af bc a0 0a 82 bd
       -0.07443642 0.06325644 -0.021428743 -0.06349683
0003c0 06 5c a0 3d fa e6 57 3d fd 24 83 3c 5d 33 6a bd
       0.07830052 0.05271051 0.016008848 -0.05717789
0003d0 ba a1 80 3d 92 f2 e5 3c f5 ea c6 3c 16 ce 09 bd
       0.06280847 0.028069768 0.024281958 -0.033643804
0003e0 8b fc 9f bd 0f bc e1 bc 38 a9 07 bd e3 5d 2f 3d
       -0.078118406 -0.027555494 -0.033120364 0.042814147
0003f0 85 39 df 3c 84 67 97 bd 49 7d 92 bd a8 f8 a9 bc
       0.027249107 -0.07392791 -0.071528025 -0.020748451

net.2.bias f4 [128]
000000 1a 2c e3 3d 51 00 4f bd 01 d8 ef 3c ff 31 b7 bc
       0.11092396 -0.05053741 0.029277803 -0.022362707
000010 01 b3 38 3e 77 bd 22 3d 21 8b bf 3d e1 b2 82 ba
       0.18037035 0.03973147 0.093527086 -0.0009971523
000020 98 73 eb bc fa 88 55 3e 92 5b eb 3c f5 a7 4e 3e
       -0.028741643 0.20853034 0.028730188 0.20181258
000030 46 7f a7 bb 7e 76 f6 3c bf d0 34 bd 96 fe ea 3d
       -0.0051116077 0.030085798 -0.04414439 0.1147434
000040 6f b2 87 bc 87 61 e1 bb 4a cf b9 3d c0 cd 9c 3d
       -0.016564576 -0.0068780812 0.090727404 0.07656431
000050 e0 1b 9a bd 35 26 4a bd 07 80 2f 3e 23 70 60 bb
       -0.07524848 -0.049352843 0.17138682 -0.0034246526
000060 b0 6b 69 3e d4 fa 6d bb 97 0f 89 bd c6 0d 51 3d
       0.22794986 -0.0036312835 -0.06692427 0.051038526
000070 e5 db f7 bc 7a 46 45 3e e6 af 6f b9 1e 23 50 3e
       -0.030256221 0.19265166 -0.00022858343 0.20325896
000080 d9 51 46 bd b7 23 a9 3d a8 06 6f 3e 3a 96 60 3e
       -0.0484179 0.08258765 0.23342383 0.21932307
000090 08 8c c7 3c 1f 96 b3 bd 58 93 7c bd 4f 8c fc 3b
       0.024358764 -0.08768868 -0.061663955 0.007707156
0000a0 7b e0 1a bd 81 5b 22 bd 94 b9 80 bd 32 2f 89 3d
       -0.037811738 -0.039638046 -0.06285396 0.06698455
0000b0 b9 64 cc 3d c1 fb ea bb aa d5 a5 3d c8 c4 29 3d
       0.09980149 -0.0071711247 0.08097394 0.04144743
0000c0 2b 28 03 3e 52 68 b2 bd d3 6c 7b 3d a0 e5 a2 bd
       0.12808292 -0.08711304 0.06138308 -0.07953954
0000d0 51 3c 89 bd 67 0a b8 bd 24 53 59 bd 43 d8 9d bd
       -0.067009576 -0.08986359 -0.053057805 -0.07707264
0000e0 26 84 75 3e 7a b3 a8 bc 79 33 61 3e c6 56 98 3c
       0.23976192 -0.020593394 0.21992292 0.018596064
0000f0 fb 7c 35 bd 5e 3a de 3d 0a 18 18 bc e2 7c 5b bd
       -0.044308644 0.108509764 -0.009283075 -0.053585894
000100 94 74 8c bc da 85 87 3c e4 90 76 bd 72 43 a3 3d
       -0.017145433 0.016543318 -0.060196772 0.079718485
000110 75 d4 66 3d a7 0f 92 bd 68 6a c2 bd 32 94 aa 3d
       0.05635496 -0.07131892 -0.09492952 0.08329047
000120 64 ff e4 3d be bd 0e bd b1 15 8f bd de 1f a7 bd
       0.111815244 -0.03484892 -0.06986559 -0.08160375
000130 5e 00 88 3d a9 5e 13 bd 1b e8 81 3d eb 9d b9 bb
       0.06640695 -0.035978947 0.06343099 -0.0056645772
000140 3d 62 69 3d b7 3d 31 bd 30 ce 22 3e 0f 67 b3 bd
       0.056978453 -0.043271746 0.15898967 -0.08759891
000150 f2 77 a9 bd 11 da 36 3e 36 16 3e 3d 08 44 8e 3d
       -0.08274831 0.17856623 0.0464079 0.0694657
000160 74 4f 8c bd 7c 25 68 3d 77 63 41 3e 44 ed eb bc
       -0.06851092 0.056676373 0.18885599 -0.02879966
000170 64 d2 83 3d 73 48 c4 3d 92 f7 17 3e 19 12 5b 3c
       0.06436613 0.09584131 0.14840534 0.013371014
000180 d3 54 42 3e b1 68 33 3d d8 6f 07 bd b1 f9 63 bd
       0.1897767 0.043801013 -0.033065647 -0.055658046
000190 d7 9d 77 3e e3 7c 25 3e b1 cd 37 bd b7 16 10 3d
       0.24181305 0.16160922 -0.044873897 0.035177913
0001a0 c1 ca 5f bd 27 a7 5c bd 22 6e 02 3e b6 0a 28 3a
       -0.05463672 -0.053870346 0.12737325 0.00064102875
0001b0 e9 d1 dd bc 8d 9e 4a 3d 0f ff 6f bd d2 d3 93 3d
       -0.027077632 0.049467612 -0.058592852 0.07218136
0001c0 32 1d 22 3d f9 8c 3b bd bf 46 ab 3d 6f 99 35 3e
       0.039578624 -0.04578874 0.08363103 0.17734312
0001d0 e9 4b 4d bd d5 8a 4b bc 29 c9 5f 3e b7 af 3a 3e
       -0.05012122 -0.012423237 0.2185408 0.18231092
0001e0 91 16 b4 3b 45 d4 44 3e 76 c9 2c 3c c0 c6 9c 3d
       0.005495854 0.192216 0.010546079 0.07655096
0001f0 e0 78 77 3c b4 e3 04 3c de fa 33 3e a9 7a c8 bc
       0.015104502 0.008110929 0.17576167 -0.024472551
