Mountaincart/checkpoints/last_model.pth (torch, 313525 bytes, 24 tensors)

net.0.weight f4 [128, 2]
0.08074621 -5.983355 0.706549 0.19325392 0.29010898 0.3547677 -0.4193823 -9.771737
0.3479261 -3.3371925 0.68202823 -1.098469 -0.3695919 -4.353675 0.13279857 0.11227263
0.13042696 0.39104208 0.13502392 -0.05153801 0.64678496 -2.7618892 -0.12809479 -3.3803194
0.05300691 0.23896141 -0.4637186 -3.4465961 -0.34318602 0.47277787 0.2687787 -0.634977
-0.48714063 -3.6264641 1.0000505 -1.1497267 -0.35904154 -4.3547907 -0.31434947 -5.1786523
-0.43570286 -0.49699455 -0.005736912 -3.2745802 0.52405524 -0.23699704 0.45594868 -1.5211862
-0.04581927 -0.41847438 -0.2836192 0.30253175 -0.20854758 6.4021816 0.61277246 -2.723878
-0.21374956 -2.9102383 -0.36788818 -2.7822325 -0.11609599 -3.5327117 0.4136933 -3.4316254
-0.15755343 -0.5752144 0.15870936 -3.6595044 -0.48567948 5.073595 0.56066304 -3.2503572
0.1671735 -10.390339 -0.44994664 -5.4775987 0.7844645 -2.051972 -0.13634123 8.212613
-0.24506819 -5.4486265 0.7478464 -1.4709079 -0.30009446 -3.8890269 0.047698017 -3.3591814
0.53559846 0.30609316 -0.078515865 0.4708526 0.82562214 0.33049145 -0.07520692 -0.50312996
0.19109912 -0.45658734 -0.32202289 -4.7960753 0.29868728 -0.20952572 -0.20174024 -2.553693
-0.21273865 -4.6904707 -0.054668505 -9.6914215 0.17802171 -0.65438914 -0.124770455 -3.6139212
0.44939268 -1.7261955 -0.34277895 -11.005738 -0.2511983 7.7573743 1.4807438 14.974951
1.4830984 1.0373528 -0.13827503 -3.3459694 -0.4166578 -4.842519 -0.33232486 0.4422161
-0.6428085 3.4106808 -0.08225944 -0.14908613 0.2808156 0.121187195 -0.13191381 -0.5536381
0.52134854 -1.9912138 0.01751405 -4.5097585 -0.41194433 -4.7748075 -0.16863231 0.32199138
0.5675618 12.5751505 0.23468006 -0.60297835 0.2689823 -2.2316608 -0.23134065 -3.098751
0.46365243 -2.033336 -0.61929893 2.0087268 0.32874432 -2.596626 -0.01280309 -6.061629
0.08715427 -3.317092 -0.025302382 -3.4623327 -0.2249892 -8.367771 0.06788478 -0.2703766
0.24128082 -5.544889 0.24888901 -2.4068918 0.21522397 -3.052446 0.22975262 -6.1031213
-0.14387208 4.7763424 0.3382176 -0.38887826 0.5487558 2.2320595 -0.22727358 -3.717913
-0.040520906 0.23148979 0.28279567 0.44630265 -0.7207764 -14.830236 0.50968385 -0.90574485
-0.64787275 -0.7695112 -0.028993212 -3.281561 -0.28413737 -5.641494 -0.32434773 -3.5787842
-0.29717454 6.0183196 0.3213976 0.3899025 1.1518397 -4.447453 0.28346738 -0.6153965
0.110950574 -2.706096 0.51444393 0.5077845 -0.55903745 -1.9710221 0.96745133 -4.682885
0.34400633 -2.319914 -0.84643304 -7.0704036 -0.22203894 -12.481845 0.08891687 0.39089677
-0.21548161 -5.0389485 0.4947428 0.546986 0.19907491 0.23287381 0.55123395 -2.096315
0.2728339 0.09265993 0.12664393 -3.697944 0.60144824 -2.5126579 0.14106318 -3.317415
-0.26522264 -5.409976 0.47984904 -2.498388 -0.26730028 -3.7950249 -0.37780544 -4.193727
0.06617999 -0.50826705 0.67972606 -5.3522024 0.21764539 0.67661345 0.11628206 -0.27457684
00000000: 455e a53d a577 bfc0 65e0 343f 5be4 453e
00000010: 2a89 943e 1da4 b53e 47b9 d6be 0959 1cc1
00000020: 5f23 b23e 9094 55c0 6799 2e3f a29a 8cbf
00000030: 263b bdbe 4e51 8bc0 59fc 073e 31ef e53d
00000040: a58e 053e ab36 c83e b643 0a3e 8519 53bd
00000050: b393 253f cbc2 30c0 482b 03be 2757 58c0
00000060: c61d 593d 4db2 743e 866c edbe 0895 5cc0
00000070: 14b6 afbe f10f f23e 5d9d 893e da8d 22bf
00000080: 7f6a f9be fd17 68c0 a801 803f 3f2a 93bf
00000090: 4bd4 b7be 725a 8bc0 6af2 a0be 85b7 a5c0
000000a0: 7214 dfbe 1276 febe b5fc bbbb b992 51c0
000000b0: 7c28 063f 5aaf 72be 1b72 e93e 3bb6 c2bf
000000c0: fdac 3bbd 4642 d6be 8936 91be 71e5 9a3e
000000d0: 7f8d 55be acde cc40 a8de 1c3f 0454 2ec0
000000e0: 2ae1 5abe 5841 3ac0 d75b bcbe 1910 32c0
000000f0: bcc3 edbd f317 62c0 9ccf d33e c09f 5bc0
00000100: b055 21be 4041 13bf b584 223e 5235 6ac0
00000110: fbaa f8be e45a a240 9d87 0f3f da05 50c0
00000120: 882f 2b3e d43e 26c1 685f e6be 7d48 afc0
00000130: aad2 483f 8253 03c0 099d 0bbe dd66 0341
00000140: 28f3 7abe 265b aec0 dd72 3f3f b646 bcbf
00000150: fba5 99be d1e5 78c0 ff5e 433d d4fc 56c0
00000160: fb1c 093f 3eb8 9c3e edcc a0bd 9813 f13e
00000170: f95b 533f 2d36 a93e 1606 9abd 20cd 00bf
00000180: 7daf 433e d1c5 e9be 2fe0 a4be 7379 99c0
00000190: 8aed 983e e98d 56be fe94 4ebe b56f 23c0
000001a0: 29d8 59be 5618 96c0 15ec 5fbd 1010 1bc1
000001b0: 534b 363e 0c86 27bf a787 ffbd 7c4a 67c0
000001c0: cc16 e63e f9f3 dcbf b980 afbe 8117 30c1
000001d0: 109d 80be 693c f840 0389 bd3f 6699 6f41
000001e0: 2bd6 bd3f fac7 843f f897 0dbe 5d24 56c0
000001f0: 2c54 d5be eaf5 9ac0 7c26 aabe 266a e23e
00000200: 198f 24bf 9848 5a40 a377 a8bd 09aa 18be
00000210: 10c7 8f3e fe30 f83d 6a14 07be 3abb 0dbf
00000220: 1977 053f 18e0 febf a079 8f3c f14f 90c0
00000230: 5eea d2be 39cb 98c0 f3ad 2cbe 0edc a43e
00000240: bb4b 113f d133 4941 f84f 703e ca5c 1abf
00000250: 0cb8 893e 88d3 0ec0 90e4 6cbe f051 46c0
00000260: da63 ed3e 2d22 02c0 608a 1ebf fb8e 0040
00000270: 2d51 a83e 1f2f 26c0 0dc4 51bc ddf8 c1c0
00000280: f07d b23d 3c4b 54c0 f146 cfbc dc96 5dc0
00000290: 9263 66be 64e2 05c1 2d07 8b3d cd6e 8abe
000002a0: 5212 773e bb6f b1c0 c3dc 7e3e 840a 1ac0
000002b0: ac63 5c3e 465b 43c0 4544 6b3e c54c c3c0
000002c0: 3453 13be ccd7 9840 db2a ad3e 0d1b c7be
000002d0: 437b 0c3f 10da 0e40 68ba 68be 49f2 6dc0
000002e0: 40f9 25bd a90b 6d3e 98ca 903e c881 e43e
000002f0: cd84 38bf a648 6dc1 a47a 023f e5de 67bf
00000300: fdda 25bf b0fe 44bf 2c83 edbc 1805 52c0
00000310: 747a 91be 1e87 b4c0 e810 a6be cd0a 65c0
00000320: 4327 98be 1396 c040 3a8e a43e 4da1 c73e
00000330: 7c6f 933f 8951 8ec0 a322 913e a08a 1dbf
00000340: 0e3a e33d ad30 2dc0 99b2 033f 2afe 013f
00000350: 141d 0fbf 744a fcbf e4aa 773f 32da 95c0
00000360: 9921 b03e 7979 14c0 d6af 58bf bf40 e2c0
00000370: 2d5e 63be a3b5 47c1 0c1a b63d 9f23 c83e
00000380: 36a7 5cbe 113f a1c0 ee4e fd3e 4607 0c3f
00000390: 4bda 4b3e 7976 6e3e ab1d 0d3f 062a 06c0
000003a0: e3b0 8b3e 7dc4 bd3d f2ae 013e 1dab 6cc0
000003b0: 83f8 193f 63cf 20c0 de72 103e 8750 54c0
000003c0: 43cb 87be 861e adc0 c6ae f53e 97e5 1fc0
000003d0: 95db 88be b0e1 72c0 b76f c1be 0333 86c0
000003e0: 6089 873d ca1d 02bf 8702 2e3f 3e45 abc0
000003f0: 6fde 5e3e 8a36 2d3f 4a25 ee3d 5695 8cbe

net.0.bias f4 [128]
-0.05310293 -0.5085995 -0.19522876 -0.28865054 0.32799596 0.63900316 0.24000043 -0.5710038
-0.1918978 -0.66087824 0.66293603 0.22069968 -0.69991356 -0.3358857 -0.46370518 -0.3472462
-0.8029422 0.5001845 0.20825279 0.1693803 -0.5672115 0.23301119 -0.36390245 0.4050544
-0.3995458 -0.5958894 -0.3348841 0.3518431 0.36416972 0.42036793 0.27453476 0.7520477
-0.52347255 0.6929994 -0.47159794 0.2843683 -0.0007271772 0.31829485 0.54665196 -0.36870557
0.16711617 0.45529905 0.5588712 0.32168686 -0.5779265 -0.16066581 0.4614853 -0.7017911
-0.25126213 0.16702783 -0.3570295 0.5003718 0.15557209 0.2674501 -0.67222816 0.6079291
0.31582078 -0.3588759 -0.46027446 0.6760425 0.8500493 0.6035182 0.2750844 -0.46375853
-0.55289465 -0.6824023 -0.2887193 -0.33467227 0.7205765 0.21203426 0.2665351 -0.43618432
-0.2735013 -0.53778166 0.5396543 0.27452424 0.5734484 -0.50716126 0.4344987 0.0513776
0.56101364 0.2052397 -0.3645427 -0.04479511 0.32565996 0.4027688 0.717607 0.36837298
0.27171054 -0.22758143 0.38840514 0.62509227 -0.64474404 -0.47660643 0.13208264 0.44915456
-0.29832858 0.35098764 0.17939745 0.45276952 -0.3728703 -0.6889906 0.24454404 -0.48267582
0.30968598 -0.5314114 -0.46280563 0.44881785 0.7065217 -0.18578447 0.08771147 -0.07159123
-0.093212925 -0.5838495 -0.16536358 0.49133438 -0.6935293 0.3282904 0.61386025 0.26618192
0.17955448 0.51046205 0.20609275 0.26209396 -0.371907 0.35614318 -0.2908131 -0.60533315
00000000: 7582 59bd 9433 02bf 0cea 47be 01ca 93be
00000010: 16ef a73e b695 233f acc2 753e 4e2d 12bf
00000020: db80 44be 512f 29bf 2db6 293f 19ff 613e
00000030: 892d 33bf 36f9 abbe c46a edbe 41ca b1be
00000040: 9f8d 4dbf 170c 003f 3840 553e 0872 2d3e
00000050: c634 11bf 7c9a 6e3e 6c51 babe 4a63 cf3e
00000060: 4491 ccbe 358c 18bf ee75 abbe c724 b43e
00000070: 7474 ba3e 773a d73e d28f 8c3e 3386 403f
00000080: 4c02 06bf 6968 313f 4975 f1be b998 913e
00000090: 09a0 3eba 8bf7 a23e 62f1 0b3f fac6 bcbe
000000a0: 8020 2b3e f51c e93e 2f12 0f3f 24b4 a43e
000000b0: fef2 13bf 9485 24be cd47 ec3e 95a8 33bf
000000c0: 6ea5 80be 5809 2b3e 92cc b6be 5e18 003f
000000d0: 4a4e 1f3e 38ef 883e 2517 2cbf 3ea1 1b3f
000000e0: 43b3 a13e 95be b7be 18a9 ebbe 1f11 2d3f
000000f0: d59c 593f 2b80 1a3f ddd7 8c3e c271 edbe
00000100: 818a 0dbf ebb1 2ebf 04d3 93be 2a5a abbe
00000110: b477 383f 821f 593e 4a77 883e 8d53 dfbe
00000120: 5d08 8cbe 0fac 09bf c926 0a3f 718e 8c3e
00000130: 84cd 123f 52d5 01bf 9d76 de3e 5171 523d
00000140: 979e 0f3f 5b2a 523e 57a5 babe 147b 37bd
00000150: e7bc a63e b637 ce3e 18b5 373f 629b bc3e
00000160: a51d 8b3e 1b0b 69be 0add c63e 0c06 203f
00000170: f20d 25bf c205 f4be ac40 073e 96f7 e53e
00000180: 86be 98be a7b4 b33e f7b3 373e 68d1 e73e
00000190: dbe8 bebe b061 30bf c169 7a3e 4921 f7be
000001a0: 298f 9e3e 940a 08bf dcf4 ecbe 74cb e53e
000001b0: 9bde 343f 493e 3ebe 12a2 b33d 6c9e 92bd
000001c0: 6be6 bebd 2977 15bf 1255 29be 2e90 fb3e
000001d0: 238b 31bf ae15 a83e f225 1d3f ff48 883e
000001e0: 21dd 373e a4ad 023f fa09 533e 2e31 863e
000001f0: 986a bebe 6658 b63e 74e5 94be 1df7 1abf

net.2.weight f4 [128, 128]
0.03269292 -0.035293907 -0.052778654 0.0042281505 -0.0106330495 -0.08388088 -0.054514702 -0.058314875
-0.08601578 0.07667899 -0.046414323 -0.052697532 -0.042761423 0.08590287 0.036716815 -0.0015743744
-0.021160204 -0.028365524 -0.08454257 -0.018299319 -0.078399934 -0.051194914 -0.051527135 -0.06845309
-0.02391135 0.031982712 -0.06417962 -0.07845958 0.040622763 -0.06977817 -0.04232474 -0.08357427
0.012911086 0.04882593 0.08789243 -0.04656212 0.0837044 0.07544383 0.0341221 0.02137919
0.0052933493 0.012011694 0.075784035 -0.047777805 -0.059408132 -0.022371199 0.07198224 -0.07566976
0.038707245 -0.009645675 -0.078629136 -0.05996011 0.006149931 -0.029822014 0.06117007 -0.039079968
0.02638792 -0.058071267 0.03408915 -0.020839393 -0.051142618 0.0780391 0.08623407 0.0007818346
0.024447037 0.02981053 0.0025217617 0.02869211 -0.07970894 -0.01042908 -0.030925745 0.030401954
0.08478602 0.015440646 -0.087135166 -0.03108937 0.068468966 -0.025553718 -0.03250804 -0.032461744
-0.078028195 -0.058127627 -0.013921304 0.03982993 -0.07818827 0.0268903 -0.024930123 -0.030098708
0.042158954 0.07446173 0.040283673 0.041447535 -0.02948446 -0.085685946 0.034187227 -0.03957762
-0.054875355 -0.0654806 0.075297914 -0.031446334 -0.056085803 0.04634464 -0.01924741 0.01575309
0.026260974 -0.075730994 0.023225442 -0.07913553 -0.057860184 0.021641595 0.012685896 -0.085508496
0.038146734 -0.06821293 0.049111046 -0.0072988016 0.052829158 -0.044889186 -0.05410823 0.0029510274
-0.005449419 0.086760215 -0.053387094 0.024924254 -0.059342507 -0.031963557 0.087106355 -0.021565732
-3.8957858 -0.07286745 0.046175644 0.7978781 0.07013501 0.3213453 0.12661727 -0.035876818
0.07088341 -0.03981518 0.33983853 -0.0024684134 0.0802206 -6.9878783 0.023916176 -0.044903956
0.32545465 0.21348229 -0.03767838 0.057882823 0.26290086 -0.18255109 0.08250876 0.33290207
-0.01846111 0.02999293 -14.486721 0.075749 0.10452042 0.14040965 0.14038906 0.09723647
0.034899183 0.10349635 -6.642563 1.7547067 1.6064198 0.022636224 -0.8241282 -19.799252
-0.17474668 0.25421983 0.082024015 0.16772602 0.0055753854 0.06817949 -0.7939123 -0.07621898
0.036717206 0.03315514 0.036233634 0.13054489 0.17765245 -0.94744426 0.018385604 0.031470332
0.32123104 -0.42977768 -14.72457 -0.03444456 0.75121474 0.1734779 0.15346943 -0.03042504
-3.196637 0.040455546 -0.07765524 -0.083105 0.103627704 -0.5001887 0.071433105 -0.04129548
-14.381904 -0.081032015 0.16531958 0.14770688 0.0373251 -8.991884 0.24928385 2.3651671
0.20889325 0.06700869 0.13811955 0.039868537 -1.0870588 -0.005855054 0.20165773 -0.71158314
-0.3453184 0.044440206 -0.6175574 0.06216822 -0.0076385154 0.054305803 -1.7060611 0.27308813
-2.3722498 0.14425601 0.11595656 0.14555255 -10.108021 -0.004301855 -2.3168194 0.001038572
0.10225271 0.065981776 -7.8938394 0.5588222 0.03499398 -1.1700386 0.7204135 -0.06123957
-2.774084 0.08598646 0.08769918 0.09827952 0.078570955 0.1137673 0.32928202 0.07433062
-0.06507459 0.38581967 0.08247584 0.19175869 -0.02857121 -1.7378647 -0.06315008 -0.025692824
00000000: 03e9 053d 5890 10bd 6e2e 58bd 4c8c 8a3b
00000010: 3e36 2ebc bdc9 abbd cf4a 5fbd 94db 6ebd
00000020: 0b29 b0bd e009 9d3d f21c 3ebd 5ed9 57bd
00000030: 9a26 2fbd d8ed af3d 5f64 163d 3d5b ceba
00000040: 2a58 adbc d15e e8bc a824 adbd 74e8 95bc
00000050: 2590 a0bd c2b1 51bd 1e0e 53bd 2231 8cbd
00000060: bce1 c3bc 4e00 033d 9b70 83bd 6baf a0bd
00000070: 0e64 263d dbe7 8ebd b55c 2dbd fd28 abbd
00000080: 0589 533c b3fd 473d f200 b43d ecb7 3ebd
00000090: 366d ab3d 4b82 9a3d 9dc3 0b3d 6923 af3c
000000a0: d573 ad3b b2cc 443c a934 9b3d a9b2 43bd
000000b0: f155 73bd ce43 b7bc 6d6b 933d bff8 9abd
000000c0: 7d8b 1e3d e508 1ebc 5008 a1bd bb98 75bd
000000d0: 5c85 c93b 4c4d f4bc 788d 7a3d 5112 20bd
000000e0: 7b2b d83c 23dc 6dbd 11a1 0b3d 60b7 aabc
000000f0: ec7a 51bd f7d2 9f3d 7d9b b03d 08f4 4c3a
00000100: 2745 c83c 3635 f43c 2444 253b b70b eb3c
00000110: 713e a3bd bbde 2abc fd57 fdbc 850d f93c
00000120: 4ba4 ad3d c3fa 7c3c ec73 b2bd 22af febc
00000130: 7539 8c3d 0856 d1bc 2727 05bd 9bf6 04bd
00000140: 3fcd 9fbd 3c17 6ebd 2e16 64bc b524 233d
00000150: 2c21 a0bd 0c49 dc3c 423a ccbc 9191 f6bc
00000160: deae 2c3d 647f 983d 7e00 253d e4c4 293d
00000170: 6589 f1bc 1d7c afbd e807 0c3d 241c 22bd
00000180: fbc4 60bd b11a 86bd cb35 9a3d dfcd 00bd
00000190: 3aba 65bd e1d3 3d3d bfac 9dbc a00c 813c
000001a0: 4121 d73c da18 9bbd 4843 be3c cf11 a2bd
000001b0: cdfe 6cbd b749 b13c 81d8 4f3c 141f afbd
000001c0: c03f 1c3d 38b3 8bbd aa28 493d c92a efbb
000001d0: 6363 583d b9dd 37bd 97a0 5dbd 0666 413b
000001e0: 0a91 b2bb 57af b13d 6dac 5abd f32d cc3c
000001f0: 2111 73bd 38ec 02bd d164 b23d 9eaa b0bc
00000200: 8e54 79c0 883b 95bd ac22 3d3d bd41 4c3f
00000210: f2a2 8f3d 5f87 a43e f5a7 013e 92f3 12bd
00000220: 522b 913d 3e15 23bd 51ff ad3e 1bc5 21bb
00000230: b34a a43d b39c dfc0 dbeb c33c 36ed 37bd
00000240: fea1 a63e 1a9b 5a3e a554 1abd 8a16 6d3d
00000250: f19a 863e acee 3abe 5afa a83d 2472 aa3e
00000260: c13b 97bc bcb3 f53c 9cc9 67c1 4b22 9b3d
00000270: cd0e d63d 8cc7 0f3e 26c2 0f3e ea23 c73d
00000280: 72f2 0e3d e5f5 d33d e08f d4c0 3b9a e03f
00000290: 2a9f cd3f 9a6f b93c 11fa 52bf de64 9ec1
000002a0: cbf0 32be 1a29 823e 35fc a73d 5fc0 2b3e
000002b0: b9b1 b63b b0a1 8b3d d63d 4bbf b218 9cbd
000002c0: c864 163d afcd 073d b869 143d 8fad 053e
000002d0: 86ea 353e b58b 72bf 689d 963c 09e7 003d
000002e0: 6578 a43e d20b dcbe d797 6bc1 bd15 0dbd
000002f0: 9c4f 403f 31a4 313e 1727 1d3e ef3d f9bc
00000300: b395 4cc0 b7b4 253d b609 9fbd f432 aabd
00000310: c33a d43d 5e0c 00bf 854b 923d 7325 29bd
00000320: 471c 66c1 1df4 a5bd 8949 293e 7940 173e
00000330: 34e2 183d c2de 0fc1 4444 7f3e e65e 1740
00000340: 1de8 553e da3b 893d 366f 0d3e 314d 233d
00000350: be24 8bbf c1db bfbb 5d7f 4e3e 502a 36bf
00000360: 93cd b0be ef06 363d 3e18 1ebf 1aa4 7e3d
00000370: 834c fabb c36f 5e3d 3660 dabf 35d2 8b3e
00000380: f1d2 17c0 d9b7 133e a27a ed3d ba0b 153e
00000390: 74ba 21c1 93f6 8cbb c546 14c0 b220 883a
000003a0: de69 d13d 7421 873d 559a fcc0 f90e 0f3f
000003b0: d955 0f3d d3c3 95bf 056d 383f 58d6 7abd
000003c0: 988a 31c0 ab19 b03d a19b b33d c646 c93d
000003d0: cfe9 a03d d5fe e83d a797 a83e a73a 983d
000003e0: d445 85bd 288a c53e 18e9 a83d 645c 443e
000003f0: 2c0e eabc 5a72 debf d454 81bd c279 d2bc

net.2.bias f4 [128]
0.017786507 0.10851783 0.14336821 -0.094257146 0.20332934 -0.0043199854 0.036370985 0.21626236
0.004583524 0.054991934 0.06664326 -0.04627115 -0.048783608 -0.081691615 0.025837064 0.06935276
0.07525122 0.060688518 0.41501248 -0.045449954 -0.028362332 -0.060937323 -0.066022046 0.039251413
-0.06863176 -0.0039819977 0.0067651113 -0.03764525 -0.012338536 -0.0528384 0.46739838 -0.11043466
0.041541178 -0.054415155 -0.1005911 -0.08715477 -0.10682303 -0.044074725 0.052472416 0.43581513
-0.023140736 0.05542022 0.06805751 0.47972614 -0.05774475 -0.015154092 -0.03661045 0.038859174
0.012429466 -0.0083973985 -0.03481318 0.47088075 -0.0332568 0.004146003 0.043768093 0.11649503
0.04298477 0.20901437 0.47540155 0.056241095 -0.08810138 -0.029556973 -0.101565965 0.081414625
-0.026460506 -0.052058544 -0.093559615 0.06404302 0.22532457 -0.059249002 0.49355954 -0.06763739
0.10645555 0.03757875 -0.07213303 -0.024454627 0.42622322 -0.04395104 0.031273805 -0.109684385
0.07236869 0.051933642 0.060738824 -0.10867252 -0.076466486 -0.046561684 0.13619334 -0.08042231
0.0015609402 0.0026257485 0.1575285 0.023358036 -0.10320018 0.032454424 0.055068847 0.1181695
0.31194633 0.017639728 -0.08155719 -0.06215376 -0.03287062 0.008004371 0.027401717 0.05851648
-0.06373537 0.5138209 -0.08378671 -0.085272774 -0.11181549 0.0007441842 -0.022356331 -0.054039054
0.34229818 -0.01894647 -0.007748993 0.00023042306 -0.023302754 -0.07483364 -0.06009154 0.13356039
0.056160834 0.048089262 -0.08031965 0.21627098 -0.034468304 -0.0850858 -0.51447546 -0.15005411
00000000: 02b5 913c 993e de3d 1ecf 123e e409 c1bd
00000010: 9135 503e aa8e 8dbb bef9 143d e173 5d3e
00000020: 6331 963b 393f 613d 437c 883d d186 3dbd
00000030: 52d1 47bd ef4d a7bd 40a8 d33c d208 8e3d
00000040: 501d 9a3d 8694 783d 847c d43e bb29 3abd
00000050: 1f58 e8bc 6a99 79bd 9136 87bd 17c6 203d
00000060: cf8e 8cbd 6b7b 82bb dead dd3b e831 1abd
00000070: 9227 4abc 146d 58bd d74e ef3e 912b e2bd
00000080: 1527 2a3d 6de2 5ebd b502 cebd 337e b2bd
00000090: 08c6 dabd b387 34bd 51ed 563d 2923 df3e
000000a0: a491 bdbc 5000 633d bc61 8b3d aa9e f53e
000000b0: c285 6cbd de48 78bc d7f4 15bd cc2a 1f3d
000000c0: f5a4 4b3c 3e95 09bc 4498 0ebd 4817 f13e
000000d0: 4838 08bd 32db 873b 2c46 333d f294 ee3d
000000e0: cc10 303d dd07 563e d567 f33e 105d 663d
000000f0: 7f6e b4bd 7721 f2bc d101 d0bd b6bc a63d
00000100: b4c3 d8bc 573b 55bd 2f9c bfbd fd28 833d
00000110: 7cbb 663e 15af 72bd d6b3 fc3e 7985 8abd
00000120: 5e05 da3d 2dec 193d 7bba 93bd 1255 c8bc
00000130: ee39 da3e 0106 34bd f618 003d 35a2 e0bd
00000140: 0936 943d 5fb8 543d 46c9 783d b38f debd
00000150: 769a 9cbd 77b7 3ebd 4476 0b3e 74b4 a4bd
00000160: 7698 cc3a c014 2c3b 274f 213e 5a59 bf3c
00000170: 9e5a d3bd eeee 043d df8f 613d da02 f23d
00000180: 6eb7 9f3e 3181 903c 7507 a7bd f194 7ebd
00000190: 58a3 06bd c424 033c 9179 e03c faae 6f3d
000001a0: b187 82bd c489 033f 5e98 abbd 7ea3 aebd
000001b0: 85ff e4bd 5b15 433a a024 b7bc 0e58 5dbd
000001c0: b541 af3e a135 9bbc 44eb fdbb b89d 7139
000001d0: 6be5 bebc 6142 99bd 8c22 76bd 0ec4 083e
000001e0: e708 663d 3ff9 443d a17e a4bd 2476 5d3e
000001f0: a32e 0dbd 7741 aebd aab4 03bf c9a7 19be

net.4.weight f4 [3, 128]
-0.013444391 -1.8373361 -5.7831874 -0.0377175 2.6259525 -0.031572156 0.010037463 -3.2153938
-0.07557137 0.038456723 -3.542701 -0.046731994 -0.038610823 -0.049697198 -0.024645088 2.1398401
-0.046482425 -0.062812455 -0.5722878 -0.09879048 0.01470266 -0.082937784 0.06781003 -0.055627033
-0.0680262 0.056746844 0.023953307 -5.060448 -2.8102956 0.0064986274 -0.5511968 0.055538632
-0.08420104 -0.05086614 0.01774979 -0.076550126 0.007734336 -0.07650314 0.037041936 -0.5966453
0.008257601 -0.029553868 0.072524145 -0.553872 -0.08557046 0.003316866 0.06276637 0.02559012
-0.022353008 0.06600067 0.0039438307 -0.61136377 -0.82957095 -0.05272556 1.3867145 -4.25925
-0.011345305 1.7897699 -0.52763075 -0.051738426 -0.084691845 -0.011664917 0.04290884 -3.862544
-0.04178388 -0.040157948 -0.058172386 0.03326132 -4.1940956 0.84765536 -0.59208745 0.028999433
3.399411 0.038398176 -2.4271727 0.0352385 -0.57214206 0.051256206 0.00885569 0.046441738
2.0288193 -0.05485367 0.048980013 -0.52252066 -0.00023904155 0.0018447837 -1.2921019 -0.0011917283
-0.070092104 0.016819194 3.244086 -0.06153577 -0.0027531534 0.010965693 0.016474877 -5.3000836
-4.0749216 0.005493652 -0.045599326 -3.6531587 -0.065536834 0.0033120469 -0.04290844 -2.046656
-0.05709738 -0.54158264 -0.0016457619 -0.058370814 -3.008473 0.012321158 -0.0037730911 0.0045448
-0.5771373 0.06601306 0.06258432 0.013463905 0.03485274 0.06373795 -0.053406052 -1.2204982
-0.03438004 0.0054847486 -0.0035964993 0.6397638 0.04346671 -0.049840767 -1.0131559 -3.0175548
-0.021769932 -4.9353046 -3.5350873 0.008702207 3.0648625 0.051196203 0.058732487 -2.2628617
0.08417213 -0.0027884135 -1.1120822 0.046522632 0.042825993 -0.04284616 -0.0012336277 0.15632299
0.059651043 0.07209914 -0.4749557 -0.014888994 0.015398722 0.056915946 0.06465694 -0.07668406
0.040379 0.012311039 -0.07154863 -2.5716634 -1.8764055 0.026990768 -0.4448456 0.08473107
-0.017275108 0.011568027 0.01973926 0.05335519 -0.09689296 0.071682334 0.045828193 -0.46488506
-0.040052205 0.06336287 0.071617246 -0.50476235 0.05722345 0.0144606745 0.036758065 0.041536823
0.03892319 -0.01221387 -0.008602698 -0.4136634 -2.6702824 -0.011413195 1.2413263 -3.3309517
0.034793194 2.7947507 -0.58323914 0.06302824 -0.03121523 0.061711203 0.052445397 -2.7289088
0.009824009 -0.0036523931 -0.028351247 -0.08026391 -4.123516 -2.6670825 -0.43868655 -0.061220467
3.0342798 0.039814614 -4.3637075 -0.026246937 -0.56634414 0.0010593189 0.08084452 0.04047789
1.5166565 0.083588295 -0.036835242 -2.7199345 0.04886718 -0.09702622 -1.1313993 0.06276155
0.034943257 -0.055612344 2.9555504 -0.0006775527 0.01147423 -0.07705664 0.05729594 -1.929215
-4.1973643 -0.00435221 -0.02465816 -4.4051895 0.043882318 0.055180803 -0.01759624 -2.354128
-0.03841093 -0.5578837 0.02022058 0.063853286 -3.877362 0.0640608 -0.051415477 0.052672464
-0.49622843 -0.0673703 -0.025380569 0.034051664 0.009090205 0.07449317 0.0872074 -1.1762973
0.0039595864 0.051186893 -0.021173794 -0.18360902 -0.06495218 0.041418534 -1.5501837 -6.98862
00000000: dd45 5cbc d42d ebbf df0f b9c0 aa7d 1abd
00000010: 9b0f 2840 ce51 01bd 2c74 243c 03c9 4dc0
00000020: 2ac5 9abd cc84 1d3d 9dbb 62c0 0c6a 3fbd
00000030: 6226 1ebd 4a8f 4bbd 7fe4 c9bc 24f3 0840
00000040: 5b64 3ebd d1a3 80bd 7481 12bf aa52 cabd
00000050: 6de3 703c 49db a9bd fcdf 8a3d 2cd9 63bd
00000060: 5251 8bbd 616f 683d ba39 c43c 31ef a1c0
00000070: e2db 33c0 70f2 d43b 3c1b 0dbf 7a7c 633d
00000080: 9871 acbd 0359 50bd 0268 913c 50c6 9cbd
00000090: 5070 fd3b aead 9cbd 49b9 173d bfbd 18bf
000000a0: e44a 073c f41a f2bc 8a87 943d 8eca 0dbf
000000b0: 913f afbd c75f 593b a88b 803d 5fa2 d13c
000000c0: a81d b7bc 5c2b 873d 403b 813b 5682 1cbf
000000d0: c35e 54bf c2f6 57bd dc7f b13f c74b 88c0
000000e0: a8e1 39bc 2e17 e53f cf12 07bf aceb 53bd
000000f0: eb72 adbd 351e 3fbc 2ec1 2f3d ec33 77c0
00000100: 9325 2bbd a97c 24bd 2b46 6ebd 063d 083d
00000110: 0836 86c0 f1ff 583f 0b93 17bf 3890 ed3c
00000120: f38f 5940 6847 1d3d cc56 1bc0 3f56 103d
00000130: e777 12bf 07f2 513d 7517 113c b139 3e3d
00000140: 2dd8 0140 3eae 60bd 449f 483d eac3 05bf
00000150: 3aa7 7ab9 abcc f13a 9863 a5bf c433 9cba
00000160: 738c 8fbd 68c8 893c 1b9f 4f40 ee0c 7cbd
00000170: 406e 34bb 73a9 333c 52f6 863c 499a a9c0
00000180: c265 82c0 1804 b43b 5cc6 3abd 5acd 69c0
00000190: 2d38 86bd ed0e 593b c3c0 2fbd 69fc 02c0
000001a0: f1de 69bd 29a5 0abf 9bb6 d7ba 3c16 6fbd
000001b0: d28a 40c0 afde 493c f745 77bb 8cec 943b
000001c0: 45bf 13bf db31 873d 352c 803d b697 5c3c
000001d0: bfc1 0e3d 0b89 823d 4ec0 5abd 4939 9cbf
000001e0: 16d2 0cbd 68b9 b33b 3fb3 6bbb 8fc7 233f
000001f0: 260a 323d d525 4cbd 18af 81bf 9e1f 41c0
00000200: db56 b2bc 04ee 9dc0 df3e 62c0 b493 0e3c
00000210: b526 4440 1cb3 513d 7a91 703d bad2 10c0
00000220: 7062 ac3d d1bd 36bb b658 8ebf 848e 3e3d
00000230: 4f6a 2f3d 747f 2fbd adb1 a1ba 2213 203e
00000240: a754 743d b7a8 933d 652d f3be f8f0 73bc
00000250: ec4a 7c3c b220 693d dc6a 843d 880c 9dbd
00000260: 7364 253d 3db4 493c 1788 92bd 2296 24c0
00000270: 0e2e f0bf be1b dd3c cdc2 e3be 7c87 ad3d
00000280: 8784 8dbc d287 3d3c 3bb4 a13c f98a 5a3d
00000290: d16f c6bd 30ce 923d 58b6 3b3d 6a05 eebe
000002a0: c80d 24bd 64c4 813d 10ac 923d 1b38 01bf
000002b0: 2363 6a3d 77ec 6c3c a08f 163d 8422 2a3d
000002c0: ec6d 1f3d af1c 48bc 55f2 0cbc b0cb d3be
000002d0: e8e5 2ac0 69fe 3abc c8e3 9e3f 502e 55c0
000002e0: 4f83 0e3d 32dd 3240 294f 15bf f314 813d
000002f0: 15b7 ffbc e3c4 7c3d fcd0 563d 71a6 2ec0
00000300: e1f4 203c fd5c 6fbb e040 e8bc 6861 a4bd
00000310: d8f3 83c0 7bb1 2ac0 869b e0be 50c2 7abd
00000320: a431 4240 a614 233d 7ea3 8bc0 d103 d7bc
00000330: eefb 10bf d8d8 8a3a d091 a53d 25cc 253d
00000340: cd21 c23f 5730 ab3d 8de0 16bd 6813 2ec0
00000350: f428 483d afb5 c6bd b1d1 90bf 2189 803d
00000360: a920 0f3d c5c9 63bd bd27 3d40 cb9d 31ba
00000370: 69fe 3b3c dfcf 9dbd 26af 6a3d 84f0 f6bf
00000380: cf50 86c0 fc9c 8ebb e9ff c9bc 50f7 8cc0
00000390: f2bd 333d 4405 623d fd25 90bc 08aa 16c0
000003a0: c854 1dbd 77d1 0ebf a1a5 a53c 83c5 823d
000003b0: b326 78c0 4f32 833d 0999 52bd 15bf 573d
000003c0: a711 febe 71f9 89bd e9ea cfbc c279 0b3d
000003d0: 15ef 143c e08f 983d cb99 b23d e990 96bf
000003e0: 6bbf 813b 59a9 513d aa74 adbc 0104 3cbe
000003f0: a605 85bd 7ba6 293d 6b6c c6bf c6a2 dfc0

net.4.bias f4 [3]
-0.5961062 -0.1606647 -0.32262307
00000000: 6a9a 18bf 4a85 24be da2e a5be

net.0.weight f4 [128, 2]
0.0733258 -5.981397 0.706549 0.19325392 0.29010898 0.3547677 -0.41875702 -9.766677
0.34716314 -3.3377318 0.68269116 -1.101916 -0.36915126 -4.3523936 0.13279857 0.11227263
0.13042696 0.39104208 0.13502392 -0.05153801 0.6478444 -2.764394 -0.12822968 -3.380222
0.05300691 0.23896141 -0.46515986 -3.4411793 -0.34318602 0.47277787 0.2687787 -0.634977
-0.48714063 -3.6264641 0.9999206 -1.1648996 -0.3601293 -4.3546076 -0.31336343 -5.173693
-0.43570286 -0.49699455 -0.0030667076 -3.272925 0.52405524 -0.23699704 0.455437 -1.5233716
-0.04581927 -0.41847438 -0.2836192 0.30253175 -0.20739162 6.400703 0.610207 -2.7213035
-0.2140141 -2.9147644 -0.36816883 -2.7861483 -0.115605526 -3.534705 0.41425568 -3.4349391
-0.15755343 -0.5752144 0.1590989 -3.6623077 -0.48470598 5.0756617 0.55928236 -3.2550137
0.16356942 -10.390642 -0.44797733 -5.4749255 0.7842316 -2.0508595 -0.13714063 8.212963
-0.24612772 -5.4394054 0.7466572 -1.4748912 -0.30008638 -3.8926167 0.048134226 -3.3595083
0.53559846 0.30609316 -0.078515865 0.4708526 0.8251934 0.33370164 -0.07520692 -0.50312996
0.19109912 -0.45658734 -0.32124236 -4.789945 0.29868728 -0.20952572 -0.20243429 -2.5579863
-0.21303113 -4.6867933 -0.056064174 -9.689587 0.17802171 -0.65438914 -0.124697804 -3.6174335
0.45037058 -1.7310277 -0.34550318 -11.002155 -0.24830975 7.758817 1.478699 14.967066
1.4824424 1.0342385 -0.13795123 -3.349414 -0.4149642 -4.8393245 -0.33232486 0.4422161
-0.6423807 3.4313552 -0.08225944 -0.14908613 0.2808156 0.121187195 -0.13191381 -0.5536381
0.5215637 -1.9939538 0.019742593 -4.50767 -0.4108461 -4.771633 -0.16863231 0.32199138
0.56764024 12.573558 0.23468006 -0.60297835 0.26937664 -2.2347605 -0.23135608 -3.097426
0.46427047 -2.0362897 -0.6175477 2.0282948 0.32936558 -2.5984178 -0.014040886 -6.060515
0.087306 -3.3202899 -0.025485767 -3.4624913 -0.22624233 -8.362656 0.06788478 -0.2703766
0.24205206 -5.543826 0.24969879 -2.4100604 0.21519525 -3.055715 0.2286672 -6.1011953
-0.14453322 4.7781954 0.3382176 -0.38887826 0.54753405 2.2346942 -0.22739848 -3.7219572
-0.040520906 0.23148979 0.28279567 0.44630265 -0.72054833 -14.829123 0.51195836 -0.90720874
-0.64969635 -0.7667688 -0.028409092 -3.2813537 -0.28440723 -5.637857 -0.32447016 -3.5822446
-0.2983791 6.0207124 0.3213976 0.3899025 1.1532604 -4.4576855 0.28346738 -0.6153965
0.1109353 -2.7083762 0.51444393 0.5077845 -0.5591867 -1.9600118 0.960754 -4.689635
0.34451076 -2.323268 -0.8468683 -7.074753 -0.2224748 -12.477659 0.08891687 0.39089677
-0.21715431 -5.033917 0.4947428 0.546986 0.19907491 0.23287381 0.5492245 -2.0998251
0.2728339 0.09265993 0.12713036 -3.6993785 0.6024666 -2.5152936 0.1412586 -3.3185425
-0.2649859 -5.402645 0.48087066 -2.5008166 -0.2665318 -3.7942388 -0.377131 -4.1917763
0.06617999 -0.50826705 0.67766345 -5.3516707 0.21764539 0.67661345 0.11628206 -0.27457684
00000000: d62b 963d 9b67 bfc0 65e0 343f 5be4 453e
00000010: 2a89 943e 1da4 b53e 5267 d6be 4f44 1cc1
00000020: 5ebf b13e 669d 55c0 d9c4 2e3f 950b 8dbf
00000030: 6501 bdbe cf46 8bc0 59fc 073e 31ef e53d
00000040: a58e 053e ab36 c83e b643 0a3e 8519 53bd
00000050: 21d9 253f d5eb 30c0 a44e 03be 8f55 58c0
00000060: c61d 593d 4db2 743e 6f29 eebe 483c 5cc0
00000070: 14b6 afbe f10f f23e 5d9d 893e da8d 22bf
00000080: 7f6a f9be fd17 68c0 ccfa 7f3f 6e1b 95bf
00000090: de62 b8be f258 8bc0 2c71 a0be e58e a5c0
000000a0: 7214 dfbe 1276 febe d1fa 48bb 9a77 51c0
000000b0: 7c28 063f 5aaf 72be 0a2f e93e d7fd c2bf
000000c0: fdac 3bbd 4642 d6be 8936 91be 71e5 9a3e
000000d0: 785e 54be 8fd2 cc40 8736 1c3f d629 2ec0
000000e0: 8326 5bbe 808b 3ac0 a080 bcbe 4150 32c0
000000f0: 97c2 ecbd 9b38 62c0 5219 d43e 0bd6 5bc0
00000100: b055 21be 4041 13bf d2ea 223e 4063 6ac0
00000110: 622b f8be d26b a240 212d 0f3f 2552 50c0
00000120: be7e 273e 1240 26c1 495d e5be 9732 afc0
00000130: 67c3 483f 4841 03c0 986e 0cbe 4c68 0341
00000140: e808 7cbe 9c0f aec0 ed24 3f3f 3cc9 bcbf
00000150: eca4 99be a220 79c0 6528 453d 2f02 57c0
00000160: fb1c 093f 3eb8 9c3e edcc a0bd 9813 f13e
00000170: e03f 533f f1da aa3e 1606 9abd 20cd 00bf
00000180: 7daf 433e d1c5 e9be e179 a4be 3b47 99c0
00000190: 8aed 983e e98d 56be ef4a 4fbe 0cb6 23c0
000001a0: d524 5abe 36fa 95c0 8ca3 65bd 8c08 1bc1
000001b0: 534b 363e 0c86 27bf 9061 ffbd 0884 67c0
000001c0: f996 e63e 5192 ddbf cbe5 b0be d408 30c1
000001d0: e944 7ebe 3b48 f840 0246 bd3f 1a79 6f41
000001e0: acc0 bd3f ed61 843f 1643 0dbe cd5c 56c0
000001f0: 3076 d4be bfdb 9ac0 7c26 aabe 266a e23e
00000200: 1073 24bf 539b 5b40 a377 a8bd 09aa 18be
00000210: 10c7 8f3e fe30 f83d 6a14 07be 3abb 0dbf
00000220: 3385 053f e139 ffbf 38bb a13c d53e 90c0
00000230: 6c5a d2be 38b1 98c0 f3ad 2cbe 0edc a43e
00000240: df50 113f 4b2d 4941 f84f 703e ca5c 1abf
00000250: bceb 893e 5106 0fc0 9ce8 6cbe 3a3c 46c0
00000260: dcb4 ed3e 9252 02c0 9b17 1ebf 95cf 0140
00000270: 9ba2 a83e 7a4c 26c0 bf0b 66bc bdef c1c0
00000280: 7dcd b23d a17f 54c0 87c7 d0bc 7599 5dc0
00000290: 12ac 67be 70cd 05c1 2d07 8b3d cd6e 8abe
000002a0: 7fdc 773e 0667 b1c0 0ab1 7f3e 6e3e 1ac0
000002b0: 255c 5c3e d690 43c0 bc27 6a3e fe3c c3c0
000002c0: 8400 14be fae6 9840 db2a ad3e 0d1b c7be
000002d0: 312b 0c3f 3b05 0f40 26db 68be 8c34 6ec0
000002e0: 40f9 25bd a90b 6d3e 98ca 903e c881 e43e
000002f0: db75 38bf 1644 6dc1 b40f 033f d53e 68bf
00000300: 8052 26bf f64a 44bf 2fba e8bc b301 52c0
00000310: d39d 91be 5369 b4c0 f420 a6be 7f43 65c0
00000320: 25c5 98be ada9 c040 3a8e a43e 4da1 c73e
00000330: 099e 933f 5ca5 8ec0 a322 913e a08a 1dbf
00000340: 0c32 e33d 0956 2dc0 99b2 033f 2afe 013f
00000350: dc26 0fbf abe1 fabf f9f3 753f 7d11 96c0
00000360: b763 b03e 6cb0 14c0 5ccc 58bf 6064 e2c0
00000370: 6fd0 63be 7ea4 47c1 0c1a b63d 9f23 c83e
00000380: b35d 5ebe d915 a1c0 ee4e fd3e 4607 0c3f
00000390: 4bda 4b3e 7976 6e3e fa99 0c3f 8963 06c0
000003a0: e3b0 8b3e 7dc4 bd3d 762e 023e 9ec2 6cc0
000003b0: 403b 1a3f 92fa 20c0 18a6 103e 0063 54c0
000003c0: 3bac 87be 78e2 acc0 ae34 f63e 610d 20c0
000003d0: db76 88be cfd4 72c0 5017 c1be 0823 86c0
000003e0: 6089 873d ca1d 02bf 5a7b 2d3f e340 abc0
000003f0: 6fde 5e3e 8a36 2d3f 4a25 ee3d 5695 8cbe

net.0.bias f4 [128]
-0.053109176 -0.5085995 -0.19522876 -0.2912875 0.32896364 0.63863134 0.24030831 -0.5710038
-0.1918978 -0.66087824 0.6625603 0.22157954 -0.69991356 -0.33509523 -0.46370518 -0.3472462
-0.8029422 0.4979168 0.20583013 0.17056538 -0.5672115 0.23438978 -0.36390245 0.40545523
-0.3995458 -0.5958894 -0.3361422 0.35380936 0.36413065 0.4202882 0.27483496 0.75186133
-0.52347255 0.69288874 -0.471773 0.2832294 -0.005508879 0.3191224 0.5468067 -0.36807543
0.16770627 0.45574299 0.5584992 0.32245642 -0.5779265 -0.16066581 0.46234718 -0.7017911
-0.25126213 0.16887361 -0.3570295 0.5002091 0.15544942 0.266151 -0.67222816 0.6078718
0.3154039 -0.35905674 -0.45956653 0.6771294 0.849727 0.60336834 0.27596456 -0.46375853
-0.551402 -0.6824023 -0.2887193 -0.33467227 0.72063446 0.21414137 0.26700962 -0.43618432
-0.27434736 -0.53778166 0.53951526 0.27610525 0.5731951 -0.50765604 0.4346412 0.050208904
0.5607994 0.20611538 -0.36600792 -0.04479511 0.32510722 0.4028319 0.71750355 0.3685911
0.27198505 -0.22758143 0.38951614 0.62496936 -0.64474404 -0.47660643 0.12675478 0.44824353
-0.2962357 0.35194877 0.17919053 0.45255074 -0.3707324 -0.6889906 0.24120507 -0.48267582
0.3099432 -0.5314114 -0.4622475 0.45015013 0.7063625 -0.1857194 0.0869092 -0.07159123
-0.0930396 -0.5838495 -0.16536358 0.4922598 -0.6935293 0.32857347 0.6135649 0.2667786
0.18141109 0.51009357 0.20685838 0.26278934 -0.371907 0.35718971 -0.2908131 -0.60533315
00000000: 0289 59bd 9433 02bf 0cea 47be a323 95be
00000010: ec6d a83e 587d 233f 6213 763e 4e2d 12bf
00000020: db80 44be 512f 29bf 8d9d 293f bfe5 623e
00000030: 892d 33bf 9a91 abbe c46a edbe 41ca b1be
00000040: 9f8d 4dbf f3ee fe3e 22c5 523e b1a8 2e3e
00000050: c634 11bf e003 703e 6c51 babe d497 cf3e
00000060: 4491 ccbe 358c 18bf d51a acbe 8026 b53e
00000070: 556f ba3e 0430 d73e 2bb7 8c3e fc79 403f
00000080: 4c02 06bf 2861 313f 3b8c f1be 7203 913e
00000090: d483 b4bb 0364 a33e 86fb 0b3f 6274 bcbe
000000a0: 31bb 2b3e 2557 e93e cef9 0e3f 0219 a53e
000000b0: fef2 13bf 9485 24be c5b8 ec3e 95a8 33bf
000000c0: 6ea5 80be 34ed 2c3e 92cc b6be b40d 003f
000000d0: 222e 1f3e f244 883e 2517 2cbf 7c9d 1b3f
000000e0: 9f7c a13e 49d6 b7be 4e4c ebbe 5a58 2d3f
000000f0: b587 593f 5976 1a3f 3a4b 8d3e c271 edbe
00000100: ae28 0dbf ebb1 2ebf 04d3 93be 2a5a abbe
00000110: 807b 383f e047 5b3e 7cb5 883e 8d53 dfbe
00000120: 4277 8cbe 0fac 09bf ac1d 0a3f ab5d 8d3e
00000130: eabc 123f bff5 01bf 4b89 de3e daa7 4d3d
00000140: 8d90 0f3f e90f 533e 6465 bbbe 147b 37bd
00000150: 7474 a63e fc3f ce3e 50ae 373f f9b7 bc3e
00000160: a041 8b3e 1b0b 69be a96e c73e fefd 1f3f
00000170: f20d 25bf c205 f4be 01cc 013e 2d80 e53e
00000180: 35ac 97be a132 b43e b97d 373e bbb4 e73e
00000190: a3d0 bdbe b061 30bf 76fe 763e 4921 f7be
000001a0: e0b0 9e3e 940a 08bf b4ab ecbe 147a e63e
000001b0: 2cd4 343f 3a2d 3ebe 73fd b13d 6c9e 92bd
000001c0: 8c8b bebd 2977 15bf 1255 29be 7a09 fc3e
000001d0: 238b 31bf c83a a83e 9712 1d3f 3497 883e
000001e0: d4c3 393e 7e95 023f afd2 533e 538c 863e
000001f0: 986a bebe 92e1 b63e 74e5 94be 1df7 1abf

net.2.weight f4 [128, 128]
0.03269292 -0.035293907 -0.052778654 0.0042281505 -0.0106330495 -0.08388088 -0.054514702 -0.058314875
-0.08601578 0.07667899 -0.046414323 -0.052697532 -0.042761423 0.08590287 0.036716815 -0.0015743744
-0.021160204 -0.028365524 -0.08454257 -0.018299319 -0.078399934 -0.051194914 -0.051527135 -0.06845309
-0.02391135 0.031982712 -0.06417962 -0.07845958 0.040622763 -0.06977817 -0.04232474 -0.08357427
0.012911086 0.04882593 0.08789243 -0.04656212 0.0837044 0.07544383 0.0341221 0.02137919
0.0052933493 0.012011694 0.075784035 -0.047777805 -0.059408132 -0.022371199 0.07198224 -0.07566976
0.038707245 -0.009645675 -0.078629136 -0.05996011 0.006149931 -0.029822014 0.06117007 -0.039079968
0.02638792 -0.058071267 0.03408915 -0.020839393 -0.051142618 0.0780391 0.08623407 0.0007818346
0.024447037 0.02981053 0.0025217617 0.02869211 -0.07970894 -0.01042908 -0.030925745 0.030401954
0.08478602 0.015440646 -0.087135166 -0.03108937 0.068468966 -0.025553718 -0.03250804 -0.032461744
-0.078028195 -0.058127627 -0.013921304 0.03982993 -0.07818827 0.0268903 -0.024930123 -0.030098708
0.042158954 0.07446173 0.040283673 0.041447535 -0.02948446 -0.085685946 0.034187227 -0.03957762
-0.054875355 -0.0654806 0.075297914 -0.031446334 -0.056085803 0.04634464 -0.01924741 0.01575309
0.026260974 -0.075730994 0.023225442 -0.07913553 -0.057860184 0.021641595 0.012685896 -0.085508496
0.038146734 -0.06821293 0.049111046 -0.0072988016 0.052829158 -0.044889186 -0.05410823 0.0029510274
-0.005449419 0.086760215 -0.053387094 0.024924254 -0.059342507 -0.031963557 0.087106355 -0.021565732
-3.8927367 -0.07286745 0.046175644 0.7973585 0.06964859 0.32079953 0.12750837 -0.035876818
0.07088341 -0.03981518 0.33935842 -0.0018925004 0.0802206 -6.9878783 0.023916176 -0.044903956
0.32545465 0.21233979 -0.03665569 0.059147425 0.26290086 -0.18227501 0.08250876 0.33234334
-0.01846111 0.02999293 -14.476223 0.07461552 0.10491665 0.14087725 0.14083083 0.09702151
0.034899183 0.10347349 -6.6463237 1.7538615 1.5990678 0.023471145 -0.8250414 -19.789137
-0.17347604 0.25343418 0.082380965 0.16784638 0.0055753854 0.06817949 -0.7950284 -0.07621898
0.036717206 0.034375954 0.036233634 0.1308208 0.17885049 -0.9450577 0.018385604 0.03167177
0.3204935 -0.43495166 -14.72457 -0.0355677 0.75013614 0.17368448 0.15433817 -0.03042504
-3.2117343 0.040455546 -0.07765524 -0.083105 0.10329735 -0.49989924 0.07230561 -0.04129548
-14.383304 -0.081032015 0.16513717 0.14828014 0.036949426 -8.97623 0.24896769 2.3593342
0.20892197 0.06742619 0.13194564 0.039868537 -1.0871156 -0.006089004 0.2015856 -0.71176195
-0.34527785 0.044440206 -0.6183366 0.062435623 -0.0076385154 0.054305803 -1.7030352 0.2725006
-2.3746057 0.14447616 0.11722225 0.14599454 -10.10001 -0.004301855 -2.316769 0.001038572
0.102225095 0.065981776 -7.8938394 0.55790055 0.03480528 -1.1703745 0.7195638 -0.06123957
-2.77513 0.08598646 0.08769918 0.09772252 0.078570955 0.11375422 0.3288005 0.07425292
-0.0638775 0.38537043 0.083333574 0.19258049 -0.02857121 -1.7389195 -0.06315008 -0.025692824
00000000: 03e9 053d 5890 10bd 6e2e 58bd 4c8c 8a3b
00000010: 3e36 2ebc bdc9 abbd cf4a 5fbd 94db 6ebd
00000020: 0b29 b0bd e009 9d3d f21c 3ebd 5ed9 57bd
00000030: 9a26 2fbd d8ed af3d 5f64 163d 3d5b ceba
00000040: 2a58 adbc d15e e8bc a824 adbd 74e8 95bc
00000050: 2590 a0bd c2b1 51bd 1e0e 53bd 2231 8cbd
00000060: bce1 c3bc 4e00 033d 9b70 83bd 6baf a0bd
00000070: 0e64 263d dbe7 8ebd b55c 2dbd fd28 abbd
00000080: 0589 533c b3fd 473d f200 b43d ecb7 3ebd
00000090: 366d ab3d 4b82 9a3d 9dc3 0b3d 6923 af3c
000000a0: d573 ad3b b2cc 443c a934 9b3d a9b2 43bd
000000b0: f155 73bd ce43 b7bc 6d6b 933d bff8 9abd
000000c0: 7d8b 1e3d e508 1ebc 5008 a1bd bb98 75bd
000000d0: 5c85 c93b 4c4d f4bc 788d 7a3d 5112 20bd
000000e0: 7b2b d83c 23dc 6dbd 11a1 0b3d 60b7 aabc
000000f0: ec7a 51bd f7d2 9f3d 7d9b b03d 08f4 4c3a
00000100: 2745 c83c 3635 f43c 2444 253b b70b eb3c
00000110: 713e a3bd bbde 2abc fd57 fdbc 850d f93c
00000120: 4ba4 ad3d c3fa 7c3c ec73 b2bd 22af febc
00000130: 7539 8c3d 0856 d1bc 2727 05bd 9bf6 04bd
00000140: 3fcd 9fbd 3c17 6ebd 2e16 64bc b524 233d
00000150: 2c21 a0bd 0c49 dc3c 423a ccbc 9191 f6bc
00000160: deae 2c3d 647f 983d 7e00 253d e4c4 293d
00000170: 6589 f1bc 1d7c afbd e807 0c3d 241c 22bd
00000180: fbc4 60bd b11a 86bd cb35 9a3d dfcd 00bd
00000190: 3aba 65bd e1d3 3d3d bfac 9dbc a00c 813c
000001a0: 4121 d73c da18 9bbd 4843 be3c cf11 a2bd
000001b0: cdfe 6cbd b749 b13c 81d8 4f3c 141f afbd
000001c0: c03f 1c3d 38b3 8bbd aa28 493d c92a efbb
000001d0: 6363 583d b9dd 37bd 97a0 5dbd 0666 413b
000001e0: 0a91 b2bb 57af b13d 6dac 5abd f32d cc3c
000001f0: 2111 73bd 38ec 02bd d164 b23d 9eaa b0bc
00000200: 9922 79c0 883b 95bd ac22 3d3d b01f 4c3f
00000210: eca3 8e3d d63f a43e 8e91 023e 92f3 12bd
00000220: 522b 913d 3e15 23bd 63c0 ad3e c70d f8ba
00000230: b34a a43d b39c dfc0 dbeb c33c 36ed 37bd
00000240: fea1 a63e 9a6f 593e 4724 16bd 9244 723d
00000250: f19a 863e 4da6 3abe 5afa a83d e828 aa3e
00000260: c13b 97bc bcb3 f53c 9c9e 67c1 06d0 983d
00000270: 8ade d63d 2042 103e f535 103e 37b3 c63d
00000280: 72f2 0e3d e9e9 d33d afae d4c0 897e e03f
00000290: 41ae cc3f 8f46 c03c ea35 53bf 2750 9ec1
000002a0: b4a3 31be 20c2 813e 5ab7 a83d ecdf 2b3e
000002b0: b9b1 b63b b0a1 8b3d fb86 4bbf b218 9cbd
000002c0: c864 163d cdcd 0c3d b869 143d e3f5 053e
000002d0: 9524 373e 4def 71bf 689d 963c 42ba 013d
000002e0: b917 a43e fcb1 debe d797 6bc1 70af 11bd
000002f0: ec08 403f 58da 313e d30a 1e3e ef3d f9bc
00000300: 0e8d 4dc0 b7b4 253d b609 9fbd f432 aabd
00000310: 908d d33d cbf2 ffbe f714 943d 7325 29bd
00000320: 0322 66c1 1df4 a5bd b819 293e c0d6 173e
00000330: 4858 173d a39e 0fc1 63f1 7e3e 55ff 1640
00000340: a4ef 553e be16 8a3d c21c 073e 314d 233d
00000350: 9b26 8bbf 4586 c7bb 756c 4e3e 0836 36bf
00000360: 42c8 b0be ef06 363d 4f4b 1ebf 7fbc 7f3d
00000370: 834c fabb c36f 5e3d 0ffd d9bf 3385 8b3e
00000380: 8af9 17c0 8ff1 133e 3812 f03d 987f 153e
00000390: a499 21c1 93f6 8cbb f145 14c0 b220 883a
000003a0: 645b d13d 7421 873d 559a fcc0 92d2 0e3f
000003b0: fb8f 0e3d d5ce 95bf 5535 383f 58d6 7abd
000003c0: bb9b 31c0 ab19 b03d a19b b33d bf22 c83d
000003d0: cfe9 a03d f9f7 e83d 8a58 a83e ea11 983d
000003e0: 35d2 82bd 464f c53e cbaa aa3d d233 453e
000003f0: 2c0e eabc ea94 debf d454 81bd c279 d2bc

net.2.bias f4 [128]
0.017786507 0.10853756 0.14491473 -0.094257146 0.20078777 -0.0043199854 0.036370985 0.21626872
0.004583524 0.054991934 0.06775458 -0.04627115 -0.048783608 -0.081691615 0.025837064 0.065682076
0.07525122 0.060688518 0.41461435 -0.045449954 -0.028362332 -0.060937323 -0.066022046 0.039251413
-0.06863176 -0.0039819977 0.0067651113 -0.03748319 -0.0123171685 -0.0528384 0.46701995 -0.11043466
0.041541178 -0.054415155 -0.1005911 -0.08715477 -0.10682303 -0.044074725 0.052472416 0.43545687
-0.023140736 0.05542022 0.06805751 0.4792605 -0.05774475 -0.015154092 -0.03661045 0.038859174
0.012429466 -0.0083973985 -0.03481318 0.47061148 -0.03264372 0.004146003 0.041908417 0.11505849
0.04298477 0.21097831 0.47478923 0.056241095 -0.08810138 -0.029556973 -0.101565965 0.08117363
-0.026460506 -0.052058544 -0.093559615 0.06404302 0.2230957 -0.060036693 0.49324176 -0.06763739
0.106737 0.03757875 -0.073148295 -0.024454627 0.4256943 -0.04395104 0.031273805 -0.109684385
0.07385709 0.051933642 0.060738824 -0.10897186 -0.076466486 -0.046561684 0.1352466 -0.08042231
0.0015609402 0.0026257485 0.1589401 0.023358036 -0.10320018 0.032454424 0.055068847 0.11952404
0.31060272 0.017639728 -0.08155719 -0.06215376 -0.03287062 0.008004371 0.027401717 0.05813143
-0.06373537 0.5132623 -0.08378671 -0.085272774 -0.11273637 0.0007441842 -0.022356331 -0.054039054
0.34187374 -0.01894647 -0.007748993 0.00023042306 -0.023302754 -0.07483364 -0.06009154 0.13455763
0.056160834 0.048089262 -0.08031965 0.21529737 -0.034468304 -0.0850858 -0.51525605 -0.15052937
00000000: 02b5 913c f148 de3d 8764 143e e409 c1bd
00000010: 4f9b 4d3e aa8e 8dbb bef9 143d 8c75 5d3e
00000020: 6331 963b 393f 613d eac2 8a3d d186 3dbd
00000030: 52d1 47bd ef4d a7bd 40a8 d33c 5384 863d
00000040: 501d 9a3d 8694 783d 5548 d43e bb29 3abd
00000050: 1f58 e8bc 6a99 79bd 9136 87bd 17c6 203d
00000060: cf8e 8cbd 6b7b 82bb dead dd3b f987 19bd
00000070: f3cd 49bc 146d 58bd 3d1d ef3e 912b e2bd
00000080: 1527 2a3d 6de2 5ebd b502 cebd 337e b2bd
00000090: 08c6 dabd b387 34bd 51ed 563d 34f4 de3e
000000a0: a491 bdbc 5000 633d bc61 8b3d a261 f53e
000000b0: c285 6cbd de48 78bc d7f4 15bd cc2a 1f3d
000000c0: f5a4 4b3c 3e95 09bc 4498 0ebd fdf3 f03e
000000d0: 6cb5 05bd 32db 873b 29a8 2b3d c9a3 eb3d
000000e0: cc10 303d b30a 583e 9317 f33e 105d 663d
000000f0: 7f6e b4bd 7721 f2bc d101 d0bd 5c3e a63d
00000100: b4c3 d8bc 573b 55bd 2f9c bfbd fd28 833d
00000110: 3373 643e 09e9 75bd 2f8a fc3e 7985 8abd
00000120: ee98 da3d 2dec 193d c6ce 95bd 1255 c8bc
00000130: 9af4 d93e 0106 34bd f618 003d 35a2 e0bd
00000140: 6342 973d 5fb8 543d 46c9 783d a32c dfbd
00000150: 769a 9cbd 77b7 3ebd 167e 0a3e 74b4 a4bd
00000160: 7698 cc3a c014 2c3b 32c1 223e 5a59 bf3c
00000170: 9e5a d3bd eeee 043d df8f 613d 05c9 f43d
00000180: 5207 9f3e 3181 903c 7507 a7bd f194 7ebd
00000190: 58a3 06bd c424 033c 9179 e03c 391b 6e3d
000001a0: b187 82bd 2865 033f 5e98 abbd 7ea3 aebd
000001b0: 53e2 e6bd 5b15 433a a024 b7bc 0e58 5dbd
000001c0: 130a af3e a135 9bbc 44eb fdbb b89d 7139
000001d0: 6be5 bebc 6142 99bd 8c22 76bd 7ac9 093e
000001e0: e708 663d 3ff9 443d a17e a4bd ea76 5c3e
000001f0: a32e 0dbd 7741 aebd d2e7 03bf 5f24 1abe

net.4.weight f4 [3, 128]
-0.013444391 -1.8362595 -5.7845316 -0.0377175 2.6230018 -0.031572156 0.010037463 -3.211357
-0.07557137 0.038456723 -3.54627 -0.046731994 -0.038610823 -0.049697198 -0.024645088 2.141675
-0.046482425 -0.062812455 -0.57323307 -0.09879048 0.01470266 -0.082937784 0.06781003 -0.055627033
-0.0680262 0.056746844 0.023953307 -5.0656834 -2.8057175 0.0064986274 -0.5521197 0.055538632
-0.08420104 -0.05086614 0.01774979 -0.076550126 0.007734336 -0.07650314 0.037041936 -0.59747815
0.008257601 -0.029553868 0.072524145 -0.55473775 -0.08557046 0.003316866 0.06276637 0.02559012
-0.022353008 0.06600067 0.0039438307 -0.61221856 -0.8300354 -0.05272556 1.3838226 -4.258309
-0.011345305 1.7879268 -0.52847606 -0.051738426 -0.084691845 -0.011664917 0.04290884 -3.8707943
-0.04178388 -0.040157948 -0.058172386 0.03326132 -4.191788 0.8460183 -0.59297824 0.028999433
3.3992348 0.038398176 -2.4252524 0.0352385 -0.57296294 0.051256206 0.00885569 0.046441738
2.0265293 -0.05485367 0.048980013 -0.5252477 -0.00023904155 0.0018447837 -1.2919285 -0.0011917283
-0.070092104 0.016819194 3.2445705 -0.06153577 -0.0027531534 0.010965693 0.016474877 -5.2975364
-4.0749097 0.005493652 -0.045599326 -3.6531587 -0.065536834 0.0033120469 -0.04290844 -2.0478158
-0.05709738 -0.5423992 -0.0016457619 -0.058370814 -3.0036767 0.012321158 -0.0037730911 0.0045448
-0.578013 0.06601306 0.06258432 0.013463905 0.03485274 0.06373795 -0.053406052 -1.223907
-0.03438004 0.0054847486 -0.0035964993 0.6393682 0.04346671 -0.049840767 -1.0129498 -3.020482
-0.021769932 -4.938168 -3.539428 0.008702207 3.0657492 0.051196203 0.058732487 -2.2650702
0.08417213 -0.0027884135 -1.1077454 0.046522632 0.042825993 -0.04284616 -0.0012336277 0.16609997
0.059651043 0.07209914 -0.47083768 -0.014888994 0.015398722 0.056915946 0.06465694 -0.07668406
0.040379 0.012311039 -0.07154863 -2.5769374 -1.8774436 0.026990768 -0.4405421 0.08473107
-0.017275108 0.011568027 0.01973926 0.05335519 -0.09689296 0.071682334 0.045828193 -0.46105886
-0.040052205 0.06336287 0.071617246 -0.5009288 0.05722345 0.0144606745 0.036758065 0.041536823
0.03892319 -0.01221387 -0.008602698 -0.40978646 -2.6665497 -0.011413195 1.235072 -3.338651
0.034793194 2.795174 -0.579483 0.06302824 -0.03121523 0.061711203 0.052445397 -2.7247248
0.009824009 -0.0036523931 -0.028351247 -0.08026391 -4.1181293 -2.668142 -0.43475947 -0.061220467
3.0369174 0.039814614 -4.3621445 -0.026246937 -0.56265694 0.0010593189 0.08084452 0.04047789
1.5132226 0.083588295 -0.036835242 -2.719712 0.04886718 -0.09702622 -1.129895 0.06276155
0.034943257 -0.055612344 2.9569798 -0.0006775527 0.01147423 -0.07705664 0.05729594 -1.9342985
-4.1907964 -0.00435221 -0.02465816 -4.4051895 0.043882318 0.055180803 -0.01759624 -2.3475356
-0.03841093 -0.5542196 0.02022058 0.063853286 -3.8841188 0.0640608 -0.051415477 0.052672464
-0.49232745 -0.0673703 -0.025380569 0.034051664 0.009090205 0.07449317 0.0872074 -1.1682068
0.0039595864 0.051186893 -0.021173794 -0.17881478 -0.06495218 0.041418534 -1.5456988 -6.9854035
00000000: dd45 5cbc 8d0a ebbf e21a b9c0 aa7d 1abd
00000010: 43df 2740 ce51 01bd 2c74 243c e086 4dc0
00000020: 2ac5 9abd cc84 1d3d 16f6 62c0 0c6a 3fbd
00000030: 6226 1ebd 4a8f 4bbd 7fe4 c9bc 3411 0940
00000040: 5b64 3ebd d1a3 80bd 67bf 12bf aa52 cabd
00000050: 6de3 703c 49db a9bd fcdf 8a3d 2cd9 63bd
00000060: 5251 8bbd 616f 683d ba39 c43c 141a a2c0
00000070: e090 33c0 70f2 d43b b757 0dbf 7a7c 633d
00000080: 9871 acbd 0359 50bd 0268 913c 50c6 9cbd
00000090: 5070 fd3b aead 9cbd 49b9 173d 54f4 18bf
000000a0: e44a 073c f41a f2bc 8a87 943d 4b03 0ebf
000000b0: 913f afbd c75f 593b a88b 803d 5fa2 d13c
000000c0: a81d b7bc 5c2b 873d 403b 813b 5bba 1cbf
000000d0: 337d 54bf c2f6 57bd 1921 b13f 1144 88c0
000000e0: a8e1 39bc c9da e43f 354a 07bf aceb 53bd
000000f0: eb72 adbd 351e 3fbc 2ec1 2f3d 18bb 77c0
00000100: 9325 2bbd a97c 24bd 2b46 6ebd 063d 083d
00000110: 2123 86c0 a894 583f 6ccd 17bf 3890 ed3c
00000120: 108d 5940 6847 1d3d 5637 1bc0 3f56 103d
00000130: b3ad 12bf 07f2 513d 7517 113c b139 3e3d
00000140: a8b2 0140 3eae 60bd 449f 483d a276 06bf
00000150: 3aa7 7ab9 abcc f13a ea5d a5bf c433 9cba
00000160: 738c 8fbd 68c8 893c 0ba7 4f40 ee0c 7cbd
00000170: 406e 34bb 73a9 333c 52f6 863c 6b85 a9c0
00000180: a965 82c0 1804 b43b 5cc6 3abd 5acd 69c0
00000190: 2d38 86bd ed0e 593b c3c0 2fbd 6a0f 03c0
000001a0: f1de 69bd adda 0abf 9bb6 d7ba 3c16 6fbd
000001b0: 3d3c 40c0 afde 493c f745 77bb 8cec 943b
000001c0: a9f8 13bf db31 873d 352c 803d b697 5c3c
000001d0: bfc1 0e3d 0b89 823d 4ec0 5abd fca8 9cbf
000001e0: 16d2 0cbd 68b9 b33b 3fb3 6bbb a2ad 233f
000001f0: 260a 323d d525 4cbd 57a8 81bf 944f 41c0
00000200: db56 b2bc 7905 9ec0 fd85 62c0 b493 0e3c
00000210: 3c35 4440 1cb3 513d 7a91 703d e9f6 10c0
00000220: 7062 ac3d d1bd 36bb 9aca 8dbf 848e 3e3d
00000230: 4f6a 2f3d 747f 2fbd adb1 a1ba 1c16 2a3e
00000240: a754 743d b7a8 933d a311 f1be f8f0 73bc
00000250: ec4a 7c3c b220 693d dc6a 843d 880c 9dbd
00000260: 7364 253d 3db4 493c 1788 92bd 8bec 24c0
00000270: 1250 f0bf be1b dd3c bc8e e1be 7c87 ad3d
00000280: 8784 8dbc d287 3d3c 3bb4 a13c f98a 5a3d
00000290: d16f c6bd 30ce 923d 58b6 3b3d e80f ecbe
000002a0: c80d 24bd 64c4 813d 10ac 923d df3c 00bf
000002b0: 2363 6a3d 77ec 6c3c a08f 163d 8422 2a3d
000002c0: ec6d 1f3d af1c 48bc 55f2 0cbc 88cf d1be
000002d0: c0a8 2ac0 69fe 3abc d716 9e3f 75ac 55c0
000002e0: 4f83 0e3d 21e4 3240 ff58 14bf f314 813d
000002f0: 15b7 ffbc e3c4 7c3d fcd0 563d e461 2ec0
00000300: e1f4 203c fd5c 6fbb e040 e8bc 6861 a4bd
00000310: b7c7 83c0 d7c2 2ac0 cb98 debe 50c2 7abd
00000320: db5c 4240 a614 233d b096 8bc0 d103 d7bc
00000330: 490a 10bf d8d8 8a3a d091 a53d 25cc 253d
00000340: 47b1 c13f 5730 ab3d 8de0 16bd c30f 2ec0
00000350: f428 483d afb5 c6bd 66a0 90bf 2189 803d
00000360: a920 0f3d c5c9 63bd 283f 3d40 cb9d 31ba
00000370: 69fe 3b3c dfcf 9dbd 26af 6a3d 1897 f7bf
00000380: 011b 86c0 fc9c 8ebb e9ff c9bc 50f7 8cc0
00000390: f2bd 333d 4405 623d fd25 90bc 063e 16c0
000003a0: c854 1dbd 56e1 0dbf a1a5 a53c 83c5 823d
000003b0: 6795 78c0 4f32 833d 0999 52bd 15bf 573d
000003c0: 5812 fcbe 71f9 89bd e9ea cfbc c279 0b3d
000003d0: 15ef 143c e08f 983d cb99 b23d cd87 95bf
000003e0: 6bbf 813b 59a9 513d aa74 adbc 391b 37be
000003f0: a605 85bd 7ba6 293d 75d9 c5bf 6d88 dfc0

net.4.bias f4 [3]
-0.5968566 -0.15584254 -0.32228282
00000000: 98cb 18bf 3095 1fbe 4102 a5be
