P3/Q3/Batch5000/cartpole/checkpoints/pg_CartPole-v1_last.pth (torch, 81795 bytes, 18 tensors)

net.0.weight f4 [64, 4]
-0.056421995 0.14311242 0.11521778 0.32299596 -0.19153102 -0.4011449 -0.09277933 0.3351399
0.25177896 -0.41023117 -0.6576723 -0.494344 -0.13580398 0.34663627 -0.20751894 -0.31247658
0.3541986 0.2201485 -0.38511682 -0.47848266 -0.3193459 -0.33067843 -0.22321387 0.29097053
0.01249598 0.2349786 -0.15554078 -0.13248032 0.33643532 0.26199883 0.43932408 0.536998
-0.033278424 0.09063615 -0.15024969 -0.03598331 0.29290274 0.3357843 -0.54817706 0.22825567
0.2657588 -0.3704877 -0.41274762 -0.54435325 -0.276378 -0.42122677 -0.69024956 -0.23997812
0.006599394 0.2504279 -0.53146964 -0.42348453 -0.15410031 -0.06110224 0.61063665 0.2604096
0.115794726 -0.11977508 -0.33140552 -0.2498833 -0.49758434 0.3947225 -0.19112812 0.46404064
0.47090337 -0.20730372 -0.013413336 0.5105579 -0.052221432 -0.14526172 -0.2555401 0.54416776
0.32801569 0.33080104 0.54653853 0.38276756 -0.20481889 -0.34768417 -0.2341951 -0.2732901
0.23664992 -0.53685725 -0.5538026 -0.26039106 -0.4138528 0.47495678 -0.18601382 0.48343214
-0.15977678 -0.46285346 -0.40427 -0.42869923 0.11781563 0.042900495 -0.5790006 -0.2384343
0.013633126 -0.39048815 0.25207812 0.12489987 0.32646814 0.25772303 -0.13691981 0.1748212
0.0866096 0.20887291 0.12357118 0.5324016 -0.3166641 0.034019027 0.06612901 -0.36972675
-0.17942783 0.3886854 -0.26200464 -0.46206704 0.13094148 -0.37189978 -0.2929505 -0.36796603
-0.438588 0.1420929 0.118143626 -0.43315968 0.43299696 -0.47413412 -0.13000612 0.4981665
0.26839802 0.2650725 -0.0003085458 -0.3079409 -0.17651358 0.05497948 -0.65249604 -0.51710844
0.34192982 0.44703192 0.50877166 0.555167 -0.39995033 0.114103585 0.4289059 -0.13404725
0.23140153 -0.18786629 0.13810225 0.48393708 0.08533295 0.34923732 0.074482895 0.5088462
-0.3327479 -0.45450032 0.073192924 -0.097779274 -0.1629765 0.06155938 0.0044653416 0.044583857
-0.031831466 -0.27136138 -0.28146094 -0.059987426 0.28115433 -0.48905674 -0.03696128 -0.4186987
-0.2276367 -0.35410157 0.1843026 -0.41600928 0.16555908 -0.49692616 0.11813655 -0.018993868
0.082632214 0.1177032 -0.35106033 0.20230123 0.15500389 -0.34742358 0.31272632 0.25715536
-0.48913452 0.07799171 0.34692088 0.19557594 -0.17617251 -0.12164477 -0.38409355 0.02979784
-0.032664105 -0.09877785 -0.2201766 -0.1547981 0.104492866 -0.18456987 -0.22345443 -0.52454567
-0.058612805 -0.2699099 0.06238996 0.37218773 -0.059600774 -0.04497003 0.5000044 0.5175647
-0.20938744 0.33071148 -0.5014618 -0.28799415 -0.11773402 -0.16340841 0.4000475 0.2969865
0.45354038 -0.16011703 0.21458857 0.19287403 -0.17060615 0.12076523 -0.22302157 0.22390752
0.23205128 -0.0913378 -0.21872535 0.2719916 -0.3039733 -0.012858095 0.00013741327 0.34252957
-0.25989738 -0.19188243 -0.024181785 0.35157862 -0.21290024 -0.050559007 0.13604145 0.41097075
-0.450352 -0.3907577 -0.5446927 -0.21167359 0.18409267 -0.33271816 -0.22796822 -0.00370528
-0.05862167 0.13314506 0.09289849 0.45885193 -0.041432485 0.038889717 -0.47987688 -0.49219564
00000000: c01a 67bd 108c 123e 4df7 eb3d ba5f a53e
00000010: b520 44be dd62 cdbe 1703 bebd 7597 ab3e
00000020: 2ce9 803e d209 d2be 365d 28bf a81a fdbe
00000030: 3310 0bbe 4f7a b13e d87f 54be eefc 9fbe
00000040: 8559 b53e 9c6e 613e 082e c5be aefb f4be
00000050: 4e81 a3be af4e a9be 2d92 64be 17fa 943e
00000060: f0bb 4c3c 3b9e 703e 1546 1fbe eca8 07be
00000070: 4041 ac3e b624 863e 16ef e03e b378 093f
00000080: f54e 08bd 729f b93d 0edb 19be 3c63 13bd
00000090: 59f7 953e ebeb ab3e 5555 0cbf dbbb 693e
000000a0: 8a11 883e 90b0 bdbe a853 d3be bc5a 0bbf
000000b0: 6b81 8dbe 09ab d7be 32b4 30bf d3bc 75be
000000c0: bb3f d83b 1638 803e 650e 08bf f7d2 d8be
000000d0: 79cc 1dbe 5846 7abd af52 1c3f 6854 853e
000000e0: c925 ed3d a34c f5bd fcad a9be 68e1 7fbe
000000f0: 60c3 febe 1119 ca3e 17b7 43be bc96 ed3e
00000100: 3f1a f13e 6d47 54be 9cc3 5bbc ecb3 023f
00000110: 24e6 55bd 7dbf 14be 27d6 82be 944e 0b3f
00000120: acf1 a73e c15e a93e f3e9 0b3f 1cfa c33e
00000130: 0bbc 51be a903 b2be d7d0 6fbe aeec 8bbe
00000140: 5b54 723e 7a6f 09bf 02c6 0dbf fa51 85be
00000150: 84e4 d3be 892d f33e 687a 3ebe 6b84 f73e
00000160: 869c 23be 21fb ecbe 7afc cebe 777e dbbe
00000170: 5249 f13d 6eb8 2f3d 6239 14bf 1f28 74be
00000180: 7a5d 5f3c 10ee c7be 6210 813e 81cb ff3d
00000190: d526 a73e 46f4 833e b534 0cbe 5404 333e
000001a0: 6060 b13d c8e2 553e e312 fd3d 794b 083f
000001b0: cc21 a2be 8957 0b3d a56e 873d d34c bdbe
000001c0: eebb 37be c601 c73e 7925 86be 0d94 ecbe
000001d0: 8615 063e a669 bebe 9cfd 95be 0b66 bcbe
000001e0: 9b8e e0be cd80 113e 49f5 f13d 1bc7 ddbe
000001f0: c7b1 dd3e b5c1 f2be 5320 05be ae0f ff3e
00000200: 776b 893e 95b7 873e 51c4 a1b9 6eaa 9dbe
00000210: fabf 34be 2a32 613d fb09 27bf 3861 04bf
00000220: 6d11 af3e 5ee1 e43e dc3e 023f 6d1f 0e3f
00000230: 4ac6 ccbe 24af e93d 8e99 db3e af43 09be
00000240: 86f4 6c3e 0560 40be ad6a 0d3e 9ac6 f73e
00000250: 0bc3 ae3d 3ccf b23e 7d8a 983d bf43 023f
00000260: ef5d aabe 44b4 e8be 2ce6 953d 8040 c8bd
00000270: 50e3 26be b025 7c3d 0052 923b 909d 363d
00000280: b661 02bd e1ef 8abe a61b 90be 60b5 75bd
00000290: 76f3 8f3e a565 fabe b664 17bd ad5f d6be
000002a0: 9819 69be cd4c b5be d2b9 3c3e 2bff d4be
000002b0: 5288 293e 1b6d febe 93f1 f13d 0799 9bbc
000002c0: 143b a93d 600e f13d 2ebe b3be 0e28 4f3e
000002d0: 57b9 1e3e 81e1 b1be aa1d a03e dea9 833e
000002e0: d76f fabe 1eba 9f3d 9d9f b13e 0f45 483e
000002f0: 9166 34be e520 f9bd e9a7 c4be 9a1a f43c
00000300: ccca 05bd 0b4c cabd fa75 61be 6583 1ebe
00000310: 5b00 d63d e2ff 3cbe 3dd1 64be a048 06bf
00000320: fb13 70bd a131 8abe 9d8c 7f3d 648f be3e
00000330: f11f 74bd 7f32 38bd 4a00 003f 1f7f 043f
00000340: a969 56be 0453 a93e cd5f 00bf f873 93be
00000350: 891e f1bd 8954 27be 07d3 cc3e 9d0e 983e
00000360: 7236 e83e b8f5 23be 1bbd 5b3e c580 453e
00000370: 61b3 2ebe c353 f73d c45f 64be 0348 653e
00000380: da9e 6d3e 500f bbbd 8af9 5fbe 7c42 8b3e
00000390: 63a2 9bbe c2aa 52bc 9816 1039 0960 af3e
000003a0: 4511 85be d47c 44be e118 c6bc 1d02 b43e
000003b0: 8502 5abe f616 4fbd 734e 0b3e c26a d23e
000003c0: 8a94 e6be 6511 c8be fb70 0bbf f6c0 58be
000003d0: ca82 3c3e 095a aabe 8070 69be 48d4 72bb
000003e0: 471d 70bd 2e57 083e 9041 be3d a4ee ea3e
000003f0: 1cb5 29bd d34a 1f3d 6cb2 f5be 1101 fcbe

net.0.bias f4 [64]
0.43012378 0.5592487 0.41892222 0.46303815 0.019005438 0.16308613 -0.28514785 0.29111877
-0.24499851 0.4597428 -0.049943473 0.14941424 -0.37089282 0.38228723 0.31223547 0.13223876
0.47650763 -0.0832699 -0.18108322 0.080943055 -0.23684686 0.35725805 0.518781 0.22483736
0.09209698 0.09641677 -0.033014618 0.43029428 0.08237599 0.02568395 -0.20963755 0.12210253
-0.19713895 0.21302536 0.36673486 0.20431703 -0.15380491 0.30682078 0.27752864 -0.48330033
0.23105189 0.04347721 -0.08577393 0.12290418 -0.40363932 0.5284817 -0.32966962 0.27581626
-0.37627432 0.10365569 0.3510302 0.27736893 0.5257463 0.008239288 0.3902536 -0.26877186
0.4953279 -0.49543634 0.20097601 -0.36621627 -0.43551564 -0.47661483 -0.44107106 0.2663898
00000000: 2f39 dc3e ec2a 0f3f f97c d63e 5613 ed3e
00000010: 4bb1 9b3c 0d00 273e e6fe 91be 850d 953e
00000020: e4e0 7abe 6963 eb3e 8791 4cbd 0c00 193e
00000030: aae5 bdbe 27bb c33e 54dd 9f3e 9969 073e
00000040: cff8 f33e 6989 aabd e16d 39be 79c5 a53d
00000050: fc87 72be 87ea b63e d5ce 043f c43b 663e
00000060: 579d bc3d 2876 c53d 563a 07bd 884f dc3e
00000070: beb4 a83d 2667 d23c 3aab 56be e410 fa3d
00000080: cbde 49be 5223 5a3e acc4 bb3e 7c38 513e
00000090: 097f 1dbe 9d17 9d3e 3c18 8e3e 2473 f7be
000000a0: de98 6c3e 2915 323d 3eaa afbd 30b5 fb3d
000000b0: d0a9 cebe 944a 073f 75ca a8be ca37 8d3e
000000c0: 07a7 c0be 6f49 d43d 3bba b33e 4d03 8e3e
000000d0: 4f97 063f 14fe 063c 52cf c73e 779c 89be
000000e0: 9e9b fd3e d5a9 fdbe a8cc 4d3e b380 bbbe
000000f0: e8fb debe dc06 f4be 11d4 e1be 3e64 883e

net.2.weight f4 [64, 64]
-0.051501233 0.12344202 0.19697958 0.019139612 0.07339328 -0.06436899 -0.06586528 -0.1317198
0.012274566 0.07507406 -0.03572261 0.0010068334 0.0022044808 -0.010182152 0.0564074 -0.12651281
0.04821733 -0.13429295 0.0041647675 0.20987464 0.01001969 -0.08948092 0.040861845 0.16981979
-0.051708434 0.039230485 -0.17564107 0.12723032 0.018715315 0.15659875 0.1432989 -0.036603928
0.012208222 0.19314429 -0.10732118 -0.02977979 -0.0885363 -0.1057786 0.095757134 -0.079104975
0.07436245 -0.004615309 0.047714416 0.10048415 -0.009903797 0.057212908 -0.063515544 0.18132542
0.10318495 0.21590449 -0.037233733 -0.16439839 0.17650235 -0.148665 -0.058347877 0.046598554
0.03071748 -0.025590733 -0.08002169 -0.13346596 -0.05765613 0.0012603427 -0.106754005 0.09324263
-0.111526854 -0.026337745 0.19413847 0.0047190855 -0.021580335 -0.082096405 0.051832944 -0.1978301
0.006758443 0.07167867 0.19131565 0.09242547 0.17987871 0.0048991195 0.15073904 -0.07235661
0.04565744 0.010287572 -0.16386665 0.11358829 0.10921613 -0.12902418 0.012489026 0.15911841
-0.052664895 -0.0204134 -0.06719715 0.022145495 0.08045693 0.1497682 0.10819352 -0.06961613
-0.0014572282 0.15217507 -0.0060890247 0.082821615 0.015518453 -0.12521292 0.07198014 0.05251226
0.037654154 0.053790655 0.03664753 -0.018735388 0.027845656 0.08460734 -0.012359222 0.05109548
-0.022362927 0.04304798 -0.11750061 -0.09639883 0.04237786 -0.05863052 -0.12639527 0.07756441
0.11301288 -0.029503198 0.0734476 -0.095431775 0.09136864 0.021762455 -0.0437237 0.1580945
-0.10706566 0.028028773 0.045862526 0.14675328 0.03713666 0.06375299 0.0637806 -0.15325165
-0.10595663 -0.065237835 0.0727216 0.12745553 -0.021480322 0.020483445 0.1800744 -0.07081578
-0.13689344 -0.06611218 -0.09300693 -0.012172554 0.048347797 -0.07803008 0.18271056 0.12482494
-0.077846594 -0.051050883 -0.048814997 0.14791788 0.03895896 0.11106783 0.12861834 0.006455658
0.0072904145 0.12770003 0.023468237 -0.025051368 -0.103197195 -0.16235715 -0.006429908 -0.075225964
0.108386576 0.022249484 0.0350706 0.090186186 0.016806744 0.04450087 0.032910258 -0.076784745
-0.12435254 0.049921207 -0.08513376 0.012532894 0.14557235 -0.17007802 0.10852626 0.10881994
0.09294606 -0.040446453 -0.013117005 -0.07081521 0.16443005 0.05371185 -0.098762415 0.13312615
0.003299732 -0.08682289 0.12568946 0.0639637 0.1329039 0.025556134 0.0054380717 -0.179155
-0.13331865 0.016701192 0.16189076 0.10694044 0.11644446 -0.10483833 0.019275224 0.038609684
-0.09240756 0.009016213 -0.10067275 0.08847187 0.17229909 -0.120004594 0.10440144 0.2061448
0.07908379 0.018744508 -0.17159653 0.12949687 0.016582461 0.14636302 -0.06999324 0.018767206
0.04559036 0.13820864 -0.041557677 0.01773831 -0.2052651 0.005460906 0.001174544 -0.11363165
0.020741872 0.107930236 -0.022504345 0.13031492 0.065988414 -0.03296734 -0.07406093 0.0064112735
0.10184124 0.21292211 -0.07701546 -0.20204183 -0.0028300849 -0.033196107 -0.078289784 -0.090506956
0.16908671 -0.09594334 0.071369484 -0.1376159 0.13823016 -0.073688194 -0.11559591 0.12468131
00000000: f5f2 52bd 2bcf fc3d 04b5 493e adca 9c3c
00000010: 374f 963d e4d3 83bd 60e4 86bd 8ee1 06be
00000020: 431b 493c 6ec0 993d df51 12bd b9f7 833a
00000030: 0d79 103b 0ad3 26bc 720b 673d 938c 01be
00000040: 897f 453d 1784 09be 9a78 883b 61e9 563e
00000050: a029 243c c641 b7bd c05e 273d 3de5 2d3e
00000060: 39cc 53bd 25b0 203d 41db 33be aa48 023e
00000070: dc50 993c 6c5b 203e f2bc 123e 00ee 15bd
00000080: ff04 483c 9ec7 453e 35cb dbbd bff4 f3bc
00000090: 8552 b5bd 73a2 d8bd 511c c43d ca01 a2bd
000000a0: 574b 983d 053c 97bb 3170 433d a2ca cd3d
000000b0: 8943 22bc 1558 6a3d 7014 82bd 5fad 393e
000000c0: a252 d33d 1116 5d3e 6682 18bd 0d58 28be
000000d0: 08bd 343e a33b 18be 2ffe 6ebd 20de 3e3d
000000e0: 3aa3 fb3c a8a3 d1bc 69e2 a3bd 4dab 08be
000000f0: d628 6cbd 1532 a53a d8a1 dabd fef5 be3d
00000100: 3168 e4bd 41c2 d7bc 3ccc 463e 8fa2 9a3b
00000110: 3ec9 b0bc 2922 a8bd c84e 543d f993 4abe
00000120: ee75 dd3b 44cc 923d 40e8 433e 9149 bd3d
00000130: 2032 383e cb88 a03b 565b 1a3e b42f 94bd
00000140: 4c03 3b3d 348d 283c a9cc 27be faa0 e83d
00000150: b5ac df3d ea1e 04be c69e 4c3c f0ef 223e
00000160: 25b7 57bd 013a a7bc a99e 89bd 786a b53c
00000170: 9ac6 a43d d65c 193e 9094 dd3d e792 8ebd
00000180: 7700 bfba c8d3 1b3e 7186 c7bb 619e a93d
00000190: 1c41 7e3c d137 00be 536a 933d 1817 573d
000001a0: 3e3b 1a3d 9753 5c3d b81b 163d f57a 99bc
000001b0: 931c e43c 9d46 ad3d 567e 4abc 7e49 513d
000001c0: 7532 b7bc 1453 303d 29a4 f0bd c06c c5bd
000001d0: 6894 2d3d 8e26 70bd c36d 01be 17da 9e3d
000001e0: 4c73 e73d b1b0 f1bc b26b 963d bc71 c3bd
000001f0: 7b1f bb3d 2d47 b23c 9f17 33bd 86e3 213e
00000200: 3e45 dbbd 999c e53c 58da 3b3d 7e46 163e
00000210: 9c1c 183d ed90 823d 679f 823d 00ee 1cbe
00000220: caff d8bd 6a9b 85bd 10ef 943d b483 023e
00000230: 80f7 afbc e6cc a73c 6c65 383e dd07 91bd
00000240: cb2d 0cbe d365 87bd 6b7a bebd 646f 47bc
00000250: 5708 463d 3cce 9fbd 7a18 3b3e 38a4 ff3d
00000260: 096e 9fbd bb1a 51bd 3cf2 47bd c977 173e
00000270: 6e93 1f3d 8877 e33d 87b4 033e fc89 d33b
00000280: 6ee4 ee3b ccc3 023e 7640 c03c 8738 cdbc
00000290: 0d59 d3bd f440 26be fab1 d2bb 1210 9abd
000002a0: c8f9 dd3d 8d44 b63c 31a6 0f3d 89b3 b83d
000002b0: 4cae 893c 8b46 363d e8cc 063d 5241 9dbd
000002c0: 8bac febd 2e7a 4c3d 9c5a aebd c456 4d3c
000002d0: eb10 153e ef28 2ebe 0443 de3d fddc de3d
000002e0: 815a be3d 2eab 25bd b5e8 56bc 9107 91bd
000002f0: 5a60 283e f500 5c3d f343 cabd 3952 083e
00000300: 5140 583b 33d0 b1bd bdb4 003e 66ff 823d
00000310: f617 083e 195b d13c da31 b23b 6974 37be
00000320: af84 08be f0d0 883c b1c6 253e 9703 db3d
00000330: 6f7a ee3d 7ab5 d6bd 13e7 9d3c 3025 1e3d
00000340: 2d40 bdbd bdb8 133c 842d cebd bd30 b53d
00000350: 2c6f 303e f8c4 f5bd 6cd0 d53d 9f17 533e
00000360: aff6 a13d 158e 993c 00b7 2fbe d49a 043e
00000370: f1d7 873c 30e0 153e 9e58 8fbd afbd 993c
00000380: f5bc 3a3d 9186 0d3e 6238 2abd ef4f 913c
00000390: 0431 52be 66f1 b23b 28f3 993a b6b7 e8bd
000003a0: dcea a93c 870a dd3d 085b b8bc 4671 053e
000003b0: ef24 873d c308 07bd 42ad 97bd a915 d23b
000003c0: 2492 d03d 4108 5a3e 48ba 9dbd 0ee4 4ebe
000003d0: f278 39bb a4f8 07bd 6556 a0bd b65b b9bd
000003e0: 1125 2d3e f17d c4bd 2a2a 923d 2feb 0cbe
000003f0: 358c 0d3e d6e9 96bd 8cbd ecbd ea58 ff3d

net.2.bias f4 [64]
0.0070199165 0.13279413 -0.0013802907 0.17497134 -0.0024997254 -0.01629761 -0.07564894 -0.026573846
0.011580988 -0.05954612 -0.10829041 0.13397631 -0.08221861 -0.07525007 0.16892727 -0.13655385
0.107540205 0.14113641 0.10468394 -0.0044780034 0.0008738247 0.10478867 0.08079216 0.025739333
-0.017791688 0.03307489 -0.07961546 -0.06664616 -0.08215174 0.014127023 0.15911825 -0.12985113
0.0059892302 -0.0060677864 -0.024513457 -0.107175484 0.019674998 0.10474862 -0.014496891 -0.0047641164
0.031704813 0.10981489 0.11845001 0.07364043 0.05102753 0.106382 -0.06069528 0.106560834
0.17651795 0.07394942 0.08950063 0.101688676 0.13103385 0.062774606 -0.06534327 0.1474293
0.13231073 -0.019380553 -0.12519293 0.0513519 0.042353842 -0.064135544 0.17481329 -0.024572242
00000000: 5407 e63b 2ffb 073e dfea b4ba b02b 333e
00000010: 6fd2 23bb 9182 85bc d5ed 9abd 65b1 d9bc
00000020: 2fbe 3d3c a2e6 73bd 5dc7 ddbd 1631 093e
00000030: 3b62 a8bd b51c 9abd 45fb 2c3e c6d4 0bbe
00000040: 0a3e dc3d 1086 103e 8964 d63d 37bc 92bb
00000050: 6211 653a 719b d63d 5c76 a53d 4bdb d23c
00000060: e0bf 91bc 8979 073d 6e0d a3bd c87d 88bd
00000070: 2c3f a8bd 0775 673c e5ef 223e b2f7 04be
00000080: 4e41 c43b 48d4 c6bb 72d0 c8bc d27e dbbd
00000090: 762d a13c 7286 d63d 5e84 6dbc 4e1c 9cbb
000000a0: e8dc 013d a1e6 e03d eb95 f23d cbd0 963d
000000b0: 3e02 513d cede d93d 9d9b 78bd 913c da3d
000000c0: 1fc1 343e cb72 973d 1b4c b73d 2742 d03d
000000d0: bd2d 063e f98f 803d b1d2 85bd b5f7 163e
000000e0: 777c 073e f7c3 9ebc 9332 00be 5f56 523d
000000f0: 397b 2d3d 7f59 83bd 4102 333e ba4b c9bc

net.4.weight f4 [2, 64]
0.1875641 0.19060402 0.17107476 -0.010385187 0.08279098 0.07383112 -0.010570153 -0.07215523
-0.14066088 0.045580603 -0.0012108235 -0.119195715 0.02330324 0.12124067 0.052247155 0.013020937
-0.16690965 -0.14804703 0.18357612 0.17723042 0.12857431 0.14135098 0.16065708 0.13162209
0.015085846 0.018304065 -0.023012793 0.19925581 0.04828559 0.18319412 0.16388266 -0.014437907
-0.19017558 0.08852516 -0.14506546 -0.094904214 0.02208735 -0.20240669 0.19581692 0.0038101391
-0.031004287 -0.120866865 -0.086892486 0.08893843 -0.104848415 -0.010672426 -0.010733288 0.21938339
-0.13570826 0.16622747 -0.17953141 -0.15913564 -0.122063994 0.19025235 0.042539492 -0.05713118
0.16327648 0.0828599 0.09189298 -0.18646814 0.15479518 0.028769432 -0.062428724 -0.014502507
-0.0399376 -0.014324034 -0.023658864 -0.21269415 -0.23067155 -0.113528945 0.090184905 0.14639936
-0.00060368114 -0.17956018 -0.004780768 0.038282096 -0.02278498 -0.15151115 -0.18894833 -0.11393437
0.21940911 0.12744163 -0.06326412 -0.05732354 -0.12887472 -0.13474032 -0.11801255 0.031521603
0.072108686 0.041860387 -0.018891016 -0.15992896 -0.02241227 -0.0059954994 -0.048525166 -0.024090359
0.1304491 -0.14341854 0.06778593 0.11048983 0.0051535266 0.013376217 -0.046697065 -0.19266687
-0.1372754 0.11794696 0.14555538 0.022411125 0.08480422 0.18561801 -0.0034542065 -0.030204104
0.16768415 -0.15051149 0.19952442 0.1513293 0.14228901 -0.20620821 -0.08525758 0.14049211
-0.10581813 -0.05549578 -0.085713334 0.05504006 -0.09457502 -0.11454768 0.20736234 0.21682961
00000000: ce10 403e b32d 433e 392e 2f3e a226 2abc
00000010: 518e a93d c534 973d 6f2e 2dbc 1fc6 93bd
00000020: 6809 10be bab2 3a3d 7fb4 9eba e21c f4bd
00000030: 70e6 be3c 074d f83d 1d01 563d c555 553c
00000040: 5dea 2abe a499 17be 61fb 3b3e e47b 353e
00000050: fca8 033e 50be 103e 4a83 243e f1c7 063e
00000060: a02a 773c 68f2 953c 5385 bcbc b709 4c3e
00000070: 1cc7 453d 3d97 3b3e dbd0 273e f98c 6cbc
00000080: 63bd 42be ae4c b53d 0a8c 14be 245d c2bd
00000090: 88f0 b43c b343 4fbe 3b84 483e 87b3 793b
000000a0: b4fc fdbc 0c89 f7bd b0f4 b1bd 5a25 b63d
000000b0: c4ba d6bd 66db 2ebc acda 2fbc 0aa6 603e
000000c0: 1bf7 0abe 8937 2a3e 15d7 37be 74f4 22be
000000d0: b0fc f9bd 83d1 423e e43d 2e3d 6202 6abd
000000e0: f331 273e 74b2 a93d 6332 bc3d 81f1 3ebe
000000f0: a182 1e3e dfad eb3c 43b5 7fbd ec9b 6dbc
00000100: 9c95 23bd 5aaf 6abc 3cd0 c1bc 7fcc 59be
00000110: 2a35 6cbe dd81 e8bd ddb2 b83d b7e9 153e
00000120: 5b40 1eba a0de 37be fda7 9cbb b0cd 1c3d
00000130: 91a7 babc bd25 1bbe ac7b 41be 6c56 e9bd
00000140: c8ac 603e 0f80 023e 9e90 81bd 17cc 6abd
00000150: bcf7 03be 5ef9 09be 90b0 f1bd cc1c 013d
00000160: b8ad 933d cc75 2b3d 55c1 9abc 6bc4 23be
00000170: f099 b7bc e575 c4bb 53c2 46bd 2559 c5bc
00000180: 7394 053e 4fdc 12be 5ad3 8a3d 7e48 e23d
00000190: eade a83b ec27 5b3c 6c45 3fbd 774a 45be
000001a0: ec91 0cbe 2d8e f13d 780c 153e 8997 b73c
000001b0: d6ad ad3d a612 3e3e f85f 62bb 996e f7bc
000001c0: 65b5 2b3e af1f 1abe 2150 4c3e 11f6 1a3e
000001d0: 36b4 113e 3f28 53be 879b aebd 2add 0f3e
000001e0: 2db7 d8bd 8b4f 63bd 798a afbd b071 613d
000001f0: 8cb0 c1bd f997 eabd cb56 543e 9508 5e3e

net.4.bias f4 [2]
0.052254353 -0.07771127
00000000: a908 563d 1627 9fbd

exp_avg f4 [64, 4]
-0.00020529759 -0.0002885606 -3.5342273e-05 0.00018602805 -8.969619e-05 -9.203974e-05 -8.617684e-06 6.3381216e-05
0.00047547612 0.00061328424 6.306016e-05 -0.00040724393 0.00017483126 0.00020859651 2.0663063e-05 -0.00012361363
0.00019451605 0.00029808373 2.0119307e-05 -0.00018247258 2.1738148e-05 -1.9963309e-05 -1.5206683e-05 6.756291e-05
3.949028e-06 -2.8066923e-05 1.896315e-06 1.1226448e-05 -0.0005028106 -0.00070053927 -8.1753264e-05 0.00045795183
-3.009866e-15 4.3008877e-15 -2.849084e-16 -2.4783496e-15 5.8407833e-05 6.53036e-05 5.4977963e-06 -4.5895616e-05
0.00038099027 0.00028476652 1.0848944e-05 -0.0002835383 -0.00019188556 0.00010749631 7.322248e-05 -0.00022630404
-5.7140755e-05 -1.4254964e-05 1.5697877e-05 1.6910349e-06 -0.00030842674 -0.00042198456 -5.079338e-05 0.00024899206
0.00026888427 0.00034895833 4.1098057e-05 -0.0002311578 8.072764e-05 -0.00018204375 -5.811826e-05 -5.481912e-06
-0.0001669895 -0.0003193931 -4.2715583e-05 0.0002033248 0.00018640436 -8.4430554e-05 -3.7979877e-05 0.00010496588
-0.00042043938 -0.00024315264 3.0528598e-05 6.436144e-05 4.5340064e-05 2.93318e-05 5.2774278e-05 -0.00019755324
6.732749e-05 5.9108803e-05 3.474263e-05 -0.00015074371 -0.00011263559 -0.0005617323 -1.3666791e-05 0.00022546356
0.00043090776 0.00040387557 2.5322035e-05 -0.0003198718 0.00056003727 0.0007867896 5.9437658e-05 -0.0004787902
-1.4600332e-05 -3.8928043e-05 -1.8883193e-05 7.823997e-05 -3.491435e-05 -9.755848e-05 -9.888239e-06 6.523925e-05
0.00056774594 -0.0010171799 -5.4599266e-05 0.00030178938 0.00019329587 0.00029476848 3.3187625e-05 -0.0001923463
0.00022123958 0.00032583924 2.5510655e-05 -0.00011817192 0.00042779814 0.00037735063 4.9223843e-05 -0.00037391763
1.7616561e-05 -1.0883041e-05 -8.9822515e-06 1.491919e-05 -0.00016025946 -0.0001717169 -3.1528736e-05 0.00019106311
0.00011676617 8.84819e-05 -3.2717212e-06 -2.7329164e-05 0.0008247984 0.00057167053 -1.5045514e-05 -0.00027930897
-0.00033990646 -0.00042305587 -4.520738e-05 0.00028143846 -8.9888046e-05 -8.911059e-05 -1.9070103e-05 3.109388e-05
-0.00016320003 -0.0001390931 -2.8256634e-05 0.00015936034 -0.00038131693 -0.0005404095 -5.7537272e-05 0.00033293726
-6.845731e-05 4.8230322e-05 2.6504715e-05 -7.013284e-05 0.0 0.0 0.0 0.0
0.00021527783 0.00024668532 3.598779e-06 -0.00016593917 0.00037828367 0.00035462566 1.3564533e-05 -0.00027606555
0.00016410196 -0.00020472497 5.363569e-06 3.230354e-05 -9.881492e-06 -1.8111972e-05 -2.8312768e-06 7.08373e-06
5.8888208e-08 4.1116216e-08 -2.0832625e-09 3.862312e-09 -0.00012987308 -0.00023036539 -2.9064913e-05 0.00013987304
-1.79922e-06 1.143402e-05 1.1753633e-06 -1.2074775e-05 0.00024972184 0.00024783445 6.5408235e-06 -0.00014404583
-2.3649553e-18 -2.6513808e-18 -1.4877689e-19 6.1383044e-20 0.0006234511 0.0005152554 2.9606315e-05 -0.00051937904
-0.00020130661 -0.00025012507 -2.0973275e-05 0.00014911492 -0.0008174168 -0.0010742913 -5.5606502e-05 0.00048917904
0.00024216686 0.00030430796 3.285829e-05 -0.00018227547 1.4781267e-05 -5.5512086e-05 -3.9332906e-05 9.7769116e-05
-0.00010880398 -0.00016363298 -2.0569338e-05 0.00010561278 8.828079e-09 -4.619078e-09 -5.0400023e-10 -1.1350102e-10
-2.6651585e-06 -2.2220747e-05 -5.0289955e-06 1.0439248e-05 -2.4165846e-08 -1.919591e-08 3.995797e-09 1.24006e-08
3.027146e-05 -9.379331e-05 -2.5485471e-05 8.1609796e-05 3.803899e-06 -6.0007446e-06 -3.7077902e-07 3.0263307e-06
-2.490431e-05 -1.9581557e-05 5.163257e-06 6.657774e-06 -3.0828032e-05 2.7832648e-05 1.079381e-06 -2.7939036e-06
-1.8491639e-13 1.1246303e-14 1.6448025e-14 6.718962e-14 0.00064959156 0.0005134436 4.3613734e-05 -0.00032875585
00000000: 2745 57b9 f349 97b9 7a3c 14b8 8610 4339
00000010: 461b bcb8 7605 c1b8 ac94 10b7 88eb 8438
00000020: 5349 f939 cfc4 203a 2a3f 8438 5b83 d5b9
00000030: e952 3739 b3ba 5a39 9755 ad37 489e 01b9
00000040: 01f7 4b39 1f48 9c39 e2c5 a837 1c56 3fb9
00000050: 515a b637 e176 a7b7 3520 7fb7 90b0 8d38
00000060: e481 8436 4271 ebb7 e384 fe35 3a59 3c37
00000070: 0ccf 03ba 65a4 37ba f372 abb8 4119 f039
00000080: 3ae2 58a7 b0f4 9a27 0f3d a4a5 7b95 32a7
00000090: effa 7438 9af3 8838 b679 b836 0b80 40b8
000000a0: a6bf c739 b74c 9539 dc03 3637 dea7 94b9
000000b0: e334 49b9 a46f e138 058f 9938 074c 6db9
000000c0: 6baa 6fb8 9b28 6fb7 efae 8337 84f7 e235
000000d0: 56b4 a1b9 cf3d ddb9 fa0a 55b8 268b 8239
000000e0: 09f9 8c39 65f4 b639 b460 2c38 f362 72b9
000000f0: 524c a938 ffe2 3eb9 02c4 73b8 44f1 b7b6
00000100: e719 2fb9 3774 a7b9 8229 33b8 9633 5539
00000110: 8a75 4339 4f10 b1b8 954c 1fb8 2121 dc38
00000120: 6b6e dcb9 caf6 7eb9 d50b 0038 c9f9 8638
00000130: 862b 3e38 900d f637 f359 5d38 4b26 4fb9
00000140: 2c32 8d38 98eb 7738 9db8 1138 f510 1eb9
00000150: c636 ecb8 3741 13ba 6c4a 65b7 6a6a 6c39
00000160: 76eb e139 43bf d339 a86a d437 77b4 a7b9
00000170: 77cf 123a 8e40 4e3a b34c 7938 2206 fbb9
00000180: f3f3 74b7 ab46 23b8 5967 9eb7 c414 a438
00000190: ff70 12b8 4f98 ccb8 aae5 25b7 0ed1 8838
000001a0: c9d4 143a e552 85ba 8401 65b8 7c39 9e39
000001b0: 77af 4a39 288b 9a39 f132 0b38 91b0 49b9
000001c0: 8cfc 6739 67d5 aa39 b7ff d537 11d3 f7b8
000001d0: 184a e039 25d7 c539 b375 4e38 600a c4b9
000001e0: 47c7 9337 4e96 36b7 7ab2 16b7 6f4d 7a37
000001f0: 520b 28b9 e80e 34b9 b93d 04b8 1d58 4839
00000200: 5ce0 f438 5c8f b938 be8f 5bb6 ef40 e5b7
00000210: 4937 583a 29dc 153a fe6b 7cb7 3770 92b9
00000220: 7935 b2b9 99cd ddb9 0e9d 3db8 088e 9339
00000230: 4782 bcb8 e2e0 bab8 bcf8 9fb7 cd6a 0238
00000240: ad20 2bb9 85d9 11b9 a908 edb7 f719 2739
00000250: 7eeb c7b9 45aa 0dba 2d54 71b8 158e ae39
00000260: bd90 8fb8 ea4a 4a38 7156 de37 4814 93b8
00000270: 0000 0000 0000 0000 0000 0000 0000 0000
00000280: 34bc 6139 8b55 8139 8d82 7136 f5ff 2db9
00000290: 6054 c639 0ded b939 3a93 6337 e4bc 90b9
000002a0: c912 2c39 71ab 56b9 b5f8 b336 a97d 0738
000002b0: afc8 25b7 2aef 97b7 f700 3eb6 c7b0 ed36
000002c0: 45ec 7c33 c297 3033 2429 0fb1 41b5 8431
000002d0: 8a2e 08b9 3d8e 71b9 6dd0 f3b7 e2aa 1239
000002e0: ba7c f1b5 bed4 3f37 2dc1 9d35 c494 4ab7
000002f0: 19ed 8239 c7ef 8139 3f79 db36 020b 17b9
00000300: be80 2ea2 2ba3 43a2 0ea5 2fa0 c6ef 901f
00000310: 186f 233a 3412 073a 145b f837 f026 08ba
00000320: d515 53b9 3823 83b9 c4ef afb7 bb5b 1c39
00000330: ea47 56ba 3ccf 8cba 073b 69b8 403c 003a
00000340: 2cee 7d39 868b 9f39 52d1 0938 3321 3fb9
00000350: 0ffd 7737 a6d5 68b8 63f9 24b8 6509 cd38
00000360: b12d e4b8 e594 2bb9 518c acb7 6e7c dd38
00000370: 4daa 1732 d7b5 9eb1 dd89 0ab0 6597 f9ae
00000380: 13db 32b6 b166 bab7 bebe a8b6 3b24 2f37
00000390: 4295 cfb2 41e4 a4b2 674b 8931 6a0a 5532
000003a0: 77ef fd37 e6b2 c4b8 a2c9 d5b7 ed25 ab38
000003b0: 7d46 7f36 015a c9b6 7b0f c7b4 f717 4b36
000003c0: 99e9 d0b7 1343 a4b7 0a40 ad36 d865 df36
000003d0: 594d 01b8 287a e937 40df 9035 e67e 3bb6
000003e0: 8532 50aa 6b98 4a28 9026 9428 2e4c 9729
000003f0: 5a49 2a3a 9e98 063a e4ed 3638 dd5c acb9

exp_avg_sq f4 [64, 4]
1.5863366e-06 7.1188003e-07 3.4337248e-08 1.3186133e-07 3.4584224e-07 1.7011446e-07 2.3008019e-08 1.6623541e-07
6.246926e-06 2.7582803e-06 1.2569011e-07 5.231925e-07 1.1694551e-06 4.8089026e-07 3.100544e-08 1.2981931e-07
1.7432296e-06 7.2627034e-07 1.9161295e-08 1.01999404e-07 3.4020374e-07 1.8410118e-07 2.163599e-08 1.0113773e-07
1.0153615e-07 8.8487354e-08 3.1656944e-10 7.7004e-09 6.8663253e-06 3.318014e-06 1.6020265e-07 9.237774e-07
4.0790632e-10 1.5544112e-09 5.3007173e-12 3.771074e-10 9.8722275e-08 4.407953e-08 2.8633944e-09 3.5405524e-08
3.480266e-06 1.085574e-06 3.577929e-08 2.0497247e-07 1.1276528e-06 6.5769837e-07 3.4141127e-08 1.713802e-07
1.4554514e-07 1.3352903e-07 5.695374e-10 1.4747891e-08 2.6565474e-06 1.3297597e-06 6.8777325e-08 3.0647237e-07
2.350459e-06 1.0331531e-06 4.5712987e-08 1.9010302e-07 2.4909234e-06 1.8391537e-06 9.945232e-08 4.470611e-07
9.72297e-07 4.8928496e-07 2.8569927e-08 1.3924871e-07 5.924998e-07 3.645613e-07 1.2039643e-08 6.9299816e-08
9.287228e-07 3.098177e-07 4.582873e-09 2.9832233e-08 1.4577511e-06 8.37846e-07 4.5921958e-08 2.3054385e-07
1.614524e-06 6.0778746e-07 1.4205695e-08 7.242523e-08 1.1859768e-06 8.129702e-07 4.148387e-08 2.3301446e-07
3.350039e-06 1.3333141e-06 8.157856e-08 3.152385e-07 7.3510146e-06 3.633529e-06 1.7319431e-07 8.331708e-07
3.331439e-07 1.279725e-07 1.2738926e-08 8.959279e-08 1.3929844e-08 1.1165616e-08 4.483597e-10 8.071629e-09
5.2686664e-06 1.8118526e-06 3.7792624e-08 2.791401e-07 9.502437e-07 6.9058484e-07 5.677808e-08 3.1908232e-07
1.1878086e-06 6.929697e-07 2.855353e-08 1.4902895e-07 4.0193227e-06 1.2082245e-06 4.379422e-08 1.995829e-07
1.07601856e-07 6.0929764e-08 1.8462946e-09 1.665716e-08 1.6397444e-06 5.551949e-07 4.158635e-08 2.5561698e-07
5.402775e-07 2.1368638e-07 3.500995e-09 3.335694e-08 3.8166886e-06 2.0776374e-06 8.952779e-08 2.9660342e-07
2.6585067e-06 1.1937547e-06 4.7322047e-08 2.158083e-07 6.576679e-08 6.152848e-08 6.224765e-09 5.3253626e-08
1.9549627e-06 5.6577886e-07 1.1774789e-08 9.439924e-08 4.5969778e-06 2.0834007e-06 1.1249637e-07 5.3891915e-07
1.08916836e-07 9.00484e-08 8.658011e-09 1.3686419e-07 0.0 0.0 0.0 0.0
4.4704564e-07 1.3304094e-07 7.591723e-09 5.387945e-08 2.7417498e-06 1.011382e-06 3.5907227e-08 1.673602e-07
4.2987625e-07 2.2420598e-07 9.322484e-09 3.326282e-08 1.840715e-08 2.4427443e-08 7.999438e-09 1.2711187e-07
1.9421758e-09 1.7905812e-09 3.1070819e-12 3.4590164e-11 6.516891e-07 2.7425054e-07 1.5045554e-08 7.234934e-08
2.519221e-07 8.435639e-08 2.3254232e-09 6.7973334e-09 1.9790208e-07 1.1957309e-07 4.9244337e-09 3.6150464e-08
2.4103797e-11 3.4951084e-11 1.13528456e-13 9.485775e-13 8.738168e-06 4.2612837e-06 1.5082855e-07 7.728478e-07
1.1806297e-06 4.324918e-07 4.2222563e-08 1.7990062e-07 5.3965728e-06 2.2494842e-06 1.3500757e-07 4.6240964e-07
1.7480153e-06 7.6150457e-07 3.9312194e-08 1.7130455e-07 8.7466105e-07 4.578948e-07 2.0510596e-08 9.193685e-08
2.2862186e-07 1.2681959e-07 4.9271307e-09 5.8177495e-08 4.6867775e-08 1.2849152e-08 1.2327726e-10 1.0279182e-09
6.8144503e-09 5.7407417e-09 8.4182555e-10 8.338336e-09 1.827551e-08 6.4968377e-09 6.645086e-11 5.154713e-10
3.8946825e-07 2.127926e-07 2.0777968e-08 1.19098615e-07 1.6692611e-07 7.2198766e-08 6.1805117e-10 1.1714709e-08
4.330601e-07 1.8742921e-07 3.0505969e-09 1.784972e-08 5.1085167e-09 2.9217588e-09 3.0831268e-11 3.5423092e-10
5.8314213e-12 2.9368497e-10 4.258824e-12 7.421234e-10 7.4840686e-06 3.4292343e-06 1.742296e-07 6.43779e-07
00000000: 1cea d435 0618 3f35 347a 1333 c495 0d34
00000010: 32ac b934 b5a8 3634 2ba3 c532 717e 3234
00000020: b09c d136 e51a 3936 6ff5 0634 8471 0c35
00000030: 2cf6 9c35 8716 0135 d82a 0533 7664 0b34
00000040: eaf8 e935 ebf4 4235 2298 a432 c40a db33
00000050: 3fa5 b634 59ad 4534 0cda b932 0e31 d933
00000060: 170c da33 7006 be33 3009 ae2f b84a 0432
00000070: 4965 e636 0cab 5e36 2b04 2c34 80f9 7735
00000080: b63f e02f fba2 d530 9e80 ba2c 2651 cf2f
00000090: 2501 d433 f551 3d33 5ec5 4431 c910 1833
000000a0: 848e 6936 0ab4 9135 bfab 1933 6716 5c34
000000b0: db59 9735 b08c 3035 91a2 1233 a104 3834
000000c0: 2547 1c34 2e60 0f34 a28d 1c30 e95d 7d32
000000d0: 2347 3236 327a b235 bcb2 9333 3e89 a434
000000e0: 94bc 1d36 dfaa 8a35 f655 4433 1f1f 4c34
000000f0: bd29 2736 d7d8 f635 7e92 d533 9c03 f034
00000100: df7f 8235 6857 0335 ef69 f532 6584 1534
00000110: 470c 1f35 ecb8 c334 e9d6 4e32 fad1 9433
00000120: 584d 7935 0555 a634 6177 9d31 e320 0033
00000130: f2a7 c335 57e8 6035 ba3b 4533 698b 7734
00000140: 9fb2 d835 d626 2335 4f0d 7432 3188 9b33
00000150: da2d 9f35 e33a 5a35 ff2b 3233 8732 7a34
00000160: 3bd1 6036 53f4 b235 4a30 af33 0d3e a934
00000170: bca8 f636 8ed7 7336 4af7 3934 10a7 5f35
00000180: f3da b234 d068 0934 64da 5a32 2866 c033
00000190: 1a50 6f32 e6d2 3f32 057d f62f 66ab 0a32
000001a0: 80c9 b036 c82e f335 6e51 2233 b9dc 9534
000001b0: 4014 7f35 a160 3935 29dc 7333 574e ab34
000001c0: cb6c 9f35 8404 3a35 e045 f532 c404 2034
000001d0: b8dd 8636 472a a235 4118 3c33 ee4c 5634
000001e0: bf12 e733 7ed8 8233 b7c0 fd30 7b15 8f32
000001f0: 3015 dc35 b408 1535 ad9c 3233 bb3b 8934
00000200: 9607 1135 aa71 6534 2896 7031 5844 0f33
00000210: 1b11 8036 8a6d 0b36 6c42 c033 dd3c 9f34
00000220: cc68 3236 1939 a035 243f 4b33 efb8 6734
00000230: ad3b 8d33 a421 8433 9de1 d531 fbb8 6433
00000240: 0132 0336 07e0 1735 124a 4a32 88b8 ca33
00000250: bd3f 9a36 8dd0 0b36 8995 f133 3eaa 1035
00000260: aae5 e933 a260 c133 56be 1432 f1f4 1234
00000270: 0000 0000 0000 0000 0000 0000 0000 0000
00000280: 7c01 f034 04da 0e34 c06c 0232 1569 6733
00000290: e7fe 3736 d2be 8735 6a38 1a33 9fb3 3334
000002a0: bec9 e634 45bd 7034 b828 2032 dbdc 0e33
000002b0: c01d 9e32 84d4 d132 e66d 0932 3f7c 0834
000002c0: 1e77 0531 7a18 f630 36a4 5a2c 1021 182e
000002d0: bcef 2e35 b53c 9334 863d 8132 785e 9b33
000002e0: e93f 8734 6a27 b533 47cd 1f31 fa8d e931
000002f0: e97e 5434 0064 0034 c733 a931 db43 1b33
00000300: ed04 d42d 6cb7 192e b3a4 ff29 1b80 852b
00000310: 259a 1237 26fc 8e36 70f3 2134 b275 4f35
00000320: 2176 9e35 3831 e834 3358 3533 b52a 4134
00000330: 3514 b536 d8f5 1636 99f6 1034 1941 f834
00000340: 599d ea35 326a 4c35 37d8 2833 d6ef 3734
00000350: 40ca 6a35 95d4 f534 472f b032 d16e c533
00000360: 197b 7534 e72b 0834 804b a931 d5de 7933
00000370: aa4b 4933 2bbf 5c32 778b 072f a846 8d30
00000380: 8a24 ea31 1940 c531 3566 6730 6440 0f32
00000390: 46fc 9c32 ca3a df31 8220 922e 11b1 0d30
000003a0: 1c18 d134 fc7b 6434 3c7b b232 28c3 ff33
000003b0: 4d3c 3334 b10b 9b33 7ce3 2930 d641 4932
000003c0: 547f e834 2640 4934 aba2 5131 f353 9932
000003d0: fd86 af31 20c8 4831 ec98 072e 92bd c22f
000003e0: c62c cd2c 7c74 a12f 14d8 952c 4bfe 4b30
000003f0: a91f fb36 cc21 6636 de13 3b34 28d0 2c35

exp_avg f4 [64]
-0.00017987838 -4.2737123e-05 0.00034504718 0.0001797434 0.00064098195 0.00018110113 -4.3256496e-06 -0.0004426357
3.0111915e-15 2.4559708e-05 0.00038323193 -0.0006059465 2.069105e-05 -0.00024507134 0.00022003292 0.0003353472
-0.00023127734 0.00037556206 -0.0006265066 -0.00028613218 -9.157429e-05 0.0001275213 0.00021195688 0.00028116364
0.00014262016 -6.10397e-05 0.0008249734 0.00017643848 0.00038461416 0.00011983243 -3.802711e-05 -3.308223e-05
0.00014899769 0.00061070145 -0.00027036772 -0.00018635344 0.00014416111 -0.0002809433 -0.00016058302 0.0
0.00016036711 0.00033318356 0.00016746536 9.678235e-06 2.6664816e-08 -0.00014214756 3.8250337e-06 0.00016323786
1.1070535e-18 3.231392e-06 -0.00013757117 -0.0006991095 0.00022825364 0.0006346398 -9.501702e-05 -5.7434635e-09
-2.8426011e-05 2.2601824e-08 8.363771e-05 1.5697666e-06 3.0660172e-05 -2.4739995e-05 1.0067333e-13 0.0005515572
00000000: bc9d 3cb9 a340 33b8 73e7 b439 8079 3c39
00000010: 9207 283a f7e5 3d39 0c25 91b6 8f11 e8b9
00000020: aefa 5827 9205 ce37 85ec c839 62d8 1eba
00000030: b191 ad37 eb7c 80b9 a3b8 6639 8ad1 af39
00000040: 0a83 72b9 16e7 c439 253c 24ba 0304 96b9
00000050: 930b c0b8 3db7 0539 be40 5e39 2569 9339
00000060: 4f8c 1539 7002 80b8 0743 583a 5802 3939
00000070: 0aa6 c939 8c4e fb38 4c7f 1fb8 c6c1 0ab8
00000080: 433c 1c39 7b17 203a 24c0 8db9 df67 43b9
00000090: f429 1739 924b 93b9 2d62 28b9 0000 0000
000000a0: 3828 2839 24af ae39 a499 2f39 b45f 2237
000000b0: 8d0c e532 720d 15b9 ca58 8036 d42a 2b39
000000c0: 4c5f a321 e4da 5836 fb40 10b9 7244 37ba
000000d0: 5f57 6f39 f55d 263a e043 c7b8 0a58 c5b1
000000e0: 6574 eeb7 f025 c232 a766 af38 c5b0 d235
000000f0: 1c99 0038 bc88 cfb7 39b2 e229 6196 103a

exp_avg_sq f4 [64]
2.0129703e-06 5.278958e-07 8.095577e-06 1.4864808e-06 1.8616288e-06 5.735793e-07 5.7445966e-08 9.805093e-06
5.5533667e-10 1.2935249e-07 3.6296947e-06 2.6862472e-06 8.999044e-08 4.22035e-06 2.9196317e-06 5.669771e-06
1.4277504e-06 7.230899e-07 6.7676666e-07 3.1996208e-06 1.2553686e-06 2.3458174e-06 4.940212e-06 1.0299126e-05
4.7787455e-07 3.9831427e-08 5.1105158e-06 1.8124799e-06 1.7138616e-06 5.1298944e-06 1.02118584e-07 2.0230618e-06
4.1163332e-07 6.568366e-06 3.7777586e-06 2.1655872e-07 1.4793627e-06 6.0967845e-06 3.1649225e-07 0.0
6.706275e-07 3.5093694e-06 5.189595e-07 7.044059e-08 4.7444493e-10 8.6679347e-07 1.4730438e-07 4.914216e-07
6.1074496e-12 1.4602367e-05 1.6493993e-06 7.9625715e-06 2.313153e-06 1.5828094e-06 3.8171515e-07 1.206828e-08
1.792618e-08 5.2171e-09 7.9444396e-07 6.3952456e-08 2.2836727e-07 2.3199356e-09 5.065892e-10 9.593124e-06
00000000: 9116 0736 b9b4 0d35 3dd2 0737 1783 c735
00000010: 14dd f935 12f8 1935 82ba 7633 8e80 2437
00000020: 58a6 1830 24e4 0a34 ae95 7336 6045 3436
00000030: c540 c133 889c 8d36 e4ee 4336 f63e be36
00000040: 21a1 bf35 5c1a 4235 0dab 3535 11b9 5636
00000050: 237e a835 d66c 1d36 19c4 a536 69ca 2c37
00000060: 4a47 0035 1e13 2b33 ff7a ab36 5644 f335
00000070: d607 e635 7521 ac36 494c db33 f0c3 0736
00000080: 74fe dc34 d665 dc36 6685 7d36 3587 6834
00000090: 848e c635 fb92 cc36 5dea a934 0000 0000
000000a0: 2c05 3435 8282 6b36 a04e 0b35 2045 9733
000000b0: 186a 0230 98ad 6835 b82a 1e34 3cea 0335
000000c0: 04e3 d62c b0fc 7437 ee60 dd35 fc96 0537
000000d0: aa3b 1b36 eb70 d435 88ee cc34 db54 4f32
000000e0: 16fc 9932 1942 b331 c641 5535 3c56 8933
000000f0: 1e35 7534 bd6c 1f31 0c40 0b30 27f2 2037

exp_avg f4 [64, 64]
8.4676785e-06 -7.298384e-05 3.2725024e-05 7.738511e-05 8.849122e-05 -4.6295718e-05 -3.427947e-06 3.8995247e-05
-4.8233696e-17 7.068467e-05 3.4440578e-05 -2.0235166e-05 -6.7093015e-06 -1.7946615e-05 3.192333e-05 5.850922e-06
9.713443e-07 -1.7989796e-05 2.2067621e-05 -7.301507e-07 8.071438e-06 9.766731e-06 -1.2647416e-05 4.3726315e-05
-2.806477e-05 5.117499e-05 2.586535e-06 3.089896e-05 5.7713205e-05 9.936736e-06 -9.422897e-06 -4.048973e-05
2.706734e-05 3.3166252e-05 6.510349e-05 1.1740671e-05 -8.718611e-06 2.4755667e-05 -3.5791494e-05 0.0
-2.0073385e-05 2.1150394e-05 3.861857e-06 -2.0484977e-05 -9.822022e-10 -1.9692588e-05 5.719374e-07 -2.405783e-05
7.4215575e-20 3.8262373e-05 -5.489503e-05 -3.7876478e-05 6.897556e-05 -1.2463809e-05 3.0320398e-05 4.9108106e-10
1.2893077e-05 -1.7675137e-09 -4.7003465e-05 -5.502361e-08 4.630209e-07 2.972121e-06 0.0 5.0123108e-05
1.6486496e-05 -6.0240865e-05 3.289349e-05 7.888907e-05 8.412158e-05 -3.939473e-05 -3.1505024e-06 4.585968e-05
-4.0658584e-17 7.610402e-05 3.1146177e-05 -1.7673592e-05 -6.139408e-06 -1.0160608e-05 3.2896074e-05 8.827695e-06
1.0962366e-05 -1.5201351e-05 2.3432372e-05 -5.6838286e-07 7.2959106e-06 1.7179293e-05 -8.157295e-06 4.3279106e-05
-2.3641804e-05 5.2182153e-05 5.34752e-06 3.280613e-05 5.5829743e-05 9.037717e-06 -8.519854e-06 -3.3798937e-05
2.7270502e-05 3.1538984e-05 7.240794e-05 1.2610282e-05 -7.3033116e-06 3.2094275e-05 -3.007896e-05 0.0
-1.6307835e-05 1.9241508e-05 3.4913187e-06 -1.6621523e-05 -1.5848349e-16 -1.0147068e-05 5.157991e-07 -1.9419447e-05
5.596926e-20 3.4679946e-05 -4.5454326e-05 -2.8753431e-05 7.1543276e-05 -1.0130551e-05 3.585688e-05 4.671192e-10
2.0901005e-05 -1.5091342e-09 -3.945742e-05 -4.9216037e-08 4.167541e-07 2.6809469e-06 2.638179e-23 4.8322385e-05
2.2965784e-05 -4.517346e-05 3.3146545e-05 7.8231176e-05 7.6006414e-05 -3.308674e-05 -3.1908348e-06 4.6893387e-05
-3.8628865e-17 7.299274e-05 2.9151444e-05 -1.613003e-05 -5.8273845e-06 4.9090653e-07 3.303552e-05 1.2111542e-05
1.6364476e-05 -1.3952503e-05 1.9203148e-05 3.356221e-08 6.5223758e-06 2.3245713e-05 -7.901541e-07 3.984469e-05
-1.9130133e-05 4.690302e-05 5.2966584e-06 3.699003e-05 5.191e-05 8.309803e-06 -8.030973e-06 -2.9472383e-05
2.3668441e-05 2.9731573e-05 7.226977e-05 1.6964677e-05 -7.1826603e-06 3.424178e-05 -2.3251752e-05 0.0
-1.2780613e-05 1.8078268e-05 3.3107717e-06 -1.329638e-05 -1.4846175e-16 6.8893866e-07 7.093305e-07 -1.3847281e-05
5.4326586e-20 3.3122484e-05 -3.477085e-05 -1.8703768e-05 7.189861e-05 -6.4281485e-06 3.8124635e-05 4.875205e-10
2.5599871e-05 -4.1055204e-09 -3.115616e-05 -5.962286e-08 3.887579e-07 2.5435133e-06 1.4799554e-20 4.586828e-05
5.3238477e-06 -6.219544e-05 2.5362748e-05 6.616026e-05 7.216123e-05 -3.9362516e-05 -3.1440393e-06 2.6496064e-05
-4.2379924e-17 5.2339394e-05 2.9768627e-05 -1.7689243e-05 -5.9770978e-06 -1.3846106e-05 2.5617657e-05 6.387765e-06
-7.660164e-06 -1.5858312e-05 1.3729966e-05 -7.3156895e-07 6.6272337e-06 9.166059e-06 -8.87021e-06 3.4762183e-05
-2.4021954e-05 3.7759815e-05 -7.19079e-07 2.9272689e-05 5.026791e-05 8.298092e-06 -8.350326e-06 -4.0830117e-05
2.1861668e-05 2.9496812e-05 4.803216e-05 1.1855805e-05 -9.408992e-06 1.6348307e-05 -3.0160461e-05 0.0
-1.7775355e-05 1.7668866e-05 3.412142e-06 -1.8340314e-05 -8.821906e-10 -1.9377849e-05 6.145612e-07 -1.9862213e-05
6.3321064e-20 3.3810367e-05 -4.7857608e-05 -3.316647e-05 5.907717e-05 -1.002385e-05 1.953686e-05 4.8478843e-10
5.56695e-06 -1.3799583e-09 -3.8531973e-05 -4.758882e-08 4.1405e-07 2.6493556e-06 -2.9360903e-21 4.3135526e-05
00000000: 6710 0e37 e70e 99b8 3a42 0938 d149 a238
00000010: 5d94 b938 a62d 42b8 ae0b 66b6 d48e 2338
00000020: 4c70 5ea4 8b3c 9438 4a74 1038 b0be a9b7
00000030: 7620 e1b6 108c 96b7 6ae5 0538 0a53 c436
00000040: 235f 8235 cbe8 96b7 db1d b937 93ff 43b5
00000050: 906a 0737 cadb 2337 3d30 54b7 c666 3738
00000060: a26c ebb7 baa4 5638 5594 2d36 8199 0138
00000070: 1511 7238 f5b5 2637 0917 1eb7 84d3 29b8
00000080: ac0e e337 fe1b 0b38 2c88 8838 ccf9 4437
00000090: 2646 12b7 64aa cf37 d31e 16b8 0000 0000
000000a0: 4463 a8b7 206c b137 1995 8136 27d7 abb7
000000b0: 2bfe 86b0 8331 a5b7 3d87 1935 cccf c9b7
000000c0: 903c af1f e97b 2038 173f 66b8 8fdd 1eb8
000000d0: f9a6 9038 a71b 51b7 8f58 fe37 c2fc 0630
000000e0: 584f 5837 dcec f2b0 9625 45b8 1953 6cb3
000000f0: 1c95 f834 a674 4736 0000 0000 473b 5238
00000100: 7b4c 8a37 23ab 7cb8 1ef7 0938 3f71 a538
00000110: 6e6a b038 c53b 25b8 386d 53b6 7559 4038
00000120: 2f81 3ba4 099a 9f38 f4a2 0238 c041 94b7
00000130: 1d01 ceb6 7b77 2ab7 e4f9 0938 a91a 1437
00000140: 01eb 3737 4e09 7fb7 a390 c437 f992 18b5
00000150: 65cf f436 401c 9037 51db 08b7 9686 3538
00000160: 6352 c6b7 29de 5a38 d96e b336 5099 0938
00000170: bb2a 6a38 b3a0 1737 7ff0 0eb7 55c3 0db8
00000180: f5c2 e437 ba48 0438 b7d9 9738 c090 5337
00000190: f80e f5b6 f79c 0638 1352 fcb7 0000 0000
000001a0: cfcc 88b7 d368 a137 664c 6a36 736e 8bb7
000001b0: 12b8 36a5 533d 2ab7 7275 0a35 f2e6 a2b7
000001c0: 5727 841f 4f75 1138 36a6 3eb8 8633 f1b7
000001d0: 8109 9638 63f6 29b7 0865 1638 9766 0030
000001e0: 9154 af37 f069 cfb0 157f 25b8 9b61 53b3
000001f0: 3fbe df34 51ea 3336 2626 ff19 c4ad 4a38
00000200: a5a6 c037 a278 3db8 d506 0b38 0b10 a438
00000210: a265 9f38 9ec6 0ab8 2022 56b6 64af 4438
00000220: ea24 32a4 ae13 9938 408a f437 fa4e 87b7
00000230: da88 c3b6 d7c6 0335 9f8f 0a38 ad32 4b37
00000240: 7246 8937 8b15 6ab7 7216 a137 0a26 1033
00000250: c8da da36 caff c237 fa1a 54b5 e91e 2738
00000260: a679 a0b7 bcb9 4438 f3b9 b136 be25 1b38
00000270: f0b9 5938 556a 0b37 c4bc 06b7 763b f7b7
00000280: 978b c637 1168 f937 8a8f 9738 5e4f 8e37
00000290: 9502 f1b6 d59e 0f38 c20c c3b7 0000 0000
000002a0: 516c 56b7 c9a6 9737 a02e 5e36 8413 5fb7
000002b0: 2d2a 2ba5 81ef 3835 d268 3e35 9e51 68b7
000002c0: 6846 801f ffec 0a38 ead6 11b8 09e6 9cb7
000002d0: 46c8 9638 60b1 d7b6 04e8 1f38 3502 0630
000002e0: 4ebf d637 8a10 8db1 acad 02b8 040a 80b3
000002f0: 7bb6 d034 3ab1 2a36 20c7 8b1e b162 4038
00000300: 81a3 b236 ec6e 82b8 16c2 d437 85bf 8a38
00000310: 4455 9738 2e19 25b8 2ffe 52b6 dd43 de37
00000320: 6271 43a4 ff86 5b38 a4b7 f937 5c63 94b7
00000330: e18e c8b6 934c 68b7 80e5 d637 7c56 d636
00000340: 2784 00b7 7707 85b7 c159 6637 0961 44b5
00000350: 815f de36 ecc7 1937 43d1 14b7 9ccd 1138
00000360: c182 c9b7 4b60 1e38 bc06 41b5 9f8e f537
00000370: c2d6 5238 0938 0b37 6118 0cb7 0141 2bb8
00000380: 9363 b737 ec6f f737 2476 4938 4be8 4637
00000390: 50db 1db7 b923 8937 1901 fdb7 0000 0000
000003a0: 491c 95b7 9a37 9437 27fc 6436 86d9 99b7
000003b0: a57e 72b0 9d8d a2b7 53f8 2435 c79d a6b7
000003c0: 3c83 951f 9bcf 0d38 b7ba 48b8 3a1c 0bb8
000003d0: a1c9 7738 1c2c 28b7 16e3 a337 f441 0530
000003e0: bdcb ba36 f7a8 bdb0 649d 21b8 7664 4cb3
000003f0: 994a de34 95cb 3136 3fd8 5d9d 6bec 3438

exp_avg_sq f4 [64, 64]
7.644648e-08 1.581126e-07 1.5538342e-07 1.37357e-07 7.7569226e-08 5.2275748e-08 2.6941907e-10 1.175713e-07
1.6023442e-13 2.0245454e-07 1.1734496e-08 4.5398814e-08 3.2330233e-10 6.757185e-08 6.569552e-08 4.051126e-08
1.8810722e-07 4.181125e-09 1.6298676e-08 2.188766e-08 3.883543e-09 8.1634866e-08 1.5555491e-07 5.4419864e-08
2.0164597e-08 6.285065e-08 2.4127567e-09 9.989204e-08 3.9117257e-08 7.2336483e-09 8.794574e-09 6.129065e-08
2.1348812e-08 4.89165e-08 1.7763378e-07 4.261833e-08 3.428492e-09 7.2431206e-08 7.866011e-08 0.0
2.870983e-08 2.1830514e-08 1.0573325e-08 2.9032314e-08 3.4694862e-12 1.340459e-07 4.760129e-09 3.476923e-08
1.2249574e-13 2.1273042e-08 6.5360915e-08 4.5292527e-08 1.6160458e-07 7.880814e-09 1.4715617e-07 3.7029834e-11
1.3980511e-07 5.470428e-10 4.1877396e-08 4.9570814e-10 1.0816859e-08 5.1432192e-11 0.0 6.758675e-08
5.6135992e-08 1.1279267e-07 9.099131e-08 8.679641e-08 5.1554526e-08 3.5244852e-08 1.6792241e-10 8.326611e-08
1.1230838e-13 1.4715366e-07 7.998078e-09 2.7931184e-08 2.2702698e-10 4.7758782e-08 4.1386414e-08 2.6504688e-08
1.4292853e-07 2.8445506e-09 1.1470907e-08 1.3618184e-08 2.840635e-09 5.6256138e-08 9.383006e-08 3.3281864e-08
1.3930313e-08 4.5839272e-08 1.7054633e-09 6.122418e-08 2.1218256e-08 4.902633e-09 5.9066183e-09 4.6580702e-08
1.5035173e-08 2.2505377e-08 1.2638344e-07 2.8789914e-08 2.6789855e-09 5.096553e-08 5.2942298e-08 0.0
1.9136548e-08 1.5512256e-08 6.5631243e-09 2.0630262e-08 3.8979505e-13 1.0064755e-07 3.2426812e-09 2.4462592e-08
4.278731e-14 1.0347049e-08 4.7181132e-08 2.9637771e-08 1.00801394e-07 5.244386e-09 1.1076444e-07 2.5257425e-11
1.0490028e-07 3.720227e-10 2.865137e-08 3.4021083e-10 6.7416996e-09 3.7262415e-11 4.8144313e-14 3.2747348e-08
4.944414e-08 1.0381368e-07 8.626349e-08 7.947553e-08 4.4937234e-08 3.3403133e-08 1.6050626e-10 6.848069e-08
1.01714e-13 1.2422959e-07 7.3151214e-09 2.6503706e-08 2.1091733e-10 4.4927503e-08 3.7621856e-08 2.6613908e-08
1.1998843e-07 2.702527e-09 8.870937e-09 1.2920649e-08 2.545917e-09 5.364616e-08 8.8675435e-08 3.044492e-08
1.2912425e-08 3.7847286e-08 1.1739368e-09 5.819106e-08 2.0580273e-08 4.5461994e-09 5.4585003e-09 3.9709402e-08
1.2589736e-08 2.2965533e-08 1.04334624e-07 2.7818638e-08 2.20168e-09 4.288773e-08 4.998772e-08 0.0
1.7691743e-08 1.3952957e-08 6.276679e-09 1.8491868e-08 4.357799e-14 8.840158e-08 3.1151879e-09 2.2623553e-08
5.3745176e-14 1.0477538e-08 4.32265e-08 2.83664e-08 9.323503e-08 5.1753406e-09 9.316338e-08 2.6205168e-11
8.930263e-08 3.7960443e-10 2.7311373e-08 3.5801434e-10 6.4804757e-09 3.4460698e-11 1.3340307e-13 3.2647485e-08
6.037008e-08 1.242927e-07 1.10619524e-07 9.984392e-08 5.7659694e-08 4.1029587e-08 2.0221931e-10 9.170057e-08
1.2309577e-13 1.574476e-07 8.903277e-09 3.4000657e-08 2.4826102e-10 5.35241e-08 4.719256e-08 3.2878425e-08
1.4726928e-07 3.2605916e-09 1.2721141e-08 1.6466526e-08 3.0233078e-09 6.605569e-08 1.12878595e-07 3.9008764e-08
1.5677115e-08 4.9148994e-08 1.9503776e-09 7.249028e-08 2.6835398e-08 5.4846567e-09 6.7295134e-09 4.799959e-08
1.6480726e-08 3.1692423e-08 1.393882e-07 3.3590656e-08 2.6727278e-09 5.7205714e-08 6.127658e-08 0.0
2.1741153e-08 1.676465e-08 8.0244735e-09 2.2442036e-08 2.0217259e-12 1.0508614e-07 3.8043524e-09 2.7306372e-08
7.898887e-14 1.4130571e-08 5.149352e-08 3.4966884e-08 1.1683661e-07 6.1807595e-09 1.1451189e-07 3.1841908e-11
1.0895983e-07 4.591941e-10 3.3088057e-08 4.1837794e-10 8.31719e-09 3.9957235e-11 2.1681723e-15 4.4204135e-08
00000000: e62a a433 a9c5 2934 78d7 2634 687c 1334
00000010: 2294 a633 cb85 6033 5d1d 942f 817b fc33
00000020: 6d68 342a 4862 5934 dc98 4932 86fc 4233
00000030: c2bc b12f 041c 9133 7e14 8d33 9afe 2d33
00000040: 85fa 4934 90a9 8f31 2b01 8c32 7903 bc32
00000050: 0170 8531 3e4f af33 9c06 2734 46bb 6933
00000060: 6b36 ad32 83f8 8633 aacd 2531 3b84 d633
00000070: e101 2833 d88b f831 f216 1732 e49e 8333
00000080: 8962 b732 4318 5233 9abb 3e34 590b 3733
00000090: ab9a 6b31 7a8b 9b33 daeb a833 0000 0000
000000a0: 959d f632 cf85 bb32 faa5 3532 bc62 f932
000000b0: b524 742c 42ee 0f34 8a8e a331 2c55 1533
000000c0: feea 092a eabb b632 8b5c 8c33 a987 4233
000000d0: 8785 2d34 3064 0732 fb01 1e34 e3db 222e
000000e0: 561d 1634 b75e 1630 afdc 3333 5c42 0830
000000f0: 0dd5 3932 8033 622e 0000 0000 3524 9133
00000100: 2d1a 7133 6d38 f233 0067 c333 d564 ba33
00000110: cd6c 5d33 2060 1733 f5a1 382f 07d0 b233
00000120: 60e5 fc29 4a01 1e34 eb67 0932 53ed ef32
00000130: 6a9e 792f 561f 4d33 d8c0 3133 6dac e332
00000140: e577 1934 dd79 4331 9511 4532 68f5 6932
00000150: fb34 4331 479e 7133 9f7f c933 ccf1 0e33
00000160: 2a52 6f32 d0e0 4433 a865 ea30 597a 8333
00000170: 7043 b632 0474 a831 2af3 ca31 0610 4833
00000180: b226 8132 d951 c132 04b4 0734 b14d f732
00000190: 3619 3831 31e5 5a33 ac62 6333 0000 0000
000001a0: b761 a432 d03f 8532 da81 e131 6d36 b132
000001b0: 636f db2a 9323 d833 dad5 5e31 cf21 d232
000001c0: 69b2 4029 cec2 3132 34a4 4a33 2696 fe32
000001d0: 2778 d833 1b32 b431 65dd ed33 aa2a de2d
000001e0: 8a45 e133 8a85 cc2f 071d f632 6b08 bb2f
000001f0: 9ea4 e731 c0e1 232e 9dd2 5829 17a6 0c33
00000200: 685c 5433 2df0 de33 db3f b933 22ac aa33
00000210: 0301 4133 2277 0f33 7f7a 302f a80f 9333
00000220: 210a e529 f863 0534 7d58 fb31 44aa e332
00000230: f3e7 672f 50f6 4033 ab95 2133 9a9c e432
00000240: 2bd6 0034 5cb7 3931 cb66 1832 9ef9 5d32
00000250: 3ff4 2e31 9468 6633 d66d be33 8bc2 0233
00000260: 72d5 5d32 888d 2233 3b58 a130 bfed 7933
00000270: 80c8 b032 cb34 9c31 7a8d bb31 f38c 2a33
00000280: 3f4a 5832 be45 c532 910e e033 d5f5 ee32
00000290: 5d4c 1731 8f33 3833 14b2 5633 0000 0000
000002a0: 8ef8 9732 c1b5 6f32 41aa d731 0cd8 9e32
000002b0: 0042 4429 48d7 bd33 f712 5631 b855 c232
000002c0: f80b 7229 b300 3432 0aa8 3933 60aa f332
000002d0: 8038 c833 c7d2 b131 1c11 c833 cb80 e62d
000002e0: a4c6 bf33 93b0 d02f 589a ea32 0ad2 c42f
000002f0: deaa de31 4c8f 172e d132 162a 4a38 0c33
00000300: cda4 8133 5175 0534 ba8d ed33 c769 d633
00000310: 81a5 7733 8238 3033 ad57 5e2f ecec c433
00000320: f197 0a2a de0e 2934 07f5 1832 1e08 1233
00000330: a27b 882f 5fe2 6533 c5b0 4a33 3636 0d33
00000340: 1221 1e34 ef10 6031 2b8c 5a32 4672 8d32
00000350: 98c2 4f31 80da 8d33 aa67 f233 978a 2733
00000360: 57aa 8632 e417 5333 6807 0631 f4ab 9b33
00000370: aa83 e632 8d73 bc31 6d39 e731 1b28 4e33
00000380: 8091 8d32 301e 0833 bdaa 1534 5145 1033
00000390: 20ab 3731 59b2 7533 2897 8333 0000 0000
000003a0: 4dc1 ba32 db01 9032 02dc 0932 8fc6 c032
000003b0: 2d44 0e2c b7ab e133 70b7 8231 598f ea32
000003c0: fcdd b129 e9c2 7232 b929 5d33 7f2e 1633
000003d0: 9be7 fa33 895e d431 94e9 f533 cd0a 0c2e
000003e0: 4dfd e933 d371 fc2f b41c 0e33 7601 e62f
000003f0: 63e3 0e32 d9bb 2f2e b83b 1c27 f6da 3d33
