cartpole/checkpoints/pg_CartPole-v1_last.pth (torch, 81603 bytes, 18 tensors)

net.0.weight f4 [64, 4]
000000 46 3b a6 be a2 ea b5 be fc 83 02 3f e8 8e 58 be
       -0.32467097 -0.35530573 0.5098264 -0.21148264
000010 d0 c8 79 3e b6 14 97 3e ca 61 24 be cb 47 e5 be
       0.2439301 0.2950799 -0.16052929 -0.44781336
000020 62 83 5f be ac de 10 be 65 63 6d be 5a d4 e4 be
       -0.21827462 -0.14147443 -0.23182447 -0.4469326
000030 bd aa 59 3d 39 d9 4c be d9 21 bc bd 31 5a a3 bd
       0.053141344 -0.20004739 -0.091861434 -0.07976187
000040 02 87 43 3e 9a 45 56 be d3 74 8c 3d 3a b0 9a be
       0.1909447 -0.20924988 0.0685822 -0.30212575
000050 90 49 ef 3d 0a 83 2f 3d e4 80 50 3e 6b 34 f4 be
       0.11683953 0.042849578 0.20361668 -0.47696242
000060 f3 bd 37 3e d4 c2 b7 be 64 e7 1f 3f b4 70 af 3d
       0.17943554 -0.3589083 0.6246245 0.08566418
000070 53 4d bc be 42 73 6a be 43 f9 86 be fb 95 cd 3d
       -0.36777744 -0.2289553 -0.26362047 0.10038372
000080 b9 6f 24 be a7 2b 01 bf 52 6c 22 3c 51 3e ee be
       -0.16058244 -0.50457233 0.009913521 -0.4653192
000090 8b e9 7b be c7 f6 4e 3c 29 f1 7a 3e 47 cc f0 be
       -0.24600808 0.0126320785 0.24506058 -0.4703085
0000a0 a3 37 b8 bd bd 12 9d 3e 16 0f 1a bf 61 85 10 bf
       -0.08994987 0.3067836 -0.6017927 -0.5645352
0000b0 08 96 9d bd 3b 19 58 3e 89 cb bb 3d e3 bf 58 3e
       -0.07694632 0.21103375 0.091696806 0.21166949
0000c0 b5 29 bb 3e 9e 6a d4 3e be d4 0b bf 74 df 07 bf
       0.36555257 0.41487592 -0.54621494 -0.5307534
0000d0 b4 cd 39 3e 14 8b ec be 9b 0e 37 bf 00 39 9f be
       0.18144876 -0.46199858 -0.7150666 -0.31098175
0000e0 63 a4 71 3d 2a c5 86 3e 5e 45 2c 3f bd 33 70 3e
       0.058994662 0.263223 0.67293346 0.23457237
0000f0 6d 70 8a 3e d0 3e 85 3b 5b b8 5a 3e 54 9b ef be
       0.270389 0.0040663257 0.21359389 -0.46798193
000100 63 65 bb 3c f1 74 7d ba a0 04 9c 3d 63 85 c2 3e
       0.022875493 -0.000966861 0.0761807 0.3799239
000110 78 5d 6d be 26 ba 07 be 74 81 41 be ce 16 9d 3e
       -0.23180187 -0.13254604 -0.18897039 0.3068146
000120 c6 ee 02 3e 5a f8 ea 3e a6 e5 48 3e 14 fb 0c 3f
       0.12786397 0.45892602 0.19618854 0.55070615
000130 f5 4f af 3e 0c f0 0c be 58 af 9b be c5 1c 83 be
       0.3424069 -0.13763446 -0.30407214 -0.25607887
000140 e3 d8 a2 3e 64 39 a7 3e fd 22 53 3e b2 f7 ab 3e
       0.31806096 0.32660973 0.20618816 0.33587414
000150 2c e8 dd 3d c5 3d 42 3e 33 c8 12 3e b8 a0 df 3e
       0.10835299 0.18968876 0.14334182 0.43677306
000160 99 9a af be 58 c3 08 bf 91 ef 1d bf 26 bc 02 bf
       -0.34297636 -0.5342307 -0.61693674 -0.5106834
000170 61 e2 82 3e 72 e6 a3 be b6 4f c6 bc 31 7e c6 be
       0.25563338 -0.32011753 -0.024207931 -0.3876815
000180 67 cd 00 be 1d cc 81 be 3f 8c b3 bc 28 6c 17 bf
       -0.12578355 -0.2535104 -0.02191746 -0.5914941
000190 de 3a e0 3d 75 75 8b be fb c8 2f 3f e1 dd 04 3f
       0.10948728 -0.2723805 0.68666047 0.5190106
0001a0 45 41 b2 be 0b 97 c0 3e 66 c0 db 3e 5c 14 8c 3e
       -0.34815422 0.37615237 0.42920226 0.27359283
0001b0 52 01 80 be 5d 08 25 be b7 ab 92 3e 33 4e f0 be
       -0.25001007 -0.16116472 0.28646633 -0.4693466
0001c0 9a 97 56 3e b9 f7 d8 3e 54 f4 2a 3f 21 eb d4 3d
       0.20956269 0.42376497 0.66779065 0.1039641
0001d0 8e 8e 45 3e aa d6 07 3f 0e 81 d5 3e b1 43 02 3f
       0.19292662 0.53061926 0.41700023 0.5088454
0001e0 06 6f 81 bd 31 0d df bd 0b 29 1e 3f ad da ac 3e
       -0.06320004 -0.10891188 0.61781377 0.33760586
0001f0 05 1d 9c be 76 90 3d be 89 b4 cb 3e 70 08 e3 3d
       -0.3049089 -0.18512139 0.39786175 0.11085594
000200 1e 75 89 3e 00 aa 87 be b6 61 ea 3d fb fa 08 bf
       0.26847166 -0.26496887 0.11444418 -0.53507966
000210 25 bc 9d 3e b5 6b f0 3d b2 37 05 bf 90 e0 68 bd
       0.30807605 0.117392935 -0.5203811 -0.056854784
000220 13 38 f5 3e ba 97 61 be f5 32 03 bf d3 99 03 bf
       0.47894344 -0.22030535 -0.5124963 -0.5140659
000230 f1 e0 4d be 5a fc c3 3e ff d3 01 be ca 1b 88 be
       -0.2010534 0.38278466 -0.12678526 -0.265837
000240 7d 9b 05 3f 84 84 1a 3e 89 8a d9 bd aa e0 9e 3e
       0.5219038 0.15089613 -0.106221266 0.3103078
000250 71 3f 42 3e bf 2d 91 bd 82 57 02 3f fc 5c e2 bd
       0.18969513 -0.070888035 0.50914776 -0.110528916
000260 5c df e5 3e 64 1f 00 3f 0b 17 1f 3f 1f 43 70 bd
       0.44896972 0.500479 0.62144536 -0.05865776
000270 9c 30 e5 bd 46 db d0 bc 6b b2 ad bd 6f 14 2d bd
       -0.11190912 -0.025495183 -0.08481296 -0.042255815
000280 4c 39 34 be 9f 25 dd 3e de 2c b8 be 02 5a c4 be
       -0.17599982 0.43192765 -0.3597173 -0.3834992
000290 39 b7 86 3e ce f3 80 be 60 2b 18 bf e8 02 ab be
       0.26311663 -0.25186008 -0.59441185 -0.33400655
0002a0 c8 46 60 be a7 49 92 3d e2 b7 cf 3e 84 71 c3 3d
       -0.21902001 0.07142954 0.4056998 0.09543136
0002b0 e9 5d 8e be c7 3a 9b 3e 42 26 67 3e 4a 2d fa be
       -0.27806023 0.3031828 0.22573188 -0.48862678
0002c0 f1 41 72 be 6d b9 e9 3e b6 08 71 be 79 30 4b be
       -0.23657967 0.4564928 -0.23538479 -0.1984271
0002d0 72 b6 e4 3d 93 ad 82 3e f3 e6 0d bf bb 0d c8 be
       0.11167611 0.25523052 -0.55430526 -0.39072976
0002e0 8b aa 2a be 53 59 c4 3d 0e ae b9 3d 6a 9e bf 3e
       -0.1666662 0.0958735 0.090664014 0.37425548
0002f0 1c 5a 41 be 7a ef fa be c0 6b 35 bd 0f 2a fa be
       -0.1888203 -0.4901083 -0.04429221 -0.48860213
000300 31 37 bf be 76 b6 1c 3e 52 00 12 3f 27 f4 09 3f
       -0.37346795 0.15303978 0.5703174 0.5388817
000310 7d 96 08 be c7 ee f6 be a8 f6 12 be 82 ba 6d be
       -0.13338657 -0.48229048 -0.14351904 -0.23215678
000320 62 ed d0 bd 62 6b 7f be 94 99 0a 3f ed 0d 16 3e
       -0.10201527 -0.24943307 0.5414059 0.1465375
000330 63 a1 0c be a6 1a e6 3e bf 52 d5 be 7b 89 e7 3c
       -0.13733439 0.44942206 -0.41664693 0.028263798
000340 d8 c5 b7 be c0 57 9d be d5 30 11 3f 38 eb ff 3e
       -0.3589313 -0.3073101 0.56715137 0.49984145
000350 ee f2 fe 3d 9c 8b ad bd dc 65 30 be 5f 44 20 bf
       0.12448679 -0.08473894 -0.17226356 -0.62604326
000360 9b 6f ec 3d 58 32 0a be 6e 9b cc be c8 97 f8 be
       0.115447246 -0.13495767 -0.39962333 -0.485533
000370 db 6c 88 3d 00 a2 ee bd 69 25 25 3e 76 83 89 be
       0.066613875 -0.11651993 0.16127552 -0.2685811
000380 bd 40 8e 3d 5b b7 54 be e5 f7 ad be ca 19 78 3e
       0.069459416 -0.2077307 -0.3397819 0.24228588
000390 01 9f ed be ee 34 e7 bd 7e e2 e6 ba 7e 36 ce be
       -0.46410373 -0.112893924 -0.0017615107 -0.4027595
0003a0 47 4a 26 3e 43 2f e0 3a b8 06 85 3d 06 50 12 3f
       0.16239272 0.0017103929 0.06495422 0.57153356
0003b0 7c 9f 9c be 07 b4 25 be f0 3d b4 be ca e1 68 be
       -0.30590427 -0.16181956 -0.35203505 -0.22742382
0003c0 7b 57 02 be ae e1 86 be 18 e6 c4 be 7a 69 a1 3d
       -0.12728684 -0.26344055 -0.38456798 0.07881446
0003d0 77 2e 89 3d bd 21 8f be 29 d0 df bc fc 07 91 be
       0.066983156 -0.27955428 -0.027320938 -0.28326404
0003e0 ef 4a bf 3e 1d f1 85 3e 05 af 1c 3c 1d 47 c7 be
       0.37361857 0.26160517 0.009563212 -0.38921443
0003f0 7c 18 97 be 5a c9 cb be 78 a2 e1 bd 63 14 ec 3e
       -0.29510868 -0.39802057 -0.110173166 0.46109304

net.0.bias f4 [64]
000000 11 2b 0f 3e 09 eb 8d be 98 a2 1b 3e d6 15 f6 3e
       0.13981272 -0.2771838 0.15198743 0.48063534
000010 79 1c 04 3f 2d 77 dc be 15 d0 b1 3e eb 9a 00 3f
       0.51605946 -0.43059674 0.34729066 0.50236386
000020 bd 73 88 bd 5f 6c c9 3e cd 43 1e 3d 28 13 97 be
       -0.066627 0.39340493 0.03863888 -0.29506803
000030 f5 b9 99 3d d4 f9 0b 3e 1f e1 09 3e 81 be 83 be
       0.075061716 0.1366952 0.13464783 -0.2573128
000040 7a 0b b8 3c 38 13 c7 be 23 02 f7 3e 4e da 20 be
       0.02246641 -0.3888185 0.48243818 -0.15708277
000050 6e 4d c9 3e 27 ef f0 be 6a d5 a6 3c 28 d5 38 3e
       0.39316887 -0.4705746 0.020365436 0.18050063
000060 9e bf 38 bd 89 80 70 3e a3 80 47 bb ba 23 19 be
       -0.045104615 0.23486532 -0.0030441664 -0.14955035
000070 15 d9 f7 3e 65 87 17 bd 01 4c a6 bd 7c c7 90 be
       0.48407808 -0.036994357 -0.08119965 -0.28277194
000080 5f 17 42 3e 7d 48 c2 3d 78 80 a4 be b1 28 86 3e
       0.18954228 0.09486482 -0.32129264 0.2620292
000090 d8 1d 4d be 2c 3c 56 bd e3 1c 78 be fb 35 8f be
       -0.20030916 -0.052303478 -0.2422977 -0.2797087
0000a0 de ba 14 3d 85 f1 00 3f 94 9a a9 3d ab dd cb bd
       0.036311023 0.5036853 0.082814366 -0.09954389
0000b0 3a 04 7f 3e 60 64 a6 3d ee 28 88 be b1 2a 9c 3d
       0.24903956 0.08124614 -0.26593727 0.0762533
0000c0 21 63 84 3d 40 8c 45 be 6f 1e c5 bd 0e 87 98 3d
       0.0646422 -0.19291782 -0.09624945 0.07447635
0000d0 fd f0 d5 be af f3 6d be 60 dd 6b 3e b4 2e 74 3c
       -0.41785422 -0.23237489 0.23033667 0.014903713
0000e0 2b a8 e1 3d cd d2 47 be 76 91 c5 3e a2 c8 21 be
       0.110184036 -0.19514008 0.3858754 -0.15799192
0000f0 26 c3 df be 8e 2f 87 3d 53 4f bd bd f5 12 06 3f
       -0.43703574 0.06600867 -0.092436455 0.52372676

net.2.weight f4 [64, 64]
000000 be 3f 26 bd d1 bb e3 3d c8 35 31 3e 37 86 de bd
       -0.040588133 0.111198075 0.17305672 -0.10865443
000010 36 82 da 3c de 96 84 3c 33 93 9f 3d e9 6a 55 bc
       0.026673418 0.01618522 0.07791748 -0.013025978
000020 b6 b3 e1 bc f7 93 d1 3d a4 9e 00 3e 56 c9 f4 3c
       -0.027551513 0.102333 0.12560517 0.02988116
000030 db 22 8e bd 3e b5 64 3e af 02 8f bd 2c 5d c2 bd
       -0.06940242 0.22334763 -0.06982934 -0.094904274
000040 f4 f2 90 bd 72 92 cb 3d 99 41 80 3b 04 bf 92 3d
       -0.0707759 0.099400416 0.00391407 0.071653396
000050 4b 3f dc bc e2 04 df 3c d8 45 75 3e a9 67 01 3e
       -0.02688565 0.027224008 0.23952425 0.126372
000060 2b c3 5c 3e a1 56 4e bd fb 8f da bd ff 28 cd 3d
       0.21558826 -0.050375585 -0.10671993 0.10017585
000070 ed 40 c6 bc 82 c5 da bd 0f 97 24 be 10 0b d9 bd
       -0.02420088 -0.10682203 -0.1607325 -0.10597813
000080 67 4f be 3d 3b 28 04 3d d9 ee 62 bd 3a 97 20 3e
       0.092924885 0.03226493 -0.055403564 0.15682688
000090 17 39 92 3d b6 af 1e 3d 71 22 cf bd dc 3a dc bd
       0.07139795 0.03874179 -0.10113991 -0.10753414
0000a0 a5 f7 2f 3e 6b 8d c5 3d 89 0e d1 bd 58 02 88 3c
       0.17184313 0.09646114 -0.102078505 0.01660268
0000b0 3c e9 22 bb 04 4b 3f 3c 25 b1 33 bd 97 a4 90 3d
       -0.0024858257 0.0116756 -0.04387011 0.07062643
0000c0 9a 90 d9 bd ad fe e5 bc 71 53 b0 bd 69 5b 05 3d
       -0.10623284 -0.02807554 -0.08609665 0.03255788
0000d0 f8 f5 04 be fe a1 fe 3d b5 00 8b 3d 37 5a 12 3e
       -0.12984455 0.12433241 0.06787244 0.14292227
0000e0 b1 62 26 3d a9 05 f8 3a a7 72 1b bd fd 08 93 3c
       0.040621463 0.0018922585 -0.037951138 0.017948622
0000f0 cc 04 e8 bc 45 56 cc 3d 6d 52 92 3d 5e 74 c4 3d
       -0.0283226 0.09977392 0.07144628 0.09592508
000100 1b fb 08 3e 4b 1d 55 bd bc 74 03 be b5 48 c4 3d
       0.13377039 -0.05202989 -0.128375 0.0958418
000110 cd 7c b1 bc f8 ed 9a bc fe 45 c9 3d c5 9d 41 3d
       -0.021665955 -0.0189123 0.09827803 0.0472696
000120 32 1c 20 be 57 4e dc 3d f9 b0 6f bc fb 92 e9 bd
       -0.15635756 0.1075713 -0.014629596 -0.114049874
000130 18 bb 39 bc 41 13 dc bd 25 fa 5d 3e ae b9 34 bd
       -0.0113361105 -0.1074586 0.21677454 -0.04412239
000140 a8 f9 2a 3e a9 ac ce 3d d0 c1 4e 3e 1e c0 2a 3d
       0.16696799 0.10091526 0.20191121 0.041687123
000150 f2 53 2a 3e 91 99 8b bd d5 43 27 be b5 aa 2a be
       0.16633585 -0.068164 -0.1633447 -0.16666682
000160 8e fa b1 bd 11 65 17 3e d2 30 92 3d 6c 8b 89 bc
       -0.08690368 0.14784648 0.07138218 -0.016790114
000170 48 71 c3 3d eb bd 2f 3e 54 7b f6 3c 42 b3 0c 3e
       0.09543091 0.17162292 0.030088104 0.13740256
000180 6a 3d 37 be 6e fc 63 3c fd 49 19 3d 7b f6 e6 bd
       -0.17894521 0.013915164 0.037424076 -0.11277481
000190 db a1 b1 3d 8f 7e 81 3c 18 f2 e6 3d 80 50 80 3d
       0.086734496 0.015807418 0.112766445 0.06265354
0001a0 21 8d be bd 2c d9 de 3d 4e 03 32 3e ed c1 ff bc
       -0.09304262 0.10881266 0.17384073 -0.0312204
0001b0 91 e9 a2 bd 47 9c b3 bd 69 9e 33 3d 10 9e 25 be
       -0.079547055 -0.08770042 0.043852244 -0.16173577
0001c0 51 b8 99 bc 5a 0c 0e be 9d f2 34 3e ac 3a 69 3c
       -0.018764647 -0.13871899 0.17670675 0.01423518
0001d0 05 ad 99 3c 8d 36 37 be 74 fb 36 be 6d a0 5f 3c
       0.01875926 -0.17891903 -0.17869359 0.013649088
0001e0 ac 9e 44 3d 3b c9 3d bd 4f a1 3c 3d b6 09 c1 bd
       0.048002884 -0.046334486 0.046052273 -0.0942568
0001f0 2b 36 a9 3d 5d 90 19 bc 7a 4b 76 3d 85 f8 6a 3c
       0.08262285 -0.009372798 0.060130574 0.014341478
000200 6a 02 15 3e 84 47 b7 3c 6b 8e 0d 3e 60 83 e9 3d
       0.14551702 0.022372968 0.1382386 0.11402011
000210 76 2f e8 3d 7e 8c bf bd 6a bb 30 bd 5c af 04 3e
       0.113371775 -0.09352969 -0.043147482 0.1295752
000220 8e 28 9c 3d 0e 7c a4 3d 97 f5 75 3d a1 d2 b3 bd
       0.07624923 0.08031474 0.060048666 -0.08780409
000230 cd d4 75 3d b6 65 33 3e d8 0c 3b be b2 67 b9 bc
       0.060017396 0.17519268 -0.18266618 -0.022632454
000240 1e ce 13 bd e8 70 de bb 75 c7 0d be 34 89 a7 3d
       -0.03608524 -0.006788362 -0.13845618 0.08180466
000250 05 b6 15 3c 82 ca af bb 0e 5c f4 3d 2d 2b 96 3d
       0.009137635 -0.005364717 0.119316205 0.07332454
000260 c9 0c 76 3d 38 52 00 be d1 bf c8 bd 02 66 ea 3d
       0.060070787 -0.12531364 -0.09802211 0.11445238
000270 05 4c 0a 3d b1 ea a2 bc d5 65 24 be 3c c1 b8 3c
       0.033763904 -0.0198873 -0.16054471 0.022553079
000280 86 83 ed bc 0f 0e b3 bc 98 29 84 bd cc 88 5c bc
       -0.02899338 -0.02185729 -0.06453246 -0.013460349
000290 e1 7c 9f 3c 2b 5b 47 bd 62 42 bd bd 09 23 a1 3d
       0.019468727 -0.04867093 -0.09241177 0.078680106
0002a0 7e e2 0f bb f3 8d df 3d 55 16 45 be 71 3f 09 3c
       -0.0021955068 0.109157465 -0.192468 0.008376942
0002b0 46 12 aa 3a 59 4b 26 bc 46 84 a7 bb f2 ee 29 3e
       0.0012975417 -0.0101498 -0.005112204 0.16595057
0002c0 55 9e 25 be 0a f8 82 bd b3 80 20 bd f0 4b a7 3d
       -0.1617368 -0.06394966 -0.039185237 0.08168781
0002d0 e2 37 9e bd fe b7 8f 3d 70 ed 0f 3e b6 fc 62 bd
       -0.077255026 0.070175156 0.14055419 -0.055416785
0002e0 3b 01 2b 3e ce 28 59 3c d7 62 b0 bd 79 13 76 bc
       0.16699688 0.0132543575 -0.08612602 -0.015019291
0002f0 d3 42 bb bd ce d2 11 3d 91 6f d2 bc fb 10 7c bd
       -0.09143605 0.03560143 -0.025687965 -0.06153963
000300 dd 51 05 3e 14 9c f4 3d 7c 75 22 3e 1e e5 8c 3d
       0.1301951 0.11943832 0.15865129 0.06879638
000310 e6 3e 97 bd 71 98 e9 3d a2 3b b0 3d 1a 5c 97 3d
       -0.07385044 0.11406029 0.08605124 0.07390614
000320 79 3e 87 bc 7f e0 06 3e f1 64 e3 3d b4 bb 53 ba
       -0.016509281 0.13171576 0.111032374 -0.0008076981
000330 76 74 3a bd fc 66 65 3e a2 a6 17 be 5b fe fd bb
       -0.045521222 0.22402567 -0.14809659 -0.007751269
000340 74 50 ff 3b fb 55 22 3d 5f 38 08 be 5a cd 02 bd
       0.007791573 0.03963278 -0.13302754 -0.03193412
000350 5d 5e 83 3c 97 fa f4 3c 89 5c 03 3e 57 b8 df 3d
       0.016036207 0.029904647 0.12828268 0.10923832
000360 5e b9 63 3e ad 07 bb bd 95 57 3b be 31 3e cf 3d
       0.2223868 -0.091323234 -0.18295129 0.10119284
000370 1b d8 db bd 82 7e 56 bd 73 c0 c1 bb cb fe 96 3d
       -0.10734578 -0.05236674 -0.0059128343 0.07372817
000380 86 f8 ca 3d ec 03 0e 3e 25 93 fe 3c f9 10 b1 3d
       0.09910683 0.13868684 0.031076023 0.086458154
000390 f8 e1 d2 3c 2c 20 ba bd 33 ca af bd d5 1b 0d bd
       0.025742516 -0.090881675 -0.08583488 -0.03445037
0003a0 d7 ce da 3d cb b3 5a 3d 8c b2 94 bd b2 7e e1 3d
       0.10683983 0.05339412 -0.072606176 0.11010493
0003b0 78 88 bc bb be 80 1e ba 57 7d 56 3c 78 95 18 3d
       -0.005753573 -0.0006046406 0.013091407 0.03725192
0003c0 8a 56 83 3b d1 c9 d8 bc 45 e3 29 be 4e 16 0b 3e
       0.004008119 -0.026463421 -0.16590603 0.13582727
0003d0 05 dc 82 bd 48 d8 ce 3d a3 d6 57 3d ef a2 c7 bc
       -0.06389622 0.10099846 0.052694928 -0.024369685
0003e0 92 50 0b 3e ee d7 ab 3d 12 f8 d4 bc 58 71 4a bc
       0.13604954 0.08390795 -0.025997195 -0.012356125
0003f0 1d 23 0b be 5f 83 2b 3e db ef 17 3e f1 80 bd bd
       -0.13587613 0.16749333 0.14837591 -0.09253109

net.2.bias f4 [64]
000000 d0 2b b6 3c a4 4d a0 3d 81 73 d4 3d 3e 72 e6 3d
       0.022237688 0.07827309 0.10373593 0.11252259
000010 cc c0 16 3e 59 4e b2 bd 06 5a 36 bc 85 f5 cb bc
       0.14721984 -0.0870635 -0.011129862 -0.024897346
000020 8e be c0 3d 37 b2 84 3d f8 25 9c 3c f5 f1 a9 3d
       0.094113454 0.06479304 0.019061074 0.08298103
000030 6f 2d 97 3d bc fa 86 3d 8e e1 c2 3c 06 c8 b7 bd
       0.07381713 0.065907925 0.023789193 -0.08973698
000040 21 e0 56 3d 27 21 07 3e 02 8b c6 3d be a5 03 be
       0.05245984 0.1319624 0.096944824 -0.12856194
000050 f2 a5 c7 3c f7 f6 2a 3d 2f 66 f7 bd 41 c8 82 bd
       0.024371121 0.04173943 -0.12080037 -0.06385852
000060 c9 3c 85 bc 6e 87 5e bd 31 6b 08 bd 45 f3 64 bd
       -0.016264336 -0.054328375 -0.03330535 -0.055896062
000070 70 51 08 3e 90 4c 81 3d ee 3f db 3d ff 68 9f bb
       0.13312316 0.06313431 0.10705553 -0.0048648114
000080 a9 da 67 3d 2b a3 d6 3b 45 f9 b6 3d 0e e3 ad 3d
       0.056605015 0.006550213 0.08934263 0.08490573
000090 b0 13 eb bd 8b fa 0f bc 2e 24 8e bc 4f ba 44 bd
       -0.114783645 -0.008787761 -0.017351236 -0.04802924
0000a0 c0 db 38 3b 2a 8f 07 3d 7d bb 90 3c ed d7 92 bd
       0.0028207153 0.033095516 0.017667526 -0.07170091
0000b0 6b 31 55 3d 61 3e bf 3d 76 57 e8 bc 29 a5 0e 3e
       0.05204908 0.0933807 -0.028362017 0.13930191
0000c0 04 a4 0a be 8d 6e 05 3c ef 9f 78 bd ba fc 20 3d
       -0.1353913 0.008144033 -0.0606994 0.03930352
0000d0 1e 02 f1 bd 41 df e7 3d f5 63 b5 bd fe aa df 3d
       -0.11767982 0.11321879 -0.08856956 0.10921286
0000e0 70 d6 08 3e 80 52 19 bd c4 f8 8f bd c0 56 99 bd
       0.13363051 -0.037432194 -0.0702987 -0.074872494
0000f0 08 7b b9 3c a5 e8 f2 3d 84 9b 7a 3d 40 8b de 3d
       0.022641674 0.1186078 0.061183468 0.108664036

net.4.weight f4 [2, 64]
000000 01 77 bf 3d 27 dd 0b be 99 af 70 3e 0d 69 1a 3e
       0.0934887 -0.13658582 0.23504485 0.15079136
000010 9c 1c 09 3e 67 b9 76 3d da fa 18 3c 70 68 b1 bd
       0.1338982 0.060235407 0.009337151 -0.08662498
000020 45 1d dc 3d 15 e2 1f be e8 a6 97 3d 33 f1 27 be
       0.1074777 -0.15613587 0.07404882 -0.16400604
000030 93 71 5e be 43 06 4c 3e cf 3c 4c bd 08 28 12 3d
       -0.21723013 0.19924264 -0.04986268 0.035682708
000040 d5 da bc 3c fe 82 11 3e 40 92 00 3e 3c 27 e6 3d
       0.023053566 0.14210126 0.1255579 0.11237952
000050 ed f1 66 3e ba a3 1b 3e bd 54 a0 bd 4e c1 0d 3e
       0.22553225 0.15199175 -0.078286625 0.13843271
000060 2b 80 4c 3e b9 e0 c5 3d 81 67 25 3e 3d 54 02 3b
       0.19970767 0.09662003 0.16152765 0.0019886636
000070 53 c5 7a be 0f 36 86 3c 38 0e 3b be 30 53 c0 bd
       -0.24489336 0.016383199 -0.18267143 -0.09390867
000080 d3 e1 4c 3e 83 bc 4d bc a5 d8 9f 3d 9a d0 52 3d
       0.2000802 -0.012557152 0.078049935 0.05146847
000090 a0 5c c7 3b 57 82 2f 3d 10 27 ca 3d 58 be 34 be
       0.00608404 0.04284891 0.09870732 -0.17650735
0000a0 27 30 4a bd f3 63 c2 3d 58 24 59 be fa 57 5f bd
       -0.049362328 0.0949172 -0.2120527 -0.05452726
0000b0 dd 83 6d bd 07 31 6a be 5e 62 85 3c 25 ba 13 be
       -0.057987083 -0.22870265 0.016282257 -0.14426477
0000c0 95 3e 27 bd 31 3a a7 3d 0a 12 66 3e 31 36 18 3e
       -0.040831167 0.08165396 0.22467819 0.14864422
0000d0 b8 af 96 bd ce 81 84 bd 97 16 c2 3d 7d a0 f1 3d
       -0.073577344 -0.06470071 0.09476965 0.11798189
0000e0 86 80 21 be 37 dc db 3d 70 8a 7f bd 00 0d bb ba
       -0.15771684 0.10735362 -0.062387884 -0.0014270842
0000f0 93 cf b7 3d 22 1d 8b 3d e4 be c2 bc dc c0 1c be
       0.089751385 0.06792666 -0.023772664 -0.15307945
000100 d5 0b 2e be 88 ff 56 3e c1 22 9f bd 10 8d 5b be
       -0.16996701 0.20995915 -0.07770301 -0.2144053
000110 8e 98 0d be 00 97 78 ba 87 57 53 3e b6 29 6f 3e
       -0.13827726 -0.000948295 0.20638858 0.23355755
000120 89 97 53 be 48 dc 38 3d 65 e8 41 be cf 99 bc 3d
       -0.20663275 0.04513195 -0.18936308 0.09209024
000130 16 c3 05 3e be dc 22 be 83 4d 46 3e 80 f6 32 bd
       0.130627 -0.15904519 0.19365506 -0.043692112
000140 b1 f2 70 be 1b a4 0f be c7 e3 e3 bd 91 06 d7 3d
       -0.2353008 -0.14027445 -0.111274295 0.10499299
000150 ad b9 1b be 1d b2 fc bd f1 94 c2 3d a1 01 b4 bd
       -0.15207548 -0.1233866 0.095010646 -0.08789373
000160 d1 26 38 be 67 fb 32 3d 5b 94 6f bd e7 54 4c be
       -0.17983557 0.043696787 -0.058491092 -0.19954263
000170 bf 87 d9 3c e9 fc 41 be 5d 5d 95 3d 0a 68 56 3e
       0.026553987 -0.18944134 0.07293198 0.20938125
000180 f1 48 c7 bd 8f 2c 20 3e 3a 3c 51 be d8 bd e5 bd
       -0.09730709 0.15641998 -0.20433131 -0.112178504
000190 e4 ea 8a 3d bf 74 5f be 5d a5 20 be 79 99 b9 3d
       0.06783083 -0.21821879 -0.15688081 0.09062476
0001a0 84 d2 e2 3d 7f d3 08 bd 13 66 08 3e d6 48 90 3d
       0.11075309 -0.033404823 0.13320188 0.07045142
0001b0 6e 32 37 3e 00 60 15 bc e1 a3 60 be 45 89 43 3e
       0.17890331 -0.009117126 -0.21937515 0.19095333
0001c0 0b c0 4e bd d3 5d 88 bc d7 7f ed bb c2 81 24 be
       -0.050476115 -0.016646301 -0.0072479057 -0.16065124
0001d0 94 2b 46 bd eb c0 9b 3d bf 43 ac bc 16 4f 40 be
       -0.048381403 0.076051556 -0.021028398 -0.18780169
0001e0 09 eb 50 3e d3 e7 09 3d bd 01 95 3c c0 74 c3 3b
       0.20402159 0.03366835 0.018189305 0.0059648454
0001f0 6f 03 0e bd 6d 31 54 be 6c 13 bb bc 0b 86 08 3e
       -0.034671243 -0.2072198 -0.02283641 0.13332383

net.4.bias f4 [2]
000000 13 df 84 3d a7 8d 83 3d
       0.064878605 0.064235024

exp_avg f4 [64, 4]
000000 b4 3f ea 35 68 34 c9 37 89 ce ae b4 29 13 16 b8
       1.7452899e-06 2.398547e-05 -3.25603e-07 -3.578063e-05
000010 46 14 f4 35 1a 44 38 37 eb 9f a4 36 79 a0 99 35
       1.8185317e-06 1.0983111e-05 4.906198e-06 1.1446092e-06
000020 2d 23 99 38 57 47 ee 39 8a 61 90 36 56 85 d1 b8
       7.3021605e-05 0.0004544805 4.3028895e-06 -9.990732e-05
000030 d7 3d 12 ba e5 b2 03 39 09 f3 6c 38 1b 9c 23 b9
       -0.0005578673 0.00012559777 5.649313e-05 -0.00015603045
000040 da a8 10 ba e9 b5 f6 38 d3 42 6e 38 94 2a 13 b9
       -0.0005518325 0.000117640775 5.6805857e-05 -0.00014034874
000050 3f 95 4c b7 0f 64 f0 b7 8b 1a 80 b5 57 b5 89 37
       -1.2194097e-05 -2.8656823e-05 -9.544468e-07 1.6416116e-05
000060 db c6 88 3a f3 78 83 b9 35 21 ee b8 be c3 5b 39
       0.001043524 -0.0002507638 -0.0001135491 0.00020958387
000070 15 d2 ba b9 82 8e c5 38 98 6a d1 37 0f 92 01 b9
       -0.00035633208 9.420236e-05 2.4964378e-05 -0.0001235681
000080 07 dc 4a 38 43 d7 bf b7 c0 c0 02 b7 33 a4 7b 37
       4.836547e-05 -2.2869213e-05 -7.793482e-06 1.4998996e-05
000090 56 a0 f6 b9 1a 75 e5 36 b4 1c 2e 38 8f 50 0d b8
       -0.00047040236 6.8383642e-06 4.1511565e-05 -3.3692046e-05
0000a0 d2 d0 19 ba 9e 87 fc b8 f9 46 05 38 3f 1e 0b 39
       -0.00058676035 -0.00012041557 3.177577e-05 0.0001326734
0000b0 53 ae 72 2e cc b0 c2 ae 80 68 a4 ac 9f 9a e4 2c
       5.517926e-11 -8.853504e-11 -4.672762e-12 6.497316e-12
0000c0 a9 0a 33 ba b7 ad 08 38 fd 98 ca 38 ba 1b d9 37
       -0.00068298966 3.258671e-05 9.660607e-05 2.5881327e-05
0000d0 39 dc 20 bb 12 4d b4 36 71 66 5c 39 6e 25 ae b9
       -0.0024545325 5.37339e-06 0.00021018997 -0.00033215754
0000e0 4d 6f 2e 3b 21 12 02 ba 34 8d 8e b9 f2 72 00 3a
       0.0026616633 -0.0004961808 -0.00027189555 0.00048999407
0000f0 d9 04 82 38 d7 54 65 37 ca e8 84 b5 43 99 0c b7
       6.199786e-05 1.3669217e-05 -9.902517e-07 -8.380334e-06
000100 00 57 ad 3a 62 cb b6 b9 ac 24 24 b9 76 61 09 3a
       0.001322478 -0.00034865277 -0.0001565392 0.0005240658
000110 73 28 a9 32 0a 8f 49 33 b2 bf 3a 30 53 9e e5 b2
       1.9692584e-08 4.6929053e-08 6.793882e-10 -2.6731106e-08
000120 15 cf fa 3a a6 f4 be b9 69 6a 4e b9 8e e1 b9 39
       0.0019135202 -0.000364219 -0.00019685332 0.00035454
000130 0b af a5 b9 54 96 e6 b6 e7 3f f4 37 eb ee 68 b7
       -0.0003160167 -6.8720346e-06 2.9116823e-05 -1.3883905e-05
000140 f6 bf 8e 3a 9f 03 4b b9 ca 12 ea b8 47 92 3e 39
       0.0010890949 -0.00019360938 -0.00011161489 0.00018174305
000150 15 49 bc b5 b8 b9 12 35 0b 50 9f b1 9a 2e 3e b5
       -1.4028361e-06 5.4659495e-07 -4.636609e-09 -7.084833e-07
000160 e1 23 a3 38 4d 8e ea b8 72 68 f8 b7 91 96 0a 39
       7.779129e-05 -0.00011184495 -2.961254e-05 0.00013216796
000170 8e 90 ac ba 3a 0e 3d 39 26 61 0e 39 95 0d 7e b9
       -0.0013165639 0.00018029744 0.00013578366 -0.00024228387
000180 4b c6 d8 36 0e 7b 04 b9 2b cc 7c 37 37 79 04 39
       6.460386e-06 -0.00012634342 1.5067907e-05 0.00012633657
000190 95 69 bf 3a 01 a6 7a b9 0c 33 1a b9 c9 7d c7 39
       0.001460361 -0.00023903699 -0.00014705601 0.00038049955
0001a0 e8 b4 8e b8 68 65 16 b9 eb eb cb b7 17 8b 87 b8
       -6.804784e-05 -0.00014342892 -2.4309344e-05 -6.463209e-05
0001b0 62 64 bf b5 81 54 32 b7 76 a0 c5 b4 fc 0e 2e 37
       -1.4259824e-06 -1.0629302e-05 -3.681086e-07 1.0374697e-05
0001c0 47 4d 81 3a 50 f2 23 b9 12 6c d0 b8 bf d3 20 39
       0.0009864949 -0.0001563516 -9.9383426e-05 0.0001533767
0001d0 b5 90 21 3b 96 81 d8 b9 65 0a 8d b9 78 0d 0a 3a
       0.0024652903 -0.0004129528 -0.0002690136 0.0005266289
0001e0 5c 4e 9f 39 68 d9 9b b9 5b 6b 1a b8 31 c3 b5 39
       0.00030385226 -0.00029725884 -3.6816444e-05 0.0003466844
0001f0 35 b8 34 33 ed 36 88 33 fc de 6f 31 4a dc 35 b3
       4.207705e-08 6.3429844e-08 3.490583e-09 -4.23427e-08
000200 29 16 c6 ba d3 6e b0 39 27 1c 24 39 08 f9 b8 b9
       -0.0015112805 0.00033651906 0.00015650746 -0.00035280758
000210 ba 0e 7f ba c0 e8 4a 39 11 0b d9 38 f2 ae 4f b9
       -0.00097296725 0.00019350927 0.000103494276 -0.0001980623
000220 cd 58 fd b8 68 93 df b7 fc 0b 46 37 ee 46 ab 37
       -0.000120805205 -2.6652313e-05 1.180451e-05 2.0417818e-05
000230 9a 50 09 ba 60 69 a5 b7 6e 1c 4c 38 cf 63 39 b8
       -0.0005238146 -1.9718602e-05 4.8663867e-05 -4.420039e-05
000240 4e 12 9b 3a 0c 50 94 b8 0e 0c bc b8 ed 22 60 39
       0.0011831017 -7.0721e-05 -8.966784e-05 0.00021375316
000250 05 bc aa 3a 33 37 00 b9 11 54 e8 b8 f7 59 31 39
       0.0013026005 -0.00012227595 -0.00011078281 0.0001691355
000260 b2 49 71 3a 4d 82 cf 38 6d a6 d7 b8 5f c4 c5 b8
       0.0009204402 9.8947996e-05 -0.00010282998 -9.430269e-05
000270 66 b1 48 27 30 bd e7 26 23 55 57 24 a8 53 5b a6
       2.7851744e-15 1.6080124e-15 4.6692807e-17 -7.6094264e-16
000280 60 00 ab b9 ba 78 8f b8 07 c3 37 37 a4 fb c2 38
       -0.0003261594 -6.8412584e-05 1.0953058e-05 9.2975126e-05
000290 c3 71 b3 ba 15 e1 8c 39 72 63 15 39 4f 31 91 b9
       -0.001369052 0.0002687058 0.00014246794 -0.00027693293
0002a0 35 b3 8f 38 30 fa b2 b9 45 2a 6b b8 2d e5 d5 38
       6.852151e-05 -0.0003413721 -5.6067733e-05 0.00010199319
0002b0 17 5f d8 b8 e9 58 23 37 a8 aa 39 35 b1 6a 87 38
       -0.000103173945 9.736258e-06 6.916621e-07 6.4571745e-05
0002c0 0d 6a d8 b9 f8 35 c0 b7 e6 93 e1 37 60 37 d5 b6
       -0.00041277744 -2.2913315e-05 2.689096e-05 -6.354341e-06
0002d0 dd c1 70 ba b8 1c e7 37 eb c8 e2 38 d6 71 19 38
       -0.00091841613 2.755072e-05 0.00010813944 3.658406e-05
0002e0 52 b3 90 34 05 a1 ae 36 fa ab 1a b5 92 fb 05 b7
       2.6952563e-07 5.2043492e-06 -5.761973e-07 -7.985991e-06
0002f0 76 ba 89 38 9d d4 7e b8 82 71 f8 36 64 29 6b 38
       6.5674e-05 -6.075633e-05 7.40419e-06 5.6066914e-05
000300 41 da 43 39 b0 f4 10 ba 0c af 9c b8 1d 12 b7 39
       0.00018677955 -0.00055296253 -7.471265e-05 0.00034917975
000310 ba 31 b5 36 dc da a9 b6 0f 1e 50 b6 5a 91 b5 36
       5.4000093e-06 -5.062071e-06 -3.1011912e-06 5.4111415e-06
000320 b0 5a c1 39 13 fe 5a b9 3b f6 23 b7 e4 c8 41 39
       0.00036879396 -0.0002088475 -9.772887e-06 0.00018480752
000330 ad 3c 9c b8 44 84 96 36 73 93 06 37 10 4d cd b5
       -7.4499614e-05 4.485746e-06 8.021353e-06 -1.5296118e-06
000340 ab 6b 91 b7 70 ee 1c 38 3d a8 b2 b6 03 c2 69 b8
       -1.7335484e-05 3.741536e-05 -5.324399e-06 -5.5732216e-05
000350 8d 63 73 b9 49 f9 89 b9 27 6c f4 37 7b 44 55 39
       -0.00023211371 -0.00026316408 2.9137429e-05 0.00020338774
000360 e6 fb 29 bb 37 18 14 3a 34 ab 8a 39 f2 f6 1e ba
       -0.0025937497 0.000564936 0.00026448967 -0.00060640194
000370 bd 76 0c ba ac e7 2f b7 3d 36 82 38 7c b7 20 38
       -0.00053582696 -1.0484753e-05 6.208986e-05 3.8317856e-05
000380 58 b9 de b9 c8 a2 18 39 24 19 64 38 b3 fd 59 b9
       -0.00042481232 0.0001455649 5.438285e-05 -0.00020789243
000390 6f 3b be b4 ab 2c d6 34 3a ca c1 33 17 11 8f b3
       -3.5433501e-07 3.9893106e-07 9.0240476e-08 -6.662065e-08
0003a0 8a 43 91 3a 07 42 57 b9 74 0c e9 b8 01 c2 5c 39
       0.001108275 -0.00020528595 -0.00011112625 0.00021053107
0003b0 e2 d9 4c b3 a1 62 ad 32 ea c0 0b 32 fd 45 e4 b0
       -4.7695615e-08 2.0184702e-08 8.1347284e-09 -1.6609075e-09
0003c0 ad 1f 83 b0 04 37 11 b1 5e 90 db ad eb 90 6f 30
       -9.540507e-10 -2.113155e-09 -2.496153e-11 8.7153634e-10
0003d0 de cc 12 bb 0f 0c 0e 38 e2 ab 3c 39 f3 00 af b9
       -0.0022399942 3.386667e-05 0.00017993108 -0.00033379308
0003e0 95 0e 95 b8 9b 6e 19 37 25 9e 6d 37 89 4b c4 b5
       -7.10759e-05 9.145263e-06 1.4163122e-05 -1.4625122e-06
0003f0 07 c0 1f 3a a5 ca cf b8 ac 81 60 b8 92 eb ea 38
       0.0006093983 -9.908275e-05 -5.3526528e-05 0.00011201868

exp_avg_sq f4 [64, 4]
000000 dc 83 24 32 9e b7 f7 32 7c 3a c5 31 5c c8 0a 34
       9.576038e-09 2.8838084e-08 5.7401035e-09 1.2925142e-07
000010 a6 da 47 33 24 9f b6 32 80 6f be 2f 1a 06 e0 31
       4.6532158e-08 2.1259957e-08 3.4640024e-10 6.5199517e-09
000020 43 c2 af 36 06 b3 53 36 a9 ef 7f 34 31 36 78 35
       5.2380215e-06 3.1545655e-06 2.3835914e-07 9.246606e-07
000030 25 54 e1 34 02 87 0f 34 16 5f f5 31 df c6 3d 33
       4.197074e-07 1.3367028e-07 7.1412485e-09 4.4185864e-08
000040 bd 89 0a 35 a5 55 40 34 1d 68 40 32 4d 51 65 33
       5.160944e-07 1.7912551e-07 1.11995435e-08 5.339216e-08
000050 e8 25 57 32 79 ac 15 32 16 20 db 2d 6a 4f da 30
       1.2523266e-08 8.712157e-09 2.4911666e-11 1.5884158e-09
000060 d9 cd 10 36 2a 43 3c 35 84 f1 9c 33 f9 71 e8 34
       2.1577491e-06 7.0133194e-07 7.3082475e-08 4.3296293e-07
000070 a0 2c 33 33 2c 5c aa 32 15 1b 17 31 14 d9 01 33
       4.171727e-08 1.983252e-08 2.1988786e-09 3.0232584e-08
000080 9a e8 85 35 d3 ea 10 35 6c 00 9d 32 87 4a b8 33
       9.976968e-07 5.3985895e-07 1.8277397e-08 8.581724e-08
000090 13 1b 01 35 3e 0b 71 34 e0 b8 95 32 94 e6 92 33
       4.8095643e-07 2.2448964e-07 1.7429954e-08 6.840597e-08
0000a0 d3 eb fa 35 0a a7 67 35 6f 65 05 33 63 2c 3c 34
       1.8695085e-06 8.629728e-07 3.105873e-08 1.7525012e-07
0000b0 40 c9 36 31 96 7f 16 31 c9 c8 50 2d af 0b 60 2e
       2.6598883e-09 2.1900397e-09 1.1868014e-11 5.094208e-11
0000c0 2a 63 9d 35 81 06 de 34 25 05 99 32 ac f9 d4 33
       1.1726272e-06 4.1355455e-07 1.7813884e-08 9.917434e-08
0000d0 16 41 db 36 97 33 e6 35 1a 24 b3 33 de 6f fa 34
       6.5342856e-06 1.715135e-06 8.341904e-08 4.6647523e-07
0000e0 70 f5 17 37 a3 2b 28 36 af 36 10 34 30 57 2d 35
       9.057447e-06 2.505935e-06 1.3430939e-07 6.4574397e-07
0000f0 76 7d 63 33 99 04 c8 32 d6 eb a1 2f 75 12 e0 31
       5.2966662e-08 2.3285155e-08 2.94533e-10 6.5213563e-09
000100 f0 0a 9a 36 ba 4b c2 35 bd 97 b2 33 1d 3d f7 34
       4.590831e-06 1.4476166e-06 8.316372e-08 4.60518e-07
000110 d9 66 12 34 15 98 90 33 b0 b5 e4 2f 52 d7 00 32
       1.3634725e-07 6.733186e-08 4.1602055e-10 7.499539e-09
000120 80 c2 e9 36 4b 35 1c 36 4b 18 4d 34 6f 06 79 35
       6.966584e-06 2.3276832e-06 1.910095e-07 9.276909e-07
000130 5e 6a bd 34 c2 c3 94 33 3a f6 08 31 f6 c1 66 32
       3.5281386e-07 6.927395e-08 1.9930568e-09 1.3431864e-08
000140 bb 5b f0 35 7e a4 1c 35 54 58 2f 33 2f 36 39 34
       1.790809e-06 5.8353896e-07 4.0825697e-08 1.724918e-07
000150 5e 69 83 2f bd 6b 43 2f 39 c7 f0 2b 74 f5 0b 2f
       2.390363e-10 1.7773423e-10 1.7108321e-12 1.2729179e-10
000160 67 83 7b 36 e9 93 d4 35 1e 41 d2 33 a8 c6 d0 34
       3.74784e-06 1.5838278e-06 9.790732e-08 3.888756e-07
000170 d4 dc 33 36 20 75 81 35 a6 fc 63 33 2f f3 81 34
       2.6801617e-06 9.645337e-07 5.308234e-08 2.4205062e-07
000180 d2 52 14 36 5c 10 4b 35 83 77 03 33 0c 69 4f 34
       2.2101926e-06 7.56472e-07 3.060951e-08 1.9316593e-07
000190 f9 2a 8b 36 ae 32 95 35 54 e7 b6 33 37 b6 a2 34
       4.1475255e-06 1.1116115e-06 8.517114e-08 3.030743e-07
0001a0 ef d7 c2 35 76 a8 5b 35 9b 96 d4 32 53 cf 03 34
       1.4516971e-06 8.1829e-07 2.4748536e-08 1.227575e-07
0001b0 97 d8 82 34 1c 5f 9b 33 c9 66 1a 31 71 ba 92 32
       2.4371977e-07 7.23505e-08 2.2468376e-09 1.708142e-08
0001c0 59 fa b5 35 3c 90 d2 34 81 d2 d5 32 10 d9 e2 33
       1.3558412e-06 3.9220492e-07 2.489219e-08 1.05634285e-07
0001d0 f6 06 f0 36 f1 25 13 36 d6 6d 7d 33 29 3c c6 34
       7.1533677e-06 2.1926792e-06 5.9006048e-08 3.6924146e-07
0001e0 9e 27 da 35 f1 fc 62 35 10 bd 9b 32 f5 4d 62 34
       1.6253796e-06 8.455964e-07 1.813035e-08 2.1076251e-07
0001f0 c4 ba ba 33 9a d1 18 33 91 5d 10 30 1e ad a7 31
       8.6952724e-08 3.558089e-08 5.251986e-10 4.880021e-09
000200 d1 4f 81 36 72 2d c7 35 f1 ad cc 33 c9 b5 c0 34
       3.8537914e-06 1.4839882e-06 9.53113e-08 3.5895053e-07
000210 ee bf 9e 35 9d 35 d4 34 ca cc c2 32 13 a8 11 34
       1.1827776e-06 3.9527086e-07 2.26777e-08 1.3565322e-07
000220 73 3a 11 34 81 22 cb 32 37 63 2c 30 ad d8 a8 31
       1.3525441e-07 2.3648001e-08 6.271423e-10 4.9140767e-09
000230 d0 f1 86 35 1c 68 f5 34 14 3d 62 33 45 b5 b4 34
       1.0054155e-06 4.5710556e-07 5.2675276e-08 3.3659504e-07
000240 0e 03 aa 35 88 96 81 34 f4 8e f1 31 3f 95 62 33
       1.2666876e-06 2.4137648e-07 7.030275e-09 5.2755464e-08
000250 ea 10 c1 35 d6 02 55 34 21 27 d6 31 4a 71 52 33
       1.4384543e-06 1.9838203e-07 6.232668e-09 4.899747e-08
000260 d6 d7 d4 35 c7 c3 ff 34 47 38 11 32 9e 58 9f 33
       1.5858047e-06 4.7639898e-07 8.452907e-09 7.420134e-08
000270 8e e5 15 30 7d b1 75 2f 40 46 9e 2b 01 dc 0e 2d
       5.45321e-10 2.2345677e-10 1.1246074e-12 8.120616e-12
000280 55 e8 40 35 6a e7 d8 34 e0 e5 93 32 ee e3 ee 33
       7.186366e-07 4.040151e-07 1.7217587e-08 1.1124199e-07
000290 2e 1f 42 36 c6 b4 6f 35 e5 78 5e 33 3f a1 5f 34
       2.8926402e-06 8.92975e-07 5.1798356e-08 2.0827154e-07
0002a0 04 b3 71 36 b3 3e 12 36 7b ae 10 34 64 db 2b 35
       3.6016e-06 2.179219e-06 1.347452e-07 6.402172e-07
0002b0 5a 42 e9 34 75 a0 80 34 bf 13 38 32 45 64 cc 33
       4.344791e-07 2.3958606e-07 1.0714699e-08 9.517729e-08
0002c0 24 68 aa 34 a3 cb 28 34 f1 ed aa 32 df d6 13 34
       3.174074e-07 1.5720302e-07 1.9898808e-08 1.3768611e-07
0002d0 95 b0 f8 35 58 62 1f 35 c0 96 e3 32 43 43 04 34
       1.8528832e-06 5.9375225e-07 2.6494831e-08 1.2317928e-07
0002e0 5a 74 2c 32 bf 42 f5 30 11 75 d8 2d bd 4c aa 2f
       1.0038173e-08 1.7845067e-09 2.4608345e-11 3.0977346e-10
0002f0 16 75 46 36 65 6f ac 35 bc 3a c0 33 2e 09 c2 34
       2.9572452e-06 1.2847419e-06 8.9513804e-08 3.6141995e-07
000300 6f a5 5c 36 ef 4e ee 35 1f 6a b2 33 c9 50 c6 34
       3.287885e-06 1.7755355e-06 8.308074e-08 3.6939153e-07
000310 e4 a5 86 33 82 2f 46 33 c1 3f 5f 30 88 9c c5 31
       6.2700366e-08 4.6143676e-08 8.1217527e-10 5.75125e-09
000320 e4 51 ae 35 38 b9 4a 35 26 bb 99 32 26 ba 44 34
       1.2987844e-06 7.552039e-07 1.789665e-08 1.8321643e-07
000330 a7 5c b2 32 82 21 90 32 0b 15 49 31 d5 80 ef 32
       2.076406e-08 1.6779044e-08 2.9261311e-09 2.7881848e-08
000340 70 d2 32 35 ec 73 b2 34 7f a7 a5 31 ab 2c 5f 33
       6.6616394e-07 3.3239428e-07 4.821174e-09 5.196186e-08
000350 97 1d b6 35 49 46 b1 34 2d b0 78 31 f9 94 c0 33
       1.3568668e-06 3.3019958e-07 3.6188894e-09 8.967795e-08
000360 a6 c7 3b 37 3e fa 83 36 91 8b 8e 34 56 64 87 35
       1.1192553e-05 3.9332363e-06 2.655111e-07 1.0087485e-06
000370 93 2c fc 35 a7 80 47 35 20 e3 5a 33 22 88 46 34
       1.8788436e-06 7.432049e-07 5.096365e-08 1.8489712e-07
000380 ba 29 4f 34 70 e8 fc 32 7b 9f 88 31 ea ba 73 33
       1.9293557e-07 2.9442361e-08 3.9762518e-09 5.6747844e-08
000390 b9 87 88 34 4d f4 a9 33 4c 98 36 31 c8 93 8e 32
       2.5430725e-07 7.914114e-08 2.6571056e-09 1.6598179e-08
0003a0 1e 97 3a 36 cf 8e 7d 35 56 26 9d 33 c5 bd 8e 34
       2.7804122e-06 9.445766e-07 7.3178555e-08 2.6587637e-07
0003b0 96 20 e7 33 5c ce 03 33 4e 28 6d 30 ca b7 e6 31
       1.0762703e-07 3.0688497e-08 8.6277374e-10 6.7147754e-09
0003c0 88 d0 31 32 20 13 5e 32 d2 18 5b 2e 31 fd af 30
       1.03501705e-08 1.2926449e-08 4.981688e-11 1.2804887e-09
0003d0 c6 2e d0 36 09 22 e1 35 8d c6 e3 33 8e a6 03 35
       6.204328e-06 1.6773712e-06 1.06066274e-07 4.904367e-07
0003e0 20 65 bf 33 bc b8 3a 33 61 55 f3 30 66 94 4a 32
       8.912525e-08 4.3474515e-08 1.7704843e-09 1.1791689e-08
0003f0 64 b3 89 35 89 61 ff 34 c7 7b 8b 33 9e 03 c1 34
       1.0259505e-06 4.7568417e-07 6.495207e-08 3.5951683e-07

exp_avg f4 [64]
000000 0b f9 9b b8 16 4d 51 35 8e f2 77 ba a7 01 80 ba
       -7.437364e-05 7.797074e-07 -0.0009458446 -0.0009766117
000010 b5 68 77 ba 37 ee d0 b7 cf a9 da 3a 19 da 1b ba
       -0.0009437905 -2.490646e-05 0.0016682687 -0.000594528
000020 f6 60 35 b8 d4 46 5f ba d8 e7 87 ba 6f 4a a1 ae
       -4.3244065e-05 -0.0008517329 -0.0010368777 -7.3346544e-11
000030 75 e8 84 ba 52 cb 90 bb 2b e8 8d 3b bc ff 33 38
       -0.0010140078 -0.004418769 0.004330655 4.2915097e-05
000040 16 d9 2f 3b dd 9a 2c b3 63 cf 4b 3b 88 92 bb b9
       0.0026832274 -4.0187718e-08 0.0031098954 -0.00035776594
000050 0e ac e4 3a fd ef 3b b5 cd ce b1 ba f3 64 0e bb
       0.0017446296 -7.001216e-07 -0.001356566 -0.002172765
000060 f6 63 c5 b9 38 97 2a 3b 2c 3f 5d b8 cc 37 97 b7
       -0.00037649245 0.0026030075 -5.274934e-05 -1.8026585e-05
000070 3b cb cf 3a d3 cf 5f 3b 1b 31 43 3a e1 38 aa b3
       0.0015853414 0.0034150972 0.0007445977 -7.926588e-08
000080 75 c5 28 bb 8a 04 cd ba fe bf 13 b9 02 ed 87 ba
       -0.002575246 -0.0015641612 -0.00014090535 -0.0010370316
000090 be 18 dd 3a de ac be 3a db 90 7e 3a 02 5e a0 a6
       0.0016868336 0.0014547368 0.0009710916 -1.1127711e-15
0000a0 e2 70 f8 b9 79 34 14 bb d8 57 7e 3a 17 90 dc b8
       -0.0004738635 -0.0022614284 0.0009702421 -0.00010517256
0000b0 51 c4 2a ba 45 d8 a0 ba 68 43 16 b7 20 e7 8b ba
       -0.0006514239 -0.0012271485 -8.956391e-06 -0.0010673739
0000c0 52 86 5b 3a f5 a5 70 36 22 db 90 39 4b 22 17 b9
       0.00083742023 3.5859387e-06 0.00027629087 -0.00014413257
0000d0 26 be 7a b8 2e d3 db b9 54 19 90 bb 78 cd 5b ba
       -5.9781734e-05 -0.00041928276 -0.0043975506 -0.0008384804
0000e0 67 00 5f ba 5a fd c3 b4 83 5a ed 3a fc 0e 08 33
       -0.0008506835 -3.6505918e-07 0.001810864 3.1678596e-08
0000f0 be f0 cf 30 95 f9 82 bb cd 57 8e b8 b8 88 87 3a
       1.5129655e-09 -0.0039970377 -6.787442e-05 0.0010340428

exp_avg_sq f4 [64]
000000 ed df f4 33 5b 96 38 33 37 1c a0 37 01 17 58 35
       1.1402867e-07 4.2977586e-08 1.9086625e-05 8.0499746e-07
000010 dc c4 89 35 42 4f aa 31 a1 35 a3 36 6a 66 33 34
       1.0264589e-06 4.9566617e-09 4.864022e-06 1.6707932e-07
000020 3c f2 fa 35 bf e0 9e 35 cc 86 80 36 3d 62 03 31
       1.8696951e-06 1.1837327e-06 3.8303897e-06 1.911885e-09
000030 00 79 14 36 e6 c0 4d 37 ef ef 99 37 9e 19 33 33
       2.212415e-06 1.2263865e-05 1.8350749e-05 4.1699984e-08
000040 2c c3 25 37 8e 86 9b 33 01 a0 7c 37 10 91 9e 34
       9.880208e-06 7.242225e-08 1.5057624e-05 2.953534e-07
000050 5e 44 8d 36 bb 5f e8 2e 75 b4 23 37 98 25 ca 36
       4.2100864e-06 1.0567144e-10 9.757573e-06 6.0244456e-06
000060 89 c0 75 36 a9 3a 12 37 71 d0 67 36 e0 63 94 34
       3.6619915e-06 8.715936e-06 3.4543011e-06 2.7639817e-07
000070 0f ea 3e 36 00 55 29 37 96 69 44 36 c4 91 9d 33
       2.8448446e-06 1.0092976e-05 2.9267735e-06 7.337397e-08
000080 f6 51 1f 37 52 26 28 36 40 1b b4 33 60 2e 30 36
       9.4962215e-06 2.5056256e-06 8.38686e-08 2.6253038e-06
000090 5a 44 b4 35 2f 31 b8 35 10 a1 d6 35 8d f9 fb 2e
       1.3430938e-06 1.3723383e-06 1.5991118e-06 1.14584876e-10
0000a0 52 53 d9 35 74 b6 bf 36 45 07 7b 37 32 20 5b 35
       1.6192009e-06 5.713484e-06 1.4962458e-05 8.163071e-07
0000b0 f7 6c 67 35 be aa 6f 36 c0 07 89 31 ef 76 1b 37
       8.621277e-07 3.571316e-06 3.988106e-09 9.266411e-06
0000c0 53 e1 49 37 27 24 ac 33 9c 98 17 36 31 0f b1 33
       1.2032996e-05 8.01595e-08 2.2589584e-06 8.244968e-08
0000d0 b4 4a 1f 35 45 df 46 35 68 44 d1 37 2d 57 8e 36
       5.9340823e-07 7.408565e-07 2.4946596e-05 4.2420784e-06
0000e0 b7 29 ac 34 80 30 9d 34 35 c6 c2 36 ee 43 08 34
       3.2067848e-07 2.9278817e-07 5.804725e-06 1.26907e-07
0000f0 b5 e7 01 32 60 28 5a 37 87 e5 16 34 9c 5d 5a 36
       7.561472e-09 1.3003213e-05 1.405334e-07 3.253902e-06

exp_avg f4 [64, 64]
000000 d8 5d f4 b7 54 b5 a4 b7 ab 22 e8 b7 8d 4b bf b9
       -2.9130766e-05 -1.9634761e-05 -2.7672699e-05 -0.0003648665
000010 08 7b db b9 0f 32 be b4 9d ae ad b9 18 ca 73 b9
       -0.000418626 -3.542668e-07 -0.00033127228 -0.00023249572
000020 92 5f 27 b3 e5 c2 0d b9 c5 ac 04 b8 d8 98 a3 aa
       -3.8969638e-08 -0.00013519412 -3.1632157e-05 -2.9060673e-13
000030 23 eb 30 b9 27 c0 47 b9 64 e8 b7 b8 ae 47 91 b7
       -0.00016872263 -0.00019049701 -8.769406e-05 -1.7318725e-05
000040 02 0a 93 b8 85 e8 c2 af 7a 4e ca b9 90 69 75 b8
       -7.01137e-05 -3.545361e-10 -0.00038586912 -5.8510865e-05
000050 c7 53 ce b9 7a f9 2b b3 e7 bf d1 b6 96 4d 66 b9
       -0.000393538 -4.0040938e-08 -6.2510258e-06 -0.00021963412
000060 16 57 b1 b6 b2 63 87 b9 1e 2a 5f 37 7d 0e e7 b3
       -5.285149e-06 -0.00025823485 1.3301642e-05 -1.0759411e-07
000070 69 ac bd b9 f1 a4 3c b8 74 8f 8a b7 f9 e1 88 af
       -0.00036177345 -4.4976307e-05 -1.6517683e-05 -2.489882e-10
000080 f2 02 59 b9 be 01 4c b9 e3 b3 51 b8 4f a1 ad b8
       -0.0002069583 -0.00019455605 -4.9997016e-05 -8.279329e-05
000090 4a 94 05 b9 39 53 f4 b7 8a ce 2e b8 b5 9e 2c 24
       -0.0001273911 -2.912582e-05 -4.1677187e-05 3.7430985e-17
0000a0 95 e6 2d b7 7f 97 f5 b9 64 a4 17 b7 1d eb be 36
       -1.036529e-05 -0.00046842915 -9.0385765e-06 5.689812e-06
0000b0 36 fa 92 b8 70 03 c1 b8 75 d2 12 ae 7e e0 8a b7
       -7.008428e-05 -9.2035974e-05 -3.338348e-11 -1.655542e-05
0000c0 db 3d 87 b7 2a ab 32 34 4e 4d f0 b6 e3 4b 66 b7
       -1.6122058e-05 1.6639811e-07 -7.161557e-06 -1.3726737e-05
0000d0 c8 82 03 b5 04 8a 03 b7 45 45 44 b9 ab 29 bb b7
       -4.8991615e-07 -7.840343e-06 -0.00018717822 -2.231154e-05
0000e0 b9 f6 22 b9 c7 f8 e7 33 a4 20 c9 b9 0d d9 12 31
       -0.00015541435 1.0802028e-07 -0.00038362027 2.1369175e-09
0000f0 bd e9 16 af 65 75 81 b8 28 b0 a5 b8 b2 d0 af b9
       -1.3725461e-10 -6.173066e-05 -7.900625e-05 -0.0003353409
000100 4d f8 f6 37 f4 21 dc 37 70 06 19 38 35 d9 ef 39
       2.944111e-05 2.6241854e-05 3.6484038e-05 0.00045747464
000110 b8 64 0c 3a b6 b0 f4 34 f0 8b d5 39 bc 22 8f 39
       0.00053555844 4.5577116e-07 0.00040730787 0.00027300965
000120 09 ae 39 33 dc 67 3a 39 ce 28 31 38 df 1c df 2a
       4.3231953e-08 0.00017777033 4.223809e-05 3.963279e-13
000130 af 00 6b 39 6d 18 82 39 cb ce dc 38 65 50 c1 37
       0.00022411601 0.0002481373 0.00010528936 2.304483e-05
000140 d4 14 9f 38 3c dc 99 b1 65 6f f9 39 6c d8 a2 38
       7.58559e-05 -4.477924e-09 0.00047575976 7.765074e-05
000150 17 06 02 3a ef 85 60 33 3f a1 09 37 f5 f8 97 39
       0.0004960014 5.2275876e-08 8.203379e-06 0.00028986452
000160 a9 68 e5 36 f3 74 9d 39 b1 89 a3 b7 b1 b8 0b 34
       6.836916e-06 0.00030032507 -1.9495232e-05 1.3012574e-07
000170 66 5f f1 39 a0 b8 60 38 0d 50 08 37 31 cb 0a b2
       0.0004603818 5.3577707e-05 8.12487e-06 -8.078858e-09
000180 44 26 90 39 67 01 87 39 f4 14 8b 38 1d 24 e7 38
       0.0002749433 0.0002575025 6.631939e-05 0.00011021665
000190 f4 f6 30 39 31 f0 22 38 10 21 6b 38 0f 42 26 a4
       0.00016876665 3.8847505e-05 5.6059158e-05 -3.6051466e-17
0001a0 06 d1 70 37 c0 3d 1e 3a 78 93 a2 36 a3 0e fc b6
       1.4353782e-05 0.0006036423 4.845144e-06 -7.511889e-06
0001b0 79 7c c3 38 00 18 00 39 d8 d1 16 b5 79 a9 b6 37
       9.3215094e-05 0.00012215972 -5.618472e-07 2.1775008e-05
0001c0 2a c2 c0 b5 12 11 71 b4 cd f5 69 34 e6 40 94 37
       -1.4361624e-06 -2.2451084e-07 2.1789238e-07 1.7673196e-05
0001d0 90 38 f8 b6 63 8c 2c 37 de 2a 82 39 f8 d7 f8 37
       -7.3975607e-06 1.0284685e-05 0.0002482747 2.9664472e-05
0001e0 02 03 43 39 81 c9 13 b4 d7 e9 f3 39 ab 56 74 b1
       0.0001859777 -1.3763749e-07 0.00046522796 -3.5555938e-09
0001f0 a9 3b 56 2f 62 4f ab 38 41 cc dc 38 3f b4 cb 39
       1.9484382e-10 8.1687016e-05 0.00010528463 0.0003885347
000200 73 83 13 b8 2a 80 c4 b7 76 c9 09 b8 ed ea e2 b9
       -3.5169953e-05 -2.3424702e-05 -3.285097e-05 -0.00043281112
000210 13 ca 01 ba 06 c9 e3 b4 ae d6 cd b9 91 e3 91 b9
       -0.0004951071 -4.242831e-07 -0.00039260596 -0.00027826105
000220 6c 23 4b b3 14 78 26 b9 84 fa 1b b8 92 df 12 2a
       -4.7296837e-08 -0.00015875726 -3.718819e-05 1.3044971e-13
000230 ed a7 4f b9 b8 01 6e b9 04 e1 d4 b8 b7 3b ad b7
       -0.00019803616 -0.00022698089 -0.0001015086 -2.0651014e-05
000240 98 27 b0 b8 a0 cb a0 af 1f a2 ee b9 5d 58 91 b8
       -8.399709e-05 -2.9248515e-10 -0.00045515687 -6.930598e-05
000250 90 22 f3 b9 35 93 53 b3 9b 19 f9 b6 f5 3a 88 b9
       -0.00046374323 -4.926115e-08 -7.423759e-06 -0.00025983868
000260 c0 85 d2 b6 e1 fd a0 b9 15 d7 8b 37 62 bf 09 b4
       -6.2740583e-06 -0.00030706733 1.6670247e-05 -1.2828744e-07
000270 34 6f de b9 eb a6 53 b8 26 da a8 b7 4a 4d f7 2f
       -0.00042425992 -5.0461775e-05 -2.0128744e-05 4.4983955e-10
000280 59 b2 7f b9 0a d0 70 b9 62 86 78 b8 bc 5c ca b8
       -0.00024385135 -0.00022965684 -5.925296e-05 -9.649384e-05
000290 8b 44 1d b9 34 8d 0c b8 d1 bb 45 b8 d7 6d 4b 24
       -0.00014998221 -3.3510107e-05 -4.7143378e-05 4.4111646e-17
0002a0 df 3b 3e b7 f9 96 11 ba 1f fc 30 b7 a7 bc ed 36
       -1.1338822e-05 -0.0005553808 -1.0549119e-05 7.0851124e-06
0002b0 de c8 aa b8 c7 a8 e3 b8 ee 03 30 ae cf ba a4 b7
       -8.143646e-05 -0.00010855641 -4.0021257e-11 -1.9637313e-05
0002c0 2c ea a7 b7 6e 1b 4d 34 b0 59 10 b7 b8 18 7d b7
       -2.0016996e-05 1.9102092e-07 -8.603951e-06 -1.508573e-05
0002d0 87 32 59 b5 8a 8a 1c b7 b6 25 68 b9 98 e4 dd b7
       -8.0912326e-07 -9.330581e-06 -0.00022139293 -2.64517e-05
0002e0 ab 25 43 b9 5b da 09 34 4d af ee b9 e0 b9 48 31
       -0.00018610682 1.2838557e-07 -0.00045525507 2.9209488e-09
0002f0 21 4d 3d af 4e be 99 b8 0d a9 c2 b8 57 a7 d2 b9
       -1.7216852e-10 -7.3310555e-05 -9.282129e-05 -0.00040179
000300 18 fc 14 b8 9a 88 e6 b7 29 94 21 b8 b1 98 02 ba
       -3.552073e-05 -2.7481747e-05 -3.8523376e-05 -0.0004981859
000310 57 9f 16 ba 75 01 04 b5 82 1d ec b9 16 f8 a2 b9
       -0.00057457894 -4.917595e-07 -0.00045035413 -0.00031083886
000320 34 74 6c b3 af b2 41 b9 c4 7c 37 b8 6f 89 03 ab
       -5.5053718e-08 -0.00018472479 -4.3746797e-05 -4.6731277e-13
000330 ce 83 74 b9 91 d6 89 b9 11 89 f7 b8 c9 20 ca b7
       -0.00023318754 -0.0002629054 -0.000118034084 -2.4095543e-05
000340 ea 36 c3 b8 57 40 ed 2e 7e a9 09 ba c2 27 ab b8
       -9.308553e-05 1.0788941e-10 -0.00052513916 -8.161321e-05
000350 65 56 0d ba 8a 09 71 b3 cd 71 11 b7 93 99 9f b9
       -0.0005391597 -5.612086e-08 -8.66917e-06 -0.00030441265
000360 35 13 f6 b6 c9 cc b5 b9 0e 57 9c 37 a0 13 20 b4
       -7.3336073e-06 -0.00034675587 1.8637187e-05 -1.4908301e-07
000370 ca e3 01 ba fa d8 80 b8 d2 f1 9a b7 c2 63 42 30
       -0.00049549027 -6.143931e-05 -1.8470837e-05 7.0718553e-10
000380 3e 09 97 b9 5c 51 8e b9 5f 2f 91 b8 02 cc f0 b8
       -0.0002880785 -0.00027144968 -6.922962e-05 -0.00011482091
000390 09 ad 3a b9 18 82 2a b8 b7 c9 69 b8 ef 3f 78 24
       -0.00017802803 -4.0652318e-05 -5.573939e-05 5.383058e-17
0003a0 2c 7d 66 b7 8c 20 29 ba c8 af 28 b7 e8 18 08 37
       -1.3738212e-05 -0.0006451688 -1.0054508e-05 8.112031e-06
0003b0 4e 80 cb b8 ee fd 04 b9 17 db cc 2c 2f f9 bf b7
       -9.703693e-05 -0.00012683097 5.8223526e-12 -2.288501e-05
0003c0 07 c8 84 b7 d7 29 78 34 95 c3 ff b6 13 33 9c b7
       -1.5828771e-05 2.3112021e-07 -7.622361e-06 -1.8620432e-05
0003d0 80 53 c3 b4 13 ca 36 b7 e7 af 88 b9 85 a6 01 b8
       -3.6382335e-07 -1.0895094e-05 -0.00026071 -3.091108e-05
0003e0 56 ea 5c b9 bd e6 21 34 74 7e 08 ba 71 01 73 31
       -0.00021068132 1.5078236e-07 -0.0005206831 3.5361973e-09
0003f0 63 ea 57 af f1 48 b3 b8 62 bf e3 b8 15 3c eb b9
       -1.9637407e-10 -8.5489715e-05 -0.00010859851 -0.00044867457
