P3/Q2/Lunarlander/checkpoints/pg_LunarLander-v3_lastTT.pth (torch, 95069 bytes, 18 tensors)

net.0.weight f4 [64, 8]
0	0x3eaf43d2	0.3423143
1	0x3d8ec85c	0.06971809
2	0x3ea71f28	0.32640958
3	0x3e800db8	0.25010467
4	0xbe46f60c	-0.19429797
5	0x3e00c782	0.12576106
6	0xbe373f7c	-0.17895311
7	0x3cced322	0.02524716
8	0x3e8e39b9	0.27778414
9	0xbe47361e	-0.19454238
10	0xbeeda951	-0.4641824
11	0xbedec157	-0.43506882
12	0xbe101b2d	-0.14072867
13	0xbe5614ab	-0.20906322
14	0x3e1f2c0f	0.15544151
15	0x3e9b9245	0.30385032
16	0x3e511372	0.20417574
17	0x3eccddcd	0.4001297
18	0x3e8bcebd	0.27306166
19	0xbdad77a0	-0.08470082
20	0xbef4cbd1	-0.4781175
21	0xbc238e8d	-0.009982717
22	0x3e7b1431	0.24519421
23	0xbde8e410	-0.113716245
24	0xbcc43417	-0.02395062
25	0x3ebd6ea5	0.36998478
26	0x3ee0b8b8	0.4389093
27	0xbe07d642	-0.13265327
28	0x3dde0933	0.10841598
29	0xbeed893e	-0.4639377
30	0xbe24545d	-0.16047807
31	0xbda980fd	-0.08276556
32	0xbe311d07	-0.1729623
33	0x3e9f5481	0.3111916
34	0xbe697950	-0.22800183
35	0xbd1093ab	-0.035297077
36	0x3ee64fc1	0.44982722
37	0x3ee1842a	0.44046146
38	0x3e8723d3	0.2639452
39	0xbe83a0e5	-0.2570869
40	0x3e0c85ac	0.13722867
41	0x3e8da47c	0.27664554
42	0xbebe5413	-0.3717352
43	0xbeddaa73	-0.43294105
44	0xbcd2c957	-0.025730772
45	0x3eeb5345	0.45961967
46	0xbe647418	-0.22309911
47	0xbe729a7a	-0.2369174
48	0xbdc76207	-0.09735494
49	0xbd14779a	-0.036246873
50	0x3ea07d96	0.31345814
51	0xbd35bb36	-0.04436799
52	0xbe41fe44	-0.18944651
53	0xbebc14f7	-0.36734745
54	0xbdb46c8f	-0.088097684
55	0xbe7779d2	-0.24167565
56	0xbd207d5a	-0.039182045
57	0x3eaeaa26	0.34114188
58	0xbeaf45fc	-0.3423308
59	0x3e32777c	0.17428392
60	0x3f0ee07e	0.558113
61	0x3ec34af8	0.38143134
62	0x3e3fe582	0.18739894
63	0x3eab4d06	0.33457202
64	0xbd53d89f	-0.051720258
65	0xbe1e39ce	-0.15451738
66	0xbd1681cf	-0.03674489
67	0x3e587ebb	0.21142094
68	0xbe1ea51d	-0.15492673
69	0x3e31cf98	0.17364347
70	0xbdb55366	-0.088537976
71	0x3e17d5af	0.14827608
72	0xbdadb1b7	-0.08481162
73	0xbe84d0b5	-0.2594048
74	0x3eab229d	0.33424845
75	0x3eca5f22	0.39525706
76	0x3d4d6c10	0.050151885
77	0x3e3803a4	0.17970139
78	0x3e9a5266	0.3014099
79	0x3e94f5f3	0.29093894
80	0x3e72da30	0.23716044
81	0x3e0611c9	0.13092722
82	0xbee580d1	-0.44824842
83	0x3de5edf8	0.112270296
84	0x3ec0324b	0.3753837
85	0x3e905dcc	0.2819656
86	0xbdf24760	-0.1183002
87	0xbe1a71c5	-0.15082462
88	0xbe8f475e	-0.27984136
89	0xbcab5fb2	-0.020919655
90	0xbebeeac1	-0.37288478
91	0xbe63b54f	-0.22237132
92	0xbc1d370b	-0.009595643
93	0xbcfbc2ca	-0.030732531
94	0xbdf51379	-0.11966605
95	0x3eb4f677	0.35344288
96	0x3b8dccdf	0.004327401
97	0xbd7bbbae	-0.061458282
98	0x3ec45dfb	0.3835295
99	0xbee7d228	-0.45277524
100	0x3ecc9362	0.39956194
101	0x3e2061fd	0.1566238
102	0xbe475056	-0.1946424
103	0x3db778f6	0.08958618
104	0xbe9db728	-0.308038
105	0x3e872f03	0.26403055
106	0xbea0bc9d	-0.313939
107	0xbc9607ee	-0.018314328
108	0x3eac0b75	0.3360249
109	0x3efa29b6	0.48859948
110	0x3e8f3ed7	0.2797763
111	0x3e573151	0.21014906
112	0x3e5b72b5	0.21430476
113	0x3ebf19ca	0.37324363
114	0x3ebeecd8	0.37290072
115	0x3d97b863	0.07408216
116	0xbd8fcdb5	-0.070216574
117	0xbe94d594	-0.29069197
118	0x3cac9889	0.021068828
119	0xbe0986d6	-0.13430342
120	0x3ebd7dac	0.37009943
121	0x3e665c3a	0.22496119
122	0xbece46bd	-0.40288344
123	0xbce0f5a7	-0.027460886
124	0x3f11fc3c	0.57025504
125	0x3ebdb069	0.37048653
126	0x3deb4056	0.114868805
127	0xbea09375	-0.313625
128	0x3da81fff	0.08209228
129	0x3ebad667	0.364917
130	0xbddf695b	-0.10908767
131	0x3e30f467	0.17280732
132	0x3cc5d8a8	0.024151161
133	0xbe9ce0fa	-0.30640393
134	0x3e6fc2b0	0.23414111
135	0x3c7e228c	0.015511166
136	0xbe9a5f3f	-0.30150792
137	0xbc9f9738	-0.019481286
138	0x3e931585	0.28727356
139	0x3f05dd77	0.52291054
140	0xbe8045e3	-0.2505332
141	0x3d099e3b	0.033598166
142	0xbe0d3a71	-0.13791825
143	0x3ee7d1df	0.45277306
144	0x3d03041a	0.031986333
145	0xbec8d9ed	-0.39228764
146	0xbd8189e6	-0.0632513
147	0x3e99500f	0.29943892
148	0xbe503722	-0.20333531
149	0x3e8f614b	0.28003916
150	0xbed45b2e	-0.41475815
151	0x3e39d878	0.18148983
152	0xbe863273	-0.26210365
153	0x3e84c582	0.25931937
154	0xbeffad7f	-0.49937055
155	0xbf0abadc	-0.54191375
156	0x3e799343	0.24372582
157	0x3e8dc8be	0.27692217
158	0xbe82c9d8	-0.2554462
159	0x3e565da9	0.20934166
160	0xbde47d83	-0.11156752
161	0xbea9da38	-0.331743
162	0xbe8b6027	-0.27221796
163	0x3f04f2a5	0.51932746
164	0x3ea4deb4	0.3220116
165	0xbc24330b	-0.010021935
166	0xbe995588	-0.29948068
167	0xbd77957e	-0.0604453
168	0xbe076827	-0.13223325
169	0x3d05375e	0.032523505
170	0x3e614ed9	0.22002734
171	0x3e04d82b	0.12973087
172	0x3eb70a01	0.3574982
173	0x3e9234cf	0.28555915
174	0x3e5fc0c6	0.21850881
175	0x3d31a414	0.043369368
176	0xbe87fa22	-0.26558024
177	0x3dfa280c	0.122146696
178	0x3e84d58d	0.25944176
179	0x3e20e611	0.15712763
180	0x3df3fc3a	0.11913343
181	0x3eaae6f1	0.3337932
182	0xbbbf75e0	-0.005842909
183	0xbe8a327d	-0.26991645
184	0xbca2c088	-0.019867197
185	0xbe45be1a	-0.19310799
186	0xbda43913	-0.080186985
187	0x3d2e781d	0.042595018
188	0xbe56c4bf	-0.2097349
189	0xbe97df6c	-0.29662645
190	0x3e7e1c73	0.2481554
191	0xbe4203b0	-0.18946719
192	0xbdb2449e	-0.08704494
193	0xbcbcb18c	-0.02303388
194	0xbe5098a8	-0.20370734
195	0x3e1e6913	0.1546977
196	0xbe5bd5a4	-0.21468216
197	0x3ee20dc4	0.44151127
198	0x3e8fc2eb	0.28078398
199	0xbe2b597f	-0.16733359
200	0xbe7e1d49	-0.24815859
201	0xbb2e0306	-0.0026552095
202	0xbe4f8882	-0.20266917
203	0xbd19daa3	-0.037562024
204	0x3ced1649	0.02894129
205	0x3d7ee810	0.06223303
206	0xbda4c9fe	-0.080463395
207	0xbd6c7eb4	-0.05773802
208	0x3eb3d59c	0.3512391
209	0xbebcbc67	-0.3686249
210	0xbdb5a485	-0.0886927
211	0x3e92a52c	0.2864164
212	0xbec06327	-0.37575647
213	0xbe4e9ace	-0.20176241
214	0xbe2f4e0d	-0.17119618
215	0xbe17f887	-0.148409
216	0x3e930351	0.28713468
217	0xbe1499b1	-0.14511754
218	0x3dc58a8d	0.09645567
219	0xbdd0970f	-0.10185062
220	0xbebd3fb7	-0.36962673
221	0xbe4037cf	-0.1877129
222	0xbec06e1f	-0.37584016
223	0x3e2062ef	0.1566274
224	0xbe129cb1	-0.14317586
225	0x3e6fda89	0.23423208
226	0x3cd0e0a1	0.025497736
227	0xbedfc5dc	-0.43705642
228	0x3e839b38	0.2570436
229	0x3f00b589	0.50277
230	0xbe026661	-0.12734367
231	0x3e6af2c3	0.22944169
232	0xbd873e9f	-0.06603741
233	0x3e1ca780	0.15298271
234	0x3da0e157	0.0785548
235	0x3ea34f00	0.3189621
236	0x3ea79562	0.32731158
237	0x3e95a395	0.29226366
238	0xbdb6b9f2	-0.08922185
239	0xbea89c7c	-0.32931888
240	0xbdbea630	-0.093090415
241	0xbda3f5e1	-0.08005882
242	0xbdd3eb73	-0.10347643
243	0xbedce9cf	-0.43147132
244	0x3ebf95a9	0.3741887
245	0x3e08c93f	0.1335802
246	0x3ea63c6b	0.3246797
247	0x3e930984	0.28718197
248	0xbda152af	-0.07877099
249	0x3e65c5f2	0.22438791
250	0xbe72b07c	-0.23700136
251	0xbdc2da7c	-0.09514329
252	0x3f17704e	0.5915574
253	0x3ea7d74d	0.3278145
254	0x3eae0f1e	0.33995908
255	0x3d8dff57	0.06933468

net.0.bias f4 [64]
0	0x3e2545c7	0.16139899
1	0x3afad8b8	0.0019138074
2	0x3eceab56	0.40365094
3	0x3ebcf065	0.36902156
4	0xbdc4090e	-0.095720395
5	0x3dfd9633	0.12382164
6	0x3e1e8da2	0.15483716
7	0xbce18c46	-0.027532708
8	0xbe41ffe5	-0.18945272
9	0xbda4e85d	-0.08052132
10	0xbdbb1976	-0.09135716
11	0x3e2d4167	0.1691948
12	0xbd4217aa	-0.04738585
13	0x3d4abad0	0.049494565
14	0xbe162186	-0.14661226
15	0x3d2db27a	0.042406537
16	0x3e7e4fae	0.24835083
17	0x3e037a83	0.12839703
18	0x3db117b1	0.08647097
19	0x3e706cc7	0.23478995
20	0x3dde478d	0.10853491
21	0x3d910ac5	0.07082132
22	0x3c0e8281	0.008698107
23	0xbebac73e	-0.36480135
24	0xbe20af33	-0.15691833
25	0xbe549925	-0.20761545
26	0xbd79e7a0	-0.06101191
27	0x3ece0f1c	0.40245903
28	0x3d5702c2	0.052492864
29	0xbe33ae0a	-0.1754686
30	0x3eb20fa1	0.3477755
31	0x3e8b987b	0.2726477
32	0x3e25d596	0.16194758
33	0xbe875b03	-0.26436624
34	0xbe24861b	-0.16066782
35	0x3e086221	0.13318683
36	0xbe9fc193	-0.31202373
37	0x3ebd4b24	0.3697139
38	0xbe435f46	-0.19079313
39	0xbcf3fcfe	-0.029783722
40	0x3e9c7a1c	0.30561912
41	0x3eabf078	0.335819
42	0x3ec9bcba	0.394018
43	0x3e0dcc8d	0.13847561
44	0x3e746f23	0.2387052
45	0x3c5271bf	0.012844502
46	0x3d6112ec	0.054949686
47	0xbd4cb8e5	-0.049981017
48	0xbe727275	-0.23676474
49	0x3e97156b	0.29508528
50	0xbdffaad5	-0.124837555
51	0xbea41f40	-0.32055092
52	0xbd7c46de	-0.06159102
53	0x3ec65674	0.38737833
54	0xbea89b3e	-0.3293094
55	0xbc55d7ae	-0.01305191
56	0xbd605d41	-0.054776434
57	0xbe9e418e	-0.3090939
58	0x3eb765a1	0.35819724
59	0x3e2feea3	0.17180876
60	0x3de36de7	0.111049466
61	0x3dd41e92	0.10357393
62	0xbe299157	-0.16559349
63	0xbd05f5b6	-0.03270503

net.2.weight f4 [64, 64]
0	0xbe5a1052	-0.21295288
1	0x3d2c046e	0.041996412
2	0x3c493ed9	0.01228305
3	0x3d4bb9f6	0.049737893
4	0x3d4a3f33	0.049376678
5	0x3e1a73fc	0.15083307
6	0xbd8ffecc	-0.070310205
7	0xbc91295d	-0.017719919
8	0xbd85c1bd	-0.06531093
9	0xbe190b29	-0.14945664
10	0xbc884d97	-0.01663856
11	0x3e12e075	0.14343436
12	0x3dc45ab9	0.095876165
13	0x3d15bf07	0.03655913
14	0xbdb14fc8	-0.08657795
15	0x3e6fdc4d	0.23423882
16	0x3da1a620	0.07893014
17	0xbdd9882a	-0.10621674
18	0xbc5a354c	-0.013318371
19	0x3dbe2f11	0.09286321
20	0xbdee61e9	-0.11639769
21	0x39d0bc80	0.00039813295
22	0xbc99c298	-0.018769547
23	0xbd68b4c8	-0.05681303
24	0x3d94789c	0.07249567
25	0x3ddb43cc	0.107062906
26	0xbcecbb0c	-0.028897785
27	0xbd78cf6c	-0.060744688
28	0x3dc7c8c1	0.09755088
29	0x3c9c61ac	0.019089542
30	0x3dacf23e	0.084446415
31	0x3d3e5901	0.0464716
32	0xbd04a404	-0.03238298
33	0xbd7c04e5	-0.061528105
34	0xbd93fcd9	-0.07225961
35	0xbd37463c	-0.044744715
36	0x3d900cef	0.07033717
37	0x3d602f1a	0.05473242
38	0x3e05f5d0	0.13082051
39	0x3e8e8699	0.27837065
40	0xbd30088f	-0.042976912
41	0x3df768a1	0.12080503
42	0x3df765f8	0.12079996
43	0x3d13937b	0.03602932
44	0x3cc519cd	0.024060154
45	0x3e627ca8	0.22117865
46	0x3e54fa4e	0.20798609
47	0x3d470830	0.048591793
48	0x3d8212dc	0.063512534
49	0x3d361659	0.044454906
50	0xbe00858a	-0.12550941
51	0xbd49af2d	-0.049239326
52	0x37a555c0	1.9709463e-05
53	0xbe3c77d6	-0.18405089
54	0xbdb937e3	-0.09043863
55	0xbd1e120f	-0.03859144
56	0xbdc0bdd5	-0.094112076
57	0xbdf9fda5	-0.12206582
58	0xbe475438	-0.1946572
59	0xbcddb071	-0.027061673
60	0x3de12804	0.109939605
61	0xbd502b12	-0.050822325
62	0xbd34fab0	-0.044184387
63	0x3d14f834	0.036369517
64	0xbc84fcb9	-0.016233789
65	0x3a3ed8c6	0.00072802266
66	0x3caee353	0.021348631
67	0xbd6f2e3a	-0.058393694
68	0x3de52afa	0.11189838
69	0x3cd10e19	0.025519418
70	0xbd969568	-0.07352716
71	0xbc02630d	-0.007958186
72	0xbd704a54	-0.058664635
73	0x3dda8f73	0.10671892
74	0x3d3bcde2	0.045850642
75	0xbd726d98	-0.059186548
76	0xbdc569ad	-0.09639297
77	0xbdf9d302	-0.1219845
78	0xbdeca5a8	-0.11555034
79	0x3dafb321	0.08579088
80	0xbcdf41e0	-0.027253091
81	0x3c3b1a60	0.0114198625
82	0x3ba67694	0.0050800536
83	0x3da54aad	0.08070884
84	0x3dfc99f5	0.123340525
85	0xbdb37807	-0.08763128
86	0xbd949baa	-0.07256253
87	0xbcfb5be4	-0.030683465
88	0x3db4f77e	0.08836268
89	0x3d6c905c	0.05775486
90	0xbdd371c8	-0.103244364
91	0xbcd6fea0	-0.026244462
92	0x3dadcc3d	0.08486221
93	0xbd092a5f	-0.033487674
94	0x38e38efe	0.00010850838
95	0xbde29807	-0.11064153
96	0xbddc5747	-0.10758834
97	0x3b406750	0.0029358454
98	0xbdeca3b8	-0.115546644
99	0x3b6d7680	0.0036233962
100	0xbde3661d	-0.11103461
101	0x3d6a15a0	0.05714953
102	0xbdd0255d	-0.101633765
103	0x3d3d49f7	0.046213116
104	0xbdd5c0bd	-0.104371525
105	0xbd60728b	-0.054796737
106	0x3c8a8ad2	0.016911898
107	0xbd9e585e	-0.077316985
108	0x3df6bbf8	0.12047571
109	0x3d825eff	0.06365775
110	0xbd57a8ec	-0.05265133
111	0xbda71a61	-0.08159328
112	0x3dc9a140	0.09845209
113	0xbd5ed2c0	-0.054400206
114	0xbd05d808	-0.032676727
115	0x3d32743c	0.04356788
116	0xbdcef170	-0.10104644
117	0xbd0a462e	-0.033758335
118	0xbd62089c	-0.05518399
119	0xbdb63bff	-0.08898162
120	0xbdbeaf35	-0.09310762
121	0xbda65853	-0.08122315
122	0xbca3e5a3	-0.02000696
123	0x3b273008	0.0025510807
124	0xbd856045	-0.065125026
125	0xbc70dca3	-0.014701041
126	0x3da6a03e	0.081360325
127	0xbdb95dbe	-0.09051083
128	0xbe0b6cda	-0.13615742
129	0x3e2b1a71	0.16709305
130	0x3d9d76eb	0.076886974
131	0x3e005313	0.1253169
132	0xbd72b420	-0.05925381
133	0x3ce9ecc0	0.028555274
134	0x3d329617	0.043600168
135	0xbc0bea9c	-0.008539822
136	0x3d6c9a83	0.05776454
137	0xbd89a6d8	-0.06721276
138	0xbdd0161e	-0.101604685
139	0x3ddcbc99	0.1077816
140	0x3e7b9a9f	0.24570702
141	0x3dbee1c9	0.09320409
142	0x3c7e850a	0.015534649
143	0x3ca884e8	0.020571187
144	0x3d0d1826	0.034446858
145	0xbe6acc10	-0.22929406
146	0xbccee783	-0.025256878
147	0x3e31da29	0.17368378
148	0xbd6616b3	-0.05617399
149	0x3d2ef32f	0.042712387
150	0xbe2d8d55	-0.16948445
151	0xbd58f9f6	-0.052972756
152	0x3e20b299	0.1569313
153	0xbd92416d	-0.07141385
154	0x3c83fe52	0.01611248
155	0x3cb5e46f	0.022203652
156	0xbc54a979	-0.012979859
157	0xbd604c4d	-0.054760266
158	0x3da27c1c	0.07933828
159	0xbdb1593c	-0.08659598
160	0xbe1ae6d0	-0.1512711
161	0xbd896093	-0.06707873
162	0x3c665938	0.014059357
163	0xbe0565cb	-0.13027112
164	0x3dbcbe50	0.09215987
165	0x3dc085fd	0.09400556
166	0x3d2f90d0	0.042862713
167	0x3e872db5	0.2640206
168	0xbe894231	-0.26808313
169	0x3d832792	0.06404032
170	0x3ca338e2	0.019924585
171	0x3e8439cd	0.25825348
172	0x3e43e3cd	0.19129868
173	0x3d4e46a2	0.05036033
174	0x3e796d01	0.24357988
175	0x3e46867f	0.19387244
176	0xbd7c7b64	-0.061641112
177	0xbc442baf	-0.011973306
178	0xbd6619ea	-0.056177057
179	0xbd79c64c	-0.060980126
180	0xba555ad9	-0.00081388425
181	0xbe46e1d9	-0.19422092
182	0xbd50f634	-0.051016048
183	0xbe182564	-0.14858013
184	0x3ce8c55e	0.028414425
185	0x3c8c50f9	0.017128455
186	0xbe2bfc6a	-0.16795507
187	0x3c2f74ad	0.01070897
188	0x3e5125d6	0.2042459
189	0x3e54b1c8	0.20770943
190	0xbd854534	-0.0650734
191	0xbddebce4	-0.10875872
192	0xbe3ffbd5	-0.1874841
193	0x3dc827c8	0.09773213
194	0x3d3774e1	0.0447892
195	0x3d4bef51	0.049788777
196	0x3e4acc37	0.19804464
197	0x3e1a445f	0.15065144
198	0x3c1bf20c	0.009518158
199	0x3db93ddd	0.090450026
200	0x3d06d96c	0.032922193
201	0x3cd749ee	0.02628037
202	0x3e0a7f5c	0.13525146
203	0x3dfde86e	0.12397848
204	0x3e3c1535	0.18367465
205	0x3d8018d0	0.062547326
206	0xbe0eed1a	-0.13957635
207	0x3e6f8397	0.23390041
208	0xbd163805	-0.03667452
209	0x3d3f8bd1	0.0467642
210	0xbe0a6d07	-0.13518153
211	0x3e3dfc71	0.1855333
212	0xbdbac9b9	-0.09120507
213	0xbd75c7a8	-0.06000486
214	0xbd004650	-0.031317055
215	0x3cbcc5b5	0.023043493
216	0xbd98bd8a	-0.07458027
217	0x3dc3235b	0.09528228
218	0xbcfdce02	-0.030982021
219	0xbb58ff8e	-0.0033111307
220	0x3df471d0	0.119357705
221	0xbcf7c789	-0.030246513
222	0x3da1b009	0.07894904
223	0x3e1a0d08	0.15044034
224	0xbdd335c4	-0.10312989
225	0x3da39179	0.07986731
226	0xbca506c7	-0.020144833
227	0xbe6a079c	-0.22854465
228	0xbcabce18	-0.020972297
229	0xbdf336b0	-0.11875665
230	0xbdd4c769	-0.10389597
231	0x3e8a6dcc	0.27036893
232	0xbdd3203e	-0.10308884
233	0x3d5892c9	0.05287436
234	0x3e927645	0.28605857
235	0x3e23e62f	0.16005777
236	0x3de197cf	0.11015283
237	0x3e399628	0.18123686
238	0x3e5f518a	0.21808448
239	0x3dc08f7f	0.0940237
240	0xbd277a56	-0.040888153
241	0xbe06547b	-0.13118164
242	0x3d6beac6	0.057596944
243	0xbcf0ee7e	-0.029410597
244	0xbdc1a80f	-0.09455883
245	0xbd5feb7a	-0.054667927
246	0x3bc97f54	0.006149212
247	0x3cdd6df3	0.027029967
248	0x3d305804	0.04305269
249	0xbd1a1bfe	-0.03762435
250	0xbc9c6015	-0.019088784
251	0x3dfafc9c	0.12255213
252	0x3d8b5c25	0.068046845
253	0x3cacfc4a	0.021116395
254	0xbd6b419a	-0.05743561
255	0xbe252eec	-0.1613118

net.2.bias f4 [64]
0	0x3e06ec9e	0.131762
1	0xbdf883fd	-0.1213455
2	0x3dc4073b	0.095716916
3	0xbd352f31	-0.04423446
4	0xbdc16aba	-0.094441846
5	0x3dff9c69	0.12481005
6	0x3e35af4a	0.17742649
7	0x3db138f9	0.08653445
8	0x3ccfb542	0.025354985
9	0x3e0ee32f	0.13953851
10	0x3d83c6d4	0.06434408
11	0xbd8ef35f	-0.06980013
12	0x3d0c1de3	0.03420819
13	0x3dad7f04	0.08471492
14	0xbdef09d6	-0.11671798
15	0x3de03d46	0.10949187
16	0x3dbcf169	0.09225733
17	0x3d4d446f	0.05011409
18	0xbc77dd12	-0.015128391
19	0xbc7ea371	-0.015541897
20	0x3daa7f63	0.08325078
21	0x3e1772ae	0.1478984
22	0x3cbb8ab4	0.022893287
23	0x3d8dfe23	0.06933238
24	0xbcbe6739	-0.02324258
25	0xbd395c42	-0.045254
26	0xbe02a443	-0.12757973
27	0xbdabc9f5	-0.083881296
28	0xbe11965c	-0.14217514
29	0xbdc609ce	-0.09669839
30	0xbdb8f5ed	-0.090312816
31	0xbe04a646	-0.12954053
32	0x3d2064d5	0.03915866
33	0xbc4341cc	-0.011917543
34	0x3df67ad0	0.120351434
35	0xbd4ef1eb	-0.05052368
36	0x3d619085	0.055069465
37	0x3e046fe0	0.12933302
38	0x3dda02b3	0.10645046
39	0x3d907401	0.07053376
40	0x3c87a9c8	0.01656045
41	0xbdabde57	-0.08392017
42	0xbde549b5	-0.11195699
43	0x3d912b08	0.07088286
44	0xbcda29bc	-0.026631229
45	0x3bf58477	0.0074925977
46	0xbc88b038	-0.01668559
47	0xbd0efa1a	-0.034906484
48	0x3d5241bc	0.05133222
49	0xbd5251cc	-0.05134754
50	0x3d990fdd	0.07473729
51	0x3e19eece	0.15032503
52	0x3e027dd2	0.12743309
53	0x3c71d716	0.014760753
54	0xbd7586de	-0.059943072
55	0x39f9d122	0.00047648797
56	0x3d8e9064	0.06961134
57	0x3e2c9d2e	0.16856834
58	0x3e075037	0.13214193
59	0xbd864271	-0.065556414
60	0x3e350b06	0.17679986
61	0x3ddc9a6e	0.107716426
62	0x3e3b326e	0.18280956
63	0x3e11883a	0.14212123

net.4.weight f4 [4, 64]
0	0xbe1f64f3	-0.15565853
1	0xbdd1cb91	-0.10243905
2	0xbd66c908	-0.056344062
3	0xbd9680d3	-0.0734879
4	0xbc6f10af	-0.01459138
5	0xbe1eeacf	-0.1551926
6	0x3e118f5d	0.14214845
7	0x3db9ee8e	0.09078704
8	0xbe3e462a	-0.18581453
9	0x3d501a31	0.050806228
10	0xbd5102e1	-0.051028136
11	0xbd45fada	-0.048334934
12	0x3db8de2a	0.090267494
13	0xbd4a9e83	-0.049467575
14	0xbdd7d2da	-0.105382636
15	0xbd7e883a	-0.062141635
16	0xbcb7a3d6	-0.02241699
17	0x3d6deaba	0.05808518
18	0xbdaf0f43	-0.08547833
19	0xbe0fdf54	-0.14050037
20	0x3d9e4e5c	0.077297896
21	0xbe084962	-0.13309243
22	0x3d3f6279	0.04672477
23	0x3b82af93	0.0039882152
24	0xbdfc958f	-0.123332135
25	0xbe55402b	-0.2082526
26	0x3dc7d9d1	0.09758342
27	0xbd2feece	-0.04295235
28	0xbdd3b464	-0.10337141
29	0x3c8324dd	0.016008789
30	0x3dce06bb	0.100598775
31	0xbd1eea26	-0.03879752
32	0xbb8082c6	-0.0039218394
33	0xbd6b6a4a	-0.057474412
34	0x3dc3fc3b	0.095695935
35	0x3d001bd7	0.03127655
36	0x3b05333b	0.0020324725
37	0x3de8beab	0.11364492
38	0xbd3113f6	-0.043231927
39	0xbc9c2429	-0.019060211
40	0xbbc1d755	-0.005915562
41	0xbe0a0118	-0.1347698
42	0x3ddaeb7f	0.106894486
43	0x3df488ef	0.119401805
44	0x3d3d0879	0.04615066
45	0x3d3d8342	0.046267755
46	0xbd14d9f8	-0.036340684
47	0xbc3b5973	-0.011434901
48	0xbde1a507	-0.110178046
49	0xbcca4c68	-0.024694636
50	0xbd2f1be0	-0.042751193
51	0xbe089421	-0.13337757
52	0xbe3a9790	-0.18221879
53	0x3dfdd91a	0.123949245
54	0x3cbbdae1	0.022931518
55	0xbdaeab06	-0.08528714
56	0x3d11024d	0.035402585
57	0xbdc457db	-0.095870696
58	0xbe2792be	-0.16364571
59	0xbd6d2212	-0.05789382
60	0xbd27b9d3	-0.0409487
61	0x3c9fd718	0.019511744
62	0xbd579170	-0.052628934
63	0x3dd287fb	0.102798425
64	0xbe63aba4	-0.22233444
65	0xbd4107f6	-0.047126733
66	0xbc0c1c22	-0.008551629
67	0xbe364fde	-0.17803904
68	0xbd679cb5	-0.05654593
69	0xbe935bff	-0.28781125
70	0x3e6edc27	0.23326169
71	0x3cf15083	0.029457336
72	0xbda1c94d	-0.07899723
73	0x3e25ed60	0.16203833
74	0x3e5303ca	0.20606914
75	0xbd57d685	-0.052694816
76	0xbe311d4d	-0.17296334
77	0x3db5fb67	0.08885842
78	0xbd80af7e	-0.062834725
79	0xbd9fe7f6	-0.07807915
80	0xbe07c187	-0.13257419
81	0x3e3f13a7	0.1865984
82	0xbe089fff	-0.13342284
83	0x3def2477	0.11676877
84	0xbdc8493e	-0.09779595
85	0xbdc28e70	-0.09499824
86	0x3e059fb6	0.13049206
87	0xbb9d4e1e	-0.004800572
88	0x3e329c4c	0.17442435
89	0xbe2317e9	-0.1592709
90	0x3dbe2688	0.09284693
91	0x3da84f7f	0.08218288
92	0x3dc0e5c8	0.09418827
93	0xbde49f7e	-0.11163233
94	0xbd0e1f5a	-0.034697868
95	0x3d703f07	0.058653858
96	0xbe6d6b1a	-0.23185387
97	0xbe2b2b41	-0.16715719
98	0xbe520244	-0.20508677
99	0xbe512f06	-0.20428094
100	0xbe150c0d	-0.14555378
101	0x3e0f1a64	0.13974911
102	0x3dcc379f	0.099715464
103	0xbdac9bf2	-0.08428182
104	0xbdf56261	-0.11981655
105	0x3d040348	0.03222969
106	0xbdf565d7	-0.11982315
107	0x3d31310d	0.04325967
108	0xbd8f125a	-0.06985922
109	0x3d0f4ea6	0.034987114
110	0xbde0674c	-0.10957202
111	0x3d2a56a2	0.041586526
112	0xbe3880c5	-0.18017872
113	0xbe52b6ad	-0.20577498
114	0x3e6fbeb1	0.23412587
115	0xbe552f68	-0.20818865
116	0x3de9fb57	0.114248924
117	0x3e54ac64	0.20768887
118	0xbdc7c3c2	-0.09754135
119	0x3e1ef35b	0.1552252
120	0x3db10d54	0.0864512
121	0x3e80b45a	0.25137597
122	0x3de2529f	0.11050915
123	0xbcd06399	-0.025438117
124	0x3e060d09	0.1309091
125	0x3df03150	0.117281556
126	0x3e4409b2	0.19144323
127	0x3e6f78e2	0.23385957
128	0x3e5667c0	0.20938015
129	0x3db7f3d2	0.08982052
130	0x3e78a8a0	0.24283075
131	0x3dffc22a	0.12488206
132	0xbc978efc	-0.018500797
133	0x3dd9ba39	0.10631222
134	0xbea1c6e0	-0.31597042
135	0xbda746c4	-0.08167794
136	0x3e5f2258	0.21790445
137	0xbe38cbac	-0.18046445
138	0xbe85b7ee	-0.2611689
139	0x3d9e0354	0.077154785
140	0xbd2ae647	-0.041723516
141	0xbdebf175	-0.11520664
142	0x3c7ebea0	0.015548378
143	0xbe43f4f8	-0.19136417
144	0x3e71bf6d	0.2360818
145	0x3e5bc472	0.21461657
146	0xbe1dd5c0	-0.1541357
147	0x3e5bba6e	0.21457836
148	0x3da6b437	0.08139842
149	0x3e2d9c4a	0.16954151
150	0xbba03a45	-0.004889759
151	0xbe8605ae	-0.26176208
152	0xbc1d17cf	-0.009588196
153	0x3e6d40b2	0.2316921
154	0xbdb72f0a	-0.08944519
155	0xbdbf5ff0	-0.093444705
156	0x3d9a4901	0.07533456
157	0xbcfb7446	-0.030695092
158	0xbd417ba2	-0.047237046
159	0x3d83097b	0.06398293
160	0x3e0eb259	0.13935222
161	0x3e86facd	0.2636322
162	0xbe11343a	-0.14180079
163	0x3d4ecd9d	0.050489057
164	0xbe138dd3	-0.1440957
165	0xbd410a8e	-0.047129206
166	0xbde595a3	-0.112101816
167	0xbdf6aa45	-0.12044195
168	0x3e45787b	0.19284241
169	0x3dd641ab	0.10461744
170	0x3dc331cc	0.095309824
171	0xbe82b266	-0.25526732
172	0xbbe4fdfc	-0.006988285
173	0xbafb7993	-0.0019186012
174	0xbd9ab368	-0.0755375
175	0x3e3cf2b1	0.18451954
176	0x3e4985e1	0.19679977
177	0xbe2e31db	-0.17011206
178	0x3c6d1bd5	0.014471968
179	0x3e46566f	0.1936891
180	0x3d8ade81	0.067807205
181	0xbeb5a7f9	-0.35479715
182	0x3db331cb	0.08749732
183	0x3d831ada	0.06401606
184	0x3e75e80b	0.24014299
185	0x3c8dfc9b	0.017332366
186	0x3e81f8d7	0.25385162
187	0xbdfd918f	-0.12381279
188	0x3ac3ac34	0.001492864
189	0xbd232757	-0.03983244
190	0x3d7c763b	0.06163619
191	0xbe6f6aa6	-0.23380527
192	0x3dc9ca22	0.09853007
193	0x3cfa80c6	0.030578982
194	0x3cee8255	0.029114882
195	0x3dda4fdd	0.10659764
196	0x3d08d12b	0.033402603
197	0x3e493b94	0.19651634
198	0x3dab828b	0.083745085
199	0x3d2e01c6	0.04248216
200	0x3e40175b	0.1875891
201	0x3dcd74f0	0.1003207
202	0xbd68e5d3	-0.056859802
203	0x3cb3b0a9	0.021934824
204	0x3e3cd36f	0.1844003
205	0x3c782379	0.015145176
206	0xbd9239fc	-0.07139966
207	0x3e869c54	0.26291144
208	0xbe42abc7	-0.1901084
209	0xbe3bdd7c	-0.18346208
210	0x3e57ac2a	0.21061769
211	0xbe870a32	-0.26374966
212	0x3e816846	0.25274867
213	0xbe2e35e1	-0.1701274
214	0xbe1444de	-0.14479396
215	0x3e9ad524	0.30240738
216	0xbe7d457f	-0.24733542
217	0xbc43d7dc	-0.01195332
218	0x3dd7064c	0.10499248
219	0xbd136120	-0.035981297
220	0x3d5eef23	0.054427277
221	0x3dd6d306	0.10489468
222	0xbb08a9de	-0.0020853202
223	0x3c5ef3ad	0.0136079015
224	0x3e46dc91	0.19420077
225	0xbdc69a42	-0.09697391
226	0x3e519086	0.20465288
227	0x3e82b0e2	0.25525576
228	0x3e224df3	0.15850048
229	0xbe38ed4b	-0.1805927
230	0xbe17b084	-0.14813429
231	0x3e2c895b	0.16849272
232	0xbde5394d	-0.1119257
233	0x3d815b32	0.06316222
234	0xbdac8324	-0.084234506
235	0x3e71ef6e	0.23626491
236	0xbd8ed3e5	-0.069740094
237	0x3dbe939b	0.09305497
238	0xbc56fda0	-0.013121992
239	0xbe172ce0	-0.14763212
240	0x3db60237	0.08887141
241	0x3e7fc170	0.24976134
242	0xbe43dcf0	-0.1912725
243	0x3d85dd7d	0.06536386
244	0xbe6ea884	-0.23306471
245	0x3cb96487	0.022630943
246	0xbde05cf6	-0.10955231
247	0xbdc5f457	-0.09665745
248	0xbe69d25b	-0.2283415
249	0xbe965e13	-0.29368648
250	0xbde8d65a	-0.11369009
251	0x3ba54eb9	0.005044785
252	0xbe908a42	-0.28230482
253	0xbe147751	-0.1449864
254	0xbe6d6145	-0.23181637
255	0x3bf2cbee	0.007409564

net.4.bias f4 [4]
0	0xbdd5c6d9	-0.10438318
1	0x3d63926b	0.055559557
2	0x3dd4c0ea	0.10388358
3	0x3d2802b1	0.04101819

exp_avg f4 [64, 8]
0	0x3924f0e8	0.00015730003
1	0x39a5f6d5	0.00031655157
2	0x396a9dc5	0.00022374753
3	0xb905c3e0	-0.00012756838
4	0x3a32a4e2	0.00068147306
5	0x398ef67f	0.00027268004
6	0x39705412	0.00022919502
7	0x39ed4f52	0.0004526326
8	0xb6ae9eeb	-5.2041046e-06
9	0x3757e95e	1.2869334e-05
10	0x390dd43e	0.00013525874
11	0x36ef517d	7.1322415e-06
12	0xb96432b3	-0.00021762661
13	0x392afdfc	0.0001630708
14	0xb9a1b906	-0.00030846166
15	0xb9c7b8be	-0.0003809388
16	0x3899d712	7.3356685e-05
17	0xb90e35eb	-0.00013562261
18	0xb75b44be	-1.30694225e-05
19	0x3914c4ee	0.00014187742
20	0x39bc067c	0.00035862986
21	0x38f042cb	0.00011456533
22	0x396e5bcb	0.00022731644
23	0x3982c5ab	0.00024942806
24	0x38cb760e	9.701784e-05
25	0xb98c93a0	-0.0002681287
26	0xb88abf22	-6.615954e-05
27	0x396668ca	0.00021973546
28	0x396c233e	0.00022519843
29	0x390ae314	0.00013245299
30	0x3917de2c	0.00014483248
31	0x390605b3	0.00012781359
32	0xb8c3df47	-9.339913e-05
33	0x3a01b571	0.00049479963
34	0xb992e1b1	-0.00028015443
35	0xb94a85ee	-0.00019314114
36	0xb9b50c51	-0.00034532187
37	0xb889425a	-6.545028e-05
38	0xb90ce4ad	-0.00013436629
39	0xb7164496	-8.956666e-06
40	0xb8d4b4d8	-0.000101426325
41	0xb963a5b9	-0.00021710143
42	0xb97bddaa	-0.00024019802
43	0x3912b01a	0.00013989248
44	0xb9b12883	-0.00033790254
45	0xb9073911	-0.00012895862
46	0x35a29fe1	1.2116471e-06
47	0xb853ec96	-5.0526658e-05
48	0x392dbbde	0.00016568552
49	0xb9a9650c	-0.00032309478
50	0x38ea380f	0.00011168431
51	0x3974d79c	0.00023349974
52	0x39520ecd	0.00020032674
53	0x38d31d6e	0.00010066746
54	0x381e42b1	3.7732247e-05
55	0xb788a38a	-1.6288617e-05
56	0xb9eb02a7	-0.0004482467
57	0x3a73e910	0.00093044434
58	0x39226eaa	0.0001549075
59	0xb9c7c1ce	-0.00038100634
60	0xb9a2fb15	-0.00031086119
61	0xb9acf04a	-0.00032985426
62	0xba73017a	-0.00092699344
63	0xba3de321	-0.00072436227
64	0xb389db5e	-6.419462e-08
65	0x33b834b4	8.577754e-08
66	0xb66eeae9	-3.56015e-06
67	0xb600e976	-1.9209378e-06
68	0x3556fb1a	8.0086613e-07
69	0x372637ac	9.907333e-06
70	0x3720f36e	9.593421e-06
71	0x3731c165	1.059505e-05
72	0xb93e0602	-0.0001812205
73	0x3805b8f3	3.188192e-05
74	0x38c4ac1e	9.3780676e-05
75	0xb8a7ea6d	-8.006846e-05
76	0x386dc8ac	5.6692093e-05
77	0xb984bb72	-0.0002531666
78	0xb9457e45	-0.00018834423
79	0xb8db2d4e	-0.000104511724
80	0xb8a008da	-7.631043e-05
81	0x3852d7b8	5.0268805e-05
82	0xb82e6b48	-4.1584746e-05
83	0x37083938	8.119554e-06
84	0xb800c669	-3.0702362e-05
85	0xb85d9796	-5.283168e-05
86	0xb7b25a7c	-2.1261389e-05
87	0xb5bd983b	-1.4125902e-06
88	0xb9297ec9	-0.00016164327
89	0x39469234	0.00018937216
90	0x38016ec2	3.0859148e-05
91	0x381cc9b7	3.738116e-05
92	0xb9c09181	-0.00036729503
93	0xb7259ff2	-9.872007e-06
94	0xba1b6ead	-0.0005929273
95	0xba3adfe1	-0.00071286975
96	0xb8a96702	-8.077735e-05
97	0xb9e9c657	-0.00044588998
98	0xba2de951	-0.0006634193
99	0x39de4d90	0.00042400928
100	0xb9cc733d	-0.0003899577
101	0xb9838bb6	-0.0002509036
102	0x380a2654	3.293746e-05
103	0xb8e6b954	-0.00011001775
104	0xb987c2a7	-0.00025894234
105	0x39c3014e	0.0003719427
106	0x38580032	5.1498595e-05
107	0xb955a130	-0.0002037331
108	0xb95b0483	-0.00020887148
109	0xb8d05209	-9.933493e-05
110	0xba191e75	-0.0005841025
111	0xba03a1a5	-0.00050213403
112	0x3876faaa	5.888442e-05
113	0x397eed46	0.00024311719
114	0x399c0b79	0.00029763186
115	0xb8a6603b	-7.933421e-05
116	0x39d5692a	0.0004070488
117	0xb83655c9	-4.3472075e-05
118	0x37d09e27	2.4869178e-05
119	0x38e669ed	0.00010986985
120	0x36f53e2b	7.3088063e-06
121	0xb8912ddf	-6.922683e-05
122	0xb978c844	-0.00023725728
123	0x377be406	1.5013857e-05
124	0xb9af3005	-0.00033414378
125	0xb96f9df1	-0.00022851654
126	0xb982c6e2	-0.00024943711
127	0x37828e5e	1.5563503e-05
128	0xb895fb0f	-7.151637e-05
129	0x3939ac7b	0.00017707229
130	0x3851d185	5.0024613e-05
131	0xb89d5eaa	-7.503976e-05
132	0x394f7c0a	0.00019787267
133	0xb75b92fb	-1.3087639e-05
134	0xb9652789	-0.0002185387
135	0xb92e4b54	-0.00016621995
136	0xb933d0f7	-0.00017148616
137	0xb74055ae	-1.1464041e-05
138	0x39602f36	0.00021379892
139	0xb8afc9a7	-8.382211e-05
140	0x399df49b	0.0003012762
141	0xb8c8ec51	-9.5807605e-05
142	0xba103974	-0.0005501725
143	0xb985ae69	-0.00025497683
144	0x37ffc76d	3.0491234e-05
145	0x3779a3fd	1.4879738e-05
146	0xb81a15df	-3.673683e-05
147	0xb7b2c714	-2.1311957e-05
148	0x386e3b91	5.6799097e-05
149	0x38039d67	3.1379426e-05
150	0x378182f6	1.5438982e-05
151	0x3920a25a	0.0001531927
152	0xb9e9fc04	-0.0004462899
153	0xb949d73a	-0.00019249032
154	0xb99231d8	-0.00027884427
155	0x394de623	0.00019636056
156	0xb9cb8c9d	-0.00038823942
157	0xb7b9f448	-2.216747e-05
158	0xba43e581	-0.00074728584
159	0xba69df58	-0.00089215254
160	0xb7bc009b	-2.2411628e-05
161	0x37ea888c	2.7958558e-05
162	0xb8ece276	-0.000112955386
163	0xb89ceb6d	-7.482511e-05
164	0x362bc844	2.5597556e-06
165	0xb89d317c	-7.4955606e-05
166	0xb4dc2855	-4.100754e-07
167	0xb91665bf	-0.00014343018
168	0xb943b299	-0.00018663182
169	0x38842df9	6.3028136e-05
170	0x399d7b9f	0.00030037478
171	0xb955bb23	-0.00020382977
172	0x37fce070	3.0145253e-05
173	0xb8c1dc50	-9.2439936e-05
174	0xb9b46a38	-0.00034411415
175	0xb997bd41	-0.0002894197
176	0x37761b68	1.4669124e-05
177	0x3945c0c5	0.00018859196
178	0x38b5ddb6	8.6720494e-05
179	0xb90cdcc4	-0.00013433682
180	0xb501dcab	-4.837736e-07
181	0x383a7c7c	4.446179e-05
182	0xb8ce88af	-9.848305e-05
183	0x350783a8	5.0483004e-07
184	0x3590ad52	1.0779279e-06
185	0xb4ccec21	-3.8169767e-07
186	0x337babab	5.8596623e-08
187	0xb5b5ae03	-1.3536195e-06
188	0xb610511f	-2.150489e-06
189	0xb67883c3	-3.7031575e-06
190	0x369c8cfb	4.6655746e-06
191	0x3645be70	2.9466137e-06
192	0x386e25e0	5.6778896e-05
193	0xb6af64c9	-5.2271394e-06
194	0x37a184f8	1.9254614e-05
195	0x3676c162	3.676942e-06
196	0xb7d725a0	-2.5647518e-05
197	0x37619014	1.3444591e-05
198	0x3931c3f9	0.00016953041
199	0x380f61d4	3.4184966e-05
200	0x331de581	3.6763144e-08
201	0x323ce1a1	1.0994342e-08
202	0x32d0969e	2.428288e-08
203	0x3106db1a	1.9624111e-09
204	0xb1b38a32	-5.2252966e-09
205	0xb1edd837	-6.9221886e-09
206	0xb100a6ee	-1.872134e-09
207	0x3078838f	9.040883e-10
208	0xb932bebc	-0.00017046457
209	0x384c6519	4.8731545e-05
210	0xb7ecd2d5	-2.8231569e-05
211	0x37226682	9.679819e-06
212	0x388fd2ac	6.858012e-05
213	0x3834bfac	4.3093853e-05
214	0xb92a4ee8	-0.00016241858
215	0xb8ece308	-0.00011295645
216	0x3958d82f	0.000206799
217	0xba3b241c	-0.00071388646
218	0xb94e4bca	-0.00019673925
219	0x3a0a88c5	0.00052846625
220	0x390429bd	0.0001260405
221	0x396372f9	0.00021691238
222	0x39d37508	0.0004033225
223	0x39adc5b9	0.00033144446
224	0xb9801c8f	-0.0002443534
225	0xb7c40b06	-2.3370154e-05
226	0xb89ff607	-7.627537e-05
227	0x385a6246	5.2066775e-05
228	0xb97aa4f4	-0.00023903308
229	0xb884df39	-6.335829e-05
230	0xb9a79e3e	-0.00031970622
231	0xb9da2dd2	-0.0004161434
232	0xb5f65d3d	-1.8355564e-06
233	0xb79f2b24	-1.8974366e-05
234	0xb6e6466f	-6.8627337e-06
235	0x3637b00b	2.7371595e-06
236	0xb5b9dabe	-1.3847236e-06
237	0xb6b5349d	-5.4003453e-06
238	0x33ecf4e8	1.10341546e-07
239	0xae9a6058	-7.020223e-11
240	0xb95c731e	-0.0002102372
241	0xb95905c6	-0.00020696883
242	0xb904c792	-0.00012662847
243	0x393607ef	0.00017359828
244	0xb9feaab8	-0.0004857385
245	0xb7449313	-1.1716754e-05
246	0xba35c7eb	-0.0006934392
247	0xba463790	-0.000756138
248	0xb9b5d434	-0.00034681114
249	0x39d56e86	0.00040708872
250	0x389311d7	7.012829e-05
251	0xb97d40cb	-0.00024152097
252	0xb9bb949d	-0.00035778145
253	0xb9471e21	-0.00018989343
254	0xba68c116	-0.00088788697
255	0xba58eeb8	-0.0008275318

exp_avg_sq f4 [64, 8]
0	0x3494f4a8	2.774516e-07
1	0x36107361	2.1524831e-06
2	0x34665da3	2.1454484e-07
3	0x34e6e54f	4.3007682e-07
4	0x343eb7d9	1.7762012e-07
5	0x33c16652	9.005875e-08
6	0x351e3a44	5.8944374e-07
7	0x35180cc7	5.6643006e-07
8	0x33716887	5.6207252e-08
9	0x345c4f7a	2.051801e-07
10	0x333af9c5	4.3533664e-08
11	0x33ad74a3	8.0771564e-08
12	0x3320097c	3.726153e-08
13	0x33521028	4.890913e-08
14	0x3451b76a	1.9531367e-07
15	0x346940a8	2.1723338e-07
16	0x34765922	2.2942962e-07
17	0x35ca7479	1.5084071e-06
18	0x34548857	1.9793639e-07
19	0x34a90973	3.1485578e-07
20	0x340e9e63	1.3282401e-07
21	0x33e66da8	1.0730156e-07
22	0x353faa1a	7.1400575e-07
23	0x35274f10	6.23274e-07
24	0x345eda58	2.0754794e-07
25	0x35cf7c64	1.5458904e-06
26	0x3472ed49	2.262433e-07
27	0x349ca8b1	2.9180003e-07
28	0x347144b9	2.2469875e-07
29	0x341c7252	1.4570222e-07
30	0x3508c451	5.0949626e-07
31	0x34ec046c	4.3961643e-07
32	0x3481e7c1	2.4196746e-07
33	0x36c2cb19	5.805294e-06
34	0x35233617	6.0800943e-07
35	0x3583369c	9.776154e-07
36	0x34a797c2	3.1216592e-07
37	0x34631e1e	2.1151979e-07
38	0x3492e008	2.7357623e-07
39	0x3398a82a	7.1086404e-08
40	0x33bc671a	8.773186e-08
41	0x35bcf4bb	1.4078317e-06
42	0x342231d5	1.5105554e-07
43	0x34a84a27	3.1346391e-07
44	0x340cee0d	1.3125118e-07
45	0x337e7140	5.9241984e-08
46	0x32688bd8	1.3535974e-08
47	0x3204799d	7.711063e-09
48	0x33c8f2c7	9.357387e-08
49	0x35f07b2b	1.791724e-06
50	0x34501381	1.9378605e-07
51	0x34a3bad4	3.049705e-07
52	0x33b7a60c	8.551805e-08
53	0x339434e8	6.9014106e-08
54	0x33f2a92d	1.1299776e-07
55	0x333c1237	4.3788727e-08
56	0x3527d236	6.2518245e-07
57	0x36cb9d50	6.068185e-06
58	0x354216cd	7.230381e-07
59	0x359359c2	1.0978476e-06
60	0x34a8efdd	3.1466962e-07
61	0x3479613a	2.3225303e-07
62	0x360d6188	2.1067408e-06
63	0x36036ec2	1.958499e-06
64	0x2ffe2564	4.6228898e-10
65	0x2e3a36db	4.2340225e-11
66	0x2f7cf1c8	2.3005164e-10
67	0x2ef7a13d	1.1260901e-10
68	0x2ff6c07d	4.488391e-10
69	0x310133dd	1.8801452e-09
70	0x3075c6f8	8.941323e-10
71	0x3115a0eb	2.1773825e-09
72	0x33315f03	4.1297437e-08
73	0x3137ed9c	2.676507e-09
74	0x3260d8c6	1.3087805e-08
75	0x31c0a6fb	5.606919e-09
76	0x325c2e01	1.28161455e-08
77	0x32f6777f	2.869251e-08
78	0x3457e895	2.0108048e-07
79	0x345057db	1.9403471e-07
80	0x32d74909	2.5062507e-08
81	0x349ed251	2.958282e-07
82	0x3310351a	3.357591e-08
83	0x3367cd93	5.3970847e-08
84	0x32d5e6c7	2.4901409e-08
85	0x32890615	1.5951665e-08
86	0x31a3655d	4.755448e-09
87	0x317e625c	3.7017776e-09
88	0x342a7b77	1.58774e-07
89	0x359c5f9e	1.1650734e-06
90	0x340768f5	1.2611038e-07
91	0x3495f2a2	2.792995e-07
92	0x34042d0f	1.230985e-07
93	0x33e02338	1.0437219e-07
94	0x35228eab	6.055731e-07
95	0x352c1813	6.4110026e-07
96	0x3482e589	2.4381396e-07
97	0x36821381	3.8765725e-06
98	0x34e62cb0	4.2873353e-07
99	0x358a01c9	1.0282321e-06
100	0x34830f1c	2.4411645e-07
101	0x34425c8e	1.8101329e-07
102	0x333bc352	4.3716973e-08
103	0x34853f82	2.4819388e-07
104	0x3430a539	1.6451385e-07
105	0x35c4e576	1.466992e-06
106	0x343ebf17	1.7764647e-07
107	0x348d09bd	2.6270382e-07
108	0x33c8662d	9.3318114e-08
109	0x33888456	6.357065e-08
110	0x3534f9c5	6.741869e-07
111	0x351cffc1	5.84867e-07
112	0x341647e5	1.3995994e-07
113	0x362953e9	2.5231805e-06
114	0x346ff399	2.234723e-07
115	0x34e02da9	4.1756473e-07
116	0x344eec43	1.9271197e-07
117	0x3430328d	1.6409668e-07
118	0x33ae802c	8.125821e-08
119	0x33a764a2	7.7948485e-08
120	0x3498d3ca	2.8466303e-07
121	0x367623e1	3.667774e-06
122	0x34dcdc7e	4.1138622e-07
123	0x3523756d	6.089311e-07
124	0x347f4e75	2.3777268e-07
125	0x3423a819	1.5241712e-07
126	0x34b37a68	3.343041e-07
127	0x344c998c	1.905484e-07
128	0x338988be	6.404433e-08
129	0x350475e6	4.9345397e-07
130	0x3382ddd6	6.0939485e-08
131	0x33dd4538	1.0303705e-07
132	0x335cd8c4	5.141989e-08
133	0x3339166d	4.3094065e-08
134	0x3420dea2	1.4982155e-07
135	0x3421cf12	1.5069625e-07
136	0x343cfd4e	1.7601016e-07
137	0x354b82eb	7.5813904e-07
138	0x33d956cc	1.0120638e-07
139	0x341ab80b	1.4409322e-07
140	0x340716a2	1.2581089e-07
141	0x342c2a35	1.6034103e-07
142	0x35053ddf	4.9636395e-07
143	0x353ec9f1	7.107438e-07
144	0x32d74614	2.5061162e-08
145	0x319625a5	4.3698543e-09
146	0x329bb996	1.812877e-08
147	0x329c463d	1.819273e-08
148	0x3268dca0	1.3554342e-08
149	0x32ae3b15	2.0283133e-08
150	0x324c1a1a	1.1880298e-08
151	0x3366c744	5.373228e-08
152	0x341c94ca	1.4582761e-07
153	0x35f8bd93	1.8532613e-06
154	0x345219bc	1.9567136e-07
155	0x34f885ca	4.6290944e-07
156	0x3438e36d	1.7219072e-07
157	0x3408c721	1.273843e-07
158	0x34d8b494	4.0364523e-07
159	0x35043a3d	4.925858e-07
160	0x33858cbe	6.218896e-08
161	0x3290fd46	1.6878982e-08
162	0x33b0eefe	8.239111e-08
163	0x3380c68d	5.996581e-08
164	0x330e7cc8	3.317544e-08
165	0x3356ab2a	4.998143e-08
166	0x320c16b5	8.1542355e-09
167	0x33ceace3	9.6240704e-08
168	0x33b09a03	8.223653e-08
169	0x353e67ec	7.093174e-07
170	0x33dc077a	1.0245908e-07
171	0x3447ce1f	1.8608306e-07
172	0x333ec95e	4.4420965e-08
173	0x32eb384d	2.7383203e-08
174	0x345a908a	2.0355415e-07
175	0x343d4b26	1.7629336e-07
176	0x3305426a	3.102688e-08
177	0x35473250	7.420649e-07
178	0x339a5042	7.1857826e-08
179	0x341f27d7	1.4822523e-07
180	0x331fbc10	3.7191114e-08
181	0x32c77da9	2.3223793e-08
182	0x328bb9f2	1.6266288e-08
183	0x31077e53	1.9716893e-09
184	0x3040eeb7	7.018843e-10
185	0x2e0d51ea	3.2132443e-11
186	0x2fe15d88	4.099372e-10
187	0x2ffbcb8a	4.5801257e-10
188	0x309dfe23	1.1495483e-09
189	0x316ed61a	3.475526e-09
190	0x31464973	2.8854543e-09
191	0x309ae86a	1.1271031e-09
192	0x3245a4c3	1.1504372e-08
193	0x3124f3e0	2.4003768e-09
194	0x320fa38a	8.36088e-09
195	0x31842a01	3.846481e-09
196	0x31d6d090	6.2519305e-09
197	0x32de8d44	2.5908442e-08
198	0x339bb629	7.250885e-08
199	0x32b0aadc	2.0566794e-08
200	0x3059fa6a	7.93e-10
201	0x2ffbc597	4.579703e-10
202	0x306fad9a	8.7194396e-10
203	0x3003162f	4.7689047e-10
204	0x304403a7	7.1309575e-10
205	0x2fdac36b	3.9792822e-10
206	0x2ed0a686	9.4883254e-11
207	0x2f8e4f7e	2.5886132e-10
208	0x32ba939a	2.1720371e-08
209	0x30f06651	1.7491378e-09
210	0x32169f69	8.767395e-09
211	0x30ef545c	1.7413515e-09
212	0x321fc389	9.299478e-09
213	0x32a5cdc4	1.93021e-08
214	0x3267cfcb	1.3493216e-08
215	0x3244c374	1.1453142e-08
216	0x3500ed93	4.802943e-07
217	0x3695a2bc	4.459491e-06
218	0x35170879	5.6264213e-07
219	0x358a6cf1	1.0313507e-06
220	0x34ac602b	3.2107468e-07
221	0x34819ae8	2.4140832e-07
222	0x35abc656	1.2798216e-06
223	0x359e1e0c	1.1780662e-06
224	0x330b7e72	3.247846e-08
225	0x34e93fe8	4.344613e-07
226	0x33388847	4.2964782e-08
227	0x33c042c0	8.9528385e-08
228	0x330e0c27	3.3073004e-08
229	0x32909ad6	1.6834218e-08
230	0x34094b33	1.2786477e-07
231	0x3418e9ec	1.4241203e-07
232	0x30df5c03	1.6251537e-09
233	0x33619c77	5.25292e-08
234	0x31eee38f	6.952582e-09
235	0x319505ab	4.337115e-09
236	0x319f6c97	4.6398543e-09
237	0x31bae8dd	5.439786e-09
238	0x2f86f4a2	2.454828e-10
239	0x2ffbcc41	4.5801765e-10
240	0x349c9453	2.9165184e-07
241	0x360cd4a0	2.098539e-06
242	0x3486f898	2.514032e-07
243	0x3512ab64	5.4638645e-07
244	0x3458938d	2.0170246e-07
245	0x345dc8e5	2.0655314e-07
246	0x3567bafd	8.632631e-07
247	0x3573652e	9.067179e-07
248	0x34c79838	3.7177392e-07
249	0x36266a2a	2.4797723e-06
250	0x34afd25d	3.274935e-07
251	0x34f597a4	4.574514e-07
252	0x34707d1e	2.2397259e-07
253	0x343ba036	1.7474017e-07
254	0x35cd0821	1.5276056e-06
255	0x35bc9b4e	1.4052291e-06

exp_avg f4 [64]
0	0x39fe1e5f	0.00048469284
1	0xb992d8d3	-0.00028008837
2	0xb83f35d7	-4.558809e-05
3	0xb96a5696	-0.00022348235
4	0x3987afe8	0.00025880267
5	0xb920b914	-0.00015327736
6	0xb9f2c470	-0.00046304194
7	0xba01bc1a	-0.0004948989
8	0x37324885	1.06265115e-05
9	0xb94fde52	-0.00019823879
10	0xb9635511	-0.00021680097
11	0xba0cfe27	-0.0005378448
12	0xba42b922	-0.00074280996
13	0xb9949321	-0.0002833838
14	0x38ff3ee1	0.0001217106
15	0xb986c538	-0.0002570541
16	0xb8bb514b	-8.931997e-05
17	0xba1f2c22	-0.0006071945
18	0x38a556b3	7.883962e-05
19	0xba92fc55	-0.0011214117
20	0x3935c10f	0.00017333425
21	0xb946acfa	-0.0001894719
22	0x3932801f	0.00017023132
23	0x3694dd97	4.43654e-06
24	0x39146904	0.00014153501
25	0xb387c664	-6.3225144e-08
26	0xb92394c7	-0.00015600315
27	0xb9e878f5	-0.00044340608
28	0xb9ef01fa	-0.00045587105
29	0xb75ef484	-1.3289162e-05
30	0xba78e636	-0.00094947533
31	0xb9f34212	-0.00046397798
32	0x39aeb387	0.00033321625
33	0x2f1e256c	1.4383311e-10
34	0xb8a72812	-7.970644e-05
35	0xba13c04d	-0.000563626
36	0xac1b4850	-2.2066966e-12
37	0x38462f0a	4.7250687e-05
38	0x35fc7fc6	1.881265e-06
39	0xb91ddbc7	-0.0001505456
40	0x389ed422	7.57354e-05
41	0xba642956	-0.00087036693
42	0xb9ecabe8	-0.00045141508
43	0xb9ef88dc	-0.000456876
44	0xba6ba770	-0.00089894887
45	0xba10dc39	-0.000552598
46	0xba89d6d7	-0.0010516298
47	0xbab4b5a2	-0.0013787041
48	0xb97db712	-0.00024196159
49	0x39aff377	0.00033559997
50	0xb7a6e2c5	-1.989434e-05
51	0x381337b4	3.509941e-05
52	0xb9ec3597	-0.00045053355
53	0x3a3268fd	0.00068058056
54	0x398eee58	0.0002726193
55	0x3a2e759a	0.0006655097
56	0xb5e08c95	-1.6730215e-06
57	0xb89309ff	-7.011368e-05
58	0x3a0487a1	0.00050556107
59	0x39450d3e	0.00018792317
60	0xb9f43fa0	-0.0004658671
61	0xb9d6a3b8	-0.0004093924
62	0xb8aadfa4	-8.147888e-05
63	0xb7bb1a89	-2.2304494e-05

exp_avg_sq f4 [64]
0	0x3644aa6a	2.930547e-06
1	0x354039b3	7.1609537e-07
2	0x362e39bc	2.5961626e-06
3	0x361e6e69	2.3608102e-06
4	0x36c3cac2	5.835057e-06
5	0x35ef8c82	1.7847781e-06
6	0x361308b6	2.1909777e-06
7	0x371be7d5	9.2926975e-06
8	0x3123fb38	2.3862423e-09
9	0x34898dff	2.5621554e-07
10	0x34d76f99	4.012807e-07
11	0x360f8805	2.1387834e-06
12	0x36adfccf	5.1852326e-06
13	0x362422f5	2.4458252e-06
14	0x361e7965	2.3614496e-06
15	0x368fb3b0	4.2826505e-06
16	0x355c1a94	8.199506e-07
17	0x35f5130f	1.8259469e-06
18	0x34a3ca33	3.0508235e-07
19	0x36437816	2.9127164e-06
20	0x35873256	1.0072933e-06
21	0x35ae810e	1.300157e-06
22	0x3556ebbd	8.0064257e-07
23	0x318067ad	3.737077e-09
24	0x33c1916e	9.013716e-08
25	0x30f83b07	1.8061151e-09
26	0x338cb916	6.552925e-08
27	0x36f1e9f3	7.209595e-06
28	0x35321acb	6.6349156e-07
29	0x33048484	3.0854167e-08
30	0x367f3c4f	3.8033065e-06
31	0x36986e71	4.54281e-06
32	0x354decf1	7.6713246e-07
33	0x3114f0f7	2.1673807e-09
34	0x350d47c0	5.2631003e-07
35	0x3692fdfe	4.3807077e-06
36	0x3059c869	7.922894e-10
37	0x36936743	4.3929626e-06
38	0x2f46d889	1.8084924e-10
39	0x36be3cc2	5.6695144e-06
40	0x372496cc	9.810272e-06
41	0x364c5a86	3.045106e-06
42	0x36aa2659	5.070859e-06
43	0x37441a34	1.1688611e-05
44	0x366ce272	3.529855e-06
45	0x35d69a5b	1.5989166e-06
46	0x372bd027	1.02408585e-05
47	0x363ca144	2.8108052e-06
48	0x33820919	6.0552516e-08
49	0x35faf98c	1.8699079e-06
50	0x33f0e6c1	1.1217845e-07
51	0x31d0814f	6.0682974e-09
52	0x350a5ab2	5.1540985e-07
53	0x36ea003d	6.973771e-06
54	0x33ea52fd	1.09115696e-07
55	0x36efe673	7.149583e-06
56	0x31b15f5a	5.162218e-09
57	0x32d0c3c4	2.430341e-08
58	0x369043bc	4.2994197e-06
59	0x36ff208d	7.6033816e-06
60	0x3762aee5	1.35113705e-05
61	0x36ba63f3	5.5548676e-06
62	0x328fc538	1.6737076e-08
63	0x32172a82	8.799022e-09

exp_avg f4 [64, 64]
0	0xb8829a06	-6.227572e-05
1	0xb97b8c32	-0.00023989452
2	0xb992ae2b	-0.00027977055
3	0xb9723128	-0.0002309723
4	0xb8bdd8d4	-9.05261e-05
5	0xb86c352f	-5.6316316e-05
6	0xb68e2a91	-4.236885e-06
7	0xb99037b1	-0.00027507314
8	0xb4a32734	-3.038964e-07
9	0xb923d5ab	-0.00015624489
10	0xb6b9a253	-5.5323267e-06
11	0xb91252f2	-0.00013954545
12	0xb9369386	-0.0001741183
13	0xb9828b68	-0.00024899398
14	0xb8b99034	-8.848347e-05
15	0xb90ba67a	-0.0001331809
16	0xb98d9d8c	-0.00027010997
17	0xb9087c48	-0.00013016269
18	0xb67873f2	-3.7022369e-06
19	0xb912e942	-0.0001401054
20	0xb69b1d76	-4.6227897e-06
21	0xb944b420	-0.00018759118
22	0xb8941234	-7.0605805e-05
23	0xb612a740	-2.1853048e-06
24	0xb7599bff	-1.2970529e-05
25	0x30b57180	1.3201742e-09
26	0x37f767fd	2.9493118e-05
27	0xb8a9761e	-8.080549e-05
28	0xb95adb23	-0.00020871735
29	0xb64884d9	-2.987965e-06
30	0xba10d070	-0.00055242237
31	0xb9f1baf5	-0.00046106396
32	0xb8f9295f	-0.00011880951
33	0xac480ee2	-2.842997e-12
34	0xb788d611	-1.6312146e-05
35	0x38b8cbc9	8.811762e-05
36	0xae29f100	-3.8640202e-11
37	0xb8883b72	-6.496058e-05
38	0xb580c754	-9.594755e-07
39	0xb7cfa691	-2.4753886e-05
40	0xb8ec939b	-0.000112808506
41	0xb9b4fa9a	-0.00034518988
42	0xb8f5aa2f	-0.000117142095
43	0x38bc5102	8.9796275e-05
44	0xb9bfc69f	-0.00036578343
45	0xb95f819b	-0.00021315219
46	0xb945db43	-0.00018869065
47	0xb8d64945	-0.00010217963
48	0xb78cece2	-1.6799608e-05
49	0xb9b23f71	-0.00033998073
50	0xb93b6169	-0.00017869998
51	0xb6a98960	-5.052585e-06
52	0xb8f750b2	-0.000117929085
53	0xb96cb010	-0.00022572302
54	0xb704e886	-7.921952e-06
55	0xb987a6a8	-0.00025873375
56	0x34d02ba9	3.8774786e-07
57	0x37965c69	1.7924425e-05
58	0xb947154e	-0.00018986056
59	0xb96cc204	-0.0002257899
60	0xb69ba35f	-4.638379e-06
61	0x38b5e908	8.674158e-05
62	0x36e500f4	6.824843e-06
63	0x357e6f69	9.4784497e-07
64	0x8d732f0c	-7.4936787e-31
65	0x127b31c4	7.9262976e-28
66	0x13bc5e84	4.755107e-27
67	0x131113d5	1.831135e-27
68	0x90a8c860	-6.657304e-29
69	0x12a4819a	1.0381804e-27
70	0x1231c4f2	5.6094106e-28
71	0x10953a06	5.8859537e-29
72	0x00000000	0.0
73	0x0c04d583	1.0233161e-31
74	0x91167511	-1.1868987e-28
75	0x104201f9	3.8261274e-29
76	0x907f1dd6	-5.0312867e-29
77	0x11a36253	2.5777462e-28
78	0x0f21823f	7.962997e-30
79	0x10b7cd73	7.249732e-29
80	0x11a559ef	2.6087836e-28
81	0x00000000	0.0
82	0x0d2288d2	5.0084796e-31
83	0x1172ce04	1.9153917e-28
84	0x916d922f	-1.874105e-28
85	0x915b29a0	-1.728888e-28
86	0x10514004	4.1267298e-29
87	0x121e0727	4.9864825e-28
88	0x00000000	0.0
89	0x8eccac0b	-5.0455554e-30
90	0x00000000	0.0
91	0x12aec315	1.1029035e-27
92	0x13236ae4	2.0626194e-27
93	0x90c753d3	-7.862081e-29
94	0x1376c131	3.1144816e-27
95	0x10bb8c7f	7.3974963e-29
96	0x8e6f8af3	-2.9525926e-30
97	0x8c99aabd	-2.3676142e-31
98	0x125a54b4	6.8893076e-28
99	0x00000000	0.0
100	0x909ca122	-6.1779415e-29
101	0x13d1f38d	5.2999177e-27
102	0x0d8a4444	8.521341e-31
103	0x915c10d9	-1.7360131e-28
104	0x1021e4b3	3.1927835e-29
105	0x1249fef4	6.373867e-28
106	0x0e210883	1.984888e-30
107	0x135fad9b	2.8232151e-27
108	0x13cbbc61	5.143016e-27
109	0x91a365e7	-2.5779668e-28
110	0x11f07066	3.7934594e-28
111	0x10e3e7f0	8.989307e-29
112	0x00000000	0.0
113	0x12f1ef39	1.5268211e-27
114	0x116edab9	1.8842289e-28
115	0x919bb941	-2.456886e-28
116	0x00000000	0.0
117	0x8fc9806e	-1.98696e-29
118	0x00000000	0.0
119	0x0c1a591c	1.1890544e-31
120	0x901a054c	-3.0375225e-29
121	0x8b7ddc9b	-4.8891993e-32
122	0x12fb7c82	1.5871021e-27
123	0x118459ca	2.0881265e-28
124	0x0d394b95	5.7098505e-31
125	0x12c72d64	1.2569855e-27
126	0x00000000	0.0
127	0x8bcdd246	-7.927951e-32
128	0xb83fd51a	-4.5736415e-05
129	0xb8c7f60d	-9.53489e-05
130	0xb9472bd8	-0.00018994452
131	0xb974aecf	-0.00023334775
132	0xb87f375d	-6.08483e-05
133	0xb8c3ba3e	-9.333015e-05
134	0xb7e4db6b	-2.7281892e-05
135	0xb8e25f24	-0.00010794241
136	0xb40fda7c	-1.3397397e-07
137	0xb8571083	-5.1275372e-05
138	0xb6dda82c	-6.605891e-06
139	0xb89f3053	-7.590712e-05
140	0xb8fbfdbd	-0.00012015875
141	0xb8d932b5	-0.00010356811
142	0xb88c8162	-6.69982e-05
143	0xb89eb66c	-7.568006e-05
144	0xb922dae3	-0.00015531066
145	0xb85153ba	-4.990746e-05
146	0x3575f7eb	9.163038e-07
147	0xb914dfa3	-0.00014197691
148	0xb68b386c	-4.149091e-06
149	0xb8ac5b42	-8.218597e-05
150	0xb8392441	-4.41412e-05
151	0x35f9a5f5	1.8600246e-06
152	0x3669bd31	3.482983e-06
153	0x310e9b2f	2.0751931e-09
154	0x37ef634a	2.8537255e-05
155	0xb8a36cd5	-7.792717e-05
156	0xb91e33bb	-0.00015087325
157	0xb40f332b	-1.3336528e-07
158	0xb9944c19	-0.00028285457
159	0xb9705c3d	-0.00022922545
160	0xb77a5a81	-1.4922233e-05
161	0xac387e78	-2.6218177e-12
162	0xb77de4e4	-1.5133268e-05
163	0x37dc10e9	2.6233918e-05
164	0xace30b7f	-6.4530044e-12
165	0xb8c1a2d6	-9.233288e-05
166	0xb3f56772	-1.1427518e-07
167	0xb7535a91	-1.2597667e-05
168	0xb7a93109	-2.0169204e-05
169	0xb955dd42	-0.00020395688
170	0xb8f43edc	-0.00011646535
171	0xb6a62f3c	-4.9526843e-06
172	0xb98ad81b	-0.00026482422
173	0xb8b8517d	-8.788982e-05
174	0xb8e88ec3	-0.000110892135
175	0xb87c1f67	-6.0110728e-05
176	0xb7273f0c	-9.968655e-06
177	0xb91f4d17	-0.0001519214
178	0xb840ae45	-4.593867e-05
179	0xb6c2a7af	-5.8011715e-06
180	0xb841b587	-4.6183846e-05
181	0xb8d669dc	-0.00010224033
182	0x3725a6d2	9.873607e-06
183	0xb8e31aa8	-0.000108291686
184	0x34460d6a	1.8445067e-07
185	0x377e5096	1.5158343e-05
186	0xb90ec6de	-0.00013616259
187	0xb8c4aa27	-9.377702e-05
188	0xb8617783	-5.3755484e-05
189	0x37ff8ac0	3.046298e-05
190	0x36957055	4.453623e-06
191	0x34f200cc	4.5076592e-07
192	0xb8072de3	-3.2229244e-05
193	0xb90e4532	-0.00013567953
194	0xb8f1c684	-0.00011528752
195	0xb8f85bcd	-0.00011842661
196	0xb8734eb2	-5.8009005e-05
197	0xb77d6d86	-1.51054755e-05
198	0xb627e371	-2.5017328e-06
199	0xb93e6c8e	-0.00018160252
200	0xb43d4845	-1.7628288e-07
201	0xb884c5f4	-6.331122e-05
202	0xb657a9ee	-3.2136409e-06
203	0xb8ab2c72	-8.162194e-05
204	0xb8ec1423	-0.00011257108
205	0xb9286631	-0.00016059798
206	0xb8681db4	-5.5340774e-05
207	0xb8c4bf2a	-9.3816154e-05
208	0xb912f84d	-0.00014016144
209	0xb888d3a3	-6.524406e-05
210	0xb787be61	-1.6181906e-05
211	0xb891b2ea	-6.947464e-05
212	0xb678ec97	-3.7092593e-06
213	0xb8ea9149	-0.00011185051
214	0xb842a754	-4.640904e-05
215	0xb5b19910	-1.3232075e-06
216	0xb72c935a	-1.0286307e-05
217	0x2fceefa9	3.764147e-10
218	0x369a575d	4.599728e-06
219	0xb81f6bb8	-3.8008875e-05
220	0xb9041dde	-0.00012599627
221	0xb631e53b	-2.6508485e-06
222	0xb9a4d3af	-0.00031438234
223	0xb9927488	-0.00027934113
224	0xb89cdd8f	-7.479928e-05
225	0xabe3cefd	-1.6186771e-12
226	0xb63fdbbb	-2.8589118e-06
227	0x388c11f7	6.6790664e-05
228	0xadfaad59	-2.8498691e-11
229	0xb70e9296	-8.497989e-06
230	0xb5575068	-8.021075e-07
231	0xb7a154c9	-1.9232177e-05
232	0xb89d97d9	-7.514627e-05
233	0xb958faa9	-0.00020692743
234	0xb894376f	-7.067515e-05
235	0x38ad93f2	8.27684e-05
236	0xb947c23d	-0.00019050478
237	0xb90a4e2a	-0.00013189824
238	0xb8fe7366	-0.000121331585
239	0xb88bfeea	-6.675518e-05
240	0xb77339bc	-1.4497371e-05
241	0xb936dd91	-0.00017439412
242	0xb8965f19	-7.170271e-05
243	0xb6204969	-2.3884588e-06
244	0xb87ada49	-5.980794e-05
245	0xb91a2c7e	-0.00014703159
246	0x3544e345	7.334641e-07
247	0xb90fecd4	-0.00013725768
248	0x34a89262	3.1398946e-07
249	0x374692db	1.1835912e-05
250	0xb8ac5a9e	-8.218478e-05
251	0xb9216cf2	-0.00015394742
252	0x3720e512	9.590078e-06
253	0x388bd67d	6.667988e-05
254	0xb4809eff	-2.3957543e-07
255	0xb4973e2e	-2.8171183e-07
