P3/Q2/Lunarlander/checkpoints/pg_LunarLander-v3_lastFT.pth (torch, 95325 bytes, 18 tensors)

net.0.weight f4 [64, 8]
-0.35740572 -0.034135755 -0.046711545 0.3353296 0.11979864 0.49258935 0.3670469 -0.31168556
0.26040432 0.3975877 0.21946493 0.18115899 -0.46805742 -0.3012491 0.27812845 -0.14271931
0.18310496 0.0089984145 0.31313252 -0.25046948 0.14034039 -0.35737887 0.3087054 0.008027638
-0.03251339 0.30821264 0.0018355134 0.08218189 0.3327488 0.34150726 0.2133801 -0.20236191
0.116437055 -0.091808185 -0.22372314 -0.19891892 -0.18001771 0.33810088 -0.32426348 0.21230744
-0.13214207 -0.13239454 0.08319295 -0.30999148 -0.46309173 -0.30846596 0.05616306 -0.0022536672
-0.17813565 0.13049081 0.3416469 -0.3839815 -0.3106125 -0.3345475 -0.33655962 0.17352243
-0.116605185 -0.085059196 0.43327942 0.067468494 -0.4061566 0.010418198 0.012886819 -0.13790736
-0.29284233 -0.19892384 -0.11217995 -0.2999668 -0.1267716 0.09566833 -0.060226917 -0.27320576
0.16753955 0.0070872223 -0.07000017 -0.33175343 0.37146574 0.4999198 0.30433506 0.18303125
0.22740227 -0.017922096 0.19942325 0.21513079 -0.5658749 -0.3142783 0.08635909 -0.29234916
0.29777956 0.13864651 -0.30701166 -0.18900642 0.5176538 0.06344854 0.12438553 0.13646378
0.28292698 -0.18778853 -0.09241287 -0.43343082 0.39550352 0.19508633 0.08659309 0.2232948
0.09206333 0.07171145 0.34964612 0.168744 -0.16709659 -0.4240312 0.060966767 0.04110215
-0.20807247 -0.13830519 0.15277849 0.14180607 -0.2011851 0.054977953 0.08445703 0.34211236
0.13032828 0.44091666 -0.22266072 0.40144232 -0.28331953 -0.114721656 -0.3498309 0.0044188607
0.28418073 -0.23121326 0.042540137 0.07853117 0.048621945 -0.18992944 0.15878333 0.19382061
0.25778607 -0.27289537 0.21218257 0.14040689 -0.2987006 -0.16263868 0.30467212 0.26316187
0.1922401 0.32727027 0.20813061 0.15683506 0.2728986 0.012543415 -0.15392265 -0.20221348
0.14854911 -0.15087293 0.071736686 -0.3710544 -0.097887054 0.19983466 0.018944878 -0.23753908
-0.2562696 -0.04602845 0.048303578 -0.43460152 0.38429406 -0.15544626 -0.30778188 0.22821617
-0.116687015 0.1325817 0.1783277 0.2381611 -0.10495949 -0.4540358 0.13227336 0.20845982
0.099743105 0.065208614 -0.1486756 -0.39307532 0.26791888 0.24083108 -0.20632064 -0.30605263
-0.16533658 0.08880458 0.21630786 0.061649855 -0.028939547 -0.015728131 -0.1418746 0.098672114
-0.20154186 0.30983716 -0.2761155 -0.37263027 0.5011863 0.014461581 0.21692872 -0.12506416
0.019312706 0.39527836 0.26096633 0.38675624 -0.03726973 -0.102068804 -0.090159215 -0.29835984
-0.06144269 -0.20753841 0.1002378 -0.19499336 0.24033304 0.09499564 -0.33150655 0.00048264777
0.25162014 -0.037543878 0.37064674 -0.15821315 -0.2046366 -0.35170713 -0.20588823 0.06675727
-0.22662957 0.05044608 -0.16571765 -0.35546112 -0.4096483 -0.35431433 0.16646937 0.20281981
-0.27462074 0.071333244 -0.3725093 0.36072084 0.26434594 0.20903182 -0.2421555 0.086200595
-0.06816415 0.059279375 -0.15624082 -0.23046535 0.30305555 0.5005686 -0.080866 0.21835665
-0.3312898 -0.24547191 -0.11087531 -0.29785416 0.07879819 0.083747745 0.1742212 0.25859156
00000000: e2fd b6be efd1 0bbd 9b54 3fbd 52b0 ab3e
00000010: fd58 f53d ac34 fc3e 92ed bb3e 4095 9fbe
00000020: b753 853e 9d90 cb3e 6abb 603e be81 393e
00000030: 39a5 efbe 523d 9abe da66 8e3e 0325 12be
00000040: de7f 3b3e 166e 133c e852 a03e 893d 80be
00000050: 64b5 0f3e 5dfa b6be a20e 9e3e 5b86 033c
00000060: c32c 05bd 0cce 9d3e 9c95 f03a fb4e a83d
00000070: 0d5e aa3e 0ada ae3e 5080 5a3e f637 4fbe
00000080: 8d76 ee3d ee05 bcbd ae17 65be 67b1 4bbe
00000090: 9056 38be 8f1b ad3e dd05 a6be 1f67 593e
000000a0: 4050 07be 6f92 07be 1161 aa3d 34b7 9ebe
000000b0: 5c1a edbe 40ef 9dbe 3d0b 663d 43b2 13bb
000000c0: 3169 36be 629f 053e 58ec ae3e 3999 c4be
000000d0: 9a08 9fbe cf49 abbe 8b51 acbe ddaf 313e
000000e0: b3ce eebd 8433 aebd cdd6 dd3e ec2c 8a3d
000000f0: c2f3 cfbe 17b1 2a3c 3d23 533c 9637 0dbe
00000100: 6eef 95be b1b2 4bbe 9abe e5bd 4095 99be
00000110: 6ad0 01be c2ed c33d 80b0 76bd a0e1 8bbe
00000120: 7d8f 2b3e ee3b e83b 405c 8fbd 96db a9be
00000130: c230 be3e 7df5 ff3e ced1 9b3e 8b6c 3b3e
00000140: 24dc 683e 5cd1 92bc 9c35 4c3e 3f4b 5c3e
00000150: 2ddd 10bf 16e9 a0be 09dd b03d caae 95be
00000160: 9076 983e 5af9 0d3e a230 9dbe e68a 41be
00000170: f684 043f 4ff1 813d d7bd fe3d 29bd 0b3e
00000180: cedb 903e a34b 40be f542 bdbd a5ea ddbe
00000190: 707f ca3e b6c4 473e b857 b13d 64a7 643e
000001a0: b38b bc3d 74dd 923d d104 b33e 3acb 2c3e
000001b0: 5e1b 2bbe 9e1a d9be 4ab8 793d ba5a 283d
000001c0: f310 55be e09f 0dbe f771 1c3e 9c35 113e
000001d0: 7803 4ebe 9030 613d cff7 ac3d 5a29 af3e
000001e0: c774 053e d4bf e13e 2c01 64be d989 cd3e
000001f0: 420f 91be 30f3 eabd 091d b3be 17cc 903b
00000200: 2380 913e 2bc3 6cbe 913e 2e3d f3d4 a03d
00000210: ce27 473d dd7c 42be 1998 223e e978 463e
00000220: 89fc 833e f1b8 8bbe 6346 593e d3c6 0f3e
00000230: 49ef 98be c18a 26be fcfd 9b3e 27bd 863e
00000240: 97da 443e f88f a73e 3120 553e 5f99 203e
00000250: 5eb9 8b3e e582 4d3c e69d 1dbe 0d11 4fbe
00000260: 421d 183e 6f7e 1abe afea 923d d8fa bdbe
00000270: 0279 c8bd 75a1 4c3e 4a32 9b3c 723d 73be
00000280: c535 83be 5488 3cbd f9d9 453d 1784 debe
00000290: 31c2 c43e 4e2d 1fbe 9695 9dbe 80b1 693e
000002a0: 9af9 eebd 7fc3 073e 899b 363e 81e0 733e
000002b0: 00f5 d6bd 6177 e8be ab72 073e 7e76 553e
000002c0: 1d46 cc3d 188c 853d 6b3e 18be 2b41 c9be
000002d0: aa2c 893e 6c9c 763e b845 53be eeb2 9cbe
000002e0: fe4d 29be 2ddf b53d cf7f 5d3e 8f84 7c3d
000002f0: a112 edbc 48d8 80bc 9347 11be 9b14 ca3d
00000300: fd60 4ebe faa2 9e3e 035f 8dbe 65c9 bebe
00000310: bf4d 003f 44f0 6c3c 9022 5e3e d210 00be
00000320: ae35 9e3c ed61 ca3e 619d 853e ea04 c63e
00000330: 25a8 18bd 7309 d1bd 65a5 b8bd 9fc2 98be
00000340: 55ab 7bbd f384 54be 7a49 cd3d 57ac 47be
00000350: dd19 763e 138d c23d 3abb a9be e30b fd39
00000360: 5bd4 803e 9cc7 19bd 69c5 bd3e a102 22be
00000370: 428c 51be f512 b4be 5dd4 52be 09b8 883d
00000380: 9511 68be 8ca0 4e3d e3b1 29be 00ff b5be
00000390: 6cbd d1be b068 b5be f276 2a3e ffaf 4f3e
000003a0: 179b 8cbe 2a17 923d 8ab9 bebe 67b0 b83e
000003b0: 5a58 873e 700c 563e 9df7 77be f089 b03d
000003c0: a599 8bbd eece 723d 98fd 1fbe 1cff 6bbe
000003d0: 192a 9b3e 4425 003f 139d a5bd e398 5f3e
000003e0: d19e a9be fd5c 7bbe 9812 e3bd 5780 98be
000003f0: f260 a13d f083 ab3d 0b67 323e 1d66 843e

net.0.bias f4 [64]
0.39159316 -0.0008421705 0.0030614883 0.4030603 0.22403112 0.27232498 -0.025873879 0.11058497
0.078639895 0.30296075 0.3420938 -0.001944127 0.34334147 0.21683095 0.014921503 -0.012037877
-0.33548728 0.164238 0.2949119 -0.04120735 0.073165864 0.097793005 0.019280678 -0.33454174
-0.11585238 0.14594257 -0.14975733 0.3155885 0.3218815 0.2776874 0.065685414 0.10816019
-0.38881478 0.30121136 -0.21363263 0.22583732 0.1984966 0.2511938 0.30409873 0.31904513
0.15272167 -0.05289396 0.07853059 -0.36263123 0.30726567 -0.061618917 0.038249604 0.072456524
0.20148638 -0.23183331 0.23478785 -0.24210382 0.33733314 0.35100484 0.33563983 -0.021002216
0.097399026 -0.029203566 -0.046182208 -0.37352213 -0.2656366 -0.34221718 0.37633204 -0.07424765
00000000: e67e c83e 1bc5 5cba 40a3 483b eb5d ce3e
00000010: 6a68 653e 2e6e 8b3e 75f5 d3bc 5f7a e23d
00000020: f40d a13d ac1d 9b3e eb26 af3e 14d2 feba
00000030: 74ca af3e ef08 5e3e 5279 743c 843a 45bc
00000040: fdc4 abbe 022e 283e b1fe 963e 0ac9 28bd
00000050: fcd7 953d b347 c83d 83f2 9d3c 0e49 abbe
00000060: 0344 edbd f871 153e fc59 19be d194 a13e
00000070: a7cd a43e 0b2d 8e3e 1386 863d 1783 dd3d
00000080: bb12 c7be 6038 9a3e 83c2 5abe e641 673e
00000090: b142 4b3e 799c 803e d4b2 9b3e e259 a33e
000000a0: 1263 1c3e 56a7 58bd a5d4 a03d cdaa b9be
000000b0: ed51 9d3e 1e64 7cbd 9eab 1c3d 1664 943d
000000c0: 7252 4e3e b665 6dbe 3a6c 703e 10ea 77be
000000d0: eeb6 ac3e e8b6 b33e fcd8 ab3e d70c acbc
000000e0: 2479 c73d 513c efbc 8e29 3dbd 4b3e bfbe
000000f0: 8501 88be 1737 afbe 98ae c03e 270f 98bd

net.2.weight f4 [64, 64]
0.043314796 0.034624554 0.10069586 -0.017915206 0.06872387 -0.08712796 -0.041234255 -0.03413846
-0.04066302 0.01679592 0.03590853 0.038796637 0.04407493 -0.09312661 -0.047536813 -0.06301233
0.14444233 -0.022706749 0.03342159 -0.12007859 0.027007282 -0.08046998 0.03733496 -0.038076162
0.117601275 0.0196273 -0.0055993455 -0.10689508 -0.040808793 0.07855239 -0.079770714 -0.012453806
0.011192933 0.09323205 0.021733597 0.030425923 -0.13232128 -0.11020219 -0.04430269 -0.019353965
0.033246916 -0.09665613 0.02423916 0.09915034 -0.044967484 -0.09319459 0.09046854 -0.12820977
-0.0029157097 -0.06572908 -0.07859285 0.016110133 0.08926808 -0.04321165 0.033777114 -0.15793845
-0.014459264 0.11879728 -0.104259625 0.08702525 0.08745374 -0.067057475 -0.036973137 -0.046584602
0.16904245 -0.057430107 0.025022173 0.17728797 0.13467807 0.0897109 -0.1348657 -0.0069285566
0.15357198 0.24900116 -0.2343558 0.19602792 0.21492578 -0.1975564 -0.12688744 -0.097283565
-0.091683 -0.08203097 -0.020694226 0.1202678 0.07801757 -0.3169506 0.04129494 0.047936574
0.06235641 0.0755137 0.1171663 -0.022363866 -0.038025424 -0.033095382 0.1672833 -0.0120336395
0.023074532 0.19084737 0.027991947 -0.16833253 -0.23141953 0.079876766 0.15625398 0.0023187827
0.036586605 0.1497141 -0.012674471 0.08841097 0.10408776 -0.0425794 0.119234554 0.048667066
-0.14542484 -0.10570874 -0.06398869 0.07338202 0.08012846 0.07560246 0.14782386 -0.101463616
0.145846 0.10508549 0.021474704 -0.010753603 0.00971748 0.012338788 -0.21426149 0.03891101
0.003894968 -0.003916553 0.13503313 -0.12339377 -0.0625033 0.05803594 0.15056428 0.062007785
0.086844645 0.081543945 0.06047056 -0.01837988 0.06664729 0.11851823 -0.054907676 0.09497845
0.076994 -0.052278273 -0.07211955 0.112131506 0.030333297 0.057763137 -0.09565688 -0.038726483
-0.039301194 -0.03435011 -0.052992284 0.19322959 0.11626047 -0.084403105 -0.057562906 0.0075845853
-0.040214855 0.18334244 -0.085252345 0.16291924 -0.058980938 0.01965983 0.015317914 -0.00028362684
-0.020814538 0.088337734 0.007297493 0.044199135 0.09017784 0.10828474 -0.07449122 0.117897846
0.19413431 0.049757823 0.08514355 0.03126869 -0.0042045983 0.021395769 -0.062278602 0.094010405
-0.1962207 0.0024037994 -0.013806368 0.06115808 0.0944389 -0.011634599 0.17329733 0.0911432
0.15265964 0.053909946 0.086100556 -0.02673261 -0.0057912422 -0.03413881 -0.026932718 -0.018419987
0.036048293 0.022205148 0.047896575 -0.05852285 0.07654445 -0.08399953 0.07207462 0.06274007
0.107998654 -0.05812522 0.006596456 -0.09269745 -0.018759862 -0.009056102 0.056405354 -0.0015689107
0.06447497 0.15366076 -0.1111417 -0.12861972 -0.026513105 0.109409645 -0.0673298 -0.009577501
-0.10798904 -0.095947504 -0.07327265 0.11249263 -0.060487997 0.047097296 -0.06876175 0.091467716
0.006980845 -0.0414754 -0.1075556 -0.05249453 -0.08494647 0.029922906 0.15607794 0.028068366
-0.10297235 0.05656599 -0.1324275 -0.0032053052 -0.053911004 -0.043272804 0.020160984 0.08515312
0.09145891 -0.074450746 0.10400221 0.053826757 0.08612161 0.08947962 -0.12131846 -0.014747918
00000000: db6a 313d 7ad2 0d3d a239 ce3d e9c2 92bc
00000010: 1abf 8c3d 2570 b2bd 40e5 28bd c5d4 0bbd
00000020: 448e 26bd 9997 893c d314 133d 39e9 1e3d
00000030: ea87 343d 2ab9 bebd f6b5 42bd 9c0c 81bd
00000040: b1e8 133e 8103 babc 14e5 083d c4eb f5bd
00000050: 603e dd3c 72cd a4bd 8bec 183d c0f5 1bbd
00000060: f0d8 f03d 6ec9 a03c b77a b7bb cfeb dabd
00000070: 1f27 27bd 13e0 a03d d45e a3bd 0c0b 4cbc
00000080: 9062 373c 72f0 be3d a80a b23c c93f f93c
00000090: 3b7f 07be b0b1 e1bd bd76 35bd 358c 9ebc
000000a0: eb2d 083d a6f3 c5bd 3491 c63c 550f cb3d
000000b0: d32f 38bd cedc bebd 9247 b93d 6c49 03be
000000c0: 7e15 3fbb f89c 86bd 4af5 a0bd 66f9 833c
000000d0: 2fd2 b63d b3fe 30bd df59 0a3d 9eba 21be
000000e0: 8de6 6cbc fd4b f33d 1286 d5bd 4b3a b23d
000000f0: f21a b33d 6e55 89bd 2571 17bd 7fcf 3ebd
00000100: 7719 2d3e d53b 6bbd 4dfb cc3c fa8a 353e
00000110: 0ce9 093e 59ba b73d 3c1a 0abe f208 e3bb
00000120: f941 1d3e 29fa 7e3e f8fa 6fbe 8bbb 483e
00000130: 8115 5c3e 3a4c 4abe c8ee 01be 9b3c c7bd
00000140: 4cc4 bbbd daff a7bd f086 a9bc f74e f63d
00000150: adc7 9f3d 5947 a2be e224 293d 2459 443d
00000160: 6f69 7f3d eda6 9a3d e3f4 ef3d 6d34 b7bc
00000170: 8cc0 1bbd 068f 07bd 504c 2b3e be28 45bc
00000180: cd06 bd3c 7e6d 433e 5e4f e53c 5d5f 2cbe
00000190: 3ef9 6cbe 6e96 a33d 0b01 203e b8f6 173b
000001a0: d6db 153d a74e 193e 96a8 4fbc d010 b53d
000001b0: f72b d53d bd67 2ebd 3f31 f43d 1e57 473d
000001c0: 40ea 14be d37d d8bd 810c 83bd 5049 963d
000001d0: 641a a43d 76d5 9a3d 235f 173e 28cc cfbd
000001e0: a758 153e 1037 d73d b8eb af3c e12f 30bc
000001f0: 1136 1f3c a128 4a3c 5d67 5bbe 2761 1f3d
00000200: b842 7f3b 6e56 80bb 2046 0a3e dfb5 fcbd
00000210: bb01 80bd 18b7 6d3d 862d 1a3e e0fb 7d3d
00000220: 9bdb b13d 8300 a73d faaf 773d 6791 96bc
00000230: 607e 883d b0b9 f23d dfe6 60bd 1084 c23d
00000240: 08af 9d3d be21 56bd 6ab3 93bd 34a5 e53d
00000250: 897d f83c 0a99 6c3d c1e7 c3bd a99f 1ebd
00000260: 4afa 20bd b3b2 0cbd 700e 59bd fadd 453e
00000270: f819 ee3d 89db acbd 15c7 6bbd 1d88 f83b
00000280: 55b8 24bd 1fbe 3b3e c898 aebd 4dd4 263e
00000290: ff95 71bd a70d a13c fdf7 7a3c c0b3 94b9
000002a0: 4083 aabc 6aea b43d cf1f ef3b 270a 353d
000002b0: 29af b83d 64c4 dd3d da8e 98bd 6d74 f13d
000002c0: 25cb 463e dcce 4b3d be5f ae3d 9913 003d
000002d0: bac6 89bb 2e46 af3c d917 7fbd 8788 c03d
000002e0: 14ee 48be 1089 1d3b 1b34 62bc e580 7a3d
000002f0: 2f69 c13d 0c9f 3ebc db74 313e 49a9 ba3d
00000300: cf52 1c3e add0 5c3d 7d55 b03d 59fe dabc
00000310: 76c4 bdbb 23d5 0bbd 01a2 dcbc 83e5 96bc
00000320: 60a7 133d 92e7 b53c 332f 443d a8b5 6fbd
00000330: 56c3 9c3d f207 acbd dc9b 933d de7d 803d
00000340: 662e dd3d b614 6ebd 1527 d83b 29d8 bdbd
00000350: 48ae 99bc 0b60 14bc 4d09 673d e8a3 cdba
00000360: 740b 843d 3f59 1d3e 429e e3bd e3b4 03be
00000370: 0332 d9bc 2a12 e03d 35e4 89bd f3ea 1cbc
00000380: 5c29 ddbd 2080 c4bd f90f 96bd 8962 e63d
00000390: 43c2 77bd 18e9 403d f6d2 8cbd 6d53 bb3d
000003a0: 92bf e43b 1ce2 29bd 1c46 dcbd 8104 57bd
000003b0: 6af8 adbd e220 f53c e5d2 1f3e a1ef e53c
000003c0: 2be3 d2bd bdb1 673d 139b 07be 1910 52bb
000003d0: c9d1 5cbd d33e 31bd a628 a53c c264 ae3d
000003e0: cf4e bb3d a279 98bd 1cff d43d 7279 5c3d
000003f0: 8760 b03d 1741 b73d d075 f8bd 40a1 71bc

net.2.bias f4 [64]
-0.1149928 0.017786264 0.15620115 0.12906967 -0.03546043 0.014648203 -0.03145642 0.10547383
-0.08711287 0.076876275 0.029072626 0.04441549 0.13984473 -0.116237745 0.036529776 0.05983143
0.13996309 -0.065398015 -0.06127266 0.09441453 0.11075506 0.047476552 0.020491533 -0.107697345
0.05683287 -0.090622135 -0.06831592 0.031296253 0.13203536 0.11388238 -0.06609313 0.048895493
0.080008484 0.052775376 -0.044907536 -0.060282364 0.02168924 0.08980138 -0.058395587 -0.0010889735
0.17050004 0.11127921 0.11597456 -0.051834323 -0.032222025 0.06416012 0.071747884 -0.11087056
0.093905 -0.014469832 0.060826506 0.11463202 0.09848741 0.099337675 0.024265306 0.035223518
-0.014643834 0.003488274 0.103557274 -0.07870332 0.09657105 -0.08755869 -0.028830968 -0.015529682
00000000: 5881 ebbd 80b4 913c 32f3 1f3e d72a 043e
00000010: f53e 11bd 04ff 6f3c 72d8 00bd aa02 d83d
00000020: 3b68 b2bd 4f71 9d3d b729 ee3c 04ed 353d
00000030: 7533 0f3e 0e0e eebd 3fa0 153d cd11 753d
00000040: 7c52 0f3e 65ef 85bd 0af9 7abd 685c c13d
00000050: 8dd3 e23d c676 423d dcdd a73c 6d90 dcbd
00000060: 95c9 683d 1998 b9bd 38e9 8bbd 8030 003d
00000070: 4734 073e 2a3b e93d d65b 87bd a446 483d
00000080: 7ddb a33d fe2a 583d f7f0 37bd a4ea 76bd
00000090: a2ad b13c c9e9 b73d 3630 6fbd e3bb 8eba
000000a0: 9097 2e3e 5be6 e33d 1284 ed3d 3a50 54bd
000000b0: 3efb 03bd 6266 833d 8ef0 923d 1b10 e3bd
000000c0: 4451 c03d e012 6dbc 3725 793d 31c4 ea3d
000000d0: c4b3 c93d 8d71 cb3d 09c8 c63c 8946 103d
000000e0: b1ec 6fbc 879b 643b d615 d43d 352f a1bd
000000f0: 0bc7 c53d f851 b3bd ec2e ecbc 3570 7ebc

net.4.weight f4 [4, 64]
0.060514964 -0.1735735 -0.061330695 0.111305706 -0.16817783 -0.07515735 0.15888706 -0.0513707
0.06350041 -0.08892233 0.08396098 0.071153 -0.03946105 -0.07337978 0.020417519 0.059212502
-0.11087003 0.06775955 0.124962464 0.042263433 0.062133513 0.012820682 -0.09709661 0.094493985
0.13099284 0.064252496 0.022401132 -0.031441692 -0.0014809822 0.11278731 -0.08796692 0.032975227
0.00835315 -0.10933792 -0.15912676 0.071069896 0.09701005 -0.047506258 0.075287074 0.0030902107
-0.08609424 -0.030064527 0.122018784 -0.011020249 0.069459304 -0.102459714 0.111424305 0.08926811
-0.20861499 0.12311585 0.087089285 -0.106002994 -0.0006304217 0.04256686 0.14228216 0.13238062
-0.14533672 -0.004564624 -0.08683872 -0.027937995 0.116205476 -0.11265163 0.08140952 -0.11670485
0.107667044 -0.261631 0.09233606 -0.118783 0.026193146 -0.1963046 -0.020620259 -0.23571189
-0.030225208 -0.23257005 -0.09134076 0.05644909 -0.101373725 -0.12615466 0.08121264 0.26668876
-0.19020621 0.120708786 -0.05237114 0.09028756 0.13099149 0.065178774 0.10665971 0.14214744
0.011225819 -0.12419221 -0.039581317 0.04586058 0.198375 -0.06985409 0.058473878 -0.20026036
0.14473903 -0.03369432 0.110532165 0.05485359 0.122963876 0.079715274 -0.14476599 0.11926386
-0.0013652113 -0.18829295 -0.13290554 -0.0075623225 -0.1829283 -0.00515091 0.106794454 -0.03212442
-0.112206355 -0.023785397 0.14822792 0.12119981 -0.089616045 0.081252165 0.21419813 0.072253905
0.10050367 0.014444842 0.0018538965 -0.25995165 0.20500107 0.021273093 -0.031711806 -0.0987214
-0.09004665 0.060529776 0.114746 -0.103277504 -0.007136584 0.010023522 -0.21204838 0.18609318
0.09690423 0.18848228 -0.161052 -0.23884 0.20522445 -0.097305275 -0.073351406 -0.027500024
0.16119438 -0.09249424 -0.20617291 0.1532916 0.07082033 0.018187972 -0.038045306 -0.109859765
0.05577932 -0.012390755 -0.04130951 0.023437034 0.16619238 0.003798694 0.12728009 -0.15868415
-0.15469746 0.012807381 -0.10380087 0.067960605 -0.1267657 -0.009409526 -0.14057541 0.14912534
0.23683223 0.1401158 -0.104123265 0.08892257 0.026951395 -0.036957745 -0.04478765 0.070293136
0.20299394 0.07079865 -0.2582577 -0.056432296 0.12259271 0.038785364 -0.04924477 0.028890515
0.2247554 0.07178428 0.110816665 -0.008867363 0.071893096 0.05500922 -0.01861348 0.16511342
0.008816804 0.1308067 -0.23711334 0.02986029 -0.081103675 0.18314248 0.21483026 0.12764665
0.06535548 0.21220489 0.13783227 0.12560616 0.16190308 -0.099021025 -0.091886975 -0.19049595
0.021612767 -0.041408688 0.045469813 -0.17256746 -0.21701427 0.14695331 0.1145234 -0.07809621
0.021279678 -0.097662084 0.04890092 -0.26359576 -0.22252917 0.1995801 0.15042552 0.07395452
-0.1326278 0.1556607 0.021195829 0.113895625 -0.03695597 0.079720445 0.24341238 -0.16636501
-0.036184337 0.23311266 0.2374358 -0.12068109 0.22326791 0.035279345 -0.021230185 0.066289596
0.017226566 0.048313245 0.12261639 0.1195404 0.1867131 -0.013529556 -0.15401645 -0.24837844
-0.17236444 -0.22000608 -0.1409382 0.155842 -0.15098406 0.056402396 0.049879324 0.009391861
00000000: 8ade 773d 40bd 31be e535 7bbd 3ff4 e33d
00000010: cf36 2cbe 19ec 99bd 4ab3 223e 156a 52bd
00000020: 810c 823d e91c b6bd bcf3 ab3d aab8 913d
00000030: e9a1 21bd 2348 96bd a442 a73c cf88 723d
00000040: d40f e3bd 85c5 8a3d 52ec ff3d 6c1c 2d3d
00000050: b67f 7e3d d60d 523c 96da c6bd 1086 c13d
00000060: fd22 063e d096 833d 9482 b73c 01c9 00bd
00000070: 841d c2ba 08fd e63d 0028 b4bd 0811 073d
00000080: a7db 083c 8fec dfbd 20f2 22be 188d 913d
00000090: 35ad c63d ec95 42bd 1c30 9a3d 2285 4a3b
000000a0: 2d52 b0bd e249 f6bc fce4 f93d 468e 34bc
000000b0: ae40 8e3d 66d6 d1bd 6d32 e43d 33d2 b63d
000000c0: 2b9f 55be 2a24 fc3d de5b b23d 1918 d9bd
000000d0: e242 25ba 965a 2e3d 6ab2 113e c98e 073e
000000e0: 26d3 14be d792 95bb 80d8 b1bd 39de e4bc
000000f0: 23fd ed3d e6b5 e6bd 09ba a63d f402 efbd
00000100: 8a80 dc3d 80f4 85be b01a bd3d 8044 f3bd
00000110: 0293 d63c 1304 49be d1eb a8bc 755e 71be
00000120: db9a f7bc d826 6ebe dd10 bbbd 2937 673d
00000130: 079d cfbd b02e 01be d052 a63d 6e8b 883e
00000140: 6bc5 42be 2b36 f73d 1f83 56bd afe8 b83d
00000150: a222 063e 737c 853d 6870 da3d 198f 113e
00000160: 7fec 373c 7c58 febd 0520 22bd 4ed8 3b3d
00000170: d122 4b3e a90f 8fbd 4e82 6f3d 0d11 4dbe
00000180: 7836 143e 0e03 0abd b05e e23d 28ae 603d
00000190: 7cd4 fb3d c341 a33d 893d 14be 9c40 f43d
000001a0: e4f0 b2ba decf 40be 6418 08be 5ccd f7bb
000001b0: 8e51 3bbe f7c8 a8bb 0db7 da3d e594 03bd
000001c0: 72cc e5bd 98d9 c2bc 0fc9 173e 9b37 f83d
000001d0: 9e88 b7bd 8967 a63d c156 5b3e dbf9 933d
000001e0: ded4 cd3d 0faa 6c3c 72fe f23a 6218 85be
000001f0: cdeb 513e e944 ae3c 3de4 01bd 722e cabd
00000200: 616a b8bd 12ee 773d f3ff ea3d 2883 d3bd
00000210: 01da e9bb b339 243c 3623 59be 368f 3e3e
00000220: ba75 c63d 8001 413e d1ea 24be 7992 74be
00000230: 5c26 523e fd47 c7bd 4339 96bd bb47 e1bc
00000240: 2410 253e 9f6d bdbd fe1e 53be 79f8 1c3e
00000250: 400a 913d f1fe 943c 65d5 1bbd 28fe e0bd
00000260: db78 643d 9802 4bbc 2934 29bd 06ff bf3c
00000270: 562e 2a3e 82f3 783b b655 023e 197e 22be
00000280: 0369 1ebe 0dd6 513c 8d95 d4bd ee2e 8b3d
00000290: dece 01be 6a2a 1abc 00f3 0fbe 50b4 183e
000002a0: 2684 723e 847a 0f3e 943e d5bd 091d b63d
000002b0: 2cc9 dc3c 0161 17bd 4173 37bd d9f5 8f3d
000002c0: a5dd 4f3e e2fe 903d 5a3a 84be 8d25 67bd
000002d0: e311 fb3d 67dd 1e3d e2b4 49bd cdab ec3c
000002e0: 4826 663e a303 933d d9f3 e23d 6b48 11bc
000002f0: b03c 933d 5951 613d 4c7b 98bc 7e13 293e
00000300: 5b74 103c 31f2 053e d7cd 72be 919d f43c
00000310: af19 a6bd b489 3b3e 77fc 5b3e ceb5 023e
00000320: 18d9 853d 3d4c 593e e723 0d3e e79e 003e
00000330: ecc9 253e 89cb cabd 3d2f bcbd 5f11 43be
00000340: 420d b13c 289c 29bd 8e3e 3a3d 86b5 30be
00000350: fd38 5ebe ee7a 163e 3f8b ea3d e8f0 9fbd
00000360: b852 ae3c 0f03 c8bd 554c 483d 06f6 86be
00000370: b0de 63be ba5e 4c3e 2609 1a3e 7875 973d
00000380: 95cf 07be 8565 1f3e e0a2 ad3c 1c42 e93d
00000390: 255f 17bd 7944 a33d 1841 793e 975b 2abe
000003a0: 0736 14bd 16b5 6e3e 5f22 733e a627 f7bd
000003b0: 58a0 643e 1381 103d edea adbc d7c2 873d
000003c0: ba1e 8d3c 1ce4 453d 4d1e fb3d 99d1 f43d
000003d0: b831 3f3e 12ab 5dbc 7db6 1dbe eb56 7ebe
000003e0: 4e80 30be 4649 61be 1a52 10be 0c95 1f3e
000003f0: 919b 1abe 3306 673d 434e 4c3d 52e0 193c

net.4.bias f4 [4]
-0.10319393 -0.058388453 -0.0036229491 -0.14036097
00000000: 5757 d3bd bb28 6fbd 006f 6dbb c9ba 0fbe

exp_avg f4 [64, 8]
-4.3192504e-05 -0.0010287747 0.00023656846 0.00010197251 -5.683386e-05 9.251367e-05 -0.0003488823 -0.00021406269
-0.00018528025 0.00067587267 -0.0003917887 -0.00034318177 3.1156495e-05 -7.9920326e-05 0.0003605823 3.6240104e-05
9.71944e-07 0.0003736541 -1.6532476e-05 -3.7293717e-05 4.131791e-06 -1.4015391e-05 0.0002089276 0.00032970693
-3.8803487e-06 -0.00054142764 0.00015994426 8.830478e-05 -4.021992e-05 7.3633426e-05 -0.00017582481 -9.778726e-05
0.00013375962 -0.00016741909 0.00022643017 0.0002204809 -4.2105297e-05 5.267943e-05 -3.395538e-05 5.2488645e-05
9.160835e-05 0.0010536542 -0.00018201282 -0.00012726251 4.276643e-05 -8.2872255e-05 0.00032387293 0.00024565074
1.651163e-05 0.0011025553 -0.00039361956 -0.00042970263 7.169401e-05 -0.0001148432 1.900915e-05 -0.00023510927
-0.000128046 -6.699501e-05 -4.314394e-05 -0.00010697855 2.3427949e-05 -1.1331256e-05 0.00022115748 -1.5413017e-06
0.00016742515 -0.00015693017 0.00017146685 0.00023854926 -5.4331107e-05 6.982107e-05 -0.00015900921 0.00010744108
0.00025004384 -0.0006377418 0.00041684363 0.0003318625 -8.944745e-05 8.643168e-05 -0.00043751695 7.4649375e-05
-0.00020204509 0.0011613956 -0.0005857293 -0.00045927605 8.876294e-05 -0.00018066098 0.0004288473 -0.00011515186
0.00013917475 -0.0010645343 0.0004207016 0.00031343108 -9.550751e-05 2.5943333e-05 -0.00046242078 -0.00017714103
0.00025449067 -0.00048069534 0.00039393455 0.00032181607 -9.194616e-05 0.00010153611 -0.0003368079 0.000116663396
-0.00033290722 0.0011021035 -0.0005993616 -0.00049753743 0.00015240115 -0.00013226623 0.0006986478 7.3221774e-05
-0.000109730616 2.5728485e-05 2.8886839e-06 -9.944721e-05 1.9152637e-06 4.2999356e-05 1.4454187e-05 -4.7554942e-05
-1.31103225e-05 1.2565151e-05 -0.00024335558 -9.290631e-05 3.9780527e-05 -0.000105791485 -4.5409737e-10 7.931978e-05
-2.1366857e-06 -1.3396209e-07 4.892764e-06 -2.6613322e-06 -3.220047e-07 -5.4215425e-06 2.1511782e-05 2.80257e-05
-3.7642338e-05 -2.676977e-06 -1.6852004e-05 2.2492393e-05 7.291469e-06 -2.5130646e-05 7.512344e-05 2.8794722e-05
-6.507797e-05 -0.00012188987 2.150147e-06 -2.8471462e-05 -4.849422e-06 2.3186285e-05 6.0364964e-05 9.8993505e-06
6.6188804e-05 5.1232913e-05 -6.7999226e-06 7.9222606e-05 -1.8793266e-05 -3.8402457e-05 -5.1160323e-06 -1.1567024e-05
0.00020559922 -0.00016746423 0.00029339184 0.00037359438 -7.062194e-05 0.00010641506 9.7581134e-05 0.00030126472
-0.00038817653 0.00093635416 -0.0006877923 -0.0004810194 0.00015671038 -0.00023865826 0.00067836035 -7.497639e-05
0.0001352559 -0.00049481686 0.00036937557 0.0004437809 -1.5129609e-05 6.87786e-05 -3.6396448e-06 -6.9766115e-06
-9.096024e-11 -4.1666903e-11 1.4996834e-10 -2.4705274e-11 -2.1453679e-10 -1.9317868e-10 -6.2546995e-21 2.0986633e-15
0.00014808313 -0.0004780851 0.00019655004 0.00021772545 -2.097469e-05 1.6192678e-05 -0.00014711656 -8.304544e-05
-0.00031685308 8.158916e-05 -0.00028817734 -0.0002526905 5.2448166e-05 -6.470037e-05 0.00024235758 -2.5909524e-06
9.021695e-06 -1.2503233e-06 -7.0551228e-06 9.369327e-06 5.371648e-06 -5.456825e-06 1.4347027e-28 -2.1152873e-06
-6.898073e-05 0.00083248183 -0.00028521838 -0.00024667475 8.4672574e-05 -0.00014052965 0.00041319744 0.00020632657
6.8990853e-06 0.0004846095 -9.1543494e-05 -4.3401444e-05 1.1793188e-05 -2.679412e-05 0.00020228654 0.00014645298
-0.00010855347 -0.0010895471 0.00022742264 0.000102439204 -6.22493e-05 8.763891e-05 -0.00030035203 -0.00023112056
0.0002389391 -0.0010517578 0.0005377122 0.00045366923 -0.000106674765 0.00010232572 -0.00041645532 2.042448e-05
4.8787297e-05 -0.0002298919 9.2011855e-05 9.797708e-05 -3.1780026e-05 5.1003073e-05 -0.00019959838 1.0022766e-05
00000000: 9929 35b8 f3d7 86ba 5d0f 7839 13da d538
00000010: e460 6eb8 e603 c238 31ea b6b9 0476 60b9
00000020: ca47 42b9 0c2d 313a fd68 cdb9 14ed b3b9
00000030: 08ae 0238 e69a a7b8 890c bd39 8400 1838
00000040: be73 8235 01e7 c339 39af 8ab7 d36b 1cb8
00000050: d0a3 8a36 a523 6bb7 9313 5b39 84dc ac39
00000060: f133 82b6 98ee 0dba b6b6 2739 4530 b938
00000070: cfb1 28b8 a56b 9a38 9d5d 38b9 2313 cdb8
00000080: d341 0c39 388d 2fb9 e36d 6d39 e430 6739
00000090: 389a 30b8 1bf4 5c38 506b 0eb8 4127 5c38
000000a0: dc1d c038 c51a 8a3a b2da 3eb9 c571 05b9
000000b0: 1b60 3338 b4cb adb8 7dcd a939 afca 8039
000000c0: 7582 8a37 9e83 903a b95e ceb9 b649 e1b9
000000d0: 6e5a 9638 f9d7 f0b8 d775 9f37 aa87 76b9
000000e0: 1644 06b9 ac7f 8cb8 74f5 34b8 ac59 e0b8
000000f0: 2387 c437 601b 3eb7 82e6 6739 b9de ceb5
00000100: d98e 2f39 9f8d 24b9 c8cb 3339 1423 7a39
00000110: 95e1 63b8 e76c 9238 b6bb 26b9 fe51 e138
00000120: 5118 8339 212e 27ba ce8b da39 d5fd ad39
00000130: bc95 bbb8 a842 b538 8862 e5b9 148d 9c38
00000140: 11dc 53b9 f839 983a a18b 19ba fdca f0b9
00000150: 3e26 ba38 d06f 3db9 e9d6 e039 af7d f1b8
00000160: 70ef 1139 d887 8bba 9d91 dc39 0254 a439
00000170: 344b c8b8 e2a0 d937 1171 f2b9 efbe 39b9
00000180: 296d 8539 d605 fcb9 0089 ce39 6cb9 a839
00000190: 38d3 c0b8 c9ef d438 9795 b0b9 2fa9 f438
000001a0: 0d8a aeb9 7574 903a 7a1e 1dba 2c6d 02ba
000001b0: dfcd 1f39 f2b0 0ab9 7625 373a a48e 9938
000001c0: 2d1f e6b8 80d3 d737 36db 4136 508e d0b8
000001d0: fb87 0036 355a 3438 4380 7237 bb75 47b8
000001e0: 68f4 5bb7 eace 5237 442d 7fb9 b2d6 c2b8
000001f0: 04da 2638 5fdc ddb8 86a4 f9af 7c58 a638
00000200: fb63 0fb6 38d7 0fb4 862c a436 5799 32b6
00000210: fddf acb4 b2ea b5b6 3374 b437 bc18 eb37
00000220: 27e2 1db8 1da6 33b6 675d 8db7 0cae bc37
00000230: 3ea9 f436 a7cf d2b7 978b 9d38 328c f137
00000240: 787a 88b8 209f ffb8 3f4b 1036 00d6 eeb7
00000250: 38b8 a2b6 2b80 c237 6330 7d38 6315 2637
00000260: d8ce 8a38 ece2 5638 e42a e4b6 5024 a638
00000270: 3ba6 9db7 5312 21b8 62aa abb6 fd0f 42b7
00000280: 1f96 5739 5699 2fb9 63d2 9939 fdde c339
00000290: de1a 94b8 262b df38 79a4 cc38 11f3 9d39
000002a0: 2c84 cbb9 aa75 753a f64c 34ba 5531 fcb9
000002b0: 9f52 2439 5740 7ab9 fed3 313a a53c 9db8
000002c0: 7bd3 0d39 99b6 01ba c0a8 c139 44ab e839
000002d0: 2dd5 7db7 3b3d 9038 9f40 74b6 a318 eab6
000002e0: 1006 c8ae c340 37ae 56e4 242f 554f d9ad
000002f0: bde2 6baf f766 54af be4b ec9d 8139 1727
00000300: c346 1b39 7fa7 fab9 0019 4e39 3b4d 6439
00000310: cef2 afb7 83d5 8737 4d43 1ab9 ae28 aeb8
00000320: 4d1f a6b9 d91a ab38 8216 97b9 8b7b 84b9
00000330: cafb 5b38 bfaf 87b8 5e21 7e39 39e0 2db6
00000340: e35b 1737 c8d0 a7b5 0bbb ecb6 f430 1d37
00000350: 1b3e b436 c519 b7b6 c4de 3511 5cf4 0db6
00000360: bfa9 90b8 e93a 5a3a 5d89 95b9 2054 81b9
00000370: 3e92 b138 245b 13b9 6ca2 d839 5e59 5839
00000380: b17e e736 3013 fe39 0afb bfb8 f209 36b8
00000390: 5bdb 4537 efc3 e0b7 e11c 5439 2c91 1939
000003a0: 33a7 e3b8 22cf 8eba 4d78 6e39 a1d4 d638
000003b0: d78b 82b8 c8ca b738 9178 9db9 f458 72b9
000003c0: ba8b 7a39 23db 89ba 41f5 0c3a 74da ed39
000003d0: 94b6 dfb8 b497 d638 b057 dab9 3d55 ab37
000003e0: f6a0 4c38 230f 71b9 7df6 c038 0b79 cd38
000003f0: 8b4b 05b8 22ec 5538 484b 51b9 7427 2837

exp_avg_sq f4 [64, 8]
2.5400382e-07 8.200067e-07 1.3547714e-07 1.4616631e-07 7.61072e-08 5.8721113e-08 2.9674655e-07 2.884973e-07
1.1570694e-07 1.0801194e-06 1.3449868e-07 2.054281e-07 6.0280435e-08 5.9846506e-08 2.7419836e-07 1.8547395e-07
5.026772e-08 2.6230714e-07 3.282132e-08 7.5972935e-08 2.7907333e-08 1.8382176e-08 1.3625738e-07 1.3748624e-07
1.0159676e-07 3.8897886e-07 6.448353e-08 6.9140185e-08 4.0685055e-08 3.0200493e-08 9.969385e-08 9.354514e-08
1.6710314e-07 6.5763015e-07 1.1459945e-07 1.6057776e-07 6.006802e-08 4.990619e-08 1.05433706e-07 1.5785538e-07
5.297796e-07 1.5599345e-06 2.8697048e-07 3.4597704e-07 1.3096235e-07 1.1931805e-07 4.901464e-07 5.131187e-07
3.5449062e-07 2.200433e-06 2.422068e-07 3.618165e-07 1.3388608e-07 1.02397244e-07 8.8619245e-09 1.5939976e-07
4.483791e-08 5.705901e-08 1.473007e-08 1.7917893e-08 8.84848e-09 8.386846e-09 3.457212e-08 2.2092813e-08
1.7562961e-07 2.1492835e-07 8.664458e-08 1.0415244e-07 4.656614e-08 3.9532694e-08 8.395964e-08 7.3312854e-09
3.064898e-07 1.2706834e-06 2.227889e-07 2.7670637e-07 1.0678341e-07 8.6723e-08 2.652588e-07 2.6474612e-07
4.3374158e-07 1.865793e-06 2.7309892e-07 3.195458e-07 1.2896459e-07 1.1003354e-07 3.270028e-07 2.647117e-07
1.4851888e-07 1.3907547e-06 1.788549e-07 2.2195412e-07 9.597043e-08 7.2692e-08 3.063091e-07 2.503139e-07
2.7756576e-07 1.0630134e-06 1.8912445e-07 2.5368794e-07 7.9491585e-08 7.944918e-08 2.419136e-07 2.66831e-07
5.3272527e-07 2.2955617e-06 3.2858617e-07 3.807797e-07 1.804432e-07 1.4085211e-07 4.4330994e-07 4.0227016e-07
9.762414e-09 2.623185e-09 2.4871378e-09 1.7860848e-09 1.9873916e-09 3.2544083e-09 1.860605e-08 2.414992e-08
1.9019116e-07 1.2049051e-06 1.4909867e-07 2.1067913e-07 5.3043834e-08 5.485259e-08 1.0858918e-10 6.277467e-08
7.448971e-10 3.6245725e-11 2.2263559e-10 7.639386e-11 2.498193e-10 1.0640961e-09 3.1111735e-09 3.370772e-09
1.0741653e-08 2.5413212e-09 3.9630494e-09 2.234172e-09 2.4021614e-09 2.9362603e-09 1.9920684e-08 1.6410317e-08
8.029374e-09 3.2973e-08 6.2737415e-09 9.705005e-09 3.4235197e-09 3.2620062e-09 4.822116e-09 3.3491352e-09
5.3538667e-09 9.908251e-09 3.8997867e-09 1.1044669e-08 2.4171696e-09 4.294016e-09 8.549658e-09 2.6042055e-10
3.7839203e-07 1.2295529e-06 2.2215069e-07 3.4534364e-07 1.0483265e-07 9.669683e-08 2.0265244e-07 3.9731242e-07
5.93085e-07 2.5119427e-06 3.7753802e-07 4.345505e-07 1.5543323e-07 1.3894514e-07 5.531661e-07 5.5825035e-07
1.4097925e-07 1.3350383e-06 1.6996015e-07 3.1238335e-07 7.211911e-08 5.6211594e-08 2.4820226e-09 3.92993e-10
2.4574945e-12 3.5079177e-13 1.342679e-11 1.1329604e-12 2.3150794e-11 2.7417974e-11 4.4543037e-13 1.851761e-12
5.1438363e-08 3.877763e-07 4.6827672e-08 6.8969676e-08 2.5125294e-08 1.8044709e-08 5.613664e-08 1.5835207e-08
1.9027604e-07 7.7114026e-07 1.1635323e-07 1.8515571e-07 5.4981868e-08 4.6076384e-08 7.975563e-08 1.684802e-10
3.871134e-10 1.3254267e-10 5.2689875e-10 1.0058263e-09 1.002271e-09 7.2285683e-10 1.2240935e-13 3.083881e-10
2.540489e-07 1.0225411e-06 1.3631471e-07 1.8238113e-07 9.3137935e-08 5.458239e-08 1.982636e-07 2.1423693e-07
1.2124539e-07 3.8461843e-07 7.3280496e-08 8.517806e-08 3.5803538e-08 2.859053e-08 9.752328e-08 1.08897964e-07
3.7777653e-07 1.467516e-06 2.2149439e-07 2.4493397e-07 1.3032418e-07 9.540811e-08 3.9117066e-07 4.3103026e-07
4.434383e-07 1.8957616e-06 3.019411e-07 3.6682593e-07 1.3639848e-07 1.08451516e-07 3.8205621e-07 3.8436855e-07
4.3881233e-08 4.113792e-08 2.031274e-08 2.122228e-08 1.3357011e-08 1.33339e-08 4.800077e-08 4.3203727e-08
00000000: 055e 8834 6e1e 5c35 ac77 1134 e4f1 1c34
00000010: 6070 a333 8c34 7c33 8950 9f34 c4e2 9a34
00000020: 907a f833 9ff8 9035 b76a 1034 a593 5c34
00000030: 8573 8133 f784 8033 8935 9334 b126 4734
00000040: f1e5 5733 38d3 8c34 6cf7 0c33 9026 a333
00000050: e0b8 ef32 d5e6 9d32 254e 1234 ee9f 1334
00000060: 692d da33 d9d4 d034 327a 8a33 387a 9433
00000070: b1bd 2e33 cbb5 0133 4617 d633 fce2 c833
00000080: f66c 3334 0088 3035 b719 f633 476b 2c34
00000090: befe 8033 7058 5633 cb6a e233 f57e 2934
000000a0: 2d36 0e35 f15e d135 ec10 9a34 b9be b934
000000b0: a89e 0c34 e51d 0034 9b92 0335 40bd 0935
000000c0: d250 be34 27ab 1336 a608 8234 ae3f c234
000000d0: 53c2 0f34 7be5 db33 283f 1832 7927 2b34
000000e0: ce93 4033 0c11 7533 880f 7d32 dde9 9932
000000f0: 0704 1832 bd15 1032 737c 1433 9cc6 bd32
00000100: b394 3c34 0ec7 6634 5d11 ba33 69aa df33
00000110: 0300 4833 a8ca 2933 4d4d b433 abe6 fb31
00000120: a38b a434 598c aa35 bf37 6f34 3c8e 9434
00000130: cd50 e533 793c ba33 e468 8e34 6e22 8e34
00000140: fddc e834 296c fa35 6e9e 9234 0a8e ab34
00000150: 8479 0a34 944b ec33 ec8e af34 b31d 8e34
00000160: 8f78 1f34 f8a9 ba35 430b 4034 4952 6e34
00000170: 4d18 ce33 da1a 9c33 cd72 a434 e162 8634
00000180: 5904 9534 ddac 8e35 2212 4b34 9b32 8834
00000190: f6b4 aa33 a69d aa33 5ae0 8134 f940 8f34
000001a0: 9a00 0f35 730d 1a36 8a68 b034 f76d cc34
000001b0: d9bf 4134 223d 1734 0e00 ee34 97f7 d734
000001c0: 8db7 2732 8f43 3431 31ea 2a31 467a f530
000001d0: 9092 0831 28a4 5f31 23d3 9f32 3c72 cf32
000001e0: 5937 4c34 39b8 a135 ee17 2034 0a37 6234
000001f0: 50d2 6333 0f97 6b33 46ca ee2e bdce 8633
00000200: 79c1 4c30 0f69 1f2e 59ca 742f ecfd a72e
00000210: f156 892f 8e3f 9230 58cc 5531 40a3 6731
00000220: 4a8a 3832 65a3 2e31 5a2b 8831 f887 1931
00000230: 4513 2531 3dc7 4931 0c1e ab32 abf6 8c32
00000240: 8ff1 0932 329e 0d33 6a90 d731 10bb 2632
00000250: 3243 6b31 d229 6031 c8af a531 9c26 6631
00000260: 1cf5 b731 f338 2a32 e3fe 8531 f8be 3d32
00000270: 4c1b 2631 908a 9331 cbe1 1232 ef2a 8f2f
00000280: ce25 cb34 1e07 a535 5188 6e34 ab67 b934
00000290: 5c20 e133 a5a7 cf33 ae98 5934 344e d534
000002a0: 7e34 1f35 d992 2836 6eb0 ca34 2a4c e934
000002b0: 29e5 2634 f330 1534 497d 1435 acda 1535
000002c0: 1560 1734 912f b335 4a7e 3634 a4b5 a734
000002d0: e6df 9a33 4d6d 7133 3490 2a31 d90c d82f
000002e0: 49ee 2c2c 6c7a c52a e334 6c2d 3373 9f2b
000002f0: f4a2 cb2d ca2b f12d 48c1 fa2a 5c4e 022c
00000300: 14ed 5c33 922f d034 921f 4933 7b1c 9433
00000310: 1bd3 d732 bc00 9b32 e31a 7133 fd05 8832
00000320: ae4e 4c34 5b00 4f35 dddd f933 37cf 4634
00000330: 3425 6c33 85e5 4533 1f46 ab33 f63e 392f
00000340: 5ed1 d42f 72bb 112f 34d5 1030 5e3d 8a30
00000350: 47c0 8930 87b2 4630 18d2 092a c489 a92f
00000360: 3764 8834 3f3e 8935 e75d 1234 8bd4 4334
00000370: 1f03 c833 f96d 6a33 49e2 5434 0009 6634
00000380: ae2f 0234 8e7d ce34 615e 9d33 22eb b633
00000390: 68c6 1933 3e97 f532 fd6d d133 4adb e933
000003a0: 36d1 ca34 77f7 c435 ead3 6d34 787f 8334
000003b0: 3def 0b34 2ae3 cc33 1602 d234 5968 e734
000003c0: b211 ee34 df71 fe35 781a a234 2cf0 c434
000003d0: ee74 1234 dae5 e833 681d cd34 365b ce34
000003e0: ed77 3c33 9faf 3033 307c ae32 4a4c b632
000003f0: c178 6532 1d13 6532 6829 4e33 008f 3933

exp_avg f4 [64]
2.3312643e-05 0.0010814191 0.0001766965 -7.4478094e-06 -0.00037769676 -5.9014637e-05 0.00062114495 0.00028150572
-0.0006434872 -0.0008161251 0.0009188224 -0.0011754226 -0.0007706945 0.0011099488 0.00027306046 -5.7473895e-05
2.7950182e-05 -6.781625e-05 0.00017764745 -0.00024930533 -0.00045033384 0.0011371627 -0.00088194956 1.3744829e-10
-0.0006050872 0.0009620882 -1.8037275e-05 0.00028788543 8.439153e-05 0.00016806893 -0.0007848445 -0.00016977526
-1.229308e-06 -0.00038339983 5.155315e-09 0.00091276027 0.0005183853 -0.00010753862 -0.0003475036 -0.00032096443
-0.00011922141 -0.00023423063 -8.3926345e-05 1.7620025e-08 0.00025036553 -5.1242837e-06 8.254893e-06 0.00011576022
0.0002847774 2.0325996e-07 3.5285873e-05 4.1556927e-05 -0.0002102453 6.635122e-05 -0.00047001775 4.343157e-05
0.0001308509 -0.00035066338 1.3851052e-05 -1.1174023e-06 -4.2188594e-06 6.25696e-06 0.000779974 2.082779e-05
00000000: 858f c337 67be 8d3a 9b47 3939 32e8 f9b6
00000010: 9a05 c6b9 7c86 77b8 55d4 223a 0f97 9339
00000020: b2af 28ba 3af1 55ba 21dd 703a a310 9aba
00000030: 6f08 4aba b47b 913a 8e29 8f39 2010 71b8
00000040: 8f76 ea37 9238 8eb8 e046 3a39 32b5 82b9
00000050: c91a ecb9 d90c 953a a232 67ba 4120 172f
00000060: b79e 1eba a534 7c3a c14e 97b7 54ef 9639
00000070: 5cfb b038 a93b 3039 06be 4dba b305 32b9
00000080: b4fe a4b5 0e03 c9b9 a122 b131 4e46 6f3a
00000090: 40e4 073a 5b86 e1b8 2531 b6b9 1e47 a8b9
000000a0: 8206 fab8 ce9b 75b9 9d01 b0b8 d85a 9732
000000b0: 7e43 8339 43f1 abb6 7f7e 0a37 4bc4 f238
000000c0: 2d4e 9539 ac3f 5a34 ebff 1338 694d 2e38
000000d0: 4b75 5cb9 0a26 8b38 b76c f6b9 4b2a 3638
000000e0: 0535 0939 3ed9 b7b9 d161 6837 a7f9 95b5
000000f0: ba8f 8db6 e1f2 d136 2b77 4c3a 57b7 ae37

exp_avg_sq f4 [64]
2.7736971e-06 2.148697e-06 7.1205216e-07 1.107196e-06 2.1008177e-06 5.2225173e-06 3.5166813e-06 4.2993858e-07
1.8439397e-06 3.982314e-06 5.5186806e-06 2.7099738e-06 3.744521e-06 6.35103e-06 8.306037e-08 2.827543e-06
3.944468e-09 1.12662136e-07 7.917346e-08 6.612073e-08 4.889423e-06 7.735112e-06 3.0584035e-06 8.129562e-12
6.111422e-07 2.4625622e-06 1.5571718e-09 2.8965685e-06 1.2196255e-06 4.215787e-06 5.8813903e-06 5.211193e-07
4.908074e-09 3.433138e-06 1.4956575e-10 3.889846e-06 4.3393325e-06 3.2709875e-06 1.6452408e-06 2.3839202e-06
2.5752886e-06 2.1979955e-07 5.732816e-07 5.5906885e-10 4.971015e-07 2.7077114e-08 3.418994e-06 3.0108876e-07
5.789593e-06 2.6035027e-10 3.3592212e-06 1.2009361e-08 2.0737034e-06 1.6124454e-06 3.717623e-06 2.406448e-07
7.4277236e-06 4.238712e-07 2.9356832e-08 2.893309e-09 2.5821398e-09 1.9244883e-09 5.041947e-06 6.399736e-08
00000000: c123 3a36 5532 1036 da23 3f35 f79a 9435
00000010: c6fb 0c36 153d af36 2000 6c36 4fd2 e634
00000020: 497d f735 d19f 8536 1b2d b936 ffdc 3536
00000030: 624a 7b36 ef1a d536 ec5e b233 d2c0 3d36
00000040: e887 8731 aaf0 f133 1206 aa33 41fe 8d33
00000050: d30f a436 0ec6 0137 f93e 4d36 4b04 0f2d
00000060: 5f0d 2435 7f42 2536 1d04 d630 ab62 4236
00000070: 03b2 a335 5675 8d36 c258 c536 0ce3 0b35
00000080: e0a3 a831 dd64 6636 0473 242f 8685 8236
00000090: 959a 9136 2383 5b36 0bd2 dc35 70fb 1f36
000000a0: 1fd3 2c36 0a02 6c34 9de3 1935 f9ac 1930
000000b0: 8e70 0535 3497 e832 df71 6536 53a5 a134
000000c0: 3a44 c236 0b21 8f2f fb6e 6136 ba51 4e32
000000d0: f429 0b36 346b d835 477c 7936 f831 8134
000000e0: a93b f936 6a90 e334 5b2c fc32 a1d3 4631
000000f0: 7c71 3131 f53f 0431 ff2d a936 ec6e 8933

exp_avg f4 [64, 64]
-5.2445116e-06 2.1295004e-20 2.0179498e-09 -4.2904057e-06 -4.227643e-07 -3.982317e-07 7.933397e-10 -4.3978996e-08
-2.4222895e-06 -2.5453553e-06 -8.420563e-13 -4.9674975e-07 -2.0333184e-06 2.788619e-10 1.1692598e-06 -1.0286187e-16
9.665094e-10 4.820993e-07 -1.9896347e-06 -5.9344956e-07 -1.1312057e-06 3.2562482e-07 -2.3650075e-06 0.0
-2.0489952e-06 -3.1155618e-09 -4.3454406e-07 -4.4185193e-09 7.183883e-08 -2.8947222e-06 -1.5453152e-06 -1.120015e-06
9.064509e-11 -1.3957413e-06 0.0 1.0912526e-16 -1.5865936e-09 -6.147739e-07 -2.5797958e-06 -9.0587645e-07
-1.3957383e-06 9.119969e-08 -3.175078e-07 7.532271e-09 -2.6250862e-07 0.0 -5.803024e-07 3.270992e-07
1.07326924e-19 0.0 -2.114205e-07 9.2244164e-07 -2.3323898e-06 -4.5340607e-06 -3.539914e-06 1.6670541e-10
-2.1871103e-06 3.174838e-07 -5.054831e-07 3.0035995e-11 0.0 1.644745e-11 -3.3060294e-07 -5.338181e-07
-0.00023170227 -7.784455e-05 -5.6911733e-05 -0.00029354118 -5.0490366e-05 -0.00013699342 -2.8672399e-05 -1.7288861e-05
-7.575726e-05 -0.0002021737 -7.146996e-05 -0.00012525676 -0.00013194696 -2.1261782e-05 -1.7001666e-05 -0.00010696088
-1.377168e-06 -1.8090608e-05 -0.00011825782 -7.50664e-06 -8.3369596e-05 -5.224304e-05 -0.000102379905 1.0343807e-16
-0.00018556044 -6.18437e-05 -1.0507931e-06 -9.557862e-07 -0.0002928669 -0.00014076772 -8.315076e-05 -0.00010582555
-6.264917e-07 -0.00012521943 -1.2647953e-13 -4.1842504e-05 -2.8985121e-05 -0.00013851334 -0.00025115287 -8.684715e-05
-5.380868e-05 -6.271832e-05 -8.020159e-06 -5.775466e-09 3.54804e-05 -2.9807404e-07 -0.00012177755 -1.1275524e-05
-2.1867249e-05 2.096293e-08 -0.00017388153 -2.4268115e-06 -0.00010592783 -0.00023152973 -8.074148e-05 -4.75304e-06
-7.279667e-05 -5.589781e-05 -7.7466285e-07 -3.5598435e-07 -3.9332605e-08 1.783838e-07 -0.0001706566 -7.931847e-05
-6.7555056e-06 0.00014018016 6.9500325e-05 0.00014504646 -3.846582e-05 -1.3361608e-05 3.7503924e-05 -4.190493e-05
-7.963393e-05 8.987429e-05 -1.1792561e-05 0.00014499678 3.1427253e-06 3.6189893e-05 5.2348798e-05 0.00015340347
9.532753e-07 6.899909e-05 9.740562e-05 -1.1005334e-05 3.102072e-07 9.749625e-05 6.3874475e-05 -2.9533268e-12
0.00017412045 0.00011570759 5.44752e-07 -3.656536e-05 0.0001397237 3.0157447e-05 4.7740177e-05 -1.9036463e-05
9.293445e-07 -4.123349e-05 -1.9617393e-13 6.664483e-05 3.071333e-05 3.841707e-05 0.00015513573 -2.6150488e-05
2.8368415e-05 -1.2567667e-06 -2.9270284e-06 1.0189221e-08 -2.6285603e-05 -1.8225474e-07 0.0001271636 -5.322876e-06
-1.2701366e-05 2.0205633e-08 5.3001164e-05 1.865925e-05 -0.00012162573 7.711676e-05 -0.00010946925 2.280197e-05
8.516895e-05 -7.689558e-07 1.9691922e-06 2.0219713e-07 -3.436539e-07 -4.7516545e-07 6.515493e-05 8.2221886e-05
8.490767e-05 -2.720882e-05 -8.539066e-06 1.8898994e-05 2.0113945e-05 3.345041e-05 -2.1783817e-05 3.1391468e-05
4.105161e-05 1.5882708e-05 3.2885826e-05 -3.5644607e-05 3.179367e-05 1.9635394e-05 1.0780573e-05 -2.5389269e-05
2.4425304e-07 1.828236e-05 -9.208406e-06 6.6321803e-07 6.858025e-06 1.0089259e-05 -2.6723998e-05 8.031945e-18
-5.5156008e-05 -1.6802156e-05 -3.0470204e-07 1.9201787e-05 1.3722112e-05 4.3166576e-05 -7.2808275e-06 5.2748608e-05
-1.2144735e-06 2.2132635e-05 -7.568771e-12 -1.1887377e-05 3.4412573e-05 -4.5295706e-06 -1.3547607e-05 5.078493e-05
1.0862391e-05 1.0862286e-06 -5.798601e-06 8.6151895e-09 2.6032782e-05 -7.320114e-07 -3.256438e-05 1.3716627e-05
6.449919e-06 8.050682e-10 -1.6458027e-05 -7.088725e-06 5.832797e-05 3.8026275e-05 6.512265e-05 -1.9955813e-05
-1.6673246e-05 1.041587e-05 -8.410596e-07 -1.5014555e-07 2.4478197e-07 3.2065623e-07 5.8284208e-05 -6.349619e-07
00000000: 03fa afb6 2920 c91e 26ac 0a31 4ef6 8fb6
00000010: 48f8 e2b4 8ccc d5b4 5212 5a30 6be3 3cb3
00000020: 9e8e 22b6 dfd0 2ab6 8d04 6dab 6258 05b5
00000030: 2574 08b6 534e 992f 76ef 9c35 ee2e eda4
00000040: 07d6 8430 9d69 0135 aa85 05b6 8b4d 1fb5
00000050: efd3 97b5 89d1 ae34 85b6 1eb6 0000 0000
00000060: 7881 09b6 8b19 56b1 484b e9b4 b5d1 97b1
00000070: d145 9a33 f342 42b6 a068 cfb5 6c53 96b5
00000080: a654 c72e 4e55 bbb5 0000 0000 2fa0 fb24
00000090: 4d0f dab0 f106 25b5 8e20 2db6 5b2b 73b5
000000a0: 3455 bbb5 8fd9 c333 f175 aab4 4767 0132
000000b0: e9ee 8cb4 0000 0000 14c6 1bb5 2c9c af34
000000c0: 256b fd1f 0000 0000 d302 63b4 b59d 7735
000000d0: 2786 1cb6 4923 98b6 428f 6db6 674b 372f
000000e0: 45c6 12b6 a472 aa34 89b0 07b5 8619 042e
000000f0: 0000 0000 5dac 902d b97d b1b4 b34b 0fb5
00000100: 1bf5 72b9 7940 a3b8 82b4 6eb8 6ee6 99b9
00000110: 9ec5 53b8 e4a5 0fb9 8285 f0b7 8c07 91b7
00000120: dfdf 9eb8 97fe 53b9 25e2 95b8 5b57 03b9
00000130: 3e5b 0ab9 545b b2b7 cd9e 8eb7 2f50 e0b8
00000140: 22d7 b8b5 49c1 97b7 2f01 f8b8 8ce1 fbb6
00000150: b6d6 aeb8 891f 5bb8 cbb4 d6b8 0f83 ee24
00000160: 0093 42b9 15b2 81b8 fa08 8db5 9048 80b5
00000170: ee8b 99b9 0c9b 13b9 3961 aeb8 a9ee ddb8
00000180: 2f2c 28b5 564d 03b9 3e67 0eaa 0c80 2fb8
00000190: 1325 f3b7 e43d 11b9 2bad 83b9 b521 b6b8
000001a0: a1b0 61b8 a487 83b8 528e 06b7 8971 c6b1
000001b0: cad0 1438 fc06 a0b4 d362 ffb8 022c 3db7
000001c0: 8f6f b7b7 f811 b432 f853 36b9 4edc 22b6
000001d0: 9225 deb8 cac6 72b9 c153 a9b8 4d7c 9fb6
000001e0: 6aaa 98b8 d173 6ab8 6df2 4fb5 1e1e bfb4
000001f0: a8ee 28b3 c489 3f34 48f2 32b9 c857 a6b8
00000200: 5aad e2b6 53fd 1239 b4c0 9138 9d17 1839
00000210: 5c56 21b8 ab2b 60b7 884d 1d38 13c3 2fb8
00000220: 2401 a7b8 e47a bc38 aad8 45b7 470a 1839
00000230: 9ce7 5236 9aca 1738 1891 5b38 eeda 2039
00000240: 94e4 7f35 9bb3 9038 3e46 cc38 8da3 38b7
00000250: 8e8a a634 e776 cc38 59f4 8538 68d2 4fac
00000260: 1a94 3639 0aa8 f238 133b 1235 c25d 19b8
00000270: cc82 1239 a0fa fc37 a03c 4838 7eb0 9fb7
00000280: 1178 7935 1ff2 2cb8 49df 5caa acc3 8b38
00000290: 30d2 0038 0422 2138 eeab 2239 bf5d dbb7
000002a0: b5f8 ed37 2dae a8b5 f76d 44b6 ab0c 2f32
000002b0: e77f dcb7 cdb1 43b4 3857 0539 289b b2b6
000002c0: f417 55b7 a890 ad32 914d 5e38 6f86 9c37
000002d0: 5111 ffb8 bfb9 a138 db92 e5b8 dc46 bf37
000002e0: bb9c b238 3d6a 4eb5 7726 0436 861b 5934
000002f0: 6f7f b8b4 3e1a ffb4 c9a3 8838 8a6e ac38
00000300: 7510 b238 7f3e e4b7 0243 0fb7 4889 9e37
00000310: 5eba a837 1b4d 0c38 64bc b6b7 55aa 0338
00000320: d52e 2c38 db3b 8537 e3ee 0938 1b81 15b8
00000330: 315a 0538 b0b6 a437 35de 3437 0afb d4b7
00000340: e221 8334 125d 9937 cd7d 1ab7 ff07 3235
00000350: fc1d e636 0a45 2937 592d e0b7 ca29 1423
00000360: 5057 67b8 5bf2 8cb7 ee95 a3b4 8613 a137
00000370: 0638 6637 c20d 3538 d54d f4b6 633e 5d38
00000380: fe00 a3b5 79a9 b937 b726 05ad e56f 47b7
00000390: 3856 1038 b7fc 97b6 874a 63b7 e701 5538
000003a0: 9d3d 3637 88ca 9135 9a91 c2b6 0102 1432
000003b0: f960 da37 717f 44b5 bd95 08b8 7720 6637
000003c0: 626c d836 a34b 5d30 580f 8ab7 afdb edb6
000003d0: 2ea5 7438 677e 1f38 7592 8838 c866 a7b7
000003e0: 86dd 8bb7 d2bf 2e37 2dc5 61b5 b237 21b4
000003f0: 946a 8334 a826 ac34 3176 7438 4072 2ab5
