P3/Q2/Lunarlander/checkpoints/pg_LunarLander-v3_lastFF.pth (torch, 95325 bytes, 18 tensors)

net.0.weight f4 [64, 8]
0.10623958 -0.065098666 0.31069165 0.32902858 -0.005653589 0.2663043 -0.12109045 -0.33231783
-0.04576308 -0.09087834 0.24154314 0.2612374 -0.28339204 0.27987716 0.12941681 -0.3163976
-0.25832918 0.32444227 -0.20225662 0.3745233 -0.22911686 0.3410564 -0.102545135 0.2754696
0.32260627 -0.053342257 -0.0161249 -0.35229394 -0.4228276 -0.067589246 -0.07332658 0.17998281
-0.04752672 0.19030888 -0.031224722 0.25009418 -0.32154003 -0.42926043 -0.10697323 0.017007053
0.24997662 0.22845034 0.08412694 -0.33462194 0.18907483 -0.0142744295 -0.21473885 0.09492387
0.18054551 0.029788444 -0.20881468 -0.28364316 0.18097015 0.02624569 0.34036425 0.10498935
0.2654245 0.0168421 -0.111752085 -0.3591363 -0.33216807 0.20425002 0.26662675 0.26752284
-0.16286635 0.1011475 0.37982118 0.23421705 0.24127994 0.016370816 -0.20110482 0.013380051
0.06697117 -0.11216039 0.064249955 -0.09145356 -0.030776763 0.21307343 0.27642712 0.13262239
0.19729222 0.09236585 -0.003671007 0.18897216 -0.36862972 -0.32934263 -0.28063986 0.106193006
0.24553265 0.24801171 0.19450755 0.07301704 -0.24383835 -0.49552748 0.15690713 -0.28882903
0.29719752 0.07390125 -0.2835594 -0.16594405 0.42026085 0.26616952 -0.11768759 0.33588064
0.072977066 0.29549372 0.16144702 -0.0393684 -0.20365316 0.30410224 0.06885299 -0.054106455
-0.0964216 -0.013963836 0.090780966 -0.3458855 -0.3007879 -0.29191598 -0.045148935 0.12785147
0.27773502 0.06254262 -0.15219845 0.019002952 -0.21497017 -0.1150424 -0.065705836 -0.33166948
-0.18332087 0.14269301 0.37320074 -0.30630738 -0.44425178 -0.24322581 0.30008736 0.25433826
-0.23038179 0.1363179 0.16305558 0.25754294 -0.42859766 0.040999334 0.28766847 -0.35699362
0.09803868 -0.07275501 -0.11297137 0.028923519 0.009191141 -0.31825554 -0.11601522 0.018606639
-0.1877533 -0.12861475 -0.40661 0.24339962 0.47822735 0.17335163 0.15713687 -0.022605363
-0.120657295 -0.2096228 0.3538705 -0.06249046 0.10091012 0.0963795 0.049242653 0.0620761
-0.04350419 -0.14786924 -0.27082205 -0.14994147 -0.014373879 -0.20699221 -0.35767195 0.23133819
-0.2690793 0.04810385 0.27117527 0.3841535 -0.13094352 -0.20390972 0.2142859 -0.37790346
-0.13401735 -0.34714186 0.15224716 0.2285678 0.26610303 -0.13831922 -0.36812884 -0.1766376
0.34291235 -0.28045145 -0.06475665 0.15847127 0.19475216 -0.006753439 0.3430779 -0.24454854
-0.30096808 0.2022462 0.33768252 -0.115437366 -0.3526548 -0.40671632 -0.2130016 -0.15092662
-0.35522416 -0.088969104 -0.19317187 0.06705275 -0.29480124 -0.0051974966 -0.1572304 -0.30128503
0.23619205 -0.06395066 0.055791613 -0.38892412 0.1317513 0.11025715 0.011120622 -0.1389113
0.33649594 0.2621823 0.38934392 0.034322705 -0.3416831 0.021760123 -0.3412588 -0.05635145
-0.32723108 -0.29228684 -0.31984052 -0.13971016 -0.1546306 0.16534913 -0.2322737 -0.07369767
-0.06421159 -0.015359143 -0.26771125 -0.15339874 0.3384139 0.4414411 0.12692635 0.123267114
0.27284044 0.17923985 0.3068591 0.01266974 -0.25213432 0.009936986 -0.00042795014 -0.013184144
00000000: 2394 d93d 7352 85bd fa12 9f3e 6f76 a83e
00000010: be41 b9bb 0a59 883e 45fe f7bd 9025 aabe
00000020: 1172 3bbd 6c1e babd 1657 773e e9c0 853e
00000030: c318 91be 0f4c 8f3e d785 043e defe a1be
00000040: b943 84be 4c1d a63e 5c1c 4fbe 85c1 bf3e
00000050: 9c9d 6abe f29e ae3e 2f03 d2bd 5a0a 8d3e
00000060: a62c a53e 697d 5abd 5e18 84bc df5f b4be
00000070: dc7c d8be 3b6c 8abd 3f2c 96bd 6a4d 383e
00000080: 61ab 42bd 55e0 423e fdca ffbc 580c 803e
00000090: e5a0 a4be 06c8 dbbe c814 dbbd 6052 8b3c
000000a0: dff9 7f3e e3ee 693e bf4a ac3d 9153 abbe
000000b0: d59c 413e 4cdf 69bc 80e4 5bbe 7267 c23d
000000c0: ece0 383e e506 f43c 84d3 55be ad39 91be
000000d0: 3d50 393e 3401 d73c 3944 ae3e a804 d73d
000000e0: b8e5 873e 72f8 893c 47de e4bd b7e0 b7be
000000f0: ef11 aabe eb26 513e 4d83 883e c1f8 883e
00000100: 70c6 26be 6c26 cf3d ec77 c23e 98d6 6f3e
00000110: 1712 773e 171c 863c 6cee 4dbe 0038 5b3c
00000120: 2e28 893d 59b4 e5bd 7b95 833d 014c bbbd
00000130: 8d1f fcbc ec2f 5a3e db87 8d3e 2ace 073e
00000140: f906 4a3e 4f2a bd3d 4795 70bb eb81 413e
00000150: 09bd bcbe 999f a8be 07b0 8fbe b87b d93d
00000160: e96c 7b3e c8f6 7d3e fd2c 473e f589 953d
00000170: c3b0 79be c7b5 fdbe 43ac 203e 66e1 93be
00000180: 462a 983e 8a59 973d b32e 91be 3ded 29be
00000190: 6e2c d73e 5f47 883e 3106 f1bd 8cf8 ab3e
000001a0: 0075 953d f44a 973e 5e52 253e c240 21bd
000001b0: 748a 50be 4ab3 9b3e cc02 8d3d bb9e 5dbd
000001c0: b078 c5bd 93c8 64bc 5feb b93d e717 b1be
000001d0: df00 9abe 0376 95be 17ee 38bd 7feb 023e
000001e0: 4933 8e3e 5816 803d e9d9 1bbe 14ac 9b3c
000001f0: 2421 5cbe 5a9b ebbd c890 86bd 95d0 a9be
00000200: 77b8 3bbe 1e1e 123e 2b14 bf3e 52d4 9cbe
00000210: f874 e3be 3010 79be 0da5 993e a038 823e
00000220: 34e9 6bbe eb96 0b3e 0bf8 263e abdc 833e
00000230: 2771 dbbe ebee 273d 4849 933e dec7 b6be
00000240: 81c8 c83d 9400 95bd 895d e7bd 04f1 ec3c
00000250: 7196 163c 64f2 a2be 6399 edbd f36c 983c
00000260: 6742 40be 96b3 03be 302f d0be c03d 793e
00000270: 37da f43e 1783 313e 7de8 203e e22e b9bc
00000280: 2c1b f7bd 5ca7 56be 842e b53e fff5 7fbd
00000290: f7a9 ce3d 9e62 c53d aab2 493d 8243 7e3d
000002a0: 7331 32bd 096b 17be 30a9 8abe 428a 19be
000002b0: 6b80 6bbc c4f5 53be c720 b7be ebe3 6c3e
000002c0: c3c4 89be 8b08 453d 7cd7 8a3e c4af c43e
000002d0: 0f16 06be b6cd 50be c36d 5b3e 907c c1be
000002e0: d83b 09be 94bc b1be aee6 1b3e ad0d 6a3e
000002f0: a83e 883e 8ea3 0dbe 627b bcbe 7de0 34be
00000300: 3592 af3e 5597 8fbe 229f 84bd 4b46 223e
00000310: 1c6d 473e f44b ddbb e8a7 af3e ef6a 7abe
00000320: 7d18 9abe a119 4f3e b9e4 ac3e 6d6a ecbd
00000330: 2c8f b4be 1f3d d0be 171d 5abe 828c 1abe
00000340: f1df b5be 6f35 b6bd d9ce 45be f452 893d
00000350: 30f0 96be c34f aabb 0201 21be 0842 9abe
00000360: 54dc 713e 90f8 82bd bf85 643d 1021 c7be
00000370: d0e9 063e 80ce e13d 4533 363c c43e 0ebe
00000380: 3249 ac3e c23c 863e 1658 c73e f795 0c3d
00000390: 16f1 aebe 4942 b23c 79b9 aebe c7d0 66bd
000003a0: d58a a7be 9fa6 95be 23c2 a3be 2e10 0fbe
000003b0: 7c57 1ebe 4851 293e 28d9 6dbe ceee 96bd
000003c0: 5e81 83bd eaa4 7bbc 7311 89be 8f14 1dbe
000003d0: 9644 ad3e 9104 e23e fbf8 013e 7873 fc3d
000003e0: beb1 8b3e a78a 373e a31c 9d3e be94 4f3c
000003f0: c017 81be bdce 223c 7f5e e0b9 4f02 58bc

net.0.bias f4 [64]
-0.1858469 -0.056289304 0.094234936 0.05459478 0.1742513 0.41798133 -0.18628792 -0.05552019
-0.2046337 -0.08166775 0.057901207 -0.0630706 0.2871075 -0.2333475 0.1673459 -0.29006517
0.007460965 0.11074903 0.09023241 0.40578786 0.3356512 -0.24784586 0.21414858 -0.020799022
0.19615035 -0.02774509 0.020605423 -0.11390853 0.039768096 -0.22633533 0.21101965 0.24954568
0.22519794 0.40916154 -0.10690012 0.058865063 0.11062384 -0.117225416 0.19011366 -0.009648709
-0.2767237 -0.0009589108 0.24021393 -0.107372575 -0.040322624 0.02648984 0.32558554 0.1525599
0.40775084 -0.02129716 0.07996491 0.112675965 -0.056438908 0.063845284 0.20764323 0.3554571
0.06483623 0.09922711 0.07681219 -0.073701166 0.17442703 -0.22660014 -0.15411724 -0.3088855
00000000: a64e 3ebe 9d8f 66bd 3ffe c03d c79e 5f3d
00000010: ef6e 323e a601 d63e 43c2 3ebe 2469 63bd
00000020: 7f8b 51be 6c41 a7bd d129 6d3d 292b 81bd
00000030: c1ff 923e a6f2 6ebe b95c 2b3e 6c83 94be
00000040: 1c7b f43b 63d0 e23d c5cb b83d 6dc3 cf3e
00000050: 79da ab3e 4ecb 7dbe c449 5b3e b662 aabc
00000060: a3db 483e ac49 e3bc b4cc a83c e048 e9bd
00000070: dfe3 223d 73c4 67be 8915 583e e788 7f3e
00000080: 4a9a 663e 9f7d d13e 73ee dabd 7e1c 713d
00000090: c08e e23d e113 f0bd 28ad 423e 9e15 1ebc
000000a0: bbae 8dbe 6a5f 7bba a4fa 753e 27e6 dbbd
000000b0: 5629 25bd 3901 d93c 26b3 a63e aa38 1c3e
000000c0: b8c4 d03e 6277 aebc a5c4 a33d a8c2 e63d
000000d0: 7c2c 67bd 51c1 823d 6da0 543e 79fe b53e
000000e0: dbc8 843d 9537 cb3d b64f 9d3d a3f0 96bd
000000f0: 009d 323e de09 68be e9d0 1dbe 3e26 9ebe

net.2.weight f4 [64, 64]
0.04851067 0.07419706 -0.12658127 0.0034760318 -0.13042854 -0.072904415 -0.04674846 -0.031326234
0.120413184 0.09142172 0.06777656 -0.06004228 -0.12788413 -0.026521716 0.076960005 0.017287446
-0.11210653 -0.040141746 0.09383727 -0.003199851 -0.012728254 0.026913427 0.027245024 -0.078232884
-0.10561005 0.09606279 -0.00012966289 -0.015217192 0.011205298 0.032586098 -0.118760854 -0.04990206
-0.08329241 -0.04464786 -0.11955664 0.06667012 -0.0021371723 -0.035867386 -0.019545643 0.05346771
0.084907204 0.0020781066 -0.06430116 -0.020116013 0.018551676 0.013769078 -0.026416296 -0.048339244
0.032689396 -0.040602315 0.046038423 0.031892266 -0.10649252 0.040223047 0.024971582 -0.11352429
0.11067498 0.072850294 -0.013697552 0.039145794 0.051571634 0.090963095 -0.11162782 -0.043527264
-0.014939387 0.026764782 0.061891228 -0.09285919 -0.11988287 -0.071221314 0.073658586 -0.014279154
-0.118070684 -0.038606204 -0.17654052 -0.0039549675 0.14052272 0.026057405 -0.062751494 0.020753767
-0.08639226 -0.11296876 -0.09835626 0.1972214 0.030023087 0.14249982 -0.018761508 0.055206176
-0.10643971 -0.18580729 -0.030331029 0.05280112 0.02903468 -0.06365773 0.14445153 0.10884185
0.07698295 0.07931619 -0.0834224 0.08036277 0.06203747 0.16838302 -0.026860269 -0.03228641
0.062372852 0.051142637 -0.01407205 0.19039069 0.048948873 0.19348104 0.13384274 -0.0061122472
0.08274115 0.1255078 -0.022264585 0.13242938 -0.05431258 0.115605325 -0.08676666 0.02226001
-0.11390785 0.08758506 0.14416409 -0.010480819 0.12559307 0.12374587 0.02544998 0.08350789
0.020961415 0.0076680086 0.0128970975 -0.049611866 0.20587198 0.091367155 -0.10041075 -0.005229877
-0.028088497 0.07455972 0.14774688 0.08249447 -0.08723907 0.030550862 0.10372021 -0.047133263
0.049878646 0.25133213 -0.0118041765 -0.012893464 -0.0036912786 0.021812517 0.1837256 -0.04940816
-0.028968122 0.05792597 -0.094972655 -0.03436847 0.11003509 0.00090483634 -0.17812145 -0.040780365
-0.025806414 0.011805266 -0.0616559 0.008091232 0.14984135 0.12485287 0.08900663 0.17134295
0.11873156 0.022384815 -0.06016379 -0.17446952 -0.06700968 -0.15403655 -0.03019086 0.17748153
-0.10149473 0.12616009 -0.07612691 0.024046568 0.033714443 -0.16392829 -0.07987837 0.043899536
0.08815872 -0.021713238 0.12673205 -0.026589295 0.059300184 0.10250406 0.081431806 -0.032270677
0.0670743 0.14062637 -0.009963383 0.17425714 -0.058265712 0.123538695 0.01291005 0.06883119
0.016822763 0.08115878 0.117442936 0.060140897 0.020933716 -0.06004951 0.10016974 0.12870498
0.20096856 0.043790303 -0.08190771 -0.17385997 0.08394581 0.11511383 0.09179118 0.0014674165
0.06940722 0.21010497 -0.017760847 -0.078939684 0.11284532 0.021264002 -0.07640618 0.16102505
0.06901532 0.17491029 0.09662012 0.016782083 0.12515038 -0.18427259 -0.0613555 -0.1829747
0.06260212 0.0064097727 0.056585275 -0.050423943 0.011455977 -0.073381774 0.1178307 -0.0018320407
0.08995538 0.02111769 0.08721115 -0.114580385 0.028827114 0.008237315 0.15892982 0.11850446
0.021408329 -0.06161702 -0.036622714 -0.072771356 -0.005217815 0.0050426424 0.054108635 -0.004541259
00000000: 20b3 463d a1f4 973d 859e 01be 23ce 633b
00000010: 0f8f 05be e94e 95bd 507b 3fbd f04f 00bd
00000020: 309b f63d 503b bb3d 70ce 8a3d e5ee 75bd
00000030: 0ff4 02be 1244 d9bc 359d 9d3d 679e 8d3c
00000040: 1c98 e5bd ac6b 24bd c12d c03d 97b4 51bb
00000050: 2b8a 50bc 8c79 dc3c f530 df3c 9038 a0bd
00000060: 154a d8bd 91bc c43d 1ef6 07b9 8751 79bc
00000070: 6d96 373c 0079 053d e438 f3bd 1a66 4cbd
00000080: 3695 aabd ade0 36bd 1dda f4bd 588a 883d
00000090: cd0f 0cbb aee9 12bd 2f1e a0bc f500 5b3d
000000a0: d4e3 ad3d d830 083b 54b0 83bd 56ca a4bc
000000b0: aff9 973c b397 613c fd66 d8bc 5fff 45bd
000000c0: 51e5 053d 9d4e 26bd c992 3c3d 77a1 023d
000000d0: c018 dabd ecc0 243d 3491 cc3c 6c7f e8bd
000000e0: 90a9 e23d 8932 953d b26b 60bc 5757 203d
000000f0: c73c 533d dc4a ba3d 209d e4bd a549 32bd
00000100: 55c4 74bc d141 db3c a881 7d3d f62c bebd
00000110: 2685 f5bd 7bdc 91bd 50da 963d 1df3 69bc
00000120: 0bcf f1bd 8a21 1ebd 0ac7 34be ac98 81bb
00000130: 30e5 0f3e 5776 d53c db83 80bd ce03 aa3c
00000140: 6dee b0bd 2a5c e7bd 026f c9bd 68f4 493e
00000150: faf2 f53c 79eb 113e bcb1 99bc df1f 623d
00000160: 10fd d9bd 4444 3ebe c778 f8bc fd45 583d
00000170: 23da ed3c fc5e 82bd 1aeb 133e 7ae8 de3d
00000180: 3da9 9d3d 8770 a23d 5dd9 aabd 3c95 a43d
00000190: 011b 7e3d 996c 2c3e 110a dcbc c13e 04bd
000001a0: ad7a 7f3d f17a 513d 758e 66bc c7f5 423e
000001b0: 9d7e 483d e51f 463e 120e 093e 3f49 c8bb
000001c0: 3174 a93d 1e85 003e 3864 b6bc 919b 073e
000001d0: de76 5ebd 7cc2 ec3d b8b2 b1bd a05a b63c
000001e0: 8548 e9bd cc5f b33d c09f 133e beb7 2bbc
000001f0: 789b 003e 7a6e fd3d 7a7c d03c 2f06 ab3d
00000200: 46b7 ab3c eb43 fb3b 594e 533c d035 4bbd
00000210: 1bd0 523e b41e bb3d 27a4 cdbd 635f abbb
00000220: d919 e6bc c4b2 983d f54a 173e dcf2 a83d
00000230: 66aa b2bd cd45 fa3c 436b d43d cf0e 41bd
00000240: 8d4d 4c3d 9bae 803e 4e66 41bc 1c3f 53bc
00000250: 61e9 71bb 2ab0 b23c 9022 3c3e 3660 4abd
00000260: 8e4e edbc c843 6d3d 0681 c2bd f4c5 0cbd
00000270: 145a e13d 8a32 6d3a 7865 36be 5009 27bd
00000280: f967 d3bc e06a 413c e68a 7cbd 1691 043c
00000290: 0370 193e ddb2 ff3d 1c49 b63d 8774 2f3e
000002a0: 8829 f33d 5c60 b73c 4e6e 76bd 23a8 32be
000002b0: 5f3c 89bd c2bb 1dbe d352 f7bc b8bd 353e
000002c0: 78dc cfbd 1c30 013e 6de8 9bbd 4ffd c43c
000002d0: 2818 0a3d d1dc 27be 4597 a3bd 00d0 333d
000002e0: 8f8c b43d f6df b1bc 0cc6 013e cbd1 d9bc
000002f0: c0e4 723d a6ed d13d b8c5 a63d 422e 04bd
00000300: 405e 893d 5c00 103e 753d 23bc 7770 323e
00000310: 07a8 6ebd db01 fd3d ad84 533c 5ef7 8c3d
00000320: e4cf 893c 9336 a63d ec85 f03d 4d56 763d
00000330: 2f7d ab3c 7af6 75bd cb25 cd3d 3dcb 033e
00000340: b4ca 4d3e 765d 333d 3bbf a7bd 5908 32be
00000350: c8eb ab3d cdc0 eb3d 04fd bb3d 5456 c03a
00000360: 5f25 8e3d c225 573e 327f 91bc 21ab a1bd
00000370: 721b e73d d831 ae3c d87a 9cbd c0e3 243e
00000380: e757 8d3d af1b 333e c5e0 c53d 947a 893c
00000390: 6c27 003e f4b1 3cbe e84f 7bbd b85d 3bbe
000003a0: 8a35 803d 1209 d23b f6c5 673d 5689 4ebd
000003b0: dab1 3b3c 2f49 96bd 3951 f13d 1621 f0ba
000003c0: 873a b83d 01ff ac3c c29b b23d 1fa9 eabd
000003d0: d726 ec3c cef5 063c 80be 223e 77b2 f23d
000003e0: 8560 af3c 2162 7cbd b301 16bd 2609 95bd
000003f0: 34fa aabb c03c a53b 04a1 5d3d d7ce 94bb

net.2.bias f4 [64]
0.009015962 0.046458516 0.07554276 -0.0104037 -0.13295972 -0.023802072 0.005268104 0.031076046
0.103961565 0.062214103 -0.074321 -0.035600726 0.08348028 0.10912777 -0.00084938406 -0.029193182
-0.026591513 0.06353103 -0.014933266 0.063444 0.052516837 -0.038131204 0.096042745 0.042998124
0.008993815 0.09575449 0.16848879 0.00073524483 -0.024773972 -0.012202901 -0.0457316 -0.047506984
0.0063830917 0.059045646 -0.11572143 0.019802453 -0.044903997 0.06898127 -0.018226873 0.0074336734
-0.046941943 -0.083285525 -0.01672884 -0.020103052 -0.082812 -0.08431619 0.031344596 -0.07857254
0.16668169 -0.034144036 0.027878623 -0.0003071882 -0.0043547964 -0.06805292 0.094936 0.14107187
-0.026579103 0.06471524 0.1195793 -0.046349075 -0.11074899 -0.0024098093 -0.03260238 0.07589966
00000000: afb7 133c 494b 3e3d 2ab6 9a3d 4874 2abc
00000010: 9826 08be 90fc c2bc 0fa0 ac3b 3193 fe3c
00000020: cde9 d43d 37d4 7e3d 9c35 98bd 11d2 11bd
00000030: b6f7 aa3d 617e df3d 33a9 5eba 8a26 efbc
00000040: 72d6 d9bc 8f1c 823d a8aa 74bc eeee 813d
00000050: e51b 573d 772f 1cbd 0fb2 c43d cd1e 303d
00000060: cb5a 133c ee1a c43d 5388 2c3e 72bd 403a
00000070: c9f2 cabc adee 47bc 0f51 3bbd af96 42bd
00000080: 4129 d13b d9d9 713d 5bff ecbd c138 a23c
00000090: 41ed 37bd 0d46 8d3d 8650 95bc 2c96 f33b
000000a0: 3246 40bd 9a91 aabd ec0a 89bc 28af a4bc
000000b0: 5699 a9bd f7ad acbd 3163 003d a4ea a0bd
000000c0: 9bae 2a3e 9eda 0bbd b661 e43c 1a0e a1b9
000000d0: aeb2 8ebb 545f 8bbd ce6d c23d 2575 103e
000000e0: 6bbc d9bc 6c89 843d fee5 f43d 87d8 3dbd
000000f0: 5ed0 e2bd e4ed 1dbb 138a 05bd 4871 9b3d

net.4.weight f4 [4, 64]
-0.07911673 -0.11147653 0.015448024 0.021647818 0.0654387 -0.11741 0.034778494 -0.095724456
-0.061533317 -0.038210817 0.043477084 -0.10284558 0.07654678 -0.047117088 0.08318819 0.01607841
0.03444892 -0.032401536 -0.14537412 -0.042788636 -0.0018503314 -0.046087924 -0.10945821 0.052342862
0.039910343 -0.034073967 -0.07636986 0.07433885 0.08282083 -0.07381609 0.09710798 -0.15434504
0.09634948 -0.13582109 0.08978346 0.089739405 -0.032864846 -0.09863794 -0.025146626 0.0122043695
0.06955196 -0.031844266 0.10501202 -0.059780642 0.074361704 -0.0069798715 -0.19105397 0.05949072
-0.046558294 -0.08322319 -0.0971909 -0.023856988 -0.16558991 0.08286012 0.11957194 -0.071762934
-0.0533835 -0.0761801 -0.19268827 0.11043507 0.104568794 0.12068779 -0.17741658 0.10208576
-0.10770787 -0.04846883 0.15865758 0.1919232 -0.090544105 0.061355505 0.22716697 0.042676993
0.09057517 0.09857307 -0.12620725 0.04779784 -0.09273966 0.11106499 0.1319017 -0.1462534
-0.04588052 -0.079479724 -0.06762679 0.0073257457 0.0025545731 0.118512005 -0.073438585 0.1165164
0.0102942595 0.22479056 0.14396907 0.15945973 0.053885363 -0.09502495 -0.08686339 -0.2677886
0.15601905 -0.05621174 0.11437348 0.058465973 -0.2173383 -0.048759237 0.12721357 -0.055222493
0.12138428 -0.014762899 0.12346853 0.004226193 -0.011613426 -0.012174693 -0.040918257 -0.12276177
-0.10422791 -0.0059912503 0.014898195 -0.19183178 -0.19274704 -0.21620096 -0.04726096 0.047906358
-0.11606533 -0.11678927 -0.010088375 0.041704055 0.062939234 0.10699882 0.12534821 -0.06399018
0.022442067 0.12054471 -0.1896867 0.15067562 0.04101974 -0.052551627 -0.17066543 -0.0070512183
0.019476471 -0.119027324 0.05717799 0.06547687 -0.089976616 0.19807613 0.07393336 0.11047759
-0.08166249 0.08088779 -0.112853944 0.029782841 -0.13963242 -0.038612336 -0.12769747 0.07590393
0.013041438 -0.13352881 0.030502541 -0.07390476 -0.07099357 0.043219894 0.040649004 0.049657688
-0.044267964 -0.027829519 0.038234256 0.08802152 -0.004971204 0.22488369 0.009340593 0.03719883
-0.05466267 -0.018640837 -0.068330005 0.03150627 0.16642348 0.023492537 0.16624252 0.20809336
0.226864 0.015065772 0.21508917 0.14226902 0.13229163 0.026146809 0.0014241191 0.11394426
-0.09768469 0.0159211 0.21368997 -0.06810428 -0.13472 0.0015109662 0.0994244 -0.19593251
0.077645026 0.18953358 0.04529539 -0.21732564 0.046926353 0.013355876 -0.112325326 0.023094153
0.074448735 -0.21320798 0.09553188 0.033056047 -0.10745259 -0.15154862 -0.20062868 0.16175133
-0.0065679327 0.21231726 0.07606739 -0.047137093 -0.077897675 0.007362053 0.11951281 -0.21229298
0.06602184 -0.09709696 -0.19576211 -0.09727893 -0.047549505 -0.05198137 -0.032168515 0.1392563
0.034799803 0.044710323 -0.010485717 -0.066859715 0.15310092 -0.15275846 -0.20433867 -0.017693017
-0.12186284 0.039317176 -0.119978495 0.09431623 -0.13782853 -0.07543762 0.063046575 -0.06181908
0.09886066 0.24787652 -0.16859357 0.05307367 0.13932446 0.1721646 0.015639022 -0.035203382
0.20748936 -0.006295561 -0.02312191 -0.009010026 0.030145496 0.09200605 -0.07979883 0.20171936
00000000: f407 a2bd cf4d e4bd b519 7d3c c456 b13c
00000010: ba04 863d a774 f0bd e573 0e3d 2f0b c4bd
00000020: 5c0a 7cbd f282 1cbd 0715 323d b4a0 d2bd
00000030: 8fc4 9c3d d9fd 40bd 925e aa3d dfb6 833c
00000040: 501a 0d3d 79b7 04bd f4dc 14be 2343 2fbd
00000050: d286 f2ba b1c6 3cbd a02b e0bd 7865 563d
00000060: 0779 233d 2591 0bbd cd67 9cbd f83e 983d
00000070: f89d a93d e42c 97bd 8ce0 c63d a00c 1ebe
00000080: e052 c53d af14 0bbe 64e0 b73d 4bc9 b73d
00000090: 4a9d 06bd b002 cabd 4c00 cebc d6f4 473c
000000a0: 4271 8e3d 226f 02bd 8b10 d73d 8cdc 74bd
000000b0: f34a 983d 68b7 e4bb a7a3 43be 8bac 733d
000000c0: e9b3 3ebd eb70 aabd 060c c7bd bb6f c3bc
000000d0: 6790 29be 91b2 a93d 22e2 f43d 72f8 92bd
000000e0: a8a8 5abd 5004 9cbd 1350 45be c82b e23d
000000f0: 2a28 d63d 292b f73d b1ac 35be 5712 d13d
00000100: f295 dcbd 4087 46bd 2277 223e 8487 443e
00000110: 306f b9bd e94f 7b3d 759e 683e 12ce 2e3d
00000120: 7a7f b93d ade0 c93d 793c 01be abc7 433d
00000130: 4aee bdbd 0b76 e33d 3d11 073e 74c3 15be
00000140: 36ed 3bbd 44c6 a2bd ea7f 8abd cf0c f03b
00000150: a06a 273b 6cb6 f23d f866 96bd 26a0 ee3d
00000160: 41a9 283c 7f2f 663e a16c 133e 6949 233e
00000170: e6b6 5c3d 719c c2bd 6fe5 b1bd 961b 89be
00000180: 75c3 1f3e 483e 66bd a53c ea3d 047a 6f3d
00000190: ee8d 5ebe c4b7 47bd 4644 023e fb30 62bd
000001a0: 5298 f83d 16e0 71bc 12dd fc3d e07b 8a3b
000001b0: 3d46 3ebc 5d78 47bc e799 27bd 866a fbbd
000001c0: 7175 d5bd 4052 c4bb 8f17 743c 8d6f 44be
000001d0: 7b5f 45be c963 5dbe b594 41bd 7539 443d
000001e0: a9b3 edbd 362f efbd b649 25bc dfd1 2a3d
000001f0: 49e6 803d 3322 db3d 485b 003e 490d 83bd
00000200: 6dd8 b73c 25e0 f63d 3b3d 42be b64a 1a3e
00000210: 5104 283d 6040 57bd ebc2 2ebe e80d e7bb
00000220: 1f8d 9f3c 99c4 f3bd 7833 6a3d bd18 863d
00000230: a945 b8bd 78d4 4a3e 606a 973d 1342 e23d
00000240: aa3e a7bd 7fa8 a53d f81f e7bd 25fb f33c
00000250: cdfb 0ebe f827 1ebd 20c3 02be 8573 9b3d
00000260: c1ab 553c c7bb 08be 77e0 f93c 615b 97bd
00000270: 1465 91bd 5807 313d 927f 263d dc65 4b3d
00000280: 5352 35bd bbfa e3bc 869b 1c3d a044 b43d
00000290: 7be5 a2bb e947 663e 4909 193c cd5d 183d
000002a0: f7e5 5fbd abb4 98bc 9af0 8bbd b80c 013d
000002b0: eb6a 2a3e 6c73 c03c 7b3b 2a3e 6d16 553e
000002c0: 094f 683e 6ed6 763c 5640 5c3e f8ae 113e
000002d0: 7577 073e d531 d63c 82a9 ba3a 9c5b e93d
000002e0: e90e c8bd f76c 823c 8bd1 5a3e 427a 8bbd
000002f0: 0af4 09be 9d0b c63a 059f cb3d 88a2 48be
00000300: 5b04 9f3d 1715 423e a987 393d 9d8a 5ebe
00000310: d935 403d 9bd2 5a3c d20a e6bd f32f bd3c
00000320: 9478 983d 3153 5abe 38a6 c33d c765 073d
00000330: 1a10 dcbd 902f 1bbe 9b71 4dbe 24a2 253e
00000340: d037 d7bb b269 593e 38c9 9b3d d312 41bd
00000350: d188 9fbd 603d f13b 22c3 f43d 5563 59be
00000360: 7536 873d c5da c6bd dd75 48be 2d3a c7bd
00000370: 45c3 42bd 6bea 54bd 22c3 03bd 3499 0e3e
00000380: 3d8a 0e3d 2c22 373d 49cc 2bbc bfed 88bd
00000390: 7dc6 1c3e b76c 1cbe 283e 51be f2f0 90bc
000003a0: 3a93 f9bd 0c0b 213d 49b7 f5bd de28 c13d
000003b0: ec22 0dbe 0a7f 9abd 901e 813d 0136 7dbd
000003c0: 7577 ca3d 58d3 7d3e cba3 2cbe c763 593d
000003d0: 12ab 0e3e eb4b 303e 681d 803c 6c31 10bd
000003e0: 1778 543e fe4a cebb 296a bdbc ca9e 13bc
000003f0: b0f3 f63c ab6d bc3d 926d a3bd 858f 4e3e

net.4.bias f4 [4]
-0.0341169 -0.010218447 0.14437237 0.07099422
00000000: 2abe 0bbd 466b 27bc 5ad6 133e 6b65 913d

exp_avg f4 [64, 8]
-4.3856813e-05 3.673479e-05 4.120699e-06 4.9904105e-05 -0.00010002986 0.0003143684 2.5468637e-06 1.4452079e-05
0.0004129801 0.00020777158 0.0014136788 0.00010723126 0.00026995424 0.000783486 -0.0015991861 0.0002337185
-0.002622548 -0.013450464 -0.004181149 0.0016936905 -0.0035999073 -0.0018775219 -0.00031926905 -0.004935548
-0.0047306875 0.014693297 0.0041307043 -0.0021764112 0.0036683786 0.005712977 -0.0033977695 0.0032183423
-0.0052501825 -0.00408717 -0.0024675203 0.0014540426 -0.002187186 -0.0018783184 -0.010159027 -0.0068721795
0.0017518118 0.004178526 0.0013249094 -0.00062868925 0.0011534708 0.00048584142 0.0012076295 0.002808397
-0.0010733891 0.0006165127 -0.0016326241 -0.00030681564 -0.0018872545 -0.0011330469 0.0060041077 0.004576978
-0.00013691919 0.008777205 0.00067467184 -0.0013295439 0.0025756957 0.0015583512 0.0010190076 0.0050980435
-0.00019267751 -0.00078673905 -0.0012818014 -6.144359e-05 -2.1749114e-05 -0.0002291077 0.0 -0.00019776562
0.00021876833 0.00023521454 0.00078808295 0.00035623476 0.0005429866 0.00064993434 -0.0007513056 0.0009328282
-0.004541916 -0.0022023725 -0.0013218701 0.0008149956 -0.0015814824 0.00040167008 -0.001835313 -0.0012198292
-0.005095783 -0.0023037079 -0.0007086344 -0.001535964 0.0012971831 -0.0016319486 -0.00085610943 -0.00014242038
0.003584852 0.0025586223 0.0009902767 -0.00093079254 -8.8237815e-05 -0.0017815009 0.00692883 0.0061315363
0.00015742722 -0.008754734 0.00032804138 0.0019716236 -8.2361685e-06 -0.0010107487 -0.0015811857 0.00027036262
0.0008270997 0.013942944 0.0039736643 -0.0010530819 0.0029708687 0.0030110085 -0.0047478597 0.0010737459
5.2541058e-05 5.9997146e-05 1.7522104e-06 2.3675866e-05 -0.00013891525 -6.581568e-05 1.0032901e-05 0.0
-0.00036160697 0.011793884 0.0033812323 -0.0021301704 0.0045185173 0.004326031 -0.007447544 -0.0004773165
-0.0043201125 -0.0026134716 -0.004478466 0.0008925198 -0.000287888 0.0001417167 -0.01176382 -0.011206358
-0.0003665366 0.00044361685 0.0014036533 0.000673822 -0.00040521083 0.0006381077 -0.0013553825 0.00088014535
0.0032867745 -0.006493975 -0.0030499813 5.5233515e-05 -0.0002255212 -0.004806796 0.010739836 0.00639896
0.003928788 0.0061928974 0.00535252 -0.0007821275 0.0033203103 0.0030880033 0.0024219002 0.0066066934
0.00016553605 -0.00015958758 2.6625241e-05 0.0001803022 -0.00024479057 0.00047547242 4.8096994e-05 -0.0011564172
-0.0055233557 -0.013331656 -0.004122775 0.0035097306 -0.0035077387 -0.0036357935 -0.009459277 -0.009018768
-0.00017014898 -0.00018871215 -0.0005707232 9.578509e-05 0.00043123664 -0.00074054516 1.0551771e-18 0.00017487774
0.0002706532 0.0020227458 0.0028456466 -0.0013038588 0.00023838227 0.0017932013 0.0017696964 0.0039623147
-0.0020639568 0.008422883 -6.883409e-05 -0.00015852322 0.0009118738 0.0017654026 0.00088992855 0.0017297696
0.00046027347 -0.0004251832 0.0008458519 0.00055753754 -0.00013297198 0.00060665456 -0.0011840059 0.00019943493
0.0010938969 0.002397215 0.0016093734 -0.0019011013 0.0006743565 0.00040634815 -0.0006708521 0.00012807737
-0.003791411 -0.0008522534 -0.0013515364 4.792681e-05 -0.0010722787 0.0007939441 -0.0005277121 -0.0007905434
-0.00060104544 -0.000114304 -0.00036246894 -5.0007417e-05 -0.00018573325 -0.0001807947 0.00014346965 0.00015591684
0.0062582274 -0.0012026464 0.00015934753 -0.0012218349 -0.0006847946 -0.0058595156 0.011262767 0.010212878
-0.002783691 0.007028964 0.001429616 -0.0011709229 4.871843e-05 0.0026770516 -0.0021953154 -9.690433e-05
00000000: e5f2 37b8 ae13 1a38 8944 8a36 2050 5138
00000010: 1fc7 d1b8 d0d1 a439 c9ea 2a36 3577 7237
00000020: 4085 d839 42dd 5939 304b b93a 58e1 e038
00000030: a588 8d39 db62 4d3a c89b d1ba 5512 7539
00000040: 0edf 2bbb 565f 5cbc 0502 89bb d3fe dd3a
00000050: 6cec 6bbb 2e17 f6ba 9163 a7b9 61ba a1bb
00000060: e203 9bbb 28bc 703c dc5a 873b 1fa2 0ebb
00000070: 2e69 703b ed33 bb3b 1dad 5ebb d3ea 523b
00000080: b909 acbb abed 85bb 1fb6 21bb 9395 be3a
00000090: e456 0fbb e831 f6ba 0c72 26bc 0530 e1bb
000000a0: 0d9d e53a 04ec 883b 95a8 ad3a 9fce 24ba
000000b0: 0f30 973a 88b8 fe39 5249 9e3a 150d 383b
000000c0: f6b0 8cba 789d 213a c6fd d5ba 19dc a0b9
000000d0: c15d f7ba bf82 94ba 1bbe c43b 79fa 953b
000000e0: f791 0fb9 44ce 0f3c 76dc 303a 1744 aeba
000000f0: 01cd 283b 9741 cc3a 3990 853a 7d0d a73b
00000100: 7a09 4ab9 2a3d 4eba 1e02 a8ba 47db 80b8
00000110: de71 b6b7 a13c 70b9 0000 0000 4e5f 4fb9
00000120: 2d65 6539 eca3 7639 5a97 4e3a 05c5 ba39
00000130: 3757 0e3a 5b60 2a3a 44f3 44ba 0a89 743a
00000140: 5ad4 94bb ae55 10bb 9a42 adba 6ea5 553a
00000150: be49 cfba 3f97 d239 e38e f0ba ade2 9fba
00000160: 87fa a6bb cef9 16bb a6c3 39ba 6652 c9ba
00000170: 3e06 aa3a 1ce7 d5ba 886c 60ba ae56 15b9
00000180: d6ef 6a3b 8fae 273b 2ccc 813a 6e00 74ba
00000190: 510c b9b8 4081 e9ba 3d0b e33b 0eeb c83b
000001a0: 0c13 2539 0470 0fbc f8fc ab39 5b36 013b
000001b0: 132e 0ab7 197b 84ba ca3f cfba 75bf 8d39
000001c0: b9d1 583a f270 643c 8335 823b 9107 8aba
000001d0: e8b2 423b 5754 453b ef93 9bbb efbc 8c3a
000001e0: 885f 5c38 72a5 7b38 7e2d eb35 899b c637
000001f0: c7a9 11b9 8606 8ab8 fb52 2837 0000 0000
00000200: 1196 bdb9 233b 413c aa97 5d3b 549a 0bbb
00000210: 1210 943b 61c1 8d3b 870a f4bb 5640 fab9
00000220: bb8f 8dbb c746 2bbb 19c0 92bb fdf7 693a
00000230: acef 96b9 c999 1439 0abd 40bc df9a 37bc
00000240: b62b c0b9 3f95 e839 cafa b73a 6ea3 303a
00000250: 7a72 d4b9 af46 273a 17a7 b1ba 8eb9 663a
00000260: ed66 573b 69cb d4bb 32e2 47bb 89aa 6738
00000270: e379 6cb9 5482 9dbb 23f6 2f3c 5eae d13b
00000280: 10bd 803b caed ca3b 3164 af3b b007 4dba
00000290: 9099 593b 1960 4a3b beb8 1e3b f67c d83b
000002a0: bf93 2d39 f756 27b9 4559 df37 810f 3d39
000002b0: 3c57 80b9 d448 f939 c1bb 4938 ec92 97ba
000002c0: 44fd b4bb 056d 5abc 5818 87bb 8203 663b
000002d0: 17e2 65bb 7e46 6ebb 15fb 1abc 74c3 13bc
000002e0: 056a 32b9 08e1 45b9 969c 15ba 3be0 c838
000002f0: 9a17 e239 2521 42ba 77b7 9b21 635f 3739
00000300: 75e6 8d39 0b90 043b 077e 3a3b 3ee6 aaba
00000310: 41f6 7939 da09 eb3a 28f5 e73a 4ed6 813b
00000320: 7343 07bb 2200 0a3c 055b 90b8 4139 26b9
00000330: d10a 6f3a 1565 e73a 184a 693a 70b9 e23a
00000340: dc50 f139 20eb deb9 29bc 5d3a b627 123a
00000350: 656e 0bb9 e607 1f3a a530 9bba 681f 5139
00000360: 1761 8f3a 981a 1d3b 9cf1 d23a 602e f9ba
00000370: 4cc7 303a 200b d539 1fdc 2fba 824c 0639
00000380: 5279 78bb c269 5fba 0926 b1ba 0505 4938
00000390: b48b 8cba b020 503a 2956 0aba 783c 4fba
000003a0: 7a8f 1dba 7eb6 efb8 c209 beb9 0ebf 51b8
000003b0: 64c1 42b9 b593 3db9 5770 1639 9c7d 2339
000003c0: d111 cd3b 1ea2 9dba 8716 2739 fa25 a0ba
000003d0: ca83 33ba 2e01 c0bb 7887 383c ea53 273c
000003e0: 966e 36bb 3953 e63b f461 bb3a a779 99ba
000003f0: 0457 4c38 7971 2f3b 48df 0fbb 1e39 cbb8

exp_avg_sq f4 [64, 8]
2.496993e-06 4.410134e-06 3.9476604e-06 1.3026333e-06 4.57929e-06 8.695037e-06 1.46827e-07 2.3730696e-07
3.5741703e-06 7.010336e-06 7.197093e-06 5.150452e-06 9.938366e-06 8.432984e-06 5.9356016e-06 1.2442979e-07
3.5243902e-05 0.0002743049 5.033393e-05 3.845381e-05 2.7039065e-05 2.9806632e-05 8.072284e-05 0.0001057044
0.0001626236 0.0006013956 0.00018465811 0.0003651336 0.00011911436 0.000110543944 0.0002014699 0.0002892695
7.526331e-05 0.000494854 7.941796e-05 6.8997106e-05 4.388124e-05 4.3528547e-05 6.5764856e-05 5.8061647e-05
2.5083313e-05 0.00017761264 4.1572934e-05 6.18992e-05 2.5311618e-05 2.3526378e-05 2.576474e-05 2.6123656e-05
1.9174999e-05 4.2708863e-05 2.907656e-05 7.4685464e-05 3.3073386e-05 2.6662392e-05 5.1954583e-05 3.306251e-05
2.8205568e-05 0.000114144386 3.76828e-05 4.5911467e-05 2.3828634e-05 2.009971e-05 4.994966e-05 5.705545e-05
2.3847363e-07 8.414878e-06 1.8388538e-06 2.5849226e-07 1.6369402e-06 1.3624808e-06 0.0 1.5958959e-07
1.4431866e-05 2.058005e-05 2.1186004e-05 5.7695328e-05 3.7190854e-05 3.1347532e-05 1.9060084e-05 1.6410942e-05
2.1962653e-05 6.355703e-05 1.680605e-05 1.4723486e-05 1.3238944e-05 1.3046311e-05 3.4045665e-06 1.6623419e-05
8.8361434e-05 0.0012548862 0.00012997423 0.00015600055 8.44236e-05 8.355163e-05 7.1999915e-05 1.1070986e-05
8.66453e-05 0.0008387547 0.0001381738 0.00019948745 7.393778e-05 6.5605695e-05 6.637822e-05 5.502277e-05
1.6659567e-05 0.00038702672 6.990233e-05 8.233205e-05 3.491167e-05 1.8448336e-05 5.0694366e-06 1.037975e-06
0.00012774173 0.00076816994 0.00013735628 0.00015650116 6.686535e-05 6.9090995e-05 0.00017169838 0.00021808535
1.5716574e-06 2.55498e-06 5.2613523e-06 4.7325702e-06 1.6580729e-05 2.1601412e-05 9.588172e-07 0.0
0.00015078674 0.0018235102 0.00024942769 0.00042360343 0.0001593009 0.00014424989 0.0001755143 0.00021595406
0.00016073129 0.001937227 0.00024283434 0.00022131728 0.00014560959 0.00013247666 0.00016683138 6.773411e-05
1.7517745e-05 3.6965015e-05 1.3679741e-05 1.7463019e-05 1.0829906e-05 1.2731571e-05 2.1328766e-05 3.4615594e-05
0.00020562472 0.0020040213 0.0002482578 0.00035351943 0.00012778523 0.0001414885 0.00021222938 0.00021563545
8.3058694e-05 0.00023074356 8.468783e-05 0.00010846977 6.543264e-05 6.297011e-05 0.00011213006 0.000112808615
2.3756445e-06 2.1070693e-06 4.708048e-06 9.882393e-06 7.767944e-06 6.3262255e-06 1.2443869e-07 4.603604e-06
0.00012687352 0.00049958914 0.00010391371 7.2017705e-05 4.850111e-05 5.980186e-05 0.00014681612 8.107027e-05
1.4771555e-06 4.612796e-08 1.115488e-06 1.9761733e-07 4.7366584e-06 3.84512e-06 3.9083913e-11 1.4841278e-07
8.456387e-06 2.8578454e-06 5.05421e-06 5.215447e-06 6.4783303e-06 7.2118187e-06 1.3119014e-05 8.772088e-06
0.00016704982 0.0035978735 0.00040338878 0.0005809918 0.00022156196 0.0002051291 1.319177e-05 2.9269971e-05
7.1539907e-06 3.6088597e-05 1.2102835e-05 1.8223607e-05 1.701792e-05 7.37654e-06 1.4278928e-06 2.2729952e-07
3.0715975e-05 7.468356e-05 6.420977e-05 0.00012345552 7.099963e-05 3.0406758e-05 5.3625463e-06 2.2419686e-06
6.4438675e-05 0.0012795151 0.0001769568 0.00025848794 0.00011756974 6.971128e-05 5.144755e-06 8.750572e-06
5.6752683e-06 4.586788e-06 1.4118888e-05 2.0582342e-05 1.2904401e-05 8.962692e-06 2.672678e-07 8.351955e-07
0.00018819532 0.0013961425 0.0001943156 0.00033420345 0.000114000584 0.00011978059 0.00018294543 0.00015044176
8.154512e-05 0.0013305928 0.00023166627 0.00027118376 0.00016189912 0.0001178324 5.8022903e-05 6.054777e-05
00000000: 0392 2736 c3fa 9336 2576 8436 24d6 ae35
00000010: cda7 9936 e6e0 1137 80a7 1d34 71ce 7e34
00000020: c7db 6f36 543a eb36 8f7e f136 0cd2 ac36
00000030: f5bc 2637 647b 0d37 6e2a c736 009b 0534
00000040: dad2 1338 95d0 8f39 a51d 5338 7749 2138
00000050: f3d1 e237 4109 fa37 bf49 a938 9ead dd38
00000060: f185 2a39 faa6 1d3a c9a0 4139 676f bf39
00000070: 09cd f938 d4d3 e738 aa41 5339 18a9 9739
00000080: afd6 9d38 17b9 013a 318d a638 8ab2 9038
00000090: 1f0d 3838 6c92 3638 3deb 8938 3887 7338
000000a0: 016a d237 883d 3a39 995e 2e38 e1cf 8138
000000b0: 4954 d437 835a c537 5c21 d837 2024 db37
000000c0: ffd9 a037 4b22 3338 70e9 f337 74a0 9c38
000000d0: 47b8 0a38 0da9 df37 cfe9 5938 9aac 0a38
000000e0: ff9a ec37 cd60 ef38 990d 1e38 1091 4038
000000f0: 9ae3 c737 cc9b a837 0a81 5138 d34e 6f38
00000100: 9107 8034 a02d 0d37 89ce f635 e8c6 8a34
00000110: d6b4 db35 7cde b635 0000 0000 a75b 2b34
00000120: 6420 7237 52a3 ac37 99b8 b137 e3fd 7138
00000130: 60fd 1b38 287b 0338 38e3 9f37 3baa 8937
00000140: 703c b837 ec49 8538 b8fa 8c37 e404 7737
00000150: d51c 5e37 7be1 5a37 027a 6436 8572 8b37
00000160: af4e b938 fe7a a43a b149 0839 1494 2339
00000170: 930c b138 7138 af38 a9fe 9638 86bd 3937
00000180: 57b5 b538 e0df 5b3a bfe2 1039 812d 5139
00000190: 0b0f 9b38 ca95 8938 8934 8b38 40c8 6638
000001a0: 26c0 8b37 d9e9 ca39 8798 9238 afa9 ac38
000001b0: 1f6e 1238 80c1 9a37 211a aa36 8d50 8b35
000001c0: 69f2 0539 035f 493a 4c07 1039 761a 2439
000001d0: 103a 8c38 f2e4 9038 ef09 3439 d7ad 6439
000001e0: bdf1 d235 3976 2b36 ac8a b036 78cc 9e36
000001f0: d816 8b37 ae34 b537 b5b0 8035 0000 0000
00000200: 821c 1e39 d902 ef3a 9ec5 8239 1717 de39
00000210: 020a 2739 c941 1739 430a 3839 ba71 6239
00000220: fa89 2839 8dea fd3a 59a1 7e39 6811 6839
00000230: c7ae 1839 6fe9 0a39 75ef 2e39 790c 8e38
00000240: 12f3 9237 e20a 1b38 0a82 6537 8c7d 9237
00000250: 18b2 3537 ae99 5537 2deb b237 3630 1138
00000260: f79c 5739 e655 033b 9928 8239 9358 b939
00000270: 16fe 0539 885c 1439 e489 5e39 331c 6239
00000280: cc2f ae38 c1f3 7139 6f9a b138 447a e338
00000290: e238 8938 d20e 8438 5e27 eb38 aa93 ec38
000002a0: 436d 1f36 2d67 0d36 d3f9 9d36 8ecc 2537
000002b0: 1153 0237 dd45 d436 729d 0534 a878 9a36
000002c0: 5a09 0539 dcf6 023a 40ec d938 3608 9738
000002d0: ac6d 4b38 c2d3 7a38 a7f2 1939 4504 aa38
000002e0: ad42 c635 3a1e 4633 e0b7 9535 a330 5434
000002f0: 96ef 9e36 5405 8136 93e4 2b2e 655b 1f34
00000300: e8df 0d37 69c9 3f36 5597 a936 5900 af36
00000310: 6f60 d936 0dfd f136 bc19 5c37 d52b 1337
00000320: 182a 2f39 4dca 6b3b ed7d d339 b34d 183a
00000330: 1653 6839 ec17 5739 3952 5d37 c988 f537
00000340: 500c f036 d65d 1738 480d 4b37 e6de 9837
00000350: b4c1 8e37 ff83 f736 06a6 bf35 9e0f 7434
00000360: 07d5 0038 6e9f 9c38 5ca8 8638 d773 0139
00000370: a3e5 9438 0412 ff37 ecef b336 ba74 1636
00000380: 4023 8738 67b5 a73a 7b8d 3939 aa85 8739
00000390: c68f f638 f531 9238 1ca1 ac36 6ccf 1237
000003a0: 2f6e be36 35e8 9936 2ae0 6c37 3ea8 ac37
000003b0: fb7f 5837 785e 1637 027d 8f34 3332 6035
000003c0: 4c56 4539 c5fe b63a 32c1 4b39 0738 af39
000003d0: 9913 ef38 b732 fb38 0ad5 3f39 e7bf 1d39
000003e0: 3403 ab38 4967 ae3a 71eb 7239 ab2d 8e39
000003f0: 77c3 2939 ca1c f738 9e5d 7338 acf4 7d38

exp_avg f4 [64]
0.0004505659 0.0010365475 -0.013214861 0.0035279847 -0.022513809 0.007933488 0.0070306584 0.009511252
-0.0019203048 0.0015365842 -0.010703569 -0.012790969 0.021086382 -0.009627854 -0.0010217227 0.00019503168
-0.0030988941 -0.025676327 -0.006765766 0.021677261 0.011603067 -0.0010393687 -0.029819285 0.0043177535
0.009077671 0.004677091 -0.0023938415 0.006815887 -0.0062910514 0.00080241344 0.034695104 -0.0022226367
0.008398596 0.008519629 0.00042975828 -0.0004527893 0.0057596406 -0.0015627175 -0.0004597724 -0.027333125
0.003149398 0.0061343494 0.01649866 0.014117198 -0.00085869804 0.038192097 -0.00019493136 -0.0016664478
0.009766377 -0.0010639278 0.0048453016 0.025484096 0.012273618 0.026548676 -0.0009816628 0.02158266
0.0033293767 0.022338508 -0.00078091904 0.001144891 0.012759199 0.00032948854 6.720325e-05 0.0003740739
00000000: ee39 ec39 c3dc 873a 2583 58bc c335 673b
00000010: e16e b8bc 76fb 013c 7061 e63b 15d5 1b3c
00000020: bdb2 fbba 3667 c93a 065e 2fbc 3691 51bc
00000030: 59bd ac3c 26be 1dbc 53eb 85ba 6b81 4c39
00000040: d116 4bbb 2957 d2bc 5cb3 ddbb 8394 b13c
00000050: ca1a 3e3c 6d3b 88ba 9347 f4bc f17b 8d3b
00000060: 83ba 143c 4842 993b ffe1 1cbb ce57 df3b
00000070: 2a25 cebb 0e59 523a 741c 0e3d a8a9 11bb
00000080: 449a 093c ea95 0b3c 2e51 e139 5a64 edb9
00000090: 5ebb bc3b 19d4 ccba 9b0d f1b9 b8e9 dfbc
000000a0: 2166 4e3b a702 c93b 3328 873c d24b 673c
000000b0: 401a 61ba 516f 1c3d 7d66 4cb9 b66c daba
000000c0: 2703 203c 7e73 8bba 56c5 9e3b 06c4 d03c
000000d0: 4917 493c 9c7c d93c 23ab 80ba 1ece b03c
000000e0: ac31 5a3b 3fff b63c 97b6 4cba 2b10 963a
000000f0: f60b 513c 34bf ac39 78ef 8c38 591f c439

exp_avg_sq f4 [64]
7.972858e-06 2.1406788e-05 0.0004945797 0.0015482474 0.0010378 0.00030605664 0.00013529441 0.00023720325
4.7384724e-06 8.132546e-05 0.00030056149 0.0013415745 0.0012020775 0.00026179914 0.001313104 6.13058e-06
0.0019603735 0.002618062 0.00019882683 0.0027100453 0.00086379965 1.2748305e-05 0.001695608 1.3282486e-05
6.4709355e-05 0.0029920172 7.41422e-05 0.00017072071 0.0011254629 1.8162069e-05 0.0024215556 0.001172939
0.00073084375 0.00065395853 0.00013304733 0.00022502195 0.0010076504 0.002219051 0.0024281077 0.0022612982
0.0004245074 7.8289595e-05 0.00072539045 0.00084928056 5.8310998e-05 0.0024927803 0.0006701313 0.00027918117
0.001293039 0.00028237925 8.5507e-05 0.0012036313 0.00046930698 0.003274976 0.00057393307 0.0017868518
0.00017356373 0.0019174038 0.00015754758 1.06001935e-05 0.0005828343 3.7813077e-06 1.9960155e-06 6.7697015e-06
00000000: 2ac3 0537 ba92 b337 afa6 013a 90ee ca3a
00000010: ca06 883a 3a76 a039 d1dd 0d39 c3b9 7839
00000020: 2bff 9e36 468d aa38 ae94 9d39 c5d7 af3a
00000030: 078f 9d3a 1642 8939 751c ac3a 48b5 cd36
00000040: 9c79 003b cb93 2b3b 2c7c 5039 049b 313b
00000050: 9d70 623a 8ee1 5537 2a3f de3a d8d7 5e37
00000060: 92b4 8738 b815 443b ca7c 9b38 7e03 3339
00000070: 4584 933a bf5a 9837 f6b2 1e3b 4dbd 993a
00000080: 1896 3f3a 6a6e 2b3a 9f82 0b39 dff3 6b39
00000090: 2313 843a 7f6d 113b e320 1f3b 4a32 143b
000000a0: 6b90 de39 682f a438 2128 3e3a 41a2 5e3a
000000b0: f592 7438 ea5d 233b c0ab 2f3a 105f 9239
000000c0: 307b a93a 4d0c 9439 3952 b338 2ac3 9d3a
000000d0: 510d f639 fba0 563b ff73 163a cc34 ea3a
000000e0: a9fe 3539 6551 fb3a 5b33 2539 7cd7 3137
000000f0: 59c9 183a 5fc2 7d36 49f3 0536 4b27 e336

exp_avg f4 [64, 64]
0.0 2.6527658e-21 2.9877464e-22 8.0551874e-17 1.5016249e-16 5.342707e-17 -1.4278416e-19 3.5998725e-22
-5.044901e-27 -1.406577e-24 1.5464311e-16 1.9428678e-16 -4.1787678e-20 1.4454953e-24 1.2126681e-16 4.4886877e-17
1.5011598e-16 2.7071003e-17 9.367305e-17 -2.3733094e-21 2.826899e-17 -2.8723283e-19 6.030856e-17 1.3296572e-17
3.3322035e-17 1.5636977e-16 -1.2306605e-18 4.7763863e-24 8.151562e-17 2.881133e-21 6.4571716e-25 9.984752e-17
3.419395e-17 3.885847e-17 7.920434e-19 -2.1884009e-27 1.5757341e-16 -9.114484e-28 1.4261946e-25 -3.4989176e-28
0.0 1.3951758e-17 9.175242e-22 -2.5609079e-23 -1.081772e-22 3.8179208e-18 6.5195636e-17 3.1417418e-18
1.1560112e-16 8.580873e-18 9.266187e-17 -3.8362814e-25 3.5956502e-17 -1.3825739e-23 7.140446e-17 -2.5645657e-19
1.2546998e-16 4.6100854e-24 7.824794e-25 1.7867972e-18 2.2680757e-19 1.964117e-17 0.0 1.2654815e-17
6.57981e-05 0.000100838864 -0.00023179493 0.0018795538 0.000913256 0.0049154162 0.0012509522 0.0026214158
2.990344e-05 0.0014826219 0.00045975824 -0.0001716613 0.0052520703 -0.0001731124 0.0020645761 -6.2329905e-06
0.0024365294 0.00023816449 0.0013368883 0.0059158914 0.0048249676 -5.466107e-05 0.0012398825 -1.8996941e-05
0.0045644045 -0.00041155014 -0.00024408405 0.00025111917 0.00070945424 0.0001718806 0.0034723284 0.0031668355
0.0020553346 0.0052549737 -0.00027693377 0.0009612874 0.0018664753 0.00050347496 0.0018750987 -0.0008858663
-5.0867773e-05 -3.937393e-05 0.0029459859 0.0019691589 0.00096581434 0.003569915 0.0012839071 0.004089838
0.0060493685 -0.00085162 0.004019066 0.0013317352 -0.0007304478 0.0008086375 0.003000462 0.0051834714
0.00024978336 0.0027375314 0.0011675708 -0.00020253689 0.0046269437 -0.00011620281 0.0001250014 -0.00010425318
-0.00026828406 -5.272669e-05 -0.0037017157 -0.0018582883 -0.0013015015 -0.010957472 -0.0013499372 -0.0032067383
-0.00020438468 -0.0015168999 2.6039574e-05 -0.0006406266 -0.009365142 -0.00060890196 -0.0022915595 7.505434e-05
-0.0034555928 -0.0011045206 0.0004918301 -0.0053684427 -0.005394716 4.5104167e-05 -0.000994306 0.00013856064
-0.0024847072 0.00049649586 0.0023161888 -0.00027383366 -0.004179032 0.00018335039 -0.0058948356 -0.0070022456
-0.0092452895 -0.008976504 -0.00017276115 0.00057380693 -0.0027582655 -0.004950529 -0.0050990013 -0.0036388256
-0.00022575843 0.0006483332 -0.0085317 -0.003130523 -0.0010212187 -0.0054751956 0.0017640191 -0.0077810087
-0.0031665207 -0.0018799187 -0.004209864 -0.004621349 -0.0026754069 -0.0036080587 -0.004968356 -0.005378511
0.000701671 -0.0045396523 -0.0025794283 8.024517e-05 -0.0058774217 -0.00021764761 -0.00021333533 0.00022276855
0.00013190384 0.0002906602 0.0036387208 -0.0009866457 -0.00047536337 0.002592074 -0.000945497 -0.001243895
-0.000114061826 -0.000901565 -0.00034847294 0.00058652664 0.0004647216 0.0009441995 -0.0013810096 -9.849071e-06
-0.0010134494 -0.0005547277 -0.00211265 -0.005486912 -0.0020919405 9.17174e-05 -0.0017981651 -0.00023472714
-0.0051752874 0.00017898335 -0.0015880687 -0.00013859768 0.003188781 -0.00046995428 -0.00093101396 0.001983235
0.005399311 -0.00052891765 0.0003208479 -0.0018354203 -0.00021336143 0.0033873317 0.0011968608 0.004546322
0.0004258254 -0.0004995098 0.0025672133 -0.001953882 -0.0004523937 -0.0007993514 -0.0033463098 0.0007822902
-0.0061481353 0.0028072791 -0.0017492544 0.0020857078 0.0030599087 0.0011621901 -0.0017257166 -0.0046036886
-0.0012672687 -0.00013778739 8.607037e-05 0.00016324711 -0.0028213803 0.0003565343 2.5309364e-05 0.0001561673
00000000: 0000 0000 f46f 481d 2399 b41b 6fbd b924
00000010: 2520 2d25 8d63 7624 dd91 28a0 5499 d91b
00000020: 60d9 c793 41a8 d997 974a 3225 56ff 5f25
00000030: 3456 459f f8ad df17 a5cf 0b25 1201 4f24
00000040: 6b12 2d25 99af f923 cffe d724 7b52 339d
00000050: 225e 0224 668d a9a0 e40f 8b24 4947 7523
00000060: b7ab 1924 3648 3425 0a9d b5a1 0ac7 b818
00000070: 54f6 bb24 38b1 591d fcd6 4717 933b e624
00000080: 17b1 1d24 fc33 3324 1bc5 6921 0b62 2d93
00000090: 76ab 3525 bd6c 9092 e98d 3016 2fc5 dd91
000000a0: 0000 0000 a8ae 8023 00a7 8a1c 02ad f799
000000b0: 39c7 029b 3edb 8c22 b654 9624 d3d1 6722
000000c0: 6e47 0525 074a 1e23 eaa9 d524 4e74 ed96
000000d0: f2d1 2524 dfb6 8599 c1a5 a424 9f62 97a0
000000e0: 34a8 1025 1358 b218 682a 7217 a5d7 0322
000000f0: 31e2 8520 6728 b523 0000 0000 ad70 6923
00000100: 16fd 8938 7479 d338 fa0d 73b9 5c5b f63a
00000110: 9367 6f3a 8011 a13b fef6 a33a 0fcc 2b3b
00000120: 26d9 fa37 8954 c23a b50b f139 fbff 33b9
00000130: 8f19 ac3b 8285 35b9 d74d 073b fb24 d1b6
00000140: 2eae 1f3b cbbb 7939 873a af3a 18da c13b
00000150: c31a 9e3b e143 65b8 8e83 a23a 9f5b 9fb7
00000160: 0091 953b 53c5 d7b9 d0f0 7fb9 a5a8 8339
00000170: abfa 393a d93a 3439 0190 633b af8a 4f3b
00000180: cbb2 063b ea31 ac3b 6c31 91b9 e8fe 7b3a
00000190: 85a4 f43a a2fb 033a dfc5 f53a 7b39 68ba
000001a0: db5a 55b8 6f25 25b8 7111 413b 010d 013b
000001b0: b42e 7d3a 3cf5 693b c648 a83a 0c04 863b
000001c0: c839 c63b 403f 5fba 5fb2 833b 9e8d ae3a
000001d0: 867b 3fba befa 533a 66a3 443b 1cda a93b
000001e0: 5bf5 8239 2868 333b 2d09 993a 1560 54b9
000001f0: 9e9d 973b e9b1 f3b8 cf12 0339 80a2 dab8
00000200: 7aa8 8cb9 da26 5db8 7c98 72bb cf91 f3ba
00000210: 2597 aaba f886 33bc 60f0 b0ba 2428 52bb
00000220: 1850 56b9 b7d2 c6ba 8f6f da37 b9ef 27ba
00000230: 4170 19bc b89e 1fba fd2d 16bb 7e66 9d38
00000240: 3a77 62bb 90c5 90ba 29ee 003a c3e9 afbb
00000250: 28c6 b0bb 3b2e 3d38 6053 82ba 974a 1139
00000260: 78d6 22bb 4627 023a 33cb 173b 5591 8fb9
00000270: 43f0 88bb bf41 4039 7729 c1bb 1873 e5bb
00000280: 8e79 17bc 3012 13bc 3827 35b9 886b 163a
00000290: 04c4 34bb 0c38 a2bb 8615 a7bb 5d79 6ebb
000002a0: 91b9 6cb9 e8f4 293a 8bc8 0bbc 7629 4dbb
000002b0: 6ada 85ba 4569 b3bb a936 e73a d5f7 febb
000002c0: 6785 4fbb 9b67 f6ba e6f2 89bb af6e 97bb
000002d0: e155 2fbb 2e75 6cbb 97cd a2bb 383e b0bb
000002e0: 58f0 373a 5dc1 94bb a00b 29bb 4c49 a838
000002f0: 6397 c0bb 5638 64b9 c4b2 5fb9 fa96 6939
00000300: ab4f 0a39 c063 9839 9b77 6e3b 5652 81ba
00000310: 313a f9b9 c9df 293b 3bdb 77ba 310a a3ba
00000320: 7a34 efb8 0157 6cba 3fb3 b6b9 23c1 193a
00000330: e1a5 f339 2884 773a fe02 b5ba 703d 25b7
00000340: b8d5 84ba 256b 11ba 6374 0abb 8ecb b3bb
00000350: f018 09bb 6758 c038 69b0 ebba 1621 76b9
00000360: 7595 a9bb 7aad 3b39 be26 d0ba 8854 11b9
00000370: defa 503b 3264 f6b9 4a0f 74ba 29f9 013b
00000380: b4ec b03b 10a7 0aba 7a37 a839 7c92 f0ba
00000390: c6b9 5fb9 fffd 5d3b fcdf 9c3a 50f9 943b
000003a0: 5141 df39 89f1 02ba b13e 283b b30c 00bb
000003b0: 412f edb9 908b 51ba c34d 5bbb 9b12 4d3a
000003c0: 4c76 c9bb 54fa 373b 3d47 e5ba 5fb0 083b
000003d0: c088 483b a154 983a 7131 e2ba 8ada 96bb
000003e0: 7b1a a6ba 057b 10b9 ae80 b438 502d 2b39
000003f0: e8e6 38bb 39ed ba39 724f d437 d7c0 2339
