P3/Q2/Lunarlander/checkpoints/pg_LunarLander-v3_lastTF.pth (torch, 95133 bytes, 18 tensors)

net.0.weight f4 [64, 8]
0	0x3eab9d13	0.33518276
1	0x3e6e3160	0.23261023
2	0x3e9ca790	0.3059659
3	0xbe5bece1	-0.21477081
4	0xbeb610e5	-0.35559765
5	0xbeb7243c	-0.35769832
6	0xbd5d1931	-0.053979103
7	0x3b4807a9	0.0030522144
8	0x3d658a2a	0.056039967
9	0xbe1eb215	-0.1549762
10	0x3ed259b5	0.41084066
11	0xbe83d382	-0.25747305
12	0xbdba5f3f	-0.09100198
13	0xbe2328bc	-0.15933508
14	0x3e2436d7	0.16036545
15	0x3e6a6af5	0.22892363
16	0x3e1362ae	0.14393112
17	0x3e4088f0	0.18802238
18	0x3e5b28d8	0.214023
19	0x3df1afb7	0.11801093
20	0xbeed5ef1	-0.46361497
21	0x3e2fc1a2	0.17163709
22	0x3e3db242	0.18525031
23	0xbe424672	-0.18972185
24	0x3e4e1c8c	0.20128077
25	0xbd8ed35c	-0.06973907
26	0xbd882187	-0.0664702
27	0xbdeee931	-0.116655715
28	0x3e7dffa5	0.24804552
29	0xbc49234a	-0.01227648
30	0x3e54858a	0.20754066
31	0x3e7195d1	0.23592307
32	0xbe1286dd	-0.14309259
33	0x3e373758	0.17892206
34	0x3d80affc	0.06283566
35	0x3f0492b0	0.5178633
36	0x3e31eec9	0.17376246
37	0xbd949436	-0.072548315
38	0x3d42717c	0.04747151
39	0x3ccc336d	0.024926865
40	0xbe50382d	-0.2033393
41	0x3d274732	0.04083938
42	0xbe3a6af4	-0.18204862
43	0xbe588029	-0.21142639
44	0x3efea74d	0.49737015
45	0x3ec9db20	0.39424992
46	0xbe4dd84f	-0.20102046
47	0x3dbedaa8	0.09319049
48	0xbe1ddc40	-0.1541605
49	0x3e8ca0fe	0.27466577
50	0x3c59fab6	0.013304403
51	0xbd7f394a	-0.062310494
52	0x3eca4bac	0.39510858
53	0xbd85f97b	-0.06541725
54	0x3e8b343d	0.27188292
55	0x3ec449ea	0.38337642
56	0x3dc493d6	0.0959851
57	0x3de08449	0.109627314
58	0xbe3d1a25	-0.18467005
59	0x3dee9d4a	0.11651094
60	0x3de1ad80	0.110194206
61	0x3d7e7521	0.06212342
62	0xbe941da3	-0.2892886
63	0x3d20eaa9	0.03928629
64	0xbe970cd1	-0.29501966
65	0x3e8d1964	0.27558434
66	0xbea9b19e	-0.33143324
67	0xbeed9468	-0.46402287
68	0x3cc5103f	0.024055598
69	0x3cb0dacc	0.021588705
70	0x3e18c8d5	0.14920361
71	0xbc7c9510	-0.015416399
72	0x3e318f51	0.17339827
73	0x3dcc36a6	0.09971361
74	0x3ea108df	0.3145208
75	0xbe678ca5	-0.22612245
76	0x3dc7090c	0.097185224
77	0xbd0f7684	-0.035025135
78	0x3d905d36	0.070490286
79	0xbe9b8a6e	-0.3037905
80	0x3e21155d	0.15730806
81	0x3d94645a	0.07245703
82	0x3da2f9b1	0.07957781
83	0xbebf791a	-0.3739708
84	0x3e7e24f5	0.24818785
85	0x3ec16779	0.37774256
86	0xbbc86e66	-0.006116676
87	0x3d7e8ec9	0.06214789
88	0xbe0e57b9	-0.13900651
89	0xbd18f9c2	-0.037347563
90	0xbd8d72ac	-0.069066375
91	0xbcbf08e7	-0.023319675
92	0x3f0ae0d3	0.54249305
93	0x3ece2021	0.40258887
94	0xbe15c83a	-0.14627162
95	0x3a3b1e64	0.00071380124
96	0xbdc9a9aa	-0.09846814
97	0xbe682411	-0.22670008
98	0x3eab5b33	0.33468017
99	0xbf0042ff	-0.5010223
100	0xbeed0eab	-0.46300253
101	0x3e755556	0.23958334
102	0xbd58bbee	-0.0529136
103	0x3d14a18a	0.03628687
104	0x3e82fe92	0.25584847
105	0x3d9c0f29	0.07620079
106	0xbe921c18	-0.2853706
107	0xbea105d0	-0.31449747
108	0x3f0881cf	0.5332307
109	0x3e1a8725	0.15090616
110	0x3ceb5466	0.028726768
111	0x3e9cb716	0.30608433
112	0xbde6b21a	-0.11264439
113	0xbcad22b2	-0.021134708
114	0x3da13272	0.0787095
115	0xbe865384	-0.26235592
116	0x3efd4166	0.49463958
117	0x3eb40db8	0.35166717
118	0x3e32a2f4	0.17444974
119	0xbe3fad36	-0.18718418
120	0xbddf7c27	-0.10912352
121	0xbe023d3a	-0.12718669
122	0xbe9619d9	-0.29316595
123	0xbea410b0	-0.32043982
124	0x3e706998	0.23477781
125	0xbde5eda4	-0.11226967
126	0xbe821a12	-0.25410515
127	0xbd360ad6	-0.044443928
128	0xbdb84e3d	-0.08999298
129	0xbdb4dbcb	-0.08830985
130	0x3e7c09c5	0.24613102
131	0x3e72fe27	0.23729764
132	0x3d809b42	0.06279613
133	0x3ebb1134	0.36536562
134	0x3e14de05	0.14537819
135	0xbea6b976	-0.3256337
136	0x3d13d69b	0.036093336
137	0x3e17ce91	0.14824893
138	0x3df2a5ec	0.11848053
139	0xbeaa238b	-0.33230242
140	0x3eb02b21	0.34407905
141	0x3edc4a5c	0.43025482
142	0xbe95e77f	-0.2927818
143	0xbea73129	-0.32654694
144	0x3d570a9f	0.052500363
145	0x3e1cc71c	0.15310329
146	0xbd8ccc21	-0.06874872
147	0xbe8a39a8	-0.26997113
148	0xbeb5e0ad	-0.35522977
149	0xbe80f6dc	-0.2518834
150	0x3e0c5312	0.13703564
151	0xbe86f543	-0.26358995
152	0x3e9164da	0.28397256
153	0x3e947e27	0.29002497
154	0xbe92964a	-0.28630286
155	0x3d237dc1	0.03991485
156	0x3ca7a13a	0.020462621
157	0x3ec98ead	0.39366665
158	0xbd7a9618	-0.061178297
159	0xbe3c5b20	-0.18394136
160	0x3bf3f772	0.0074452693
161	0xbdb9a636	-0.09064905
162	0x3e180028	0.1484381
163	0xbf1cbea3	-0.6122839
164	0xb9c025ea	-0.00036649342
165	0xbe4b67ab	-0.19863765
166	0xbe312414	-0.17298919
167	0xbd804cfb	-0.06264683
168	0x3e78665f	0.24257801
169	0xbdeeb330	-0.11655271
170	0x3e940e1e	0.2891702
171	0xbeb7d055	-0.35901132
172	0x3e605fd5	0.21911557
173	0x3e8fc116	0.28077
174	0x3e8bc382	0.27297598
175	0x3e085748	0.13314545
176	0x3dcb98c7	0.09941249
177	0xbddda833	-0.10823097
178	0xbc93e3d0	-0.018052965
179	0x3e65a447	0.22425948
180	0xbd79396c	-0.060845777
181	0xbdc4c77f	-0.09608363
182	0x3e068e95	0.13140328
183	0xbdbb072a	-0.09132226
184	0xbc2fc843	-0.010728898
185	0xbe55f9a8	-0.20896018
186	0xbed0e1d0	-0.4079728
187	0xbeaef55a	-0.34171563
188	0xbdf306a8	-0.11866504
189	0xbeb8d496	-0.3609969
190	0xbd143593	-0.036183905
191	0x3c2662f2	0.010155426
192	0x3e56d283	0.20978741
193	0xbe8e8164	-0.27833092
194	0xbe0d868f	-0.13820861
195	0x3ee9123f	0.45521733
196	0xbe920388	-0.2851832
197	0x3e253d4f	0.16136669
198	0x3e50bcbf	0.20384501
199	0x3e4fa1f1	0.2027662
200	0x3eabb225	0.3353435
201	0x3e97ec4d	0.2967247
202	0x3ed1b2fc	0.40956867
203	0xbd04a0c5	-0.032379884
204	0xbe5eca1c	-0.21756786
205	0xbef3a481	-0.47586444
206	0x3e9f81d8	0.3115375
207	0x3e1bfb77	0.15232645
208	0x3d15a2f4	0.036532357
209	0xbe1e0075	-0.15429862
210	0x3c51e625	0.012811218
211	0xbea14d75	-0.31504408
212	0xbeda12a9	-0.42592362
213	0xbea826cc	-0.328421
214	0xbd865e91	-0.06561006
215	0xbc57da61	-0.013174624
216	0xbd332198	-0.04373321
217	0x3e7e19d3	0.24814539
218	0x3e9db6a5	0.3080341
219	0xbe89f16e	-0.2694201
220	0xbe462df3	-0.19353466
221	0x3cad2bae	0.021138992
222	0x3d998a9a	0.07497139
223	0x3e8baace	0.2727875
224	0x3ebee869	0.3728669
225	0x3e7bcf17	0.24590717
226	0xbe7cac7f	-0.24675177
227	0x3dfc4278	0.123173654
228	0xbdf2369b	-0.118268214
229	0xbe4bee6d	-0.19915171
230	0x3da030bc	0.07821795
231	0xbddd0b61	-0.10793186
232	0xbbef09d7	-0.007294874
233	0x3e6f1238	0.23346794
234	0x3ec7ef51	0.3904977
235	0x3d2f9542	0.042866953
236	0x3e0c5386	0.13703737
237	0xbec08c43	-0.3760701
238	0xbd059ea2	-0.032621987
239	0x3eb0c427	0.34524652
240	0xbe2671bf	-0.16254328
241	0xbd2d48bf	-0.042305704
242	0x3eb78771	0.3584552
243	0xbe7bbcd6	-0.24583754
244	0xbdd338ed	-0.10313592
245	0xbe072926	-0.1319929
246	0x3d52582a	0.05135361
247	0x3e4e64fc	0.2015571
248	0xbe700764	-0.2344032
249	0x3e837839	0.2567766
250	0x3d86195d	0.065478064
251	0x3f075614	0.5286572
252	0x3e28574f	0.16439556
253	0xbda85ca8	-0.08220798
254	0x3ae682c6	0.0017586581
255	0x3e5a675a	0.21328488

net.0.bias f4 [64]
0	0x3e101fbf	0.1407461
1	0x3d9e3440	0.0772481
2	0x3e6aab53	0.22916918
3	0xbe9dbe04	-0.30809033
4	0x3e6ff410	0.23432946
5	0x3e624d29	0.22099747
6	0xbdec1a3b	-0.115284406
7	0x3c71dd25	0.014762198
8	0xbe0738d2	-0.13205269
9	0x3d47def8	0.048796624
10	0x3dad8e59	0.08474416
11	0x3e75039b	0.23927157
12	0x3e978212	0.29591423
13	0x3eb18038	0.34668136
14	0x3dde9baf	0.10869538
15	0x3e9e6d5d	0.30942813
16	0xbe1d8bfd	-0.15385433
17	0xbdfadc00	-0.12248993
18	0x3dfe29e4	0.12410334
19	0xbe527e96	-0.20556101
20	0x3e0a6975	0.13516791
21	0xbcd6656d	-0.02617141
22	0xbe7ab447	-0.24482833
23	0xbcefb15e	-0.02925938
24	0x3e060b71	0.13090302
25	0x3d9744e9	0.073861904
26	0x3e9968d3	0.29962787
27	0xbe663ebd	-0.2248487
28	0xbe1d38ea	-0.15353742
29	0xbdda8346	-0.1066957
30	0x3eb6d624	0.3571025
31	0x3e5e5157	0.21710716
32	0x3e4ef2d7	0.20209824
33	0xbe8afc22	-0.27145487
34	0xbd17ed5d	-0.0370916
35	0x3e72e3b0	0.23719668
36	0xbe787eae	-0.24267074
37	0x3e37a47b	0.17933838
38	0x3e735b3d	0.23765273
39	0x3e691de2	0.22765306
40	0x3c8fbf21	0.017547192
41	0xbde949eb	-0.11391052
42	0x3e0d3845	0.13790996
43	0x3eb3b559	0.35099295
44	0xbd415625	-0.047201294
45	0x3e439394	0.19099265
46	0x3ccc1aad	0.024915064
47	0x3df34917	0.11879175
48	0x3df33623	0.1187556
49	0x3e0579be	0.13034722
50	0x3e8910d6	0.26770657
51	0x3e8a56eb	0.27019438
52	0x3cab283b	0.020893207
53	0xbe8f5163	-0.2799178
54	0x3ddc8f24	0.107694894
55	0x3e84016a	0.2578233
56	0x3e474b19	0.19462241
57	0x3ea8de34	0.32982028
58	0xbeae603e	-0.34057802
59	0x3e9eeba6	0.3103916
60	0x3ea9e21f	0.3318033
61	0xbe0d2a2f	-0.13785623
62	0xbe1d8e65	-0.1538635
63	0x3e8af8c8	0.2714293

net.2.weight f4 [64, 64]
0	0xbe1be2e7	-0.15223275
1	0xbd07d753	-0.033164334
2	0x3ca46129	0.02006586
3	0xbc621afa	-0.013800377
4	0x3ddb6964	0.10713461
5	0x3e307bd5	0.17234738
6	0x3dd5a6d1	0.10432208
7	0x3dd64211	0.1046182
8	0x3ddc7762	0.10764958
9	0x3d1807e8	0.037116915
10	0x3d8a4df9	0.06753153
11	0x3e0ed5d0	0.1394875
12	0xbce6804e	-0.028137352
13	0x3d4467cb	0.047950547
14	0x3e33172e	0.17489311
15	0xbdb83f01	-0.08996392
16	0x3b0163c5	0.0019743305
17	0x3e0bff1b	0.13671534
18	0xbdf881db	-0.12134143
19	0x3d06442e	0.032779865
20	0x3bea3cef	0.007148377
21	0xbdd54cdf	-0.104150526
22	0xbde0839e	-0.10962604
23	0xbe3116fe	-0.17293927
24	0x3e1399d2	0.14414147
25	0xbcccf4df	-0.025019107
26	0xbd6e01af	-0.058107074
27	0xbd5ecf5d	-0.054396976
28	0x3e1d9b63	0.15391307
29	0xbca2148e	-0.019785192
30	0xbdccd3b2	-0.10001315
31	0x3e1b6e8e	0.15178892
32	0x3a59b102	0.0008304269
33	0xbd0f86d5	-0.035040695
34	0x3e285220	0.16437578
35	0x3d9373c6	0.071998164
36	0x3d8e4169	0.0694607
37	0xbc060310	-0.008179441
38	0x3dcb9a25	0.0994151
39	0x3d324d91	0.043531004
40	0xbe19fbd6	-0.15037474
41	0x3d613f3d	0.05499195
42	0xbbb1b9c1	-0.005423755
43	0xbe0e92b7	-0.13923155
44	0x3d1e178e	0.038596682
45	0x3e08df15	0.13366349
46	0x3b2da01a	0.0026493133
47	0x3e335593	0.17513113
48	0x3e5a65aa	0.21327844
49	0x3e060c02	0.13090518
50	0x3dd6c4e2	0.10486771
51	0xbd99eb27	-0.07515555
52	0xbc934545	-0.017977366
53	0xbd701f51	-0.058623616
54	0xbd3fc886	-0.046822093
55	0x3d8827cb	0.06648215
56	0xbca71d82	-0.020399813
57	0xbc2b1ba0	-0.010443598
58	0x3dffbb2c	0.12486872
59	0x3d4431fc	0.04789923
60	0x3d4c0644	0.049810663
61	0xbdf5a10e	-0.11993609
62	0xbd0d3f23	-0.03448404
63	0xbe61e072	-0.22058275
64	0xbd299fe4	-0.04141225
65	0xbdb4ccf2	-0.08828153
66	0x3e02dc78	0.12779415
67	0x3d8b6fcd	0.06808434
68	0x3e2b9228	0.16754973
69	0x3e4e8085	0.20166214
70	0x3d998800	0.07496643
71	0x3c97c8b5	0.018528322
72	0xbcad8f85	-0.0211866
73	0x3d0702e9	0.03296176
74	0xbd772ad5	-0.060343582
75	0x3d3e4f85	0.046462554
76	0xbe2d935e	-0.16950747
77	0x3db27ee0	0.08715606
78	0x3dcd3a58	0.10020894
79	0x3d7fa39e	0.062411897
80	0xbde82f24	-0.11337116
81	0xbd5617f4	-0.052268937
82	0xbda71ddd	-0.08159993
83	0x3e0e60e7	0.13904153
84	0xbe81a86a	-0.25323802
85	0x3dbf0e45	0.093288936
86	0x3c9e360c	0.019312881
87	0xbc2a4650	-0.01039274
88	0x3e1319f7	0.14365374
89	0x3db7e350	0.08978903
90	0xbdceb96c	-0.1009396
91	0x3dd13e3e	0.1021695
92	0x3e362aab	0.17789714
93	0xbd0fe602	-0.035131462
94	0xbcf2cc30	-0.02963838
95	0x3e61b3f2	0.220413
96	0x3df9246e	0.121651515
97	0x3d38ef0a	0.04514984
98	0xbc70a2d9	-0.014687263
99	0x3df058de	0.117357
100	0x3dba37f9	0.09092707
101	0xbbb18276	-0.0054171635
102	0x3d8ec5d8	0.069713295
103	0xbd393980	-0.045220852
104	0xbe300a0b	-0.17191331
105	0x3d9ee997	0.077593975
106	0xbe377978	-0.1791743
107	0xbdb2e1c8	-0.087344706
108	0x3d2f6308	0.042819053
109	0x3da1d775	0.07902423
110	0xbcb94846	-0.02261747
111	0x3dc2cab0	0.09511316
112	0x3e913c8f	0.28366515
113	0x3df45bae	0.11931549
114	0xbcd09a9d	-0.02546435
115	0x3dd77ce2	0.105218664
116	0xbc4a2ba4	-0.012339506
117	0x3ca6025e	0.0202648
118	0x3d864aad	0.06557212
119	0x3de9711b	0.11398526
120	0xbe07f3bd	-0.13276573
121	0xbd5bc7ef	-0.05365747
122	0xbd8e640e	-0.06952678
123	0xbbcbb319	-0.0062164185
124	0xbc9990ca	-0.018745799
125	0xbdc9f755	-0.09861628
126	0x3c602dc9	0.013682791
127	0xbaa43832	-0.0012528955
128	0xbc260cdc	-0.010134902
129	0xbd4b66e2	-0.049658664
130	0xbdb36b75	-0.0876073
131	0xbdad473d	-0.08460853
132	0x3d5e7789	0.054313216
133	0x3e118848	0.14212143
134	0x3df904ad	0.12159095
135	0x3e0f2ba0	0.13981485
136	0x3dce2ebe	0.10067509
137	0x3ce9f0c8	0.028557196
138	0x3dbe5b57	0.092947654
139	0x3e346b59	0.17619075
140	0x3dcd878e	0.10035621
141	0xbb711ec4	-0.003679202
142	0x3dfe0a22	0.124042764
143	0x3d2a0031	0.04150409
144	0x3dd84a52	0.105610505
145	0x3e4d3ca0	0.20042658
146	0xbe003e39	-0.12523736
147	0x3e4d17c3	0.20028596
148	0x3dfc2b0b	0.12312897
149	0xbd267a28	-0.04064384
150	0xbc8599e4	-0.016308732
151	0x3defcb84	0.117087394
152	0x3a089c36	0.00052112655
153	0xbdb3b43c	-0.08774611
154	0xbd67892c	-0.0565273
155	0x3d3e9553	0.046529125
156	0x3cf20ca5	0.029547045
157	0xbd4fc171	-0.05072159
158	0xbe08b57e	-0.13350484
159	0xbdc2821b	-0.09497472
160	0x3e5efc2d	0.21775885
161	0x3e0a98af	0.13534807
162	0x3dd86948	0.10566956
163	0x3bd5b5d4	0.0065219197
164	0x3d61c781	0.055121902
165	0x3d4506c7	0.048102167
166	0x3e265ac8	0.16245568
167	0xbe3372da	-0.17524281
168	0x3d4ffe3b	0.050779562
169	0xbcafe47f	-0.02147126
170	0xbd008619	-0.031377885
171	0x3d907f33	0.07055511
172	0x3dc0f983	0.094225906
173	0x3e11be98	0.14232862
174	0x3e401314	0.18757278
175	0x3ca7187f	0.020397423
176	0x3e1f6800	0.15567017
177	0x3df8cd1f	0.12148499
178	0x3e56e0e7	0.20984231
179	0x3d2afc24	0.041744366
180	0x3cb52d32	0.022116277
181	0x3cb582fc	0.022157185
182	0x3b55e749	0.0032639077
183	0xbd875b81	-0.0660925
184	0xbe6ba72b	-0.23012988
185	0xbd2ba3ad	-0.04190414
186	0xbdd3e7da	-0.103469566
187	0xbc936678	-0.017993197
188	0x3ddafca1	0.106927164
189	0xbdd09df8	-0.1018638
190	0x3db88738	0.09010166
191	0x3d3e5850	0.04647094
192	0x3d762ac6	0.060099386
193	0xbd3a3451	-0.04546005
194	0xbc482b1c	-0.012217309
195	0x3deb5f06	0.11492734
196	0xbd36a011	-0.044586245
197	0xbd70a102	-0.0587473
198	0xbd9fb2a5	-0.077977456
199	0xbd9a90c8	-0.07547146
200	0x3d083b6e	0.0332598
201	0xbd9bfc9f	-0.07616543
202	0xbd1fa2d6	-0.03897365
203	0x3df439e6	0.11925106
204	0x3d018355	0.03161939
205	0xbdcf7285	-0.10129265
206	0xbd6801a2	-0.056642182
207	0xbdd5f7c1	-0.10447646
208	0xbdcf32fd	-0.10117147
209	0xbd55403e	-0.05206322
210	0x3dcfd1bf	0.10147428
211	0x3d7bfc31	0.061519805
212	0xbc5fe8d6	-0.013666352
213	0x3d9c4bd1	0.07631648
214	0xbd102857	-0.03519472
215	0xbc17c268	-0.009262659
216	0xbba19410	-0.0049309805
217	0xbc9ec808	-0.019382492
218	0xbb7723cb	-0.0037710543
219	0xbded1076	-0.11575405
220	0x3ddf3980	0.10899639
221	0x3e05ea3b	0.13077633
222	0xbdddc3ce	-0.108283624
223	0xbb9bad90	-0.004750915
224	0x3d9e01e0	0.077152014
225	0xbd5257cd	-0.051353265
226	0xbd8dcf26	-0.06924276
227	0x3d6e6e2b	0.058210533
228	0xbd2cd7cc	-0.042197987
229	0xbd87f885	-0.06639198
230	0xbdd6bd01	-0.104852684
231	0x3dd9c153	0.10632577
232	0x3b86f662	0.0041187266
233	0x3d15f522	0.03661073
234	0xbcbbd921	-0.022930684
235	0xbe00adaa	-0.12566248
236	0xbd772749	-0.0603402
237	0x3d21e0cc	0.039521024
238	0x3cc6a770	0.024249762
239	0xbd407d23	-0.04699434
240	0x3c2008a4	0.009767685
241	0x3ce73c37	0.028226955
242	0xbdcc9af1	-0.0999049
243	0xbd4bfda6	-0.049802445
244	0xbcfa6109	-0.030563848
245	0xbcf42f55	-0.029807726
246	0xbdff3a08	-0.124622405
247	0xbcf31dd9	-0.029677318
248	0xbda8b8c8	-0.08238369
249	0xbdf2a6c2	-0.11848213
250	0x3c7b7245	0.015347068
251	0x3d6bc212	0.057558127
252	0x3d5a3253	0.05327065
253	0xbd728709	-0.05921081
254	0xbc638a6c	-0.013887983
255	0xbcf9b550	-0.030481964

net.2.bias f4 [64]
0	0x3e09b2b3	0.13447075
1	0x3d8e8d10	0.06960499
2	0x3d97fb08	0.07420927
3	0x3cbcc459	0.023042845
4	0xbd0ddd99	-0.03463516
5	0xbd74c876	-0.059761487
6	0x3dc020d5	0.09381262
7	0x3dad661c	0.084667414
8	0x3d459928	0.048241764
9	0xbd9d61f6	-0.076847
10	0x3dc3d663	0.095623754
11	0x3d8e439c	0.06946489
12	0x3e2c9989	0.16855444
13	0x3d50374f	0.050833996
14	0x3e21fec7	0.15819846
15	0xbdb1eb1d	-0.086874224
16	0xbd6f2fa3	-0.05839504
17	0xbc0ea0be	-0.008705316
18	0x3d5043d1	0.050845925
19	0x3e219097	0.15777813
20	0xbdbcf4d4	-0.09226385
21	0xbdcd838a	-0.10034855
22	0xbd7c589e	-0.06160795
23	0x3d503d50	0.050839722
24	0xbe053e41	-0.13012029
25	0x3da2099a	0.079119876
26	0x3c29b172	0.010357248
27	0x3df6282d	0.12019382
28	0x3e0f6824	0.1400457
29	0x3d21504d	0.03938322
30	0xbcab24e2	-0.02089161
31	0xbdb79676	-0.08964245
32	0xbd4793cb	-0.04872493
33	0xbd4a8ec8	-0.049452573
34	0xbdd86b09	-0.1056729
35	0xba31e808	-0.00067865895
36	0xbbd4af8b	-0.006490653
37	0xbde973b7	-0.11399024
38	0x3d92ac32	0.0716175
39	0xbcb8d710	-0.022563487
40	0x3db6edfd	0.089321114
41	0x3df2c7ff	0.118545525
42	0xbcf83ddf	-0.03030294
43	0xbda6f372	-0.08151902
44	0x3e1730ec	0.14764756
45	0x3e0c8294	0.13721687
46	0xbdc34e42	-0.09536411
47	0xbd1aceac	-0.037794754
48	0x3dc84aa0	0.097798586
49	0xbdc2fe89	-0.09521205
50	0x3d08ad5e	0.03336846
51	0x3db8d9d2	0.09025921
52	0x3cc7ae08	0.024374977
53	0x3d6d77dd	0.05797564
54	0x3bf931da	0.0076048197
55	0xbd563545	-0.052296896
56	0xbdbd1453	-0.09232392
57	0x3de27b70	0.110587
58	0x3dc91902	0.09819223
59	0x3db10b2f	0.08644711
60	0x3d6e7203	0.0582142
61	0xbd741e4d	-0.05959921
62	0xbd537ccb	-0.051632684
63	0xbd5b74b4	-0.053578094

net.4.weight f4 [4, 64]
0	0x3d28881d	0.041145433
1	0x3c228b5c	0.009920921
2	0xbe139509	-0.14412321
3	0x3ddeacb9	0.10872788
4	0xbd8cae77	-0.06869214
5	0x3c2870c8	0.010280795
6	0x3bf9d6a8	0.007624466
7	0xbdc02a1d	-0.093830325
8	0xbd217458	-0.039417595
9	0xbd8a4fff	-0.06753539
10	0xbe44abee	-0.19206211
11	0x3c5cc929	0.013475695
12	0x3d80c49e	0.06287502
13	0xbe82d09d	-0.25549784
14	0xbe605d44	-0.21910578
15	0xbdddf931	-0.10838545
16	0xbdfbb088	-0.1228953
17	0x3d07600e	0.03305059
18	0x3d5f82e3	0.054568183
19	0x3da20988	0.07911974
20	0x3c33467c	0.010942098
21	0xbd935252	-0.07193436
22	0xbde5d537	-0.11222308
23	0xbdd52f4c	-0.10409412
24	0xbca76122	-0.020432059
25	0x3d949a1d	0.07255957
26	0xbdd10e3f	-0.10207795
27	0xbe40a987	-0.1881467
28	0x3cc2c00a	0.023773212
29	0xbd1f345c	-0.038868293
30	0x3d1ffd57	0.039059963
31	0x3c52060c	0.0128188245
32	0x3ddbe08d	0.10736189
33	0x3dcb185c	0.099167556
34	0xbda33cc1	-0.07970572
35	0xbcb97ca2	-0.022642437
36	0x3d3416e0	0.043967128
37	0x3da3327e	0.07968615
38	0xbd372294	-0.04471071
39	0xbdd4aa53	-0.10384049
40	0xbde3ce5e	-0.11123346
41	0x3dcd56a5	0.10026292
42	0x3b988b66	0.0046552895
43	0xbd323374	-0.0435061
44	0xbdcaf598	-0.099101245
45	0xbe5328ac	-0.20620984
46	0xbcaa00ae	-0.020752277
47	0x3d6bcc83	0.057568084
48	0x3d1e21cd	0.038606454
49	0x3cb286fa	0.021792877
50	0xbcff9aba	-0.031201709
51	0xbe1ab715	-0.15108903
52	0xbe5800db	-0.21094076
53	0xbd96c798	-0.07362288
54	0xbc29c4e2	-0.010361882
55	0x3d4f1b3e	0.05056309
56	0xbc2b0e45	-0.010440414
57	0x3d572cfb	0.05253313
58	0x3c9bc01e	0.019012507
59	0xbe5ec2b0	-0.21753955
60	0x3b6055d5	0.0034230847
61	0x3d8aa370	0.067694545
62	0xbe290f28	-0.16509688
63	0xbd3373ef	-0.043811735
64	0xbd923997	-0.07139891
65	0xbd9686bf	-0.073499195
66	0xbe32cb63	-0.17460398
67	0xbbd5ca5e	-0.006524368
68	0x3bf84bcb	0.0075773946
69	0xbe6c8e6b	-0.23101203
70	0x3af73f84	0.0018863534
71	0x3e06f757	0.1318029
72	0x3d149764	0.03627719
73	0x3e1a0292	0.15040043
74	0xbd9e347e	-0.07724856
75	0xbd421f74	-0.047393277
76	0x3d68b95e	0.056817405
77	0xbd8282af	-0.06372582
78	0xbdffc730	-0.12489164
79	0xbd8cc78c	-0.06873998
80	0xbdfc20c8	-0.1231094
81	0x3e3c0ece	0.18365023
82	0xbde6f915	-0.112779774
83	0x3e60661b	0.2191395
84	0x3d1f6323	0.038912904
85	0x3dc2d365	0.095129766
86	0x3d6f322f	0.05839747
87	0x3c456e6b	0.0120502515
88	0xbd1dddcf	-0.03854161
89	0x3e1b6356	0.15174612
90	0x3d220748	0.039557725
91	0x3d28f434	0.041248515
92	0x3e5adc6a	0.21373144
93	0xbe5c8504	-0.21535116
94	0xbe897334	-0.26845706
95	0x3cd98e1a	0.026557017
96	0xbdcb918e	-0.09939872
97	0xbdc06c2e	-0.09395634
98	0xba538664	-0.0008069037
99	0x3e2a9a27	0.16660367
100	0x3e55ec43	0.20890908
101	0x3c4ac9f0	0.012377247
102	0x3ccd9b9c	0.025098614
103	0xbbcc1f5c	-0.0062293243
104	0x3d5b6a8d	0.05356841
105	0x3e483a90	0.1955359
106	0xbe46b6d9	-0.19405688
107	0x3e769089	0.24078573
108	0x3dbc5b8c	0.09197149
109	0xbdc265da	-0.09492083
110	0x3d992072	0.074768916
111	0x3e693fdc	0.22778267
112	0x3e797e3a	0.24364558
113	0xbbb32be1	-0.0054678773
114	0xbd40ea79	-0.04709861
115	0x3cc512e9	0.024056869
116	0xbe229829	-0.15878357
117	0xbda4b078	-0.08041471
118	0x3e565706	0.20931634
119	0xbd202eb8	-0.039107054
120	0x3d61321c	0.05497943
121	0xbe243db3	-0.16039161
122	0x3e31ae2a	0.17351595
123	0xbe6bb3d8	-0.23017824
124	0x3d34b3bc	0.04411672
125	0xbd60241f	-0.054721948
126	0xbe68260b	-0.22670762
127	0xbda1ea59	-0.079060264
128	0xbd0bc704	-0.034125343
129	0xbe198a68	-0.14994204
130	0x3dc565ad	0.09638534
131	0x3cb14a63	0.021641916
132	0xbdcbb156	-0.099459335
133	0xbd83040f	-0.063972585
134	0x3d8478b7	0.06468337
135	0x3d7324ed	0.059361387
136	0xbdac100e	-0.084015
137	0x3e3b8f3a	0.18316355
138	0x3e0624b1	0.13099934
139	0xbd8a9241	-0.06766177
140	0xbe8126d3	-0.25224933
141	0x3e28a83d	0.16470428
142	0x3e9921c4	0.29908574
143	0x3d5453d5	0.05183776
144	0x3e05dde0	0.1307292
145	0xbe9f0690	-0.31059694
146	0xbd638d4e	-0.05555468
147	0xbd8369a8	-0.06416637
148	0x3db489e2	0.088153616
149	0xbd4ff42c	-0.05076997
150	0xbdc866cb	-0.09785231
151	0x3e1ddc4d	0.1541607
152	0xbd37c1d7	-0.044862594
153	0x3dd31b97	0.10307997
154	0xbe2bd1a5	-0.16779192
155	0x3e388ccd	0.18022461
156	0xbe170d32	-0.14751127
157	0x3e3f1973	0.18662052
158	0x3dd4b6c4	0.10386422
159	0xbdcda20e	-0.10040675
160	0x3d72ac8c	0.059246585
161	0x3dac9866	0.08427505
162	0xbcadd623	-0.021220272
163	0x3d9b8a1d	0.075947024
164	0x3d84f773	0.0649251
165	0x3d4796bd	0.04872774
166	0xbdf97c9b	-0.1218197
167	0xbdc6ffd1	-0.09716762
168	0x3c62dc35	0.013846447
169	0xbe17109a	-0.14752427
170	0x3e35145e	0.1768355
171	0xbe4148f1	-0.18875481
172	0x3e760a9f	0.24027489
173	0x3e24fe14	0.16112548
174	0x3d22ef6d	0.039779115
175	0xbe9bd6f0	-0.30437422
176	0x3c7ee3bb	0.015557225
177	0x3dbe47de	0.09291051
178	0x3dcec493	0.10096087
179	0xbe2fe880	-0.17178535
180	0x3e0fa64e	0.14028284
181	0x3e349737	0.17635809
182	0x39a2379d	0.00030940483
183	0xbe73fb14	-0.23826247
184	0xbdaaeb3c	-0.08345649
185	0x3e4d4ab5	0.2004803
186	0x3e157ab8	0.14597595
187	0x3def2149	0.116762705
188	0xbe001eaa	-0.12511697
189	0x3d6650c6	0.056229375
190	0xbdc744eb	-0.09729942
191	0x38132424	3.508119e-05
192	0x3e8a1bc3	0.26974306
193	0x3e54f6f5	0.20797332
194	0x3e47020d	0.19434376
195	0x3d49c557	0.049260464
196	0xbd0a31d0	-0.03373891
197	0x3e62d6bc	0.22152227
198	0x3c77908f	0.015110149
199	0xbe687c77	-0.2270373
200	0xbd941dfe	-0.07232283
201	0xbe3e886a	-0.18606725
202	0x3e441852	0.19149902
203	0x3d7e3fd4	0.06207259
204	0x3e8d13b6	0.275541
205	0xbe6f246d	-0.23353739
206	0xbe1417ec	-0.1446225
207	0xbdd389cf	-0.10329019
208	0x3e0048e2	0.12527803
209	0x3e8737c6	0.2640974
210	0xbde1a847	-0.110184245
211	0xbe5b2772	-0.21401766
212	0xbe5a5417	-0.2132114
213	0x3db6e1fc	0.08929822
214	0xbdb5c863	-0.08876111
215	0xbe38f1ca	-0.18060985
216	0x3d6b0723	0.057379853
217	0xbe4edd7e	-0.2020168
218	0x3ca89b6c	0.020581923
219	0xbe62a53d	-0.22133346
220	0xbe35851b	-0.17726557
221	0x3e2603c3	0.16212372
222	0x3d7b3753	0.06133206
223	0x3cf7c4b9	0.030245172
224	0xbc275ee7	-0.010215498
225	0x3da59838	0.08085674
226	0xbc11e30e	-0.008904232
227	0x3d8cfcc0	0.06884146
228	0xbd328812	-0.043586798
229	0x3de88ed0	0.11355364
230	0xbd579274	-0.052629903
231	0x3e933acf	0.28755805
232	0xbe41eacb	-0.18937223
233	0xbe0c03ea	-0.13673368
234	0x3e626dca	0.22112194
235	0xbc9aeaeb	-0.018910846
236	0xbcc342ef	-0.023835627
237	0x3c99e65a	0.018786598
238	0x3c7f8d61	0.015597672
239	0x3da2a105	0.07940868
240	0xbe14f486	-0.14546403
241	0xbdb5592c	-0.08854899
242	0x3db10550	0.086435914
243	0x3e60db9c	0.21958774
244	0xbe1ec9e5	-0.15506704
245	0xbe4b83f6	-0.19874558
246	0xbdca939a	-0.09891434
247	0x3e4fa067	0.20276032
248	0x3dd7dbb5	0.10539953
249	0x3daadc78	0.08342832
250	0xbe4cb9c7	-0.19992743
251	0x3e2095ca	0.1568214
252	0xbd1f6b15	-0.03892048
253	0x3db853aa	0.09000333
254	0x3e5884fe	0.21144482
255	0xbdad8367	-0.08472329

net.4.bias f4 [4]
0	0xbde1bee0	-0.11022735
1	0xbd34d00b	-0.044143718
2	0x3df9542a	0.12174256
3	0x3dd37ed2	0.103269234

exp_avg f4 [64, 8]
0	0xbc09219a	-0.008369828
1	0xbc5db0e5	-0.0135309445
2	0xb9e4c88e	-0.00043636974
3	0x3be05174	0.0068456475
4	0xbbeff851	-0.007323303
5	0x3bd482cb	0.0064853183
6	0xb9a0378b	-0.0003055896
7	0xbb5cdd56	-0.0033701262
8	0xbb93cde6	-0.004510629
9	0xbbcd82e3	-0.0062717064
10	0xba63450e	-0.0008669653
11	0x3ae2f84c	0.001731643
12	0xbb4de692	-0.0031417948
13	0x3b30fa27	0.0027004571
14	0xba9f23e3	-0.0012141432
15	0xbb6fbb60	-0.003658019
16	0xbbb99888	-0.005663935
17	0xbb9186d2	-0.0044411207
18	0x3ae01985	0.0017097449
19	0x3aacb386	0.0013176061
20	0xbb5f232e	-0.0034048068
21	0x3b8f1b55	0.004367272
22	0xbb596473	-0.0033171445
23	0xbbb62c63	-0.0055594905
24	0xb86ed9d8	-5.6946505e-05
25	0xb68c75f9	-4.186059e-06
26	0x3827850d	3.9939816e-05
27	0x37ea13cc	2.7904192e-05
28	0xb854364a	-5.05953e-05
29	0x38952148	7.111073e-05
30	0xbaeb84e5	-0.0017968683
31	0xbb06e18b	-0.0020581211
32	0x3c53f8db	0.01293775
33	0x3d0ab0db	0.03386007
34	0x3be937c5	0.007117244
35	0xbc95005a	-0.018188644
36	0x3c5e37ae	0.01356308
37	0xbc0b72f7	-0.0085112965
38	0xbc2f074c	-0.010682892
39	0xbbfdcecc	-0.0077455994
40	0x3c001074	0.007816423
41	0x3b8a56d5	0.004221777
42	0xbb9e4e0f	-0.0048310827
43	0xbb1c7ab6	-0.0023876852
44	0x3b7f88dd	0.003899149
45	0xbbda3762	-0.006659434
46	0x3b6dafe5	0.0036268171
47	0x3bd96202	0.006633998
48	0x3c65ec6e	0.01403342
49	0x3d051963	0.032494914
50	0x3baa0cbb	0.005189506
51	0xbc80f9e7	-0.015744163
52	0x3c5ec011	0.013595597
53	0xbc228cae	-0.009921236
54	0xbbcaaa48	-0.00618485
55	0xbac1c38d	-0.001478301
56	0x3c2a4c86	0.010394221
57	0x3ca39447	0.019968165
58	0x3b3e40b4	0.0029030265
59	0xbc1ac0f7	-0.0094454205
60	0x3c29c9de	0.01036307
61	0xbbab00a1	-0.005218581
62	0x174cb485	6.6143803e-25
63	0x3a8d2abe	0.0010770184
64	0x3a13d30a	0.0005639052
65	0xbb2cae69	-0.0026349074
66	0xbadbb13a	-0.0016761192
67	0x3aa2f7af	0.0012433435
68	0x3a1e5840	0.0006040372
69	0xb98637f2	-0.00025600154
70	0xb99816b8	-0.00029008626
71	0xb94d26bb	-0.00019564752
72	0xbbe7f6f4	-0.0070789997
73	0xbc92f263	-0.017937845
74	0xbb60f47f	-0.0034325419
75	0x3c095871	0.0083829025
76	0xbbf8f1c6	-0.007597181
77	0x3b98b5ba	0.0046603354
78	0x3aedffe1	0.0018157923
79	0xb5c2d910	-1.45173e-06
80	0x3acf5948	0.0015819455
81	0xbb925799	-0.004466009
82	0xbb635f77	-0.0034694353
83	0x3b068f50	0.0020532198
84	0xb9d87ada	-0.00041290262
85	0xba979c0f	-0.0011566895
86	0x3b4610ac	0.003022234
87	0x3b5bc1a6	0.0033532172
88	0x3c2ca716	0.010537883
89	0x3c0bbc8b	0.008528839
90	0xba781029	-0.0009462857
91	0xbbb64077	-0.005561884
92	0x3bce9dbd	0.006305425
93	0xbbde7b2e	-0.0067895865
94	0x3b543e16	0.003238564
95	0x3bec4d36	0.0072113527
96	0xbc21e345	-0.009880845
97	0xbcb58829	-0.022159653
98	0xbb9ab184	-0.0047208685
99	0x3c197118	0.009365343
100	0xbc222d1d	-0.009898451
101	0x3beb327d	0.0071776495
102	0x3b81fa8e	0.003966636
103	0xb9e603aa	-0.00043871748
104	0x3bc483a1	0.0059971367
105	0x3b8619c2	0.004092426
106	0xbb527363	-0.0032112233
107	0xbb163cd6	-0.0022924445
108	0x3b630a1a	0.0034643472
109	0xbb8b6b0e	-0.0042547053
110	0x3aa12ca6	0.0012296631
111	0x3b50a978	0.0031839292
112	0x3b9ba89e	0.0047503253
113	0x3b9028f2	0.0043994123
114	0xbbb7d2d1	-0.005609848
115	0x3a72d9b8	0.000926401
116	0x3a7af37b	0.00095730246
117	0xbb67ba79	-0.003535895
118	0x3be554e0	0.0069986433
119	0x3bfaf814	0.0076589677
120	0xb9e06c16	-0.0004280514
121	0xbc65111e	-0.013981132
122	0xbbecfb35	-0.0072320946
123	0x3baef862	0.005339668
124	0xbb2a7076	-0.0026006973
125	0xba7316b0	-0.0009273095
126	0x3bc49a89	0.0059998673
127	0x3bbe8d37	0.005815174
128	0xb9be52dc	-0.0003630136
129	0x39f80ad6	0.0004731032
130	0x39ec7e20	0.00045107398
131	0xb91312ce	-0.00014026018
132	0xb6ca8085	-6.0350308e-06
133	0x3a410b71	0.00073640706
134	0x3ab6f6e5	0.0013959078
135	0x37b9ba62	2.214051e-05
136	0x3b9cb2ac	0.0047820415
137	0x3bafcb3d	0.005364804
138	0xba32ae1c	-0.00068161055
139	0xba90ef49	-0.0011057641
140	0x3b91626e	0.0044367826
141	0xbb4d5add	-0.0031334676
142	0xb83f55d1	-4.561787e-05
143	0x37d6a146	2.5585887e-05
144	0xbbd48b55	-0.0064863362
145	0xbc45d636	-0.012074998
146	0xbaba7687	-0.0014225998
147	0x3bb7091a	0.005585802
148	0xbbbfaf9b	-0.005849791
149	0x3b8f3d8f	0.004371352
150	0x3b4994af	0.0030758788
151	0x3adbd16d	0.0016770788
152	0x3c0fff86	0.008788949
153	0x3cfc0435	0.030763725
154	0x3aeb8cb5	0.0017971011
155	0xbc70aa19	-0.014688992
156	0x3c3d2a16	0.011545679
157	0xbba13cb9	-0.004920569
158	0x3981cfe0	0.00024759676
159	0x39012dcc	0.0001231946
160	0xbc59f3c9	-0.013302752
161	0xbd168770	-0.036750257
162	0xbc0cb77b	-0.008588667
163	0x3ca0e118	0.019638583
164	0xbc76b9de	-0.015058963
165	0x3c048a17	0.008089564
166	0xbb7d66a9	-0.0038665927
167	0xbb10d87a	-0.0022101686
168	0x3944db92	0.00018773813
169	0xbaf48d07	-0.0018657752
170	0xb9e812be	-0.00044264452
171	0x3ab2b391	0.0013633837
172	0xba723fb2	-0.0009241059
173	0x393b020a	0.0001783447
174	0x3a747c69	0.00093264
175	0x3a63cd06	0.00086899137
176	0x313109c3	2.5762439e-09
177	0xb00209f1	-4.730785e-10
178	0x3204def4	7.734105e-09
179	0xaec5de4d	-8.9980114e-11
180	0x3136cdf8	2.6601565e-09
181	0x31361b39	2.649996e-09
182	0xb100ec7b	-1.8760875e-09
183	0xa50f33c1	-1.2420808e-16
184	0xbba0e190	-0.0049097016
185	0x3bf6600b	0.0075187734
186	0xbb51ff41	-0.0032043012
187	0xbb29e01f	-0.002592094
188	0xbb7d3792	-0.0038637859
189	0x3b41b0b8	0.0029554795
190	0xbb318133	-0.0027085065
191	0xbb2afd6a	-0.0026090988
192	0x3aa37750	0.0012471471
193	0xbb51a00b	-0.0031986262
194	0xba965537	-0.0011469488
195	0xb80168a3	-3.0853447e-05
196	0x3b49dccc	0.0030801771
197	0xbaf33768	-0.0018555941
198	0xbc37f620	-0.011228114
199	0xbc1579a4	-0.00912324
200	0xbb3bf93a	-0.0028682486
201	0x3a53187c	0.00080526597
202	0x3b459d7d	0.0030153685
203	0xba906158	-0.0011015339
204	0xbaaf8715	-0.0013391698
205	0x3b584a1d	0.003300316
206	0xbb93e829	-0.0045137596
207	0xbbe6ea4e	-0.0070469743
208	0xbc3a741a	-0.01138022
209	0xbc959ec1	-0.018264176
210	0xb9961ae1	-0.00028630256
211	0x3c30ae36	0.010783723
212	0xbc123b85	-0.008925323
213	0x3c244fd1	0.010028795
214	0x3b7e2c40	0.00387837
215	0xb9979a55	-0.0002891595
216	0xba891fdf	-0.0010461769
217	0xb8238898	-3.898944e-05
218	0x3abb68e4	0.0014298228
219	0xba2749af	-0.0006381524
220	0xbb117310	-0.0022193827
221	0x3ae13482	0.0017181786
222	0xbb823933	-0.003974104
223	0xbb92725f	-0.0044692005
224	0x3b5ebe69	0.0033988005
225	0x3bec141d	0.007204546
226	0x3a5ded6c	0.00084658596
227	0xbb4caaf1	-0.0031229819
228	0x3b416e55	0.0029515226
229	0xbabe3efa	-0.0014514618
230	0x391229e9	0.00013939258
231	0xb75f70f5	-1.3318136e-05
232	0xbb638e6b	-0.003472234
233	0x3c4b7f62	0.012420507
234	0xbb0e0861	-0.0021672475
235	0xbbbe95eb	-0.0058162115
236	0xbb907327	-0.0044082585
237	0xba09f3fa	-0.00052624906
238	0xbb958165	-0.004562544
239	0xbbd36b8b	-0.006452029
240	0xbbc5358d	-0.0060183466
241	0xbc1ac633	-0.009446668
242	0x3980a50a	0.00024537026
243	0x3b8df631	0.004332327
244	0xbb9c0500	-0.0047613382
245	0x3b98e996	0.0046665175
246	0xba18b86b	-0.000582582
247	0xbb483374	-0.0030548247
248	0x3c4c1ccf	0.01245804
249	0x3cfba54f	0.030718474
250	0x3be32aa9	0.0069325757
251	0xbc882ec3	-0.01662386
252	0x3c597348	0.013272114
253	0xbc096113	-0.008384961
254	0xbc2d5317	-0.010578892
255	0xbbea11b2	-0.0071432227

exp_avg_sq f4 [64, 8]
0	0x39015e3b	0.00012337502
1	0x3ac04a9b	0.0014670672
2	0x3940b8d4	0.000183794
3	0x39b536b7	0.00034563776
4	0x393dec88	0.0001811256
5	0x38dd28d3	0.00010545705
6	0x394dcc33	0.00019626394
7	0x39506f64	0.00019877922
8	0x389998dd	7.3240815e-05
9	0x39881c74	0.0002596114
10	0x3889ad8a	6.564993e-05
11	0x393a3b08	0.00017760333
12	0x388da5a4	6.754257e-05
13	0x38838b95	6.272566e-05
14	0x3951624b	0.0001996841
15	0x394b4027	0.00019383487
16	0x3942ae1c	0.00018566143
17	0x3b061c0d	0.0020463497
18	0x39988c36	0.00029096165
19	0x39f9955e	0.00047604268
20	0x395a519e	0.00020820505
21	0x392e55de	0.00016625921
22	0x39abdd81	0.00032780695
23	0x3987d612	0.000259087
24	0x3712c10e	8.747227e-06
25	0x36485025	2.9848973e-06
26	0x36bf5971	5.702656e-06
27	0x37958b2e	1.7826995e-05
28	0x374979bb	1.2008876e-05
29	0x375f6976	1.331639e-05
30	0x37a347ea	1.9464602e-05
31	0x37dafe9c	2.6106187e-05
32	0x398ffbec	0.00027462782
33	0x3b790c82	0.003800184
34	0x39d5e163	0.00040794452
35	0x3a60bf86	0.0008573461
36	0x398bb165	0.00026644315
37	0x3968be04	0.0002219603
38	0x39e3a09d	0.0004341648
39	0x39f66658	0.00046997028
40	0x39a3906c	0.00031197385
41	0x3b4e70d0	0.0031500347
42	0x39d249ce	0.0004010931
43	0x3a42f16c	0.00074364874
44	0x39945a1c	0.00028295896
45	0x39566311	0.00020445535
46	0x39ea076f	0.00044637496
47	0x3a027417	0.0004976405
48	0x39052c81	0.00012700447
49	0x3b1f4c87	0.0024307088
50	0x398d2d6f	0.00026927466
51	0x39e3dd7a	0.00043461827
52	0x394242f7	0.00018526228
53	0x39261d0a	0.00015841812
54	0x39d565cb	0.00040702368
55	0x39d951d1	0.00041450423
56	0x38b8b4a8	8.8074536e-05
57	0x3acd1d82	0.0015649053
58	0x39310153	0.00016880529
59	0x395f3641	0.00021287148
60	0x38fd1316	0.00012067535
61	0x388dabe4	6.755421e-05
62	0x338d443b	6.578235e-08
63	0x3818c526	3.6423233e-05
64	0x3851b435	4.9997314e-05
65	0x3a25cbc5	0.00063246145
66	0x38b9698f	8.841149e-05
67	0x39861ae1	0.00025578498
68	0x389d8f95	7.5130876e-05
69	0x3840deda	4.5983914e-05
70	0x37c3514b	2.3283666e-05
71	0x376e104c	1.41897e-05
72	0x38959732	7.133036e-05
73	0x3a8d7b86	0.0010794259
74	0x390adc96	0.0001324288
75	0x398ae430	0.00026491424
76	0x38b6727d	8.6997614e-05
77	0x3847fddc	4.7681722e-05
78	0x37e0f7d3	2.6818283e-05
79	0x35d0d90b	1.5560375e-06
80	0x389e0fa7	7.5369426e-05
81	0x3a4a4b6b	0.00077169266
82	0x38e39754	0.000108523906
83	0x394fc669	0.00019814972
84	0x3892c912	6.999275e-05
85	0x383b5901	4.4667166e-05
86	0x38ff6ea1	0.00012179954
87	0x39091d5a	0.00013076272
88	0x39a11fea	0.0003073209
89	0x3b3812aa	0.0028087297
90	0x39c64c52	0.00037822366
91	0x3a1795d2	0.0005782518
92	0x395a3ed5	0.00020813507
93	0x391eae48	0.00015132979
94	0x3a00b469	0.00049096957
95	0x3a04300c	0.000504256
96	0x39511081	0.00019937941
97	0x3acc61e9	0.0015593144
98	0x396b2bba	0.00022427636
99	0x3a172af3	0.0005766593
100	0x393069b6	0.00016824048
101	0x39217c0e	0.0001540037
102	0x39e51846	0.0004369637
103	0x39d7b77d	0.00041144705
104	0x396bcd9b	0.0002248794
105	0x3afdfb2a	0.0019377221
106	0x39acdd93	0.00032971482
107	0x3a285834	0.00064218347
108	0x396237b6	0.00021573793
109	0x39337c11	0.00017116989
110	0x39aafde9	0.00032614105
111	0x39b2081d	0.0003395685
112	0x39abca2a	0.00032766286
113	0x3b50907b	0.0031824398
114	0x39e86ff7	0.0004433391
115	0x3a5a6cef	0.00083322724
116	0x3962844f	0.00021602328
117	0x3916ea62	0.00014392429
118	0x3a236c5a	0.0006234102
119	0x3a06b729	0.00051389873
120	0x393394fb	0.0001712627
121	0x3b077c74	0.0020673545
122	0x398c91b0	0.00026811427
123	0x3a221697	0.0006183176
124	0x396f72c2	0.00022835567
125	0x392efdde	0.00016688506
126	0x3921978a	0.00015410609
127	0x3944bfa0	0.00018763402
128	0x35f9de98	1.8616729e-06
129	0x3505944d	4.9762167e-07
130	0x36654a68	3.416697e-06
131	0x356e5ceb	8.879712e-07
132	0x36729767	3.6148938e-06
133	0x3784169c	1.5746155e-05
134	0x36c1606b	5.7630727e-06
135	0x3588e68e	1.019989e-06
136	0x381ec150	3.785017e-05
137	0x3a41b755	0.00073896843
138	0x38a3bc82	7.807558e-05
139	0x391589b4	0.00014261046
140	0x3829910d	4.042783e-05
141	0x37c7a2c6	2.3798446e-05
142	0x3583865d	9.799365e-07
143	0x35497acf	7.5057045e-07
144	0x388849bf	6.4987216e-05
145	0x3a31d1f7	0.00067833014
146	0x38f0f78e	0.000114902025
147	0x3933b980	0.00017139874
148	0x38b145cc	8.4530184e-05
149	0x384d1942	4.8899332e-05
150	0x3869c9c7	5.573945e-05
151	0x381e8813	3.7796864e-05
152	0x389cd5dc	7.478494e-05
153	0x3af181c0	0.0018425509
154	0x392298e7	0.00015506484
155	0x394252ce	0.00018532129
156	0x38b48afb	8.608956e-05
157	0x38a85e31	8.028409e-05
158	0x37d35734	2.5193767e-05
159	0x36fb3dee	7.4875925e-06
160	0x399c8a85	0.00029857844
161	0x3b86ccbd	0.004113762
162	0x39ee45b8	0.00045446842
163	0x3a9312d4	0.0011220821
164	0x399c6da5	0.0002983633
165	0x3940bacd	0.00018380136
166	0x384e2dc9	4.9156868e-05
167	0x38d3fa35	0.00010107869
168	0x37d747cf	2.5663436e-05
169	0x388b029d	6.628523e-05
170	0x38063af5	3.2002998e-05
171	0x389b9dd7	7.420376e-05
172	0x37f2cdcb	2.8944478e-05
173	0x379eb995	1.8921486e-05
174	0x37dd6b79	2.6395299e-05
175	0x37e027cd	2.6721415e-05
176	0x35824a03	9.707295e-07
177	0x3335576d	4.222186e-08
178	0x35de9239	1.6582845e-06
179	0x349d6b6a	2.9321683e-07
180	0x36f1e247	7.208702e-06
181	0x376e5faa	1.4208179e-05
182	0x36084ff1	2.0312111e-06
183	0x31d8eb1e	6.313157e-09
184	0x380aa9a5	3.3059758e-05
185	0x397bd7a9	0.00024017565
186	0x3883079b	6.2479834e-05
187	0x38e3cfd6	0.00010862916
188	0x38210de5	3.839833e-05
189	0x3857857b	5.1384308e-05
190	0x37339d4c	1.0705855e-05
191	0x37933f4e	1.7553244e-05
192	0x388e5627	6.787135e-05
193	0x37c2a4a5	2.320327e-05
194	0x38351a30	4.3178152e-05
195	0x3896d605	7.1924216e-05
196	0x38201005	3.8161892e-05
197	0x38dcbc90	0.0001052554
198	0x399b8fe1	0.00029671102
199	0x39a60d2a	0.00031671795
200	0x392e8b27	0.00016645771
201	0x3afff1cb	0.0019527016
202	0x39849fda	0.000252961
203	0x39fee49b	0.0004861698
204	0x3973cf0e	0.0002325142
205	0x39215aa2	0.0001538792
206	0x399369c6	0.00028116832
207	0x3999390b	0.00029224934
208	0x396f1e00	0.00022803992
209	0x3af71854	0.0018851855
210	0x398a74b8	0.00026408373
211	0x3a031baa	0.00050013757
212	0x39432445	0.0001861016
213	0x390467cf	0.00012627173
214	0x39ee7d67	0.0004548833
215	0x39e388b7	0.00043398674
216	0x383edf3f	4.5507444e-05
217	0x3a566b21	0.00081794156
218	0x38bbe87c	8.9601584e-05
219	0x39570a06	0.00020507732
220	0x389a4aab	7.3572e-05
221	0x384af77b	4.8391037e-05
222	0x38edbf7a	0.00011336706
223	0x390b0677	0.00013258481
224	0x3767cd15	1.3816422e-05
225	0x39b1fcfb	0.00033948556
226	0x37f073b1	2.8664103e-05
227	0x3835a001	4.3302778e-05
228	0x3787e17c	1.6198253e-05
229	0x3786f9b3	1.609032e-05
230	0x3688cfa5	4.077289e-06
231	0x366bdb74	3.5145467e-06
232	0x38a2120f	7.728126e-05
233	0x3ac8cad7	0.001531924
234	0x393079cf	0.00016830045
235	0x3954ff30	0.0002031296
236	0x38b64ac9	8.692366e-05
237	0x38ca1836	9.63662e-05
238	0x396e1334	0.00022704602
239	0x3999720c	0.00029267406
240	0x392c417b	0.00016427592
241	0x3ab00c51	0.0013431405
242	0x395bdce5	0.00020967757
243	0x39c9ff74	0.00038528035
244	0x393e215f	0.00018132244
245	0x39107c38	0.00013779185
246	0x397858e1	0.00023684233
247	0x39772e92	0.00023573104
248	0x392d8981	0.0001654979
249	0x3b350010	0.0027618445
250	0x39a05643	0.00030581848
251	0x3a160120	0.00057222135
252	0x394e277e	0.00019660403
253	0x3919667b	0.00014629394
254	0x39a26b63	0.00030979057
255	0x39ae6ac3	0.0003326741

exp_avg f4 [64]
0	0xbb041f01	-0.0020160081
1	0xbab70b53	-0.0013965167
2	0xbbb14891	-0.005410262
3	0xbb066a81	-0.0020510259
4	0xbc0fe624	-0.008782897
5	0x3ba0ce8f	0.004907436
6	0x3c941faf	0.018081514
7	0x3b1c043a	0.002380623
8	0xbb486df4	-0.0030583115
9	0x38d07114	9.939275e-05
10	0x3a8d8e69	0.0010799888
11	0x3bc400db	0.0059815473
12	0x3b12ab1f	0.0022379828
13	0x3a67d251	0.000884329
14	0x3bf3a385	0.0074352645
15	0x3b0e57b4	0.0021719756
16	0x3b0e96bf	0.0021757332
17	0xbb3ed3cc	-0.002911794
18	0x3b166eec	0.0022954298
19	0x3cfc5423	0.030801838
20	0xbbf1979e	-0.0073728105
21	0xbb36fc01	-0.0027921202
22	0xb100eb55	-1.8760222e-09
23	0x3c22db79	0.009940022
24	0xbd1731c3	-0.03691269
25	0xbc05c0a6	-0.008163607
26	0x3bba31e2	0.005682216
27	0xba9a3095	-0.0011763746
28	0x3bb37f02	0.005477787
29	0x3c3fecbf	0.0117141595
30	0xbb440e7e	-0.0029915865
31	0xbc17db6d	-0.009268624
32	0x3a1dc866	0.00060189364
33	0x388d4f0b	6.738127e-05
34	0x3c2c626d	0.010521513
35	0x3b211ee8	0.0024585072
36	0x3963a063	0.00021708156
37	0x3b316e54	0.0027073817
38	0xb9ed26d3	-0.0004523309
39	0xbc001280	-0.007816911
40	0xbc1cfee5	-0.009582256
41	0xbb865189	-0.004099075
42	0xbb8fd228	-0.0043890662
43	0xbb9b24d6	-0.004734616
44	0x3b7ca0e2	0.0038548042
45	0x3b697d51	0.0035627673
46	0xb9b088ff	-0.00033671406
47	0xbcebea1f	-0.028798161
48	0xbb3d34ae	-0.002887051
49	0xbbe93788	-0.0071172155
50	0x3c174ff4	0.009235371
51	0xba9f887f	-0.0012171416
52	0xbaf5b1a2	-0.0018744955
53	0xaa6949cb	-2.0720159e-13
54	0xb9eefa5c	-0.0004558143
55	0xbc95e984	-0.018299825
56	0xbc369893	-0.011144775
57	0x3addbe3a	0.0016917654
58	0x39a6510a	0.00031722366
59	0xbb48487b	-0.003056078
60	0xb83350a4	-4.2752028e-05
61	0xbc9450a3	-0.018104857
62	0x39ddd8ef	0.00042314033
63	0x3b877c23	0.0041346713

exp_avg_sq f4 [64]
0	0x3b04987f	0.0020232496
1	0x3a5842a7	0.0008249678
2	0x3b320e52	0.002716918
3	0x3829ae4a	4.045506e-05
4	0x3be05cfc	0.006847022
5	0x3b984098	0.004646372
6	0x3b3388c5	0.0027394753
7	0x3ae35166	0.0017342984
8	0x3a4c9321	0.00078039063
9	0x3ad564ee	0.001628069
10	0x3aa3f794	0.0012509697
11	0x3b8d0f56	0.0043048067
12	0x3b550fb9	0.0032510592
13	0x3b407af5	0.0029370163
14	0x3bb0b504	0.0053926725
15	0x3b456555	0.0030120213
16	0x375c6d4a	1.3138468e-05
17	0x3a3a126a	0.0007098081
18	0x3a82bafb	0.0009973937
19	0x3aaf5748	0.0013377452
20	0x3be8bbf7	0.0071024853
21	0x39288035	0.0001606949
22	0x36618b21	3.3608596e-06
23	0x3a053165	0.0005080908
24	0x3abfcfc6	0.0014634065
25	0x3b352dde	0.0027645747
26	0x3b62c52b	0.0034602385
27	0x3a5c602c	0.0008406665
28	0x398bcd14	0.0002666494
29	0x3ad137f9	0.0015962116
30	0x3af97151	0.0019030963
31	0x3b9ef45d	0.0048509077
32	0x3b1d4c65	0.0024001834
33	0x389e23bc	7.540683e-05
34	0x3b050e31	0.0020302648
35	0x3ab58444	0.0013848622
36	0x37337ee7	1.0698778e-05
37	0x3aac4e50	0.0013145898
38	0x3b9e7ed9	0.0048368988
39	0x3af45f8a	0.0018644196
40	0x3b29c51d	0.0025904842
41	0x37ff7469	3.0452577e-05
42	0x3b3e04c6	0.0028994544
43	0x3b870204	0.0041201133
44	0x3b56e92f	0.0032792797
45	0x3b6e2e42	0.003634349
46	0x3b399509	0.0028317592
47	0x3b3b1f38	0.0028552543
48	0x3b8d1727	0.0043057385
49	0x3bc4e561	0.0060087894
50	0x3b634072	0.0034675864
51	0x3a3eb5ae	0.0007274997
52	0x3ac6b289	0.0015159409
53	0x36da43ff	6.504822e-06
54	0x3a3dec8a	0.0007245025
55	0x3c60ff7a	0.013732785
56	0x3bb46fda	0.005506498
57	0x3a85e952	0.001021663
58	0x38c38ba4	9.324335e-05
59	0x3ac43174	0.0014968351
60	0x3ac3ed41	0.0014948027
61	0x3afcf029	0.0019297648
62	0x37836309	1.5662534e-05
63	0x3b32c1d0	0.0027276166

exp_avg f4 [64, 64]
0	0x3b67a521	0.0035346227
1	0x382f78c3	4.183572e-05
2	0xbaa4ee11	-0.0012583156
3	0x3800446e	3.058131e-05
4	0xba068327	-0.00051312376
5	0x3a59063a	0.0008278821
6	0x3b4343f5	0.0029795144
7	0x3a888ef3	0.0010418579
8	0x3adced82	0.0016855451
9	0x3b2dab48	0.0026499797
10	0x3b1646ba	0.002293034
11	0x384df4cd	4.9103797e-05
12	0xbb56df86	-0.003278704
13	0x3b886ce1	0.00416337
14	0x3a88a3e5	0.0010424821
15	0x3a6cb824	0.00090301246
16	0xb9275e86	-0.00015961574
17	0x3b282b30	0.0025660507
18	0x3a912543	0.0011073727
19	0x3a44b645	0.0007503967
20	0x3b0081de	0.0019608657
21	0x3a8cc5c9	0.0010740097
22	0xae4044c9	-4.371684e-11
23	0x3a900a55	0.0010989407
24	0xb9df08e5	-0.000425405
25	0x3b891e6c	0.004184535
26	0xba349119	-0.00068880763
27	0x3a72cdae	0.0009262216
28	0x3aa4d38c	0.0012575253
29	0x3b3b46ac	0.002857606
30	0xb9bcade8	-0.00035987725
31	0xb982dc48	-0.00024959655
32	0xba602196	-0.00085499266
33	0xb6ea4fa3	-6.9830144e-06
34	0x3ac0abf0	0.0014699679
35	0xbac43041	-0.0014967994
36	0xb94b0f32	-0.0001936525
37	0x3b318cea	0.0027092048
38	0xbac4fb8d	-0.0015028581
39	0xbaa907a7	-0.0012895957
40	0x3a00a53d	0.0004907435
41	0x396aafba	0.00022381442
42	0x3ac344f0	0.0014897864
43	0x3aebe1e6	0.00179964
44	0x3ae523cc	0.0017481982
45	0x3a8e73a4	0.0010868204
46	0x391b016f	0.00014782486
47	0xbaf68636	-0.0018808309
48	0x3a1466db	0.00056610786
49	0x3a527bef	0.0008029332
50	0x398b09d5	0.0002651947
51	0x3b5c37f3	0.0033602684
52	0x3b839b10	0.0040162876
53	0xa758d8b1	-3.009349e-15
54	0x3ab7a577	0.0014011104
55	0xbb01f99c	-0.0019832617
56	0x38de53e0	0.00010601408
57	0x39eadea0	0.00044797827
58	0x381f5e01	3.7996102e-05
59	0x3ab72828	0.001397376
60	0x3af612a5	0.0018773867
61	0x3b26528b	0.002537879
62	0xb95ffa0a	-0.00021360084
63	0xbadbf66a	-0.0016781811
64	0x3b7df115	0.0038748432
65	0xb98b6aa2	-0.00026591594
66	0xbac49f90	-0.0015001167
67	0xb8e67310	-0.00010988687
68	0xba69e87a	-0.00089228863
69	0x3a798cb9	0.00095195655
70	0x3b33613e	0.0027371193
71	0x3a8af930	0.0010602828
72	0x3aeb8bd3	0.0017970748
73	0x3b54274a	0.003237205
74	0x3b303ec2	0.0026892875
75	0x39213ced	0.00015376853
76	0xbb6bdc4e	-0.0035989466
77	0x3b761ed6	0.0037555
78	0x3ab71697	0.0013968524
79	0x3a3efa77	0.0007285247
80	0xb935b49c	-0.00017328787
81	0x3b4ac284	0.0030938694
82	0x3a93abe9	0.0011266443
83	0x3a7c9da9	0.00096365303
84	0x3b172b7c	0.002306669
85	0x3a85a654	0.0010196664
86	0x2f7203a6	2.2011068e-10
87	0x3a58384f	0.0008248137
88	0xba9f0748	-0.0012132907
89	0x3b883878	0.004157122
90	0xbaa6039b	-0.001266587
91	0x3a9114b0	0.0011068787
92	0x3ab8ea73	0.0014107957
93	0x3b440311	0.0029909054
94	0xba66849a	-0.0008793563
95	0xba40a78e	-0.00073491863
96	0xba963e55	-0.0011462668
97	0xb7103b4d	-8.596876e-06
98	0x3ad05786	0.0015895225
99	0xbadee56b	-0.0017005628
100	0xb964e129	-0.00021827653
101	0x3b571e76	0.0032824553
102	0xbac858f1	-0.0015285296
103	0xbb06ad91	-0.002055023
104	0x3a392e5f	0.00070641
105	0xb82a8fe5	-4.066517e-05
106	0x3acf1252	0.0015798307
107	0x3ae14562	0.0017186815
108	0x3af98094	0.0019035512
109	0x3a070666	0.0005150795
110	0xb9cba985	-0.0003884548
111	0xbb0444a0	-0.0020182505
112	0xb98bf660	-0.0002669571
113	0x398207f0	0.00024801446
114	0x3a242f2c	0.00062631327
115	0x3b471cee	0.0030382234
116	0x3b9648a8	0.004586298
117	0x23d4329a	2.3006517e-17
118	0x3af20ae4	0.001846638
119	0xbb2d771b	-0.0026468697
120	0xba80f75b	-0.0009839343
121	0xb9b3fa85	-0.00034328192
122	0x37f2a9d3	2.8927729e-05
123	0x3a9cf0e5	0.0011973648
124	0x3b092023	0.0020923696
125	0x3b3b5067	0.002858186
126	0xb97d6c41	-0.00024168288
127	0xbb0cb4b3	-0.002147001
128	0x3b0a29ee	0.002108212
129	0x3a2fa2fa	0.00067000056
130	0xb9eb5b41	-0.00044890682
131	0x39a8152d	0.00032059234
132	0x3990a125	0.00027585882
133	0x39846e40	0.00025259145
134	0x3b2a64a4	0.0025999928
135	0x3a54d81d	0.00081193616
136	0x3a7495d2	0.00093301863
137	0x3a2b6245	0.00065377756
138	0x3a5bfe7f	0.000839211
139	0xb9625f44	-0.00021588529
140	0xbaf09795	-0.0018355722
141	0x3b891c3b	0.0041842735
142	0x363cc22b	2.8127204e-06
143	0x3aaf3a4f	0.0013368818
144	0xb85e39d0	-5.2982767e-05
145	0x3a66f152	0.0008809763
146	0x3a7c631a	0.00096278044
147	0x3985124e	0.00025381375
148	0x3a6804cc	0.00088508124
149	0x3a69bb4d	0.00089161546
150	0xa81001bc	-7.993982e-15
151	0x3acf373f	0.0015809311
152	0x3ab1db56	0.0013569396
153	0x3b4d0ab1	0.003128689
154	0x3a84d2b2	0.0010133593
155	0x39959a9e	0.00028534693
156	0x3a3494fc	0.00068886555
157	0x3aef3e18	0.0018252758
158	0x3a318b8d	0.0006772809
159	0x3a1af27a	0.00059107656
160	0x3999e1f8	0.00029350794
161	0xb67df856	-3.7844488e-06
162	0x3a70725b	0.0009172314
163	0xba73ca36	-0.0009299846
164	0xb833dffb	-4.2885524e-05
165	0x3a559d07	0.0008148704
166	0xba8df2f2	-0.001082985
167	0x3a3947d6	0.00070678943
168	0xb8fecc7b	-0.00012149751
169	0x3a42e4b7	0.0007434594
170	0x3a928614	0.0011178874
171	0x3ae0513a	0.0017114051
172	0x3a8a9338	0.0010572439
173	0x3afba226	0.0019198104
174	0x3a9abfc2	0.0011806416
175	0xba988cb1	-0.0011638609
176	0x3af49eee	0.0018663087
177	0x3ab61ea7	0.0013894633
178	0xba309e8d	-0.0006737493
179	0x3b51ba6e	0.003200199
180	0x3ae03a51	0.0017107223
181	0xa816850a	-8.355521e-15
182	0xb8c8b3c4	-9.570227e-05
183	0xb90a73ad	-0.00013203798
184	0x3b241fef	0.0025043448
185	0x3b16a722	0.0022987803
186	0x38483a70	4.773814e-05
187	0x3ab2a2d4	0.0013628849
188	0x3aaccb3f	0.0013183131
189	0x3aaae9f5	0.0013039695
190	0xb87e5d72	-6.0645347e-05
191	0xb8893bb3	-6.543789e-05
192	0x1fc6fd94	8.427577e-20
193	0x1fa90e32	7.159777e-20
194	0x20b98590	3.1428603e-19
195	0x1197e921	2.3967276e-28
196	0x1ebfe8aa	2.031914e-20
197	0x1dd63aee	5.670626e-21
198	0x99709127	-1.24370225e-23
199	0x1cba6d67	1.2336727e-21
200	0x1fca7ee6	8.5760264e-20
201	0x1991ddf0	1.5082288e-23
202	0x9d483dd9	-2.6501754e-21
203	0x981011c5	-1.8620535e-24
204	0x20bdb730	3.213907e-19
205	0x1f39789e	3.9275046e-20
206	0x1edbd188	2.3274187e-20
207	0x1f666aa9	4.8792622e-20
208	0x1e45b3ba	1.046626e-20
209	0x13d2de67	5.323076e-27
210	0x20b71967	3.1018216e-19
211	0x19935405	1.5233379e-23
212	0x1d80957e	3.403589e-21
213	0x1dd92fbb	5.7488774e-21
214	0x9903e40b	-6.818594e-24
215	0x1e6e488d	1.2614618e-20
216	0x2041a943	1.640374e-19
217	0x200dc20f	1.2007373e-19
218	0x20cbc3e5	3.451917e-19
219	0x1dfaa05a	6.634025e-21
220	0x1d3142a4	2.3460207e-21
221	0x1d227187	2.1499214e-21
222	0x2091d986	2.47079e-19
223	0x1f143681	3.1385304e-20
224	0x9d95a4d2	-3.961039e-21
225	0x9e4af594	-1.0744575e-20
226	0x1d1abf32	2.0480576e-21
227	0x2093346c	2.4937459e-19
228	0x2019a769	1.3014995e-19
229	0x9cccc993	-1.3551693e-21
230	0x9e925afb	-1.549598e-20
231	0x20df7189	3.78528e-19
232	0x1f67a625	4.9053584e-20
233	0x1ac62171	8.194491e-23
234	0x1f1a9241	3.2731747e-20
235	0x2044437e	1.6624177e-19
236	0x18d2501d	5.436462e-24
237	0x20805809	2.17423e-19
238	0x2048ef49	1.7019832e-19
239	0x1fa3de6c	6.940115e-20
240	0x1fccef5e	8.679336e-20
241	0x1e8a8c98	1.4669467e-20
242	0x92615f14	-7.1114674e-28
243	0x200c3a40	1.1877735e-19
244	0x1f523e71	4.452088e-20
245	0x1d1702ae	1.9986069e-21
246	0x1f6b798d	4.986373e-20
247	0x9d5e98b2	-2.9460397e-21
248	0x20b301c0	3.0324938e-19
249	0x207d3952	2.1448899e-19
250	0x18f5db62	6.3552536e-24
251	0x20c3b85e	3.315629e-19
252	0x207847ff	2.1030239e-19
253	0x1b0fcc33	1.1894663e-22
254	0x1d783dfc	3.2854572e-21
255	0x2106d285	4.5679586e-19
