P3/Q3/Batch2500/Lunarlander/checkpoints/pg_LunarLander-v3_last.pth (torch, 95133 bytes, 18 tensors)

net.0.weight f4 [64, 8]
00000000: 488c 1d3d 653e 0fbd 5286 973e a007 f7be
00000010: dbbb 33be 0443 513e ef98 ddbd e9d8 923d
00000020: 602b 943d 2563 9d3e 9e51 6e3e 1882 13bc
00000030: bf32 90be 8244 8bbe f780 1e3e 29c7 2dbe
00000040: 8f1d 2bbe 3d41 12be c887 32be 3d4a 32be
00000050: 133f 5f3e 5420 9abe 9942 9c3e 8b92 503e
00000060: d8b4 563e 193e 42be 8d55 a2be 622d bebe
00000070: 8cb3 a63e 9cc7 a63e 4baa 623c 7f21 723d
00000080: a00d 0e3d 2e59 ee3d e70d 8bbe dbf2 2e3e
00000090: be07 f63e 0e00 ed3c 03a0 68be ec4e 9cbe
000000a0: 06d5 41be 9d8a 313e 8bd3 5bbe f106 ef3e
000000b0: 6fac 963e 2a73 0e3e 5f73 8bbd 4c60 7b3e
000000c0: cb09 833e 76a4 1abd f290 773e cd5c e23c
000000d0: 2d30 33be baa1 ae3e c7cb 84be f2ea e93d
000000e0: 961a 93be 2bf5 85be 038a c63e f72f c4be
000000f0: 3e4c 8ebe 7b62 f6bd 14c4 49be dd17 81be
00000100: 24d3 cabd 9ade c6bd a37e 2cbe d5ab 1dbe
00000110: 9889 153e ef48 5f3e e1ba c13e 6def 1c3e
00000120: fad6 453e 25d4 fdbc a5fe d1bd 62ee aa3e
00000130: 8079 6fbc dbf2 3c3e 4f2e 873e 9a5d 9b3e
00000140: be93 ab3e 76dc 0b3e 32f5 bebd e92f d8be
00000150: ac7f aebe e9dd 83bd eb64 553e c9b3 1a3d
00000160: f8a0 5dbe a473 163e 6104 013e f1e3 0cbf
00000170: 24c8 d93d b9a8 6cbe 7e39 6abd e936 6bbd
00000180: c881 44be 062e 5ebe a6ef 80be 8f08 083d
00000190: 7ab3 a2be 5b53 343d 0898 0dbe a9a8 6d3e
000001a0: 255b 4d3d ed3a 213e 5a59 9f3e 13f9 efbe
000001b0: c02c 14bf 0081 bdbe 774e 68be 3922 303d
000001c0: 9551 b53e 8890 d3be f213 c0be 823e a23e
000001d0: aa75 6b3e 2240 93be 6ead bebd 5422 e9bd
000001e0: f006 91bb 92ad 9d3e 3483 20be 7a2f 87be
000001f0: 8bb0 583e 5473 8f3e 5975 853e af15 2a3e
00000200: edee f3bd a50b 92bd c7f9 763d e4f5 b0be
00000210: 6f66 7f3e 6b9f 993d 161b e1bd c8a8 bbbe
00000220: 4ad5 ffbc dad7 8f3e 7e75 54be 8ac0 af3d
00000230: 6190 fe3c b907 b23e 25a3 293e 0343 efbd
00000240: 3a64 313d a36e 23be 2c2c 9c3d c971 aebe
00000250: 914a c43d d485 d43d b890 aabe c9fa 56be
00000260: bc72 c13e 1ad8 933e d1e1 333e fca5 6a3e
00000270: 45d9 1bbf 1b5d a6be 0bda 833e fcb5 003e
00000280: 5f25 16be 6aba 743d 4263 d5be 222e 49be
00000290: 1473 a8be 7832 08be 6e36 583e 2ba7 8abe
000002a0: f667 8cbd e688 a93e 38fc c73e 264b a43e
000002b0: 2dce dcbe b83c c9be 8367 0f3e eeb4 163e
000002c0: a988 b23e c200 083d 5f80 d83e ac6d c7be
000002d0: 6bfa 2a3e 60f4 7f3e bfe4 2f3d 938c d63d
000002e0: aad6 3abe 19ad 1ebe 4557 a2bc 5e12 fdbe
000002f0: 2758 47be 6873 6bbb 8483 a7bd 110f 3c3e
00000300: 64d0 38be 5f2d 423e d616 2d3e 96a2 11bc
00000310: b272 dbbe 4fb0 c9be c6b2 a93e d14f 8e3d
00000320: 7ee3 29be bc8f c3bd 2276 6f3e a008 cc3e
00000330: 586a 8fbe bb63 debe c8dd 6b3e e87b 5f3e
00000340: fc90 97bd 8ff7 293c b3bd 81bc a3df 0abf
00000350: 792f 963d 66c5 ecbc 526c 10bd 8435 59bd
00000360: 3213 c03e cea5 89be f829 973e cbff b03e
00000370: 55d7 5ebe da8d 103e 9ab0 07be 39d6 8d3e
00000380: 9454 603e 1dd5 42be 658e 63be dd6a 03bf
00000390: bba8 f53e fd73 023e 3747 cfbd 29b5 4abe
000003a0: cc5e a13e 8191 023d 184c 05be d231 a9ba
000003b0: 43ff f1be fb1f a8be 4d9d 7e3e 1cf0 a4be
000003c0: 9031 c4be e3ff 873c 6f6b c5be f4a8 8abd
000003d0: d2c1 813e 34e0 523e 5c99 fa3d 727a 4ebd
000003e0: 4d53 4f3d bd28 443e 5ce4 a23e 83d6 2c3e
000003f0: 1215 89bc a65a 683a 0c39 e43d d04b b43e
0.03846386 -0.034971613 0.29594666 -0.48248005 -0.1755213 0.2043572 -0.108201854 0.071702786
0.072348356 0.30739704 0.23273322 -0.009003185 -0.28163716 -0.27200705 0.15478884 -0.16970505
-0.16710494 -0.14282699 -0.17434609 -0.17411132 0.21801405 -0.3010279 0.3051956 0.20368402
0.20967424 -0.18969001 -0.31705895 -0.37144 0.32558858 0.32574165 0.013834546 0.059113976
0.034680963 0.116381034 -0.27159044 0.1708483 0.48052782 0.02893069 -0.2271729 -0.30528963
-0.18928918 0.17338033 -0.21467416 0.46684983 0.2942843 0.13911119 -0.06809115 0.24548453
0.2559341 -0.0377545 0.24176386 0.027632141 -0.17498846 0.34107763 -0.2593672 0.114217654
-0.2873122 -0.2616361 0.3877717 -0.38317844 -0.27792543 -0.120305024 -0.19703704 -0.2521352
-0.09903553 -0.09710427 -0.16845183 -0.1539758 0.14603269 0.21805166 0.3783789 0.15325709
0.19320288 -0.030984947 -0.10253648 0.33384997 -0.01461637 0.18452017 0.26402518 0.3034485
0.33511156 0.13658318 -0.09324111 -0.42224053 -0.3408178 -0.064388104 0.20839278 0.037769113
-0.21643436 0.14692551 0.12599327 -0.5503531 0.10633877 -0.23111238 -0.057183735 -0.057425413
-0.19190133 -0.21697244 -0.25182837 0.033211287 -0.31777555 0.044024806 -0.13827527 0.2320887
0.05013575 0.15745135 0.31122857 -0.46869716 -0.57880783 -0.37012482 -0.22686182 0.043001387
0.35413805 -0.41321206 -0.37515217 0.31688315 0.22994104 -0.28759867 -0.09310423 -0.11383501
-0.004425876 0.30796486 -0.1567505 -0.2640341 0.21161096 0.28017676 0.26066092 0.16609834
-0.11910806 -0.07131127 0.0602968 -0.345626 0.24941419 0.0750111 -0.10991494 -0.36652207
-0.031229634 0.2809437 -0.20747945 0.08581646 0.031074705 0.34771517 0.16566141 -0.11682703
0.043308474 -0.15960173 0.076256126 -0.34071186 0.09584535 0.10377088 -0.33313537 -0.20994104
0.37782848 0.2887581 0.17566611 0.2291488 -0.608784 -0.3249291 0.2575229 0.12569422
-0.14662693 0.05974809 -0.4167729 -0.19646505 -0.32900298 -0.13300502 0.21114513 -0.27080664
-0.068557665 0.33112258 0.39059615 0.32088584 -0.4312605 -0.39304137 0.1400433 0.14717457
0.34869888 0.033203848 0.4228544 -0.3895086 0.1669709 0.24995565 0.04294276 0.10476031
-0.1824595 -0.15495719 -0.019817004 -0.49428076 -0.19467221 -0.0035926942 -0.081793815 0.18365122
-0.18048245 0.1896262 0.16903242 -0.008888861 -0.42860943 -0.39392325 0.33144206 0.069488175
-0.16590688 -0.095488995 0.23384908 0.3985033 -0.2801082 -0.43435463 0.23033822 0.2182461
-0.074007004 0.010373964 -0.015837526 -0.5424749 0.073332734 -0.02890272 -0.035259552 -0.053029552
0.37514645 -0.2688431 0.29524207 0.34570155 -0.2176183 0.14116612 -0.13250962 0.277025
0.21907264 -0.19026609 -0.22222288 -0.51334935 0.47980294 0.12739559 -0.10121005 -0.1979567
0.31517637 0.031877045 -0.13017309 -0.0012908524 -0.47265062 -0.328369 0.24864693 -0.3221444
-0.38319063 0.016601508 -0.38558528 -0.067705065 0.25343186 0.20593339 0.12236282 -0.05040974
0.05061655 0.19156165 0.3181485 0.16878705 -0.01673368 0.00088636053 0.11143693 0.3521409

net.0.bias f4 [64]
00000000: c31f c43d 2341 0dbd ca4b e7bd 4f81 3a3e
00000010: 5457 e53d a960 203e 7cbe 9ebe 263f 7ebe
00000020: 1435 00be f444 21be 3e38 1d3e c7e8 a83d
00000030: 23bb b3be 3ea4 623e 46d9 a5bd 4017 953e
00000040: 5724 a8be cfa6 55be 2b5d b5be 25b4 4f3e
00000050: 91d3 21bd 9175 083e 2be0 933d 3ab8 c33d
00000060: 2145 f53d 56fb cc3e 9ec4 273e 7712 f13d
00000070: 696f aa3e 1a82 9e3e 6ac6 7b3e 9e34 e4bd
00000080: 2bc4 55be 08c0 ab3e ae58 cfbc de41 c5bd
00000090: c5e0 0bbd fc6a c83e f888 893e 7e97 773e
000000a0: ba81 383e cb76 0dbe 5e8b c13e 2786 afbd
000000b0: f014 843e d9f6 183d da70 3cbd b9e6 21be
000000c0: e9f2 93be 5d79 723e 3e7f e0bd d552 0cbe
000000d0: 6da8 5dbd 5dd3 883d 5e35 5cbe f536 ac3d
000000e0: 87ba 943e 2279 86be ef04 d7bd d420 903d
000000f0: ddd4 e1bd afec acbd 4da2 663e 70b8 e03c
0.095763706 -0.034485947 -0.112937525 0.1821339 0.11198297 0.15661873 -0.31004703 -0.24828777
-0.12520248 -0.1574896 0.15353486 0.08247524 -0.3510371 0.22132966 -0.08098082 0.291193
-0.32840225 -0.20864414 -0.35422644 0.20283563 -0.039508406 0.13326098 0.07220491 0.09556623
0.11976076 0.40035504 0.16383597 0.117711 0.33288124 0.30958635 0.24587408 -0.111428484
-0.20875613 0.33544946 -0.02531084 -0.09631704 -0.034149904 0.39144123 0.2686231 0.24178883
0.18018237 -0.13814847 0.3780164 -0.085705094 0.25797224 0.037344787 -0.04600606 -0.1581067
-0.28896263 0.23679109 -0.109617695 -0.13703473 -0.0541157 0.06680939 -0.21504733 0.0840892
0.2904856 -0.26264292 -0.10498988 0.070375115 -0.110269286 -0.08443581 0.2252285 0.027431697

net.2.weight f4 [64, 64]
00000000: 5156 54bd b8ea 5cbd 6796 6b3c d5d6 723d
00000010: 8d63 093e 932b 583e a835 f9bc 723a 80bd
00000020: a264 643b 7819 523e 0bf1 7ebb 4cb2 11be
00000030: 109a 613c d427 37be 4fe0 0bbb a2f0 173e
00000040: ba61 7ebd 239e bdbd c37a 9cbd d4c4 6d3e
00000050: 8d0b 253d b8a3 043e 4423 08bd b794 eebc
00000060: 2af0 bc3d 5003 3c3d b74e 00be 6cc5 d33c
00000070: 18cf 993d d02a 3c3d 12be 78bd 3566 5a3e
00000080: 1d95 8d3d 0c85 7a3d f4c6 10be d4ff ac3d
00000090: f923 4b3e 8e76 dbbd e211 e23c 5a6a b83a
000000a0: 24bb 5c3b ff07 8c3d 8bfd 283d 6185 dd3d
000000b0: 5c1c 1e3d 10b2 ccbd 5b39 f93c 3f03 6bbc
000000c0: 71e2 0a3e 9b99 133e f687 3ebd efaa cc3d
000000d0: a5a8 f33d 1135 b23d 3da6 1abd bb21 4e3d
000000e0: f961 c93d e268 2e3d ea50 a0bd 1437 9fbd
000000f0: 45a6 7dbd 6bb9 a43d 5811 20bb 17e6 733e
00000100: e5e6 dbbd 9a5c d03d 9a5b 89bd 172e 0dbd
00000110: 7e8e c5bd 72f5 ce3d a16e d13d 5168 5fbc
00000120: 0b48 a4bc 4507 c9bd 9206 843d 4d68 c9bd
00000130: 5149 e4ba 0f44 7abd 5551 0bbd 73b5 293d
00000140: e880 dd3d 66eb b43d b730 fdbd 6cb5 2e3b
00000150: d15a a9bb 0088 713a 8e5e 87bd c4b7 c4bd
00000160: 5584 b23d 5a75 3dbd 316e c83c bc80 eebd
00000170: 18a7 d33c 8736 ad3d befa 68bd 143c 7ebd
00000180: 188d d33d be6e acbc bfbd 9cbd a27b b4bd
00000190: 2ea0 403d 98c0 a93d 655a 073d c1ff a23c
000001a0: d5ad 9a3c 1a23 06be bdca e1bd 6d7a 983d
000001b0: 9a27 7c3c e105 78bd 064a 803d a595 b6bd
000001c0: e72e a3bd 1767 8d3d ac0b 3bbd 453c cf3d
000001d0: c9d3 30bd 8bcd 713d a40c 08be 9b60 6cbd
000001e0: 4e0a 833c ecf3 febd 82d3 53bc 0209 1fbd
000001f0: 70d4 c53c 5752 63bc 7fc1 49bd b5a3 b4bb
00000200: ad4d 81bd a2c7 573e 770f e9bc 27ce 0bbe
00000210: 8781 22bc 94a2 3f3e 8a6e 1a3e 826e ec3d
00000220: da63 6f3d cc3e 603d 1eb5 923d a4fb 20bd
00000230: c7bc 00bd f1c0 ea3d 8bd9 f7bb 0f49 d93d
00000240: 3d5d ddbd e68a a1bb 7db9 65bd 4476 343e
00000250: e715 c93d 3c31 6a3e edf2 a7bc 6141 f93a
00000260: 161e 24bd d8c4 623c 71c9 30be a718 4d3e
00000270: efe2 fbbd b494 353e ba9d 6cbd 8720 103e
00000280: 9f21 1a3b 3a25 8b3d 581a 063e f7e8 42be
00000290: 7f5b e43c e7c6 07bd 446e 4a3d 1fd8 703d
000002a0: 22bd 2b3a e474 16be 62ea 023e 016c 2fbc
000002b0: 2020 7a3d 7039 553d b86c 633b c566 283d
000002c0: 7a7c 86bd e285 e6bc 77df 21bc f552 053d
000002d0: 31c7 b3bc 0405 a9bc 2f5e 01bd 75df 0e3c
000002e0: 3f9e b6bd ef5a 17be 628b abbc b2fc ee3d
000002f0: 6030 30bd 20c9 953d 6ece e03d 4f91 bebc
00000300: ec5b ec3d 21f4 de3d 8240 823d b2df 78bd
00000310: ecc9 d9ba 7558 98be 4642 4a3c 2031 bcbc
00000320: 2d23 7bbd dd8e 8a3d 8ad5 373e f5d3 ce3d
00000330: af9c 953d e574 b73d 0cd2 8fbd 4e73 f63d
00000340: 9896 eebd 79b1 90bd 4841 863c 8492 1cbd
00000350: d5b3 203e b853 c73d 0788 253e cb16 2d3e
00000360: ac39 1e3d 016c 92bd d1cb 6b3e 5b0e a43d
00000370: 45ca 0e3e 3031 193e 49c0 29bc 5416 86bd
00000380: 2004 6dbd 5796 eb3c cabe 9f3d 51ce 643d
00000390: 77a5 31be 028e f23d b57d f5bd ecc2 7dbc
000003a0: fff5 5e3d 4cf0 9abd 5f3b 85bd 60e8 3cbe
000003b0: 4dbb eb3d 7554 373e c5a4 25be 32d7 7e3e
000003c0: 4b39 41bc b480 a9bc d54d ca3c 5602 0c3e
000003d0: dbb8 b7bd e017 30bd da26 5bbe 218c 553e
000003e0: 4f1e 90bd 1b66 f3bd ecb1 06bd 1267 f6bd
000003f0: 98b7 213d c301 4abd 5788 de3c b004 ecbd
-0.05184013 -0.053934783 0.01437912 0.05928691 0.13416882 0.21110372 -0.030421093 -0.062611476
0.003485002 0.20517528 -0.0038900997 -0.14228171 0.0137696415 -0.17886287 -0.0021343415 0.14837888
-0.062104918 -0.09258678 -0.076406024 0.23219615 0.04029422 0.12953079 -0.033236757 -0.029123647
0.09225495 0.045901597 -0.12530027 0.025850974 0.07510203 0.045939267 -0.06072814 0.21328051
0.06913207 0.06116204 -0.14138395 0.08447233 0.19837941 -0.10715972 0.027596418 0.0014069781
0.003368088 0.06837463 0.041257422 0.10816456 0.038601264 -0.099949 0.030422857 -0.014344036
0.13562943 0.14414065 -0.04651638 0.099935405 0.11897401 0.08701528 -0.037756193 0.050325137
0.0983314 0.042580493 -0.07827933 -0.07774177 -0.061926145 0.08043178 -0.00244244 0.23818241
-0.10737399 0.10173912 -0.06706925 -0.034467783 -0.09646319 0.10105409 0.10226179 -0.013635711
-0.020053884 -0.0981584 0.06446566 -0.09834347 -0.001741687 -0.061100062 -0.03401311 0.04143281
0.108156025 0.08833961 -0.12362807 0.0026658429 -0.005168297 0.0009213686 -0.06609832 -0.09605363
0.087166466 -0.046254493 0.024466606 -0.11645648 0.025836512 0.08457666 -0.05687975 -0.062069014
0.10329646 -0.0210489 -0.07653379 -0.088126436 0.04702776 0.082886875 0.03304519 0.019897344
0.018881718 -0.13099328 -0.110249974 0.07445226 0.015390301 -0.06055248 0.06264119 -0.08915261
-0.0796793 0.069044285 -0.045665428 0.101189174 -0.043170724 0.05903391 -0.13286072 -0.057709318
0.015996125 -0.12448868 -0.012928845 -0.03882695 0.02414915 -0.013874612 -0.049256798 -0.0055126795
-0.063136436 0.21072248 -0.028449757 -0.1365286 -0.009918577 0.18714362 0.1508123 0.11544515
0.058444835 0.054747388 0.071634516 -0.039302483 -0.031430032 0.11462582 -0.007563775 0.10609638
-0.108087994 -0.004929888 -0.0560851 0.1762324 0.09818631 0.22870344 -0.020501578 0.0019016677
-0.040067755 0.0138408765 -0.17264344 0.20028935 -0.122991435 0.17732507 -0.057767607 0.14074908
0.0023518575 0.0679421 0.13095987 -0.19034182 0.02787566 -0.033148672 0.049421564 0.05879986
0.00065513153 -0.14693028 0.12784722 -0.0107069025 0.061065793 0.05205673 0.0034702253 0.041113634
-0.06566711 -0.028140012 -0.009879938 0.032549817 -0.021945568 -0.020632274 -0.03158396 0.0087202685
-0.08916902 -0.14780782 -0.020940486 0.116692916 -0.043014884 0.07313752 0.10976873 -0.023262648
0.1154097 0.10886408 0.0635996 -0.060760207 -0.0016615964 -0.29754987 0.012344902 -0.022972643
-0.061312843 0.0676553 0.17952552 0.10099021 0.07305276 0.08957843 -0.07022485 0.120337114
-0.11649817 -0.070651 0.01638855 -0.038225666 0.156936 0.09732765 0.16165172 0.16903226
0.03862922 -0.07149506 0.23026969 0.080105506 0.13944347 0.1496017 -0.010360786 -0.065472275
-0.057865262 0.028758211 0.07800062 0.05586082 -0.17348276 0.11843492 -0.11986867 -0.0154883675
0.05443382 -0.07565364 -0.06505465 -0.18448019 0.11510334 0.17903312 -0.16176136 0.24886778
-0.011793445 -0.020691253 0.024695316 0.13672766 -0.08970805 -0.04299152 -0.2140154 0.20854236
-0.07037031 -0.118847094 -0.032884523 -0.12031378 0.03948173 -0.049318086 0.027164621 -0.115243316

net.2.bias f4 [64]
00000000: edd0 06bc 60c3 0ebe b8d6 973d eb35 d53d
00000010: e406 97bc 6bc5 dd3c 9617 1d3e 2988 203d
00000020: 08c5 c13d b4bb 353e d53d b73d bbbd 923d
00000030: f429 b33c a16c df3d f682 633d fcc1 ca3d
00000040: 1af7 26bd 99c7 c63d e334 86bd f2b6 8d3d
00000050: d70e a23d ff57 55bd 68d8 9d3d 940a f53d
00000060: f006 f4bd c3a4 c13c 688a b93d 1631 c73d
00000070: 0a5d bc3d 433c fe3d 196d 32bd aeff 0d3e
00000080: c0b8 b53c 65f3 dc3d 402d 9f3b 5b4a a9bd
00000090: f48c 3cbc 6624 80bc 95ff 0a3e 7314 3abd
000000a0: 755d 573d 70f4 b03c 7d2c 603d 7ea9 9ebd
000000b0: a5c9 463d 7310 bc3d a5d2 05be 3697 31bd
000000c0: b05a 113e e744 2d3e b697 bdbd ab04 23bd
000000d0: ab73 bc3d 116b 06bc cff9 353d 43ed 95bd
000000e0: 2dfc a2bd f723 063e 6e75 4b3d 3fc0 f03d
000000f0: 6f24 473d 21a0 57bd acd4 e6bd 6b0e cf3c
-0.008228523 -0.13941717 0.07414001 0.10410675 -0.018435903 0.027071675 0.15341029 0.039192352
0.09461409 0.17747384 0.089473404 0.071650945 0.02187059 0.10909391 0.055544816 0.09900281
-0.040763 0.09706039 -0.06553056 0.0691966 0.07912987 -0.052085873 0.07707292 0.11964908
-0.11915386 0.023638135 0.09059602 0.09726159 0.09197433 0.12413838 -0.043561075 0.13867065
0.022182822 0.10788611 0.004857689 -0.08266135 -0.011508215 -0.015642356 0.1357406 -0.04542966
0.052579362 0.021600932 0.054729927 -0.07747172 0.048532147 0.09182825 -0.13068636 -0.043357097
0.14194751 0.16920815 -0.09257452 -0.039799374 0.092017494 -0.008204238 0.04442769 -0.07320645
-0.07958255 0.13099657 0.049672537 0.11755418 0.04861873 -0.052642945 -0.11271033 0.02527543

net.4.weight f4 [4, 64]
00000000: d552 9f3d 646d b33d 1b68 b83b 09a2 89be
00000010: 4469 22be 9557 1bbd fdf9 6cbe 891f 123e
00000020: b21d 96bc 186f 2eba 2f93 7ebe 8468 a23d
00000030: 31a1 b73c dd17 1a3d b306 0c3d 3ad0 e6bc
00000040: 5f7c 4fbb 5da9 f8bd 69a1 acbb 611c be3d
00000050: 231f 333e c9d2 293e 1027 cb3b b5d3 3c3d
00000060: c3ff 22bd 43aa 363c 69d7 a0bd 0c15 1b3d
00000070: 740f 52be 392d 38be 129b 663d 169f a93c
00000080: 96ce 35be f177 323e 95a0 30be cb32 d63d
00000090: e36c b53d faf6 ddbd 77aa 07be a40c 123d
000000a0: 2916 5cbd 2e13 adbd 1b86 14bc d52c 5139
000000b0: 913f a53d 306b 51bb ea02 593d 1f46 dd3d
000000c0: 2af5 6cbe 01d6 173e 0c19 1abd c1d2 06bd
000000d0: 3864 833d 6a8c 19be db91 b2bd 945d aabc
000000e0: 82a9 843d 8d83 99bd 4ba4 3b3d 73a2 84bd
000000f0: e12b 50be fec7 99ba 94cd 9b3d 1f9f 0cbe
00000100: 4022 fc3b 7eec 5ebd 3bd4 583e 8f6e 233d
00000110: 5c9e 103e 6aa3 55be 7daf 50be cdcd 803e
00000120: 236b 743e cac4 16be 805a 30bc a269 b2bd
00000130: 86ae 793d a939 41be 5e9f b53d 6920 1e3e
00000140: 5b25 a6bd 8c90 233e c44c e5bb c882 11be
00000150: b2f6 9dbd 172e 033e 5347 85be 7bfc 74be
00000160: 9408 e3bd 4e04 a33d bdaf 13be 442b e3bd
00000170: 9682 9dbc 2dd2 49be 8a2d e63d 7b76 b73d
00000180: 6a4e 71be eccc d3bc e0e4 7cbe cf31 cb3d
00000190: 930a 383e 96e0 493e e6e2 223e 3c75 953e
000001a0: ccf0 5fbc 69b6 e5bd 6e99 c6bd 0799 acbd
000001b0: 414c f73b 0500 43be f513 283d fff8 66bd
000001c0: 4823 8abd ca5b 3f3e 54e2 86bd 5c1c 90bc
000001d0: afa9 623e 88a6 79be 5480 a53c d94a 873c
000001e0: 75b0 4a3d a1bc 9b3c 1f2d 69be c1db 403e
000001f0: 06cb 1a3e 5913 003e d29e a7bd 84fa e6bd
00000200: 20fb 60be 91d0 cebc 67be 7ebd 0112 133e
00000210: 75e4 273e 1e87 443e 71c5 983d 645e 4bbe
00000220: 8fd2 603d 1eb9 13bd 78c1 2a3e 74a7 9fbe
00000230: 72d9 763d 2db8 6f3d 56dc bebc 6beb 023e
00000240: 61a8 6b3d 56a4 2e3e 17c3 8a3d 4ce4 1ebe
00000250: 7643 89be 1389 50be 78fc b83b 654d 95bd
00000260: dc1e ab3d 777a 843c 786c 7e3e aa1f 26be
00000270: a789 d83d a40e 273e fe84 123e 45ef 4fbe
00000280: f31b 183e de26 b8be f652 3b3d 7f74 bfbd
00000290: e04c 42be 65ae 003e 6507 e63d ca4d 34be
000002a0: 9c42 b0bd 0431 85bc 694b bdbd 3605 d2bc
000002b0: 11b9 c4bd a440 093e fcdd 8c3d 9c61 83be
000002c0: 4205 a73d 3b14 a3be dff1 3f3d 61f1 2fbd
000002d0: 6f83 523d fd82 24bc c389 583e f4c0 4f3e
000002e0: bc46 fb3d 92a1 533e d6dc 57bd f6bb 853d
000002f0: 8888 d13d 9604 3e3e c7d0 ac3d 56d4 ea3d
00000300: 3ad0 483c 14e4 c73d 3d69 c83c b6dc 3fbe
00000310: c88e 06be 2d25 d03d f764 2e3e 6077 e8bd
00000320: 596c 59be 99ff 1f3e 0d45 28be 8b61 943e
00000330: 3e54 fd3d 2c92 023e fb8c d63b fb0e cabd
00000340: 64af afbc d4bf 02be 3fca 99bd 617b f93a
00000350: f11d 083e 4c7b 6c3c 9723 453e 5593 033e
00000360: 124d bfbd 5e48 ab3d 12d0 103e 2a14 2d3e
00000370: 2ba0 123d 19d1 b53d e357 61be 35b8 22be
00000380: 163b 2d3d c120 8a3e da96 d73d 1b65 a13b
00000390: 3087 58be d020 17be 37de 73be 37bc f7bd
000003a0: cc1d 3e3c 13f2 37bd 0324 e7bd be47 d03d
000003b0: aa5e 313e b338 27bd acb1 4d3d e576 6b3e
000003c0: 7a3e 22be e920 a03d 277f c2bd 0616 f23c
000003d0: 38c5 0fbe 4834 223e fe67 4dbd a01b a8bc
000003e0: b35f 3dba e848 bc3d 4f64 233d f3bb b0bd
000003f0: c15f fbbd e135 82bd b02b 51bc e546 623e
0.07779471 0.08761099 0.0056276447 -0.26881436 -0.15860468 -0.03792532 -0.23142238 0.14269842
-0.018324707 -0.00066541275 -0.24860834 0.07930091 0.02241573 0.037620414 0.034186076 -0.028175462
-0.0031659824 -0.121416785 -0.005268265 0.092827566 0.17492346 0.16584314 0.006199725 0.046100337
-0.039794695 0.011148992 -0.07853586 0.03786187 -0.20513707 -0.17986001 0.05630023 0.02070574
-0.17754588 0.17428567 -0.17248757 0.10458907 0.08858659 -0.10838123 -0.13248621 0.035656586
-0.05373207 -0.08450924 -0.009065176 0.00019948494 0.08068765 -0.0031954758 0.052981295 0.1080439
-0.23140398 0.1482773 -0.037621543 -0.032915834 0.064155996 -0.1499497 -0.08719226 -0.020796575
0.064776435 -0.074957944 0.04581098 -0.06476297 -0.20329238 -0.0011732576 0.0760757 -0.13732575
0.0076945126 -0.054424755 0.2117471 0.03990036 0.1412291 -0.20863119 -0.20379443 0.25157014
0.23868994 -0.14723507 -0.010763764 -0.08711554 0.060957454 -0.18869652 0.088682875 0.15442051
-0.08112594 0.15973109 -0.0069976766 -0.14210045 -0.07713069 0.1281055 -0.2603098 -0.23924439
-0.110856205 0.079598054 -0.14422508 -0.11092237 -0.019227307 -0.19709082 0.11239155 0.08958145
-0.23565069 -0.02585455 -0.24696684 0.099216096 0.17972784 0.19714579 0.15906867 0.29191005
-0.01366825 -0.112164326 -0.09697233 -0.08427625 0.007546932 -0.19042976 0.041034658 -0.056389805
-0.067450106 0.18687358 -0.065861374 -0.017591648 0.22135042 -0.24379933 0.020202793 0.016515182
0.04948469 0.019010844 -0.22771119 0.1883383 0.1511651 0.1250738 -0.081845894 -0.11278251
-0.21970797 -0.025245937 -0.0621933 0.14362337 0.16395743 0.19192168 0.07459534 -0.19860226
0.054888304 -0.036065213 0.16675365 -0.31182444 0.060265966 0.058525253 -0.023298424 0.12785117
0.057533626 0.17054877 0.06775492 -0.15516776 -0.2680928 -0.2036479 0.005645331 -0.072901525
0.08355495 0.016171677 0.24846065 -0.16223016 0.1057313 0.16314179 0.14308545 -0.20306118
0.14854412 -0.35967153 0.045733415 -0.09348392 -0.18974638 0.12566526 0.11231879 -0.17607799
-0.08606455 -0.016258724 -0.09242899 -0.02563725 -0.09605611 0.13403565 0.06878278 -0.25660408
0.081553 -0.31851372 0.046861526 -0.042954806 0.051394876 -0.010040996 0.21146302 0.2028845
0.12269351 0.20667103 -0.05270084 0.06529991 0.102311194 0.18556437 0.084382586 0.11466281
0.012256676 0.09760299 0.024464244 -0.18736538 -0.13140404 0.10163341 0.17030703 -0.11350894
-0.21232738 0.15624847 -0.16432591 0.2898067 0.123695835 0.12751073 0.006547568 -0.098661385
-0.021445937 -0.12768489 -0.075092785 0.0019033962 0.13292672 0.014433693 0.19251858 0.12849171
-0.09340872 0.08363412 0.14141873 0.16902223 0.03579728 0.08877773 -0.22006182 -0.15890582
0.042292677 0.26978114 0.105268195 0.004925383 -0.2114532 -0.1475861 -0.23815237 -0.12096446
0.011603784 -0.044908594 -0.112861656 0.10169934 0.17321268 -0.040825557 0.05021827 0.22994573
-0.15844145 0.07818777 -0.09496909 0.029551517 -0.14040077 0.15840256 -0.050148003 -0.020520985
-0.0007224038 0.09193593 0.039890584 -0.086295985 -0.12274123 -0.06357933 -0.012766764 0.22097357

net.4.bias f4 [4]
00000000: 7d73 0abe 926c bbbd 752f 173e 8d8b 42bd
-0.13520618 -0.091515675 0.14764197 -0.047496367

exp_avg f4 [64, 8]
00000000: 0332 66b9 f083 2f3b 8153 77ba 4067 40ba
00000010: 5185 f8b8 c82f d3b9 915d c739 3004 3d39
00000020: 3703 e638 a7b5 22bb f741 e139 67b4 913a
00000030: 5e2a 8e39 0899 6239 c7d4 3cb9 1d7a deb7
00000040: a06a 0b38 4f84 e9b7 9acc 2938 8c30 54b8
00000050: 0d6e 0938 12f9 76b7 1f1e a4b9 104d b5b9
00000060: 7973 7fb9 978b a43a d2c3 b3b9 37d9 2bba
00000070: c4b1 71b9 5176 4cb9 0ba1 08ba 5e6f 65ba
00000080: 4cb3 ca38 307d c9ba 60f2 f039 0c21 0d3a
00000090: 5b4e 7bb8 3c0a 8837 fbd4 aa38 ea35 9737
000000a0: 5046 5c39 56b0 9dbb 131e c03a 4237 a63a
000000b0: 9c27 fd38 e2d9 333a 02ec 12ba 5f09 0eba
000000c0: 4073 5b37 4f0a dd35 124c eab6 c4eb d136
000000d0: e866 76b6 8251 ebb7 d57b e5b5 2fad bab7
000000e0: c196 1b37 7508 26b6 ed91 8cb7 3afb 5937
000000f0: aa8f d536 b3c2 e936 f34f 3f2e 9f83 ac24
00000100: 3337 0037 59c1 82b7 5365 8f37 b734 d3b7
00000110: 5edd ea37 bb4c 6138 8608 e5b8 4ba6 deb8
00000120: 8e29 afb6 af03 bab7 747b 1f38 7e7b 40b8
00000130: 5a46 9238 2310 0239 67af 3937 c249 6f39
00000140: c02d d1b8 6a83 433a 9ded f3b9 0fcf 80b8
00000150: b8f7 0638 142d d2b7 d831 bd39 22fd e639
00000160: 671e 9ab9 3051 4f3b afd3 67ba 46d5 71ba
00000170: cafc 0cb9 5728 8fb9 19c2 00b7 1e1d a0b9
00000180: 0d99 ba35 151c 2e34 0c6e 95b4 80f9 14b3
00000190: f007 9635 529a 1734 283e ce2e 3534 8ab6
000001a0: 0e16 72b9 67b0 c03a 8ebe 3dba b0f3 82b9
000001b0: ac0f 0f39 8bd0 6939 7ebd 753a c31a 723a
000001c0: 782e b437 66b1 9236 9f5d f8b6 9a92 96b7
000001d0: 1e30 d836 636f 8ab7 7210 b9b5 1f7b 4e37
000001e0: 9cea abb8 0cf1 4438 662b b338 ff01 feb8
000001f0: 644b afb8 6baf f236 57f9 8ab9 303f c1b9
00000200: 9278 7928 72fe a927 400b 5128 e3b0 0828
00000210: 5e6d 05a8 35eb 48a9 ead8 0d1c 0eb6 d81b
00000220: f500 08b8 c451 fdb8 3561 c037 8d24 4738
00000230: f188 1eb8 bb21 3338 8f24 4f38 4163 9535
00000240: dfa3 8a9f 1003 db1e d873 879f 171f 151f
00000250: c504 ac1d b797 d89f 9765 a793 e737 449a
00000260: 7d5a 9039 2be7 2ebb 21bb de39 d44f 8a3a
00000270: 17a3 9b39 802c c839 db98 1a3a 34a1 843a
00000280: a307 93b9 e31a 7d3a 9cbf 1bba 2c05 8bb9
00000290: 3b13 55b8 e65f efb7 7837 a9b8 0b0f bf38
000002a0: 1d62 a039 2f6f 51bb 25a4 233a 4dc1 a13a
000002b0: b2d8 9f39 aa78 a439 0ee6 e039 227f 7d3a
000002c0: cf63 1538 2834 dd38 0cb4 2b37 bd74 7238
000002d0: 3ab7 e737 eab7 77b7 d286 ba38 098e 1937
000002e0: 4d4f 93b9 ea02 3b3b 8fc7 5dba 89d4 4aba
000002f0: ef98 67b9 1186 b2b9 f13f 9b38 2727 07b9
00000300: 9f57 de38 4b32 9fba a81e 0139 8b68 143a
00000310: a25c 6339 5b79 5e39 b238 153a e6bb 6c3a
00000320: 592a ba39 80ea 5cbb a2ce 513a 2f32 913a
00000330: 6f2a 8b39 3aac 013a 165d 9d39 d5ad 1e3a
00000340: 2bd6 9db9 3ce8 473b 0ec7 69ba 1c7b 73ba
00000350: 275a 4fb9 453b c9b9 630f 81b8 c3fa aab9
00000360: d60e a438 c92c ad38 924c 8eb8 df02 34b9
00000370: 14fe 7e38 95f3 2739 b907 063a 9af8 3c3a
00000380: d2f9 e4b9 daf3 743b 9efa 57ba 3e30 9fba
00000390: b5ab b0b9 b515 f3b9 19af c0b9 c7c4 5fba
000003a0: 7aca 9938 bc5a 9aba eaf0 e137 c8e1 0b3a
000003b0: ad2b 2b39 4ef7 3739 f1f8 e439 3218 393a
000003c0: 56d4 40b9 0163 8b3a b452 9cb8 e9ee 02ba
000003d0: 7cd1 56b9 189f 0fb9 e15a e4b9 e6e4 38ba
000003e0: cd5c bbb8 3233 a9ba c867 3db9 cf40 a339
000003f0: 2fd3 1cb8 2cea 0939 6896 0039 c120 ea39
-0.0002195314 0.0026781522 -0.00094347453 -0.0007339604 -0.00011850394 -0.00040280656 0.0003802595 0.00018026005
0.000109678534 -0.0024827512 0.00042964492 0.0011116386 0.00027115917 0.00021610048 -0.00018008343 -2.6521326e-05
3.3239485e-05 -2.7837375e-05 4.048329e-05 -5.058995e-05 3.2765838e-05 -1.4720734e-05 -0.0003130296 -0.00034580426
-0.00024361712 0.0012553808 -0.00034287438 -0.00065555 -0.00023049774 -0.00019499032 -0.00052119856 -0.0008752252
9.665507e-05 -0.0015372392 0.0004595695 0.00053836475 -5.9916038e-05 1.621723e-05 8.1459024e-05 1.8025708e-05
0.00021007028 -0.0048122806 0.00146574 0.0012681263 0.00012071358 0.0006860775 -0.0005604626 -0.00054182665
1.3080251e-05 1.6468783e-06 -6.982599e-06 6.256132e-06 -3.6716756e-06 -2.8052138e-05 -1.7097869e-06 -2.2253573e-05
9.27382e-06 -2.474085e-06 -1.6757253e-05 1.2992701e-05 6.3646194e-06 6.966607e-06 4.349938e-11 7.4816084e-17
7.642247e-06 -1.5587242e-05 1.7094111e-05 -2.5177707e-05 2.7998056e-05 5.371564e-05 -0.000109211585 -0.000106167594
-5.220244e-06 -2.2174643e-05 3.802353e-05 -4.589138e-05 6.9749265e-05 0.00012403778 1.1067698e-05 0.00022820293
-9.974418e-05 0.0007458242 -0.00046525607 -6.142083e-05 3.2178796e-05 -2.5054942e-05 0.00036086026 0.00044057617
-0.0002939582 0.0031634085 -0.0008843494 -0.00092252006 -0.00013445612 -0.0002730514 -7.674586e-06 -0.00030539272
1.3902624e-06 1.6215229e-07 -2.7833482e-07 -3.4685854e-08 1.1178181e-06 1.4119112e-07 9.3788366e-11 -4.118798e-06
-0.00023087134 0.001470101 -0.00072381727 -0.00024977094 0.00013643381 0.000222983 0.0009374245 0.0009235555
2.147931e-05 4.371791e-06 -7.401875e-06 -1.794966e-05 6.442903e-06 -1.650275e-05 -1.378836e-06 1.2307223e-05
-8.197615e-05 4.6954534e-05 8.543469e-05 -0.000121120356 -8.358693e-05 7.2325834e-06 -0.00026507184 -0.00036858907
1.3848421e-14 4.7182793e-15 1.160427e-14 7.587873e-15 -7.406698e-15 -4.461293e-14 4.693334e-22 3.5851853e-22
-3.2425818e-05 -0.0001207921 2.293345e-05 4.7479338e-05 -3.7797672e-05 4.270834e-05 4.9386694e-05 1.1130252e-06
-5.8716375e-20 2.3188794e-20 -5.736637e-20 3.1577694e-20 4.5532952e-21 -9.173055e-20 -4.2256902e-27 -4.0577008e-23
0.0002753324 -0.002668808 0.00042482562 0.0010552355 0.00029685415 0.00038180128 0.0005897411 0.0010118843
-0.00028043715 0.00096551905 -0.0005941333 -0.00026516 -5.0801067e-05 -2.8535676e-05 -8.06888e-05 9.110392e-05
0.00030590678 -0.003195714 0.0006242416 0.0012340933 0.00030488294 0.0003137042 0.00042896013 0.00096701283
3.5617322e-05 0.00010547816 1.0234315e-05 5.7806017e-05 2.7622667e-05 -1.4765168e-05 8.8942834e-05 9.152581e-06
-0.0002809711 0.0028535672 -0.00084602175 -0.00077373587 -0.00022086849 -0.00034050693 7.402886e-05 -0.00012889189
0.000106021056 -0.0012145726 0.00012313819 0.000566133 0.00021682915 0.00021216778 0.0005692347 0.00090306846
0.00035508236 -0.0033709109 0.0008003508 0.0011077578 0.00026543761 0.0004946623 0.00030014728 0.00060531247
-0.0003010494 0.0030503413 -0.0008917906 -0.0009288059 -0.00019774643 -0.00038381867 -6.154065e-05 -0.0003261176
7.822893e-05 8.257625e-05 -6.78535e-05 -0.00017167207 6.0794948e-05 0.00016017102 0.0005112845 0.00072086754
-0.0004367368 0.0037376792 -0.0008238944 -0.0012145115 -0.00033697268 -0.00046364745 -0.00036751552 -0.0008536097
7.333323e-05 -0.0011776309 2.6934275e-05 0.0005336073 0.00016324101 0.00017544368 0.00043673025 0.00070607953
-0.00018389648 0.0010634364 -7.454064e-05 -0.0004994707 -0.0002048667 -0.0001369681 -0.0004355526 -0.00070531515
-8.93414e-05 -0.0012908934 -0.00018063106 0.0003113807 -3.738998e-05 0.00013152574 0.00012263062 0.00044656362

exp_avg_sq f4 [64, 8]
00000000: 0781 5535 1bdb 0437 da00 4435 45b9 cc35
00000010: db4b 1b35 1be4 1b35 85c6 9835 6940 9835
00000020: a95b 8e34 46cf a436 de37 ef34 d33a 3e35
00000030: f8d0 ad34 17c3 7234 e84d e633 491a 4333
00000040: b64c 0f33 96f0 4132 039f b332 40dd 9632
00000050: c452 8e32 9722 1d33 c2dc bb34 2479 c034
00000060: 5f7e df34 716e 2536 a58f b834 bbfb 2535
00000070: 614f 8934 6a2b 6834 08d0 7335 4aa8 8635
00000080: 283a bd34 29c5 9c36 0518 f834 14af 2a35
00000090: b2a5 9934 ac10 4434 ce03 8a32 032f 9132
000000a0: 4a8a c035 74e7 aa37 8bd6 e735 e5a5 4736
000000b0: b6da 9b35 2693 9535 4c2e 2e36 6d7f 3d36
000000c0: d36b 9132 c76c 7e31 4654 2d32 ff0c 3b31
000000d0: 41f3 6d31 8743 ab32 1870 0d31 1c31 6f32
000000e0: 17f3 b431 d9ad a231 ffc8 0632 ea88 8c32
000000f0: 2f59 0b32 eef9 ac31 c80e bf30 8064 3b2f
00000100: a32a 5e32 ddfb dc31 bcf4 1332 11c3 8f32
00000110: 5f3a 1932 b300 9e32 7edc ad33 bc73 a533
00000120: 2e61 9f32 8145 e430 82bf ff31 1c45 a331
00000130: dd8a 2d32 844f 3333 a69d 4834 f2fd 2a34
00000140: 506f ee34 c342 5736 8f4e c234 fd83 3635
00000150: 2682 9034 d28e 8a34 69e1 5a35 dc80 5e35
00000160: e73e 1a35 6b72 0a37 f18a 4835 d268 c435
00000170: 4143 0235 cd9a d334 4a38 4434 9dff 6634
00000180: 5693 eb2f 02e1 592e 6b3d 852f 3314 dc2e
00000190: 7748 0c30 0449 3430 cb74 8d2f ede1 2430
000001a0: cc6e 9c35 b5f7 2e37 6066 9535 0773 e735
000001b0: a277 5035 4073 4035 3532 0e36 c4c5 1a36
000001c0: 6250 5c33 32cc 9131 6660 8732 10e9 1432
000001d0: 4c49 5c32 5e17 de32 8aee 9632 2c94 d332
000001e0: 10e7 0d34 1a12 8935 9c5c 1c34 6693 4934
000001f0: be1b 0134 ad36 cd33 c786 c334 4870 d434
00000200: a7af 1831 5ffe 3331 6281 6431 dda7 7532
00000210: 1346 2a32 2b8a b931 016d 4e2e b4bb 912e
00000220: e39c ff32 735b 5a35 66cb 9033 7479 a933
00000230: a7dc 2633 9c70 2933 7e37 1033 f2eb 6632
00000240: a318 9f2f 294f 2c2f f9a2 7830 3288 0231
00000250: 92f1 de30 f05e 9a30 ae0e 902a 1ad1 072e
00000260: b85c 0c35 40e0 ab36 75ba 1635 0f24 6e35
00000270: 9943 cb34 3209 ac34 caf3 a535 4cc3 b735
00000280: ae22 ab33 42a4 d635 e292 2b34 badd 8c34
00000290: ba19 a433 dafd c133 3774 0634 b7ad dd32
000002a0: 9639 2235 4076 dd36 4945 3635 ba5e 9b35
000002b0: c8ea 0035 3ec9 c434 3fb5 a635 5ddb be35
000002c0: 4d4e d433 af3a 3235 172c 9533 b0c0 2934
000002d0: 5b2b 9033 5706 8a33 0540 1634 bde5 1134
000002e0: 313b 0335 81ed ae36 5a1b 1135 186d 9a35
000002f0: 0535 c734 f41f d634 a931 5e35 56d8 4f35
00000300: 719d d934 b915 7736 c822 f834 fc00 2e35
00000310: 9d12 a934 2e6a 9734 02ca a835 a43f b835
00000320: 8e32 4835 9dcf 0337 e4dc 4735 8fc7 c335
00000330: 23a9 0c35 691d 0535 6518 6835 2bd9 6535
00000340: 2c7e 3c35 e9d8 e936 67e1 2d35 bb39 b635
00000350: 3295 f634 34dd f334 4ee4 2835 8166 2035
00000360: 3356 2734 b5d4 3933 bc4c 5333 4565 4033
00000370: d765 5033 c62d b033 b671 0e35 5148 2335
00000380: 4bc0 8f35 c06f 2237 d56b 7e35 d1fc 0536
00000390: a1c4 3c35 249c 3c35 18ac a535 b893 af35
000003a0: f129 7d34 87ab 0a36 1347 8134 1f31 ad34
000003b0: 0b1b 2a34 667a 0534 c2b1 3935 88fe 4735
000003c0: b7fd 4a34 8374 1636 49d8 8734 8b7e c934
000003d0: c451 5934 2891 3134 a4fc 3335 dd06 4435
000003e0: d57b 1134 ea04 2a36 f8fc 8634 4308 8734
000003f0: 57ea d133 b19e 1834 3ee7 ee34 7ae9 1035
7.9536443e-07 7.918828e-06 7.301693e-07 1.5253105e-06 5.7852384e-07 5.8073937e-07 1.1382659e-06 1.1343628e-06
2.6516253e-07 4.9117107e-06 4.4557868e-07 7.0866116e-07 3.2375806e-07 2.260898e-07 1.0724381e-07 4.542588e-08
3.336455e-08 1.12887815e-08 2.0910653e-08 1.7562911e-08 1.6568613e-08 3.658587e-08 3.4992087e-07 3.5850928e-07
4.1628934e-07 2.4651201e-06 3.4377186e-07 6.1833606e-07 2.5575994e-07 2.1622478e-07 9.082728e-07 1.0032757e-06
3.5246308e-07 4.6721148e-06 4.6211076e-07 6.358471e-07 2.861903e-07 1.8259988e-07 1.6067045e-08 1.69016e-08
1.4345362e-06 2.0373358e-05 1.7273281e-06 2.9749874e-06 1.1612053e-06 1.1144191e-06 2.5954969e-06 2.8237366e-06
1.6929254e-08 3.7023697e-09 1.0089087e-08 2.721947e-09 3.4626313e-09 1.9937728e-08 2.0581918e-09 1.3922797e-08
5.2663256e-09 4.7345847e-09 7.845528e-09 1.6360406e-08 8.111143e-09 5.0342726e-09 1.390128e-09 1.7043256e-10
1.2931795e-08 6.4314762e-09 8.612172e-09 1.6736097e-08 8.919044e-09 1.8393939e-08 8.0960476e-08 7.704463e-08
1.8554228e-08 1.6608938e-09 7.4432487e-09 4.751781e-09 1.0101499e-08 4.1749004e-08 1.8683804e-07 1.5924869e-07
4.4411945e-07 3.2076357e-06 3.6192475e-07 6.799235e-07 2.6916786e-07 2.5808419e-07 8.1539343e-07 8.288896e-07
5.7461006e-07 8.252081e-06 7.470799e-07 1.4633645e-06 4.852664e-07 3.9414445e-07 1.82744e-07 2.1513411e-07
4.285094e-10 4.9539935e-11 2.42362e-10 1.000803e-10 5.103468e-10 6.558738e-10 2.5730737e-10 5.998391e-10
1.1655152e-06 1.0428882e-05 1.113116e-06 1.7244319e-06 7.7660127e-07 7.1693285e-07 2.1188873e-06 2.3062903e-06
5.129585e-08 4.2432697e-09 1.5759905e-08 8.667726e-09 1.2822351e-08 2.5854828e-08 1.7570773e-08 2.4631014e-08
1.3215708e-07 1.0212564e-06 1.4562323e-07 1.8773207e-07 1.2024154e-07 9.556002e-08 3.6419644e-07 3.9569773e-07
2.2218758e-09 2.6192521e-09 3.3251912e-09 1.4299045e-08 9.911235e-09 5.3999165e-09 4.6935792e-11 6.6271794e-11
2.975725e-08 8.1344405e-07 6.7425205e-08 7.891768e-08 3.885057e-08 3.9450796e-08 3.3578083e-08 1.344141e-08
2.8939437e-10 1.5671432e-10 9.045347e-10 1.8994908e-09 1.6221284e-09 1.1231958e-09 2.5589725e-13 3.0881166e-11
5.228899e-07 5.1223033e-06 5.6150685e-07 8.871438e-07 3.786088e-07 3.2044187e-07 1.236441e-06 1.3691401e-06
7.969116e-08 1.5992048e-06 1.5979052e-07 2.623836e-07 7.641525e-08 9.033438e-08 1.2522001e-07 2.5806782e-08
6.04335e-07 6.6000794e-06 6.7901107e-07 1.1575969e-06 4.802537e-07 3.6654268e-07 1.2420713e-06 1.4219946e-06
9.886262e-08 6.6395563e-07 6.946373e-08 1.5809451e-07 6.713409e-08 6.427279e-08 1.3993129e-07 1.3587756e-07
4.888744e-07 5.213253e-06 5.405651e-07 1.1505645e-06 3.7105215e-07 3.9883855e-07 8.277371e-07 7.742832e-07
4.0533953e-07 3.6818512e-06 4.6218906e-07 6.4821484e-07 3.1492246e-07 2.8203198e-07 1.2575767e-06 1.372759e-06
7.457937e-07 7.856547e-06 7.4454715e-07 1.4586711e-06 5.240019e-07 4.958916e-07 8.6462234e-07 8.562517e-07
7.021906e-07 6.969193e-06 6.4775526e-07 1.3576858e-06 4.5929625e-07 4.5423224e-07 6.2917104e-07 5.975381e-07
1.5584446e-07 4.3267125e-08 4.9197055e-08 4.4795588e-08 4.8521397e-08 8.203965e-08 5.3064593e-07 6.0827466e-07
1.0710295e-06 9.681971e-06 9.477929e-07 1.9965703e-06 7.032159e-07 7.026267e-07 1.2343544e-06 1.3081508e-06
2.357772e-07 2.0663445e-06 2.4079836e-07 3.22595e-07 1.5842322e-07 1.2431119e-07 6.917654e-07 7.450367e-07
1.8905017e-07 2.241956e-06 2.5303078e-07 3.753124e-07 2.0239446e-07 1.6537217e-07 6.7050337e-07 7.302568e-07
1.3549227e-07 2.5334834e-06 2.5143504e-07 2.515172e-07 9.774947e-08 1.4213835e-07 4.4499205e-07 5.3983933e-07

exp_avg f4 [64]
00000000: c4fd b43a 142b 2abb 49ce 91b9 d3ef 9839
00000010: 4604 7bba 1bdf 3fbb e230 b7b7 81be 68b8
00000020: ef00 a1b8 3853 2939 9fc9 003a f196 b93a
00000030: 3934 8ab6 84b2 bb3a 39f4 8338 c3a0 90b8
00000040: 7bc9 e4a8 d472 b8b8 2442 bf9f e23b 93ba
00000050: bb17 fa39 58bd ddba b95d 59b9 0463 a03a
00000060: 761f 9db9 31ec c8ba 2ad9 b83a 83d7 a53a
00000070: 5d38 dc3a 524b d7b9 e42c d639 687b 30ba
00000080: 6ac9 abb4 f27e baba c5f2 b6b8 9849 9339
00000090: a6d3 56b9 a8aa 6e3a e9fa 83ba 3b66 283a
000000a0: aef6 9d3a cc5b ee38 063f 58ba add1 33b8
000000b0: 124d 783a bda3 8b3a b098 23bb 4fb1 80b9
000000c0: c508 03b9 313b 8db9 393e a6b9 2877 7aba
000000d0: e180 03bb a9a3 9ab8 3f24 9db9 59ad b339
000000e0: 2ec6 9ab8 eb08 bb39 c8ac 19ba 003f f4ba
000000f0: 2e51 a739 5e52 533a 70cb fa39 fe94 dcb8
0.0013808538 -0.0025965618 -0.0002781025 0.00029170382 -0.0009575527 -0.0029277268 -2.1838063e-05 -5.549053e-05
-7.677252e-05 0.00016148097 0.00049128564 0.0014159364 -4.1188e-06 0.001432017 6.292057e-05 -6.896399e-05
-2.5400463e-14 -8.795192e-05 -8.100107e-20 -0.0011233056 0.00047701396 -0.0016917391 -0.00020729647 0.001223654
-0.00029968814 -0.001532918 0.0014102806 0.0012652728 0.0016801466 -0.00041064114 0.00040850707 -0.0006732256
-3.199778e-07 -0.0014228506 -8.7236556e-05 0.00028092857 -0.00020487476 0.0009104409 -0.0010069284 0.0006423925
0.0012051666 0.00011365823 -0.00082491373 -4.28722e-05 0.00094719336 0.0010653656 -0.0024962835 -0.00024546168
-0.000124964 -0.00026937717 -0.00031708347 -0.0009554499 -0.0020065831 -7.373776e-05 -0.0002997238 0.00034270695
-7.380206e-05 0.00035674064 -0.0005862233 -0.0018634498 0.00031913206 0.0008061285 0.0004783529 -0.000105181694

exp_avg_sq f4 [64]
00000000: 013c 5c37 939a ad36 fcf7 0035 8859 bf36
00000010: 3347 d236 fafc 0138 7cf5 2333 dc2f 0933
00000020: 1c2f 0334 1769 6b34 825d bb36 423a 4b37
00000030: 5e8b 8a30 fd8f 8937 ea4d 6e34 0504 e835
00000040: 5867 8a32 920c 2335 3931 c630 ec3d 1237
00000050: 83fd 1536 4e85 2e37 5b30 b235 0692 1b37
00000060: 79f8 d336 b974 5937 1b77 4137 dee3 f135
00000070: 9df7 8b37 9cc0 7436 3819 7d36 a712 2836
00000080: 9f7c b430 a829 0237 f5f3 4d36 1910 b736
00000090: a916 de35 e8eb 2d37 5949 7536 29b1 5b36
000000a0: 3a9b c236 f6c9 af36 8243 8036 c5d2 1533
000000b0: 8e3a 2f37 06b2 2237 2337 2637 c8bd 9734
000000c0: c874 4334 4766 c335 3953 0f34 c4f9 d535
000000d0: 8197 af36 41e8 d335 a114 b435 8b83 1d36
000000e0: 0499 8935 ca1f 9036 6eaf 6536 d67d eb36
000000f0: 13f8 c435 12f8 b235 d938 ce35 d235 e935
1.3126993e-05 5.1737966e-06 4.804458e-07 5.7026664e-06 6.2667764e-06 3.09916e-05 3.817466e-08 3.1941326e-08
1.2217464e-07 2.1924312e-07 5.58392e-06 1.2113307e-05 1.0080432e-09 1.6398722e-05 2.2193822e-07 1.7286517e-06
1.611231e-08 6.0740524e-07 1.4420386e-09 8.716695e-06 2.2350293e-06 1.0402246e-05 1.3276107e-06 9.272719e-06
6.317216e-06 1.29613845e-05 1.1531428e-05 1.8022217e-06 1.6685395e-05 3.6470947e-06 3.7714617e-06 2.5044808e-06
1.3132143e-09 7.758303e-06 3.0689382e-06 5.455699e-06 1.6546884e-06 1.036653e-05 3.655054e-06 3.2736664e-06
5.7997213e-06 5.2389178e-06 3.822556e-06 3.488346e-08 1.0444446e-05 9.697402e-06 9.907209e-06 2.8264026e-07
1.8203275e-07 1.4558399e-06 1.3348189e-07 1.5942428e-06 5.233044e-06 1.578832e-06 1.3417049e-06 2.3471391e-06
1.0251829e-06 4.295235e-06 3.4225773e-06 7.018195e-06 1.4675337e-06 1.3334231e-06 1.5364741e-06 1.7375517e-06

exp_avg f4 [64, 64]
00000000: a886 f8b7 7e9d 54b9 fb28 7535 9512 08b7
00000010: 5353 20b9 62b1 c6b8 a69d b535 78a5 14b6
00000020: 94a5 1638 b9c5 3537 db5f a9b9 e35b a9b9
00000030: f2e0 1534 8c09 adb9 c484 4f36 030f deb9
00000040: cdd5 6da6 5687 91b8 94a0 1b15 edc8 82b9
00000050: 1192 81b9 90d8 55b9 1cde 63b7 e936 4cb8
00000060: 04d6 77b9 284c 1d38 abe1 73b9 e066 2838
00000070: ca26 ffb8 5a3f 75b9 7029 5eb9 57e3 dcb6
00000080: ec85 0235 d97c ddb9 2043 0ab6 3c37 7db9
00000090: d662 51b6 8d19 abb6 9c06 91b8 4e1b b6b9
000000a0: 309b 88b8 a0dc feb8 33e2 8bb9 caa1 e0b5
000000b0: f140 b9b8 f66e bbb9 ae17 3db9 59f1 3538
000000c0: b321 2136 a547 3937 454e 3238 5cf7 5fb9
000000d0: d84f 52b9 976d b836 0840 9fb8 58e1 8238
000000e0: 065d 6538 77db 48b9 d19d 2ab9 e80f 3fb9
000000f0: 0c57 4db8 55ea 88b8 d3d2 94b9 5cba 9337
00000100: aa3f 6c31 6c6b ae33 ba49 d133 550e 8832
00000110: 7bb1 a6a6 4b65 75b2 f419 2218 cea6 b4a0
00000120: 01f2 9a32 d255 b4b2 7068 2834 1bac 8233
00000130: 7f85 4119 a863 ef33 8f9b dc2d ae12 b533
00000140: 46a1 a60f 9620 b4b1 77fe 5c8f 82ed 4334
00000150: 353c ce33 b472 ec33 8dd7 7530 c211 1c33
00000160: be57 3b34 fbe0 4134 4ce7 8f33 2ede 7bb2
00000170: 42a2 8533 983b 6e34 ba37 0133 80c0 abb0
00000180: 8631 a01c 16b4 3e34 f47c 9327 6c71 47a3
00000190: 076a 0534 be60 a733 36d2 cc33 ba72 5333
000001a0: 5030 92b1 e8af 5db0 c9e8 c633 bf74 18b2
000001b0: 8bdc af33 1b2b a333 480a 90b2 89b4 7cb2
000001c0: dd25 6531 a460 1134 0eda d6b2 2cfb 5da0
000001d0: c63b 169d 4323 1aaa 2ad6 0da5 4735 4f33
000001e0: 15f9 1333 f486 26b1 fc81 0d2b a791 f4b2
000001f0: 618f 9527 fc90 8f33 65a4 3032 dbfd 1033
00000200: cafd 32b9 f99c 85b9 cdcb cd37 165d 84b8
00000210: 63bd 0bb9 634b 8bb8 27b0 1835 7457 01b6
00000220: 2381 4b38 475f 9238 9e4c bab9 af5c deb9
00000230: ac34 9033 3642 01ba 0d87 8336 b82c 04ba
00000240: cfa9 549b 2a22 b1b8 9333 6b9d cd0a 87b9
00000250: 20bf 5ab9 7425 78b9 71b6 09b9 8f57 fbb8
00000260: 0e7b 84b9 aa3a d036 28c1 b3b9 b604 8838
00000270: 24a3 7bb9 b461 95b9 62ce 83b9 acd7 8837
00000280: 2574 c8b1 a3c2 ceb9 6487 c1b8 db2c 7fb9
00000290: 49a3 aa37 8624 13b9 792e feb8 c6ba fcb9
000002a0: df8a 1bb9 248c 29b9 e2e0 bab9 5db7 55b5
000002b0: fce8 84b9 47e0 dfb9 e808 44b9 bc57 80b6
000002c0: e7c0 4a38 232f 1738 f8dd d9b5 fb07 8db9
000002d0: 3cb6 43b9 9c83 8436 f0de fcb8 d5f2 6a36
000002e0: 5fab e636 61f7 52b9 fa1f 3eb9 a4fc 57b9
000002f0: c1ed 9eb8 c70b 90b8 0128 c3b9 31b5 8638
00000300: 353c 7cb8 0bd0 ef38 eaae 5b38 91a0 fcb6
00000310: 2964 1a39 691c 1c39 7903 dbb5 0c33 38b5
00000320: 0e80 4f37 f859 8d38 0edd 8439 3dfb 4c39
00000330: 12e8 b833 2f2e 1839 407e a1b5 0867 bd39
00000340: 62e3 f126 4b2c 1f38 da49 f61d 7c43 5e39
00000350: cf64 7139 e18f 2839 1c47 6db8 a793 9c37
00000360: 7e1a 5d39 47af 6737 5f82 0239 1dc7 ab36
00000370: fa95 0038 c6e8 1539 0eb8 5239 9046 5038
00000380: fe0a 3eb5 e976 d539 989a 75b8 fe1f 6a39
00000390: 58af 4e38 66b4 48b8 8053 a438 30df 4a39
000003a0: 9025 7337 3417 d938 d540 5139 4a71 e135
000003b0: f170 36b8 7194 7c39 e182 2039 45a6 98b8
000003c0: 99fd 8238 1157 2638 631f 96b8 7e35 0639
000003d0: 897c 4239 bd96 77b6 40fe ec37 281f a1b8
000003e0: ab9f 84b7 61db 3839 60ca 0539 6800 0a39
000003f0: 522b da37 3c46 3238 3166 3f39 b9ab 9038
-2.9626608e-05 -0.00020276566 9.1329247e-07 -8.110558e-06 -0.0001528983 -9.474416e-05 1.3531433e-06 -2.2150034e-06
3.5916994e-05 1.0834477e-05 -0.0003230561 -0.00032302653 1.3958541e-07 -0.00033004244 3.0922683e-06 -0.00042354324
-8.2515647e-16 -6.939347e-05 3.1428675e-26 -0.00024945234 -0.00024713625 -0.00020393939 -1.3581968e-05 -4.868853e-05
-0.00023635483 3.7502643e-05 -0.00023258354 4.015013e-05 -0.000121665726 -0.00023388621 -0.00021187006 -6.5829768e-06
4.8623656e-07 -0.00042245424 -2.0602674e-06 -0.00024148537 -3.1200957e-06 -5.0991716e-06 -6.91537e-05 -0.0003473409
-6.513891e-05 -0.000121527584 -0.00026680678 -1.6736387e-06 -8.833584e-05 -0.00035750092 -0.00018033266 4.3378535e-05
2.4010485e-06 1.104354e-05 4.25114e-05 -0.00021359086 -0.00020056905 5.4963853e-06 -7.5936376e-05 6.2408566e-05
5.468449e-05 -0.00019155243 -0.00016271255 -0.00018221105 -4.8956877e-05 -6.528633e-05 -0.00028385836 1.7610546e-05
3.4378709e-09 8.122046e-08 9.745732e-08 1.5839001e-08 -1.156667e-15 -1.4283908e-08 2.0951112e-24 -3.0603568e-19
1.803801e-08 -2.0993784e-08 1.5684213e-07 6.0849025e-08 1.00048255e-23 1.1147432e-07 2.5080186e-11 8.431867e-08
1.6430984e-29 -5.242394e-09 -1.08958456e-29 1.8247195e-07 9.603574e-08 1.1010471e-07 8.9436797e-10 3.633773e-08
1.7447653e-07 1.8056373e-07 6.701029e-08 -1.4660641e-08 6.22281e-08 2.2187157e-07 3.0085836e-08 -1.2496599e-09
1.0600713e-21 1.7760644e-07 4.093617e-15 -1.081183e-17 1.2425163e-07 7.794141e-08 9.5377274e-08 4.923161e-08
-4.2546517e-09 -8.064931e-10 9.262437e-08 -8.8741094e-09 8.189189e-08 7.59812e-08 -1.6768482e-08 -1.47093795e-08
3.3345409e-09 1.3539335e-07 -2.5012039e-08 -1.8802534e-19 -1.9883237e-21 -1.3690182e-13 -1.2302362e-16 4.82444e-08
3.4452643e-08 -2.4232891e-09 5.027365e-13 -2.8471574e-08 4.151126e-15 6.685329e-08 1.0281927e-08 3.3758493e-08
-0.00017069947 -0.0002548469 2.4532806e-05 -6.311589e-05 -0.00013326625 -6.6420784e-05 5.688075e-07 -1.9273402e-06
4.851924e-05 6.979569e-05 -0.0003553377 -0.00042412194 6.7151035e-08 -0.00049308257 3.919826e-06 -0.0005042064
-1.7591097e-22 -8.446381e-05 -3.1128654e-21 -0.00025757254 -0.000208613 -0.00023665075 -0.00013133303 -0.00011984922
-0.00025268685 6.2057125e-06 -0.00034285453 6.485863e-05 -0.00023998 -0.0002849229 -0.00025140034 1.6312893e-05
-5.83397e-09 -0.00039436397 -9.2281756e-05 -0.00024335405 2.0341615e-05 -0.00014032618 -0.0001212032 -0.00048204343
-0.00014833685 -0.00016169302 -0.00035644235 -7.961551e-07 -0.0002535059 -0.00042700974 -0.00018695334 -3.824911e-06
4.8340207e-05 3.6045105e-05 -1.6232361e-06 -0.00026899562 -0.00018664537 3.949228e-06 -0.00012057822 3.5010064e-06
6.8744844e-06 -0.00020119316 -0.00018131724 -0.00020598114 -7.578312e-05 -6.868649e-05 -0.00037223104 6.4233674e-05
-6.0137554e-05 0.00011435159 5.237657e-05 -7.5288776e-06 0.00014723897 0.00014887903 -1.6317782e-06 -6.8619624e-07
1.23679765e-05 6.740162e-05 0.000253417 0.0001954855 8.610381e-08 0.00014513054 -1.2032178e-06 0.00036125653
1.6784367e-15 3.7949805e-05 6.519202e-21 0.0002119671 0.00023021105 0.00016075328 -5.657143e-05 1.8665405e-05
0.00021086072 1.3809483e-05 0.00012446333 5.119377e-06 3.0657255e-05 0.00014296462 0.00020095726 4.965678e-05
-7.079651e-07 0.0004071512 -5.855653e-05 0.00022327897 4.927753e-05 -4.7851725e-05 7.8356825e-05 0.00019347365
1.4492674e-05 0.00010351688 0.00019955945 1.6796778e-06 -4.3497366e-05 0.00024087892 0.00015307545 -7.278895e-05
6.246119e-05 3.965857e-05 -7.1584036e-05 0.00012799163 0.00018547675 -3.689361e-06 2.8251787e-05 -7.6828816e-05
-1.5809977e-05 0.00017629332 0.00012759259 0.00013160857 2.6007798e-05 4.2503918e-05 0.00018253249 6.898441e-05
