Lunarlander/checkpoints/pg_LunarLander-v3_last.pth (torch, 100765 bytes, 18 tensors)

net.0.weight f4 [64, 8]
000000 c6 fa 89 be 8b ad ee 3d 9d 54 3d 3e d4 72 23 3c
       -0.26949137 0.116541944 0.18489309 0.009976108
000010 be 28 6b be 36 f9 2b 3e dd 3f 62 be ed ad 27 3b
       -0.2296476 0.16794285 -0.22094674 0.0025585846
000020 83 ae 3e 3e 3f 41 a7 be 53 b9 36 3e 17 be 97 bd
       0.18621258 -0.32666966 0.17844133 -0.07409304
000030 2f 98 66 be 40 ba 97 be bd 8d 38 be 2c 3d 44 be
       -0.22518991 -0.29634285 -0.18022819 -0.1916396
000040 71 87 b4 3d bb b8 8b 3e 4e 2d 3f be 5e 24 a4 bd
       0.08814896 0.27289376 -0.18669626 -0.08014749
000050 70 31 f9 3e a6 ad a3 bc 1f 3e 92 3e 39 bc 8f be
       0.4867053 -0.019980263 0.2856302 -0.2807329
000060 f1 30 00 be e2 cf 2c be 9b 5c b1 3d bc 5d 53 bd
       -0.1251867 -0.16876176 0.08660241 -0.051603064
000070 90 08 1c be 02 10 b2 bd d4 f6 7b 3e 77 27 9d 3e
       -0.15237641 -0.086944595 0.24605876 0.30694172
000080 61 09 04 3e 91 39 de bd b6 37 7c bd 34 8d c3 be
       0.12894203 -0.10850824 -0.061576568 -0.38193667
000090 2e 12 a3 3e ce 77 ee 3d 83 ca be 3e d8 ea 83 3e
       0.31849808 0.11643945 0.3726388 0.2576511
0000a0 21 b9 2f be ea fe 34 be e3 34 e1 3d 13 93 8d 3e
       -0.17160465 -0.17675367 0.109964155 0.2765127
0000b0 54 7a 8b be 69 73 a9 be 29 28 ab 3e ad 61 b5 3d
       -0.27241766 -0.33095863 0.33429077 0.08856521
0000c0 2d 05 28 3e d8 49 43 be fd af d0 be 8f 5a 00 bd
       0.16408224 -0.19071138 -0.40759268 -0.031336363
0000d0 15 0d d0 3e 70 06 6f be df 6b a8 be 84 84 a7 bd
       0.4063498 -0.233423 -0.328948 -0.08179572
0000e0 f4 e5 08 3e 20 4d 4f 3d 1b ba a1 3e 1f fc 8c 3e
       0.1336897 0.05061066 0.315873 0.27536103
0000f0 66 78 d5 bd c0 fa d4 be d6 b5 eb 3d d2 c1 c8 bd
       -0.10423355 -0.41597557 0.11509292 -0.09802593
000100 22 78 91 bd 10 af 59 bd 57 e9 a5 3e c7 2d 06 3e
       -0.07102992 -0.05314547 0.32404587 0.131034
000110 06 6d 24 bd 7a e2 d9 be 2e dd cc 3c 02 3a a0 3c
       -0.040143035 -0.425556 0.02500781 0.01955891
000120 c8 29 fe bc e5 2b 8f 3e e5 27 a5 be 5a 2c 64 be
       -0.031025782 0.27963176 -0.32257 -0.22282544
000130 3a a1 d4 3e fb 7b bb 3b bb c3 5a 3e 69 00 40 3c
       0.41529256 0.0057215667 0.21363728 0.011718848
000140 1d 2b 43 3e 29 9c 3d 3e 51 f4 1e 3e 10 84 af be
       0.19059415 0.18516602 0.15522887 -0.34280443
000150 ef 81 fe bc c4 a9 62 be 90 3a 30 3d cc 41 1e be
       -0.031067817 -0.22135073 0.0430246 -0.15454787
000160 ef f1 a7 3c 67 62 39 be ea 34 9f 3c 00 81 de be
       0.020501105 -0.18103944 0.019434411 -0.43457794
000170 af 97 fc be a8 11 25 bd 5d 7d 95 3e 38 20 57 3e
       -0.49334475 -0.04030004 0.29197207 0.21008384
000180 1f 7e 99 3d b6 8d 99 3e 92 f7 57 3e 4b 65 9e be
       0.07494759 0.2999093 0.21090534 -0.30936655
000190 ea e8 59 be ee fd 89 be be f7 8d be b2 cd 86 be
       -0.21280256 -0.26951545 -0.27728075 -0.26328808
0001a0 77 c5 50 be f4 ae 80 3e 8b 3f 95 3e 8e 42 8e be
       -0.20387827 0.2513348 0.29150042 -0.27785152
0001b0 46 0d d3 be ee e4 d0 be fc 40 15 3e 76 af ae be
       -0.41221064 -0.4079966 0.14575571 -0.3411824
0001c0 1c bb 3e 3e ca 25 0c be ef d5 87 3c b6 fc ae be
       0.18626064 -0.1368629 0.016581504 -0.34177178
0001d0 47 8e 92 bd 74 ae 7d bd b4 08 9f 3e 32 77 49 3d
       -0.071560435 -0.06193395 0.31061327 0.04918594
0001e0 65 13 56 be 20 b4 41 be e5 6a 8a bc 7c dd 96 be
       -0.20905836 -0.18916368 -0.016896674 -0.29465854
0001f0 38 ce 92 3e 93 49 d2 3e 89 15 99 3e f2 ef 2a 3e
       0.28672957 0.41071758 0.29899243 0.16693094
000200 9c d9 7b 3e 1b 3a 4a 3e 02 a7 67 be e9 ee fd be
       0.2459473 0.19748728 -0.22622302 -0.49596336
000210 c9 93 e3 3e eb 1f 36 3e b6 0a 44 bb 35 76 58 3e
       0.4444869 0.17785613 -0.002991361 0.21138842
000220 24 63 aa be 48 f1 86 3e ac 3e 77 3e 3c f7 b6 bd
       -0.33278763 0.26355958 0.24145001 -0.08933875
000230 62 a9 62 be b4 cb 10 bf 16 5b cd 3d e5 7d 44 be
       -0.22134927 -0.56560826 0.10027139 -0.1918865
000240 aa 2f 7f 3d ed b3 2c bd df 75 80 3d 84 d8 9c be
       0.062301315 -0.042163778 0.06272482 -0.30633938
000250 06 3f dd be 95 f0 c7 bc 2f a6 40 3c e8 df a0 be
       -0.43212146 -0.02440671 0.011758371 -0.31420827
000260 94 2d 88 be 35 3a 34 3e 73 95 9b be c7 16 86 3e
       -0.26597273 0.17600329 -0.30387458 0.26189253
000270 1c 7f a3 bc cd 68 66 be 48 d4 12 3e 67 d0 bd 3c
       -0.019958071 -0.22500916 0.14338791 0.023170663
000280 a4 2b 33 be 80 f6 89 be e3 2f 57 3e 4a 5b c0 3e
       -0.17497116 -0.26945877 0.21014361 0.37569648
000290 c1 27 f0 bd 55 a0 01 be bf 53 c4 bc 5a c7 34 3e
       -0.117263325 -0.12658818 -0.023965714 0.17654172
0002a0 02 e2 5f 3d f1 0a 38 3e 43 ca e5 bd 93 c2 13 3e
       0.054658897 0.17972924 -0.11220219 0.14429693
0002b0 bb 5d a9 3e 1d 81 bf 3e 6b 78 44 3d 84 87 5e 3d
       0.33079323 0.37403193 0.047966402 0.054328457
0002c0 20 00 51 3e d4 01 96 bc 8a a6 96 3e 66 7c 56 3e
       0.20410204 -0.018311419 0.29423934 0.20945892
0002d0 c5 e5 a5 be a4 dd b6 be 35 63 09 be 11 7b c3 3d
       -0.32401863 -0.35715973 -0.1341675 0.095449574
0002e0 36 73 d8 bc 2e eb 72 be d6 b8 cc bd d5 83 31 3e
       -0.026422124 -0.23722526 -0.09996192 0.17335446
0002f0 f8 f4 37 3e b4 e2 50 be 7d 92 80 be af 0b 6f be
       0.17964542 -0.2039898 -0.25111762 -0.233443
000300 44 79 60 3e b0 0d 33 3e 84 56 6f 3b 3a 7f 1e 3e
       0.21921259 0.1748569 0.0036520073 0.1547822
000310 6e 33 a4 3d e4 21 b8 be 45 7e 7c 3e d0 88 22 3e
       0.08017622 -0.35963356 0.24657543 0.15872502
000320 62 c6 a6 be 0a e7 6b be 84 84 0f bd 29 1e 33 be
       -0.3257323 -0.23037353 -0.035038486 -0.17491974
000330 ae 64 95 be 0a c3 88 bd 6a 7c b2 3e 80 d9 76 be
       -0.29178375 -0.06677826 0.34860545 -0.24106407
000340 40 e3 50 be 41 26 85 3e 9e 0e 13 3d d7 e8 d4 3e
       -0.20399189 0.26005748 0.035902612 0.41583893
000350 79 8b 38 3e f0 99 0a 3e b6 1d 8c bd 07 d4 5d bd
       0.18021955 0.13535285 -0.068416044 -0.054157283
000360 5c c7 34 be ce 93 cd 3e 09 ed 37 bd d4 f8 25 be
       -0.17654175 0.4015183 -0.04490379 -0.16208202
000370 98 25 c0 3e 33 75 63 be 95 13 a4 3d 30 cb 5c be
       0.37528682 -0.22212677 0.080115475 -0.21561885
000380 9b 80 19 be 3e 2a b7 3e 5c 71 1f 3e 4f e0 77 bd
       -0.14990465 0.35774416 0.15570587 -0.06051665
000390 0d 2d af 3d f8 90 95 bd 6e cd 8c 3c 78 f3 91 3e
       0.08553515 -0.07303041 0.0171878 0.28506064
0003a0 ee 8d d8 3d 67 4f a7 bd d7 26 89 3d 24 b9 54 3e
       0.10573946 -0.08169442 0.06696861 0.2077375
0003b0 48 63 8b bc b5 08 84 3e 96 5e f2 bd 2e a0 20 3e
       -0.017015114 0.25787893 -0.11834447 0.15686104
0003c0 5d ad 94 be ab b2 a8 3e 2b 6b c6 be f9 3e 44 3d
       -0.29038516 0.32948813 -0.38753638 0.047911618
0003d0 78 cb d0 3e 8c e0 f2 3e ad 42 bc bc a4 16 b7 3e
       0.40780234 0.4743694 -0.022981012 0.3575946
0003e0 a3 d6 28 be 63 34 8f 3e 97 1b eb 3d bd 48 c8 be
       -0.16488127 0.27969655 0.11479872 -0.39117995
0003f0 18 d5 84 be c6 77 5c be 32 c7 5d be 33 c8 3b 3e
       -0.25943828 -0.21530065 -0.21658018 0.18338089

net.0.bias f4 [64]
000000 bd 05 ad be b6 23 0d 3d 5a a2 36 3e 0f 39 0c be
       -0.3379344 0.034457885 0.1783537 -0.13693641
000010 55 be 28 3e 54 7a 81 be 91 39 83 3e d2 91 7c 3e
       0.16478856 -0.2528864 0.25629857 0.24665001
000020 52 95 43 3e 3c 9e 02 3e 2a ac 23 bd b1 fd 5d 3e
       0.1909993 0.12755674 -0.03995911 0.21678807
000030 20 21 46 3e 78 10 db bd ae e0 14 3e 94 64 9c 3e
       0.19348574 -0.106965005 0.14538833 0.30545485
000040 4f c6 33 3e 42 ce 11 bd e6 88 8e 3d 6d 58 9b 3e
       0.17556117 -0.035597093 0.06959705 0.303409
000050 1e df 3c 3e e7 f7 8f 3e b2 ee a8 3e df 03 9b be
       0.18444487 0.28118822 0.3299461 -0.3027639
000060 f1 10 7a 3e 0f e1 a3 3e b7 d5 21 3e b3 1c bb 3e
       0.24420525 0.32007644 0.15804182 0.36545333
000070 2a 48 4a be 58 64 31 be 4e 14 73 3d 44 43 92 be
       -0.19754091 -0.17323434 0.059345536 -0.28566945
000080 7e 0b 0e bd 5b 01 a1 3c d4 52 48 be e9 4d 98 3d
       -0.03467893 0.019653967 -0.19562846 0.07436735
000090 ed 13 9f bd eb c1 62 be da ba 4d 3e 53 3f bc 3e
       -0.077674724 -0.22144286 0.2009081 0.36767063
0000a0 dd 04 89 3e 2b 46 bd 3d a8 d2 cb 3d b7 f2 6c be
       0.26761523 0.09241899 0.09952289 -0.23139463
0000b0 1e e7 6a 3d bb 8d 3a 3d 02 83 88 3e ce 78 6d 3e
       0.057349317 0.04554532 0.2666245 0.23190615
0000c0 72 f8 2d 3e 72 63 4e 3e 7f cb 36 3e 37 a6 41 3e
       0.16989306 0.20155123 0.17851065 0.18911062
0000d0 7c 9c 0f bd 0f 88 7e 3e 09 f6 89 be bd d9 78 3d
       -0.035061345 0.2485659 -0.26945522 0.060754526
0000e0 1a f0 7c 3d fc 0a 53 3e f5 1f 16 3e d0 e3 a0 3e
       0.061752416 0.20609659 0.14660628 0.31423807
0000f0 36 92 95 3e 0f f2 02 3e 04 f1 3e 3e fd a7 9a 3e
       0.29213113 0.1278765 0.18646628 0.3020629

net.2.weight f4 [64, 64]
000000 29 25 07 bd f3 85 b6 3c ea 43 a9 3d 59 0b 89 bd
       -0.032994423 0.022280669 0.08264907 -0.066916175
000010 b9 b0 37 3c a3 4f 09 3d 7e 0a 7c bb bc 13 fa bd
       0.011211568 0.033523213 -0.0038458402 -0.12210795
000020 88 f0 94 bd f1 e5 98 3d 13 a8 2b bd c4 8a 17 bc
       -0.0727244 0.07465733 -0.041908335 -0.009249393
000030 6c 39 11 3d 95 fa 50 be f3 62 a0 bd ce 53 4f bd
       0.035455152 -0.2040809 -0.07831373 -0.05061703
000040 5c 26 9d bc 8e d5 38 3d 6b a3 39 be ea d8 38 3d
       -0.01918333 0.045125537 -0.18128745 0.04512874
000050 fe f5 08 3e 34 ab 18 3e 91 07 03 be 7f 59 d8 3d
       0.13375089 0.14909059 -0.12795855 0.10563945
000060 0b 87 f2 3d d6 c1 ce bd 2b 48 fe 3d 46 54 de bc
       0.11842164 -0.10095565 0.12416109 -0.027139794
000070 0f 3a df 3d 75 ee 81 3c 8e c8 0a 3e 20 93 1e be
       0.10899746 0.015860775 0.13553068 -0.15485811
000080 89 50 e9 bd 8e 5c 2f 3e 4d 99 c1 3d b2 be 98 3b
       -0.11392314 0.1712515 0.09453068 0.0046614045
000090 a2 43 58 3e f0 d9 41 3b 2d c6 88 3d 04 12 82 3d
       0.2111955 0.0029579364 0.06678424 0.063510925
0000a0 6c ca a0 bc aa c2 32 be 65 c1 a5 3c 9e fc bb bd
       -0.019627772 -0.17457071 0.02023382 -0.09179042
0000b0 b2 81 03 3d 47 fa bb 3c e2 bf 63 3d 76 91 52 be
       0.03210611 0.02294649 0.055602916 -0.20563301
0000c0 73 fb 63 3d 4e 58 d3 bd 7d 56 3a 3e ac fc 3f 3d
       0.055659723 -0.10319577 0.18197055 0.046871826
0000d0 47 2c 0b 3e dd 3e f1 3d 33 9f 12 bd ef de f7 bd
       0.13591109 0.11779568 -0.035796355 -0.12103068
0000e0 bc 88 68 bd e1 59 0e 3e 04 63 9c bc 7e 4e d4 bd
       -0.056771025 0.13901474 -0.019090183 -0.10366534
0000f0 aa bc 8e 3c 4d 28 2e be f7 76 56 3e 77 12 04 be
       0.017423946 -0.17007561 0.20943819 -0.12897669
000100 1c a0 17 3d 00 df cc 3d a8 09 09 3e c6 4b b0 bd
       0.037017927 0.100034714 0.1338259 -0.08608203
000110 1f 84 a2 3d a1 ef 96 3d 1d 16 02 3e 49 2c d6 bd
       0.07935356 0.07369924 0.12703748 -0.104576655
000120 f6 99 03 be a4 95 08 3e f3 e7 5a bd 92 24 71 bd
       -0.128517 0.13338333 -0.05344386 -0.058872767
000130 22 90 9a bd f1 8b 76 be 6d 89 18 3c 1c 9d ca 3d
       -0.075470224 -0.24076821 0.009310109 0.098932475
000140 8d af 2f 3e 81 a9 ef bd 33 f5 6b bc eb 89 f8 3d
       0.17156811 -0.11702252 -0.014401722 0.12135681
000150 75 d4 8f bd 1f 08 35 bd 37 85 42 bd ff 0e a1 3d
       -0.07022945 -0.044197198 -0.047490325 0.078641884
000160 e5 3b 2d 3d f3 87 37 bc f6 7e f9 bc 37 4b c3 3d
       0.042293448 -0.011201846 -0.030456048 0.095358305
000170 5c b7 cc bd 61 47 1d bd 42 e4 26 3c b8 93 45 3d
       -0.099959105 -0.03839815 0.010186257 0.04823658
000180 1e 8f 84 bc cb 76 ba 3d 18 b6 3a be 5f bd 04 bd
       -0.016181525 0.09104689 -0.18233526 -0.03240716
000190 d9 ae 61 3d 83 40 14 be 2d ec ae bd 7e 31 a7 3d
       0.05509839 -0.14477734 -0.08541141 0.08163737
0001a0 64 1a 29 3e 3a ee f6 3d 47 de e3 bc 46 ce 0e be
       0.16513973 0.12057157 -0.027815951 -0.13945875
0001b0 9d 91 25 bd e8 7e 41 bd 9b 66 04 3d 44 c5 0e be
       -0.04042207 -0.047240168 0.032324415 -0.13942438
0001c0 22 09 f0 bd c1 bc 11 be 57 68 ca 3d 9e 9a 7a bb
       -0.11720492 -0.1423216 0.098831825 -0.0038239132
0001d0 06 58 8e 3e d0 46 9a 3d 3e 81 24 3d 66 01 3d 3e
       0.27801532 0.07533038 0.040162317 0.18457565
0001e0 e8 a4 72 3c 4f 77 f9 3c aa 79 65 bd e6 42 a5 bc
       0.0148098245 0.030452399 -0.05602423 -0.020173501
0001f0 92 3a 7a 3d 76 d8 f6 bd 8d d6 f9 bc 0e 26 17 be
       0.061091013 -0.120530054 -0.030497814 -0.1476061
000200 63 43 f6 3d bc 6e 00 3d 78 a1 14 bc 5f 2d c5 3c
       0.12024572 0.031355605 -0.0090717 0.024069486
000210 37 a0 2c 3c 24 4c 00 bb 1b ed 27 3e 13 20 70 ba
       0.010536245 -0.0019576633 0.16399042 -0.0009160053
000220 37 e2 e9 bd 5e b0 c5 3d c1 52 92 bc 6c fc c2 bd
       -0.114201 0.0965278 -0.017861726 -0.09520802
000230 2d f7 d7 3c 02 44 5d be 7b e7 94 bc a9 25 22 3e
       0.02636298 -0.21607974 -0.018176785 0.15834679
000240 27 38 86 bc 6d cd 6e bc 9f b0 27 be d8 8a 05 bd
       -0.016384197 -0.0145753445 -0.1637597 -0.032603115
000250 36 e5 d3 3d f7 da 2c 3e d4 fd 2a be e2 a7 80 3c
       0.10346453 0.16880403 -0.1669839 0.015705053
000260 4b a4 fc bd ce 9b ab ba cb b4 1f bd d6 05 91 3d
       -0.12336024 -0.0013092698 -0.038990777 0.07081191
000270 3d 44 36 bc a7 9e bb 3d 97 7d 0d 3e 3e f8 8b bd
       -0.011124668 0.0916112 0.1381744 -0.06834458
000280 49 28 92 3b 67 ac 44 bc ba 64 21 bd 5a 54 ec bc
       0.004460369 -0.012003995 -0.0394027 -0.028848816
000290 ec 58 64 3e 35 62 c0 3d 6e de fa 3d 5a 02 c9 3d
       0.22299546 0.093937315 0.12249456 0.09814902
0002a0 e7 1f 27 3e bf cd 50 be b9 a8 b6 3d 0d b0 88 3d
       0.16320764 -0.20390986 0.089189 0.06674204
0002b0 de dd 5e 3b a1 a6 b1 bd c1 d0 5a 3d f0 6f 15 3b
       0.0034006755 -0.0867436 0.05342174 0.0022802316
0002c0 49 0c b9 3d c9 01 b8 bd 1d a3 db 3d d3 27 a4 bc
       0.09035546 -0.089847155 0.10724471 -0.02003852
0002d0 c3 89 1d 3d 1d 2c 9e 3c 93 ec 43 3d 79 c2 16 bd
       0.038461458 0.019308144 0.047833037 -0.036806557
0002e0 e2 b3 0d 3e 54 04 35 bc 6b c1 d6 bc 08 af ee bd
       0.13838151 -0.011048395 -0.026215276 -0.11654478
0002f0 18 aa 12 3e 82 be 7b be e8 34 17 3e 16 c1 c0 3c
       0.14322698 -0.24584392 0.14766276 0.02352957
000300 a0 6e 06 be f7 2e 96 3d f4 5c 24 3e e8 b9 aa 3d
       -0.13128138 0.073331766 0.16051084 0.0833624
000310 be 0c 5b 3e a2 3f ca 3d ef 74 3b 3d c5 2c 36 be
       0.2139158 0.09875418 0.045765813 -0.17790516
000320 4f d0 06 bd d2 de 28 3e 54 10 92 3d a7 55 d0 bd
       -0.032913502 0.16491249 0.071320206 -0.10172587
000330 77 ed e1 bd 20 0a 4f bd 94 25 c1 bd f8 fd 33 3e
       -0.11031621 -0.050546765 -0.094309956 0.1757735
000340 91 de 18 3d 15 6d 96 bc f3 f8 a0 bd 43 2b af 3d
       0.03732163 -0.018362561 -0.07859983 0.085531734
000350 fd 04 e9 bd 47 33 28 bc 9f fc 66 bc b9 f8 db bd
       -0.113779046 -0.010266132 -0.0140983155 -0.107407995
000360 50 e9 86 3d bb 4b ba bd 58 a9 30 b9 e9 e2 76 bd
       0.065874696 -0.09096476 -0.00016847753 -0.060274992
000370 eb 70 b4 bd 78 65 69 bd 3a ab 9b 3d 35 ae 20 be
       -0.088106 -0.056981534 0.07601018 -0.15691455
000380 86 d0 2a bc 3a de 81 3d a1 77 28 be 7e 8b db 39
       -0.010425692 0.063412145 -0.16451885 0.00041874865
000390 c4 16 2c bd fc 1a 7a 3d 0a 4a ca 3d 68 f6 09 3e
       -0.0420139 0.06106089 0.09877403 0.13472903
0003a0 a3 08 81 3d d8 78 f8 3c de 1f 16 3e 00 ee 91 bd
       0.063004754 0.03033106 0.14660594 -0.07125473
0003b0 9e 08 c4 3d 23 06 3e 3b 66 53 38 3e c7 5f 38 bd
       0.09571956 0.0028995357 0.18000564 -0.045013215
0003c0 86 dd ed bd 40 3e 11 be 8e 20 83 bd c4 db fb bd
       -0.11614518 -0.14183903 -0.06402694 -0.12297776
0003d0 b8 e7 cd 3d bf 45 ef 3c 20 e1 57 3c 1f 0f a4 3c
       0.100539625 0.029208062 0.013176233 0.020026742
0003e0 93 1f d0 3d ea 28 a4 bd 03 84 27 3c 19 81 b5 3d
       0.10162272 -0.08015616 0.010224345 0.08862514
0003f0 91 b1 29 3e ed 77 a2 3c d4 3b 83 3c 17 ea 96 3b
       0.16571642 0.019832576 0.01601974 0.0046055424

net.2.bias f4 [64]
000000 30 a6 dd 3d 78 b3 b0 3d 69 6f c1 bd 6b 8b 15 3d
       0.108227134 0.08627981 -0.09445078 0.036509912
000010 96 76 0b 3e 8e 87 95 bd 6c ab 79 bc e3 01 77 3d
       0.13619456 -0.07301246 -0.015238624 0.060304534
000020 35 8c d7 bd 7a 36 a1 bb eb 1f 09 bd e7 bf 44 bd
       -0.10524789 -0.004919824 -0.033477705 -0.048034575
000030 21 66 de 3d 1d a5 28 3d 38 32 95 3c 12 0b e7 3c
       0.10859323 0.04117309 0.018212423 0.02820352
000040 de 9f 81 3d ba 30 90 3d 5e 28 42 bc fa 29 38 bd
       0.0632932 0.07040544 -0.011850445 -0.044961907
000050 a1 6b cf bd e2 8e 13 be d7 97 0c 3e 93 04 b6 3c
       -0.101279505 -0.14409974 0.13729797 0.022218978
000060 f5 be b8 3c 68 17 e6 3d 61 ee be 3c 87 7a 8a 3d
       0.022551993 0.11234933 0.023307027 0.067616515
000070 b8 ca 94 bc f0 1e b7 3c bf 24 aa 3d 58 d0 de 3d
       -0.01816307 0.02235362 0.0830779 0.10879582
000080 27 90 1f bd 4f d0 83 bd 5f 7e d2 3d 43 3e 13 3e
       -0.038955834 -0.06436216 0.102780096 0.1437922
000090 5b 52 4f bd 4e 04 e3 3d d6 28 eb 3d 2d fc 89 3c
       -0.05061565 0.110848054 0.11482398 0.01684388
0000a0 6a 11 8f bd c7 1d f1 bd b6 88 02 be 74 b4 30 ba
       -0.06985743 -0.11773258 -0.12747464 -0.0006740757
0000b0 bb c2 7d 3d 74 95 d8 3d 4d 53 1f 3d 7c 00 18 3d
       0.061953288 0.10575381 0.0388978 0.037109837
0000c0 46 35 f1 3d 7c 63 c5 bd 02 03 2b 3d 43 0a 3c bc
       0.11777739 -0.09638116 0.041750915 -0.011477056
0000d0 4c c6 99 3c 23 68 b9 bd 43 f3 68 3d 80 b0 be bd
       0.018771313 -0.09053066 0.056872617 -0.093110085
0000e0 85 21 b3 3c 5b 76 b3 3c 2e e9 d8 bd 04 7e d9 bd
       0.02186657 0.021907022 -0.105913505 -0.10619739
0000f0 da bf df bc 5b 8d 9d bc 29 ad ef 3b a2 90 ae 3d
       -0.027313162 -0.019232443 0.0073143435 0.0852368

net.4.weight f4 [4, 64]
000000 87 6b 88 3c c8 ff 98 3c 30 9c 88 bd ba 7d 9b 3d
       0.016652836 0.018676654 -0.066704154 0.0759234
000010 db c8 34 bd 59 99 26 be ed a4 09 be ae 04 27 3d
       -0.044136863 -0.16269435 -0.1344182 0.040775947
000020 e7 94 0f bd cd 9c f3 bd bf 9c 87 3d 1e e0 31 be
       -0.035054114 -0.11895142 0.06621694 -0.1737065
000030 b2 f2 55 be 97 72 bf 3b c9 a9 4f bd 37 fa 9a bd
       -0.20893362 0.0058425176 -0.05069903 -0.07567256
000040 db 2d 96 bd ed 1d 99 3c b5 3f a9 bd 1c 65 8d 3c
       -0.07332965 0.018691028 -0.08264104 0.017260127
000050 a9 17 1f bd 53 78 fc bd d2 a1 13 be 88 35 7d bd
       -0.038840923 -0.123276375 -0.14417198 -0.06181863
000060 10 01 d6 bd 35 97 88 bd 85 70 0d be d1 d0 f8 3d
       -0.104494214 -0.066694655 -0.13812454 0.121492036
000070 d1 88 c5 3a 22 e7 29 bd a6 5c 22 be 15 94 aa 3d
       0.0015070682 -0.04148019 -0.15855655 0.08329026
000080 bb 82 cc bd 60 33 da 3c 8d 6b 25 be 42 6a 5c bd
       -0.09985872 0.026635826 -0.16154309 -0.053812273
000090 10 bd c7 bd 55 0c cd bd cd 37 86 3d 75 f0 a3 bd
       -0.09752858 -0.10012118 0.06553612 -0.08004848
0000a0 3b 43 51 3d 1a b6 d4 3d 44 f8 18 3d 45 b4 11 bc
       0.051089507 0.103862956 0.03734614 -0.008893077
0000b0 b4 c7 28 be 15 76 a1 3d d9 a0 a3 bd ab a7 82 3d
       -0.1648243 0.078838505 -0.07989664 0.063796364
0000c0 a0 b7 53 be 5c 4b 05 bd 04 23 0e be 22 9a af bd
       -0.20675516 -0.03254257 -0.13880545 -0.085743204
0000d0 2f 85 00 3e d3 7b f3 bd d5 53 96 bd 78 0c cd bc
       0.12550806 -0.11888852 -0.073402084 -0.02503036
0000e0 7c d4 1f 3e 2f 2c ed 3d 16 56 dd bc 06 0b f6 bd
       0.156084 0.11580693 -0.027018588 -0.12013821
0000f0 db 01 d4 bd 71 cd da bc 1f 7f 12 3e 02 ef 0c 3d
       -0.103519164 -0.02670929 0.14306305 0.034407623
000100 2f 57 f7 bd 97 2b 64 be af b7 19 be 2b e3 1a be
       -0.12077176 -0.22282253 -0.15011476 -0.1512572
000110 37 42 33 3e 7f b9 07 3e 04 09 11 3e 09 91 82 bd
       0.17505728 0.13254355 0.14163595 -0.063753195
000120 42 77 10 be d9 d0 8b 3d 65 e3 99 bd e1 2f 78 3d
       -0.14107993 0.06826944 -0.07514075 0.060592536
000130 e5 19 59 be 68 90 4a 3e 78 0b 22 3e fa 26 e4 3d
       -0.21201284 0.19781649 0.15824687 0.11140247
000140 76 d4 09 be 3b ae b4 bd 93 a0 30 3e 1f 32 22 3e
       -0.13459954 -0.08822294 0.17248754 0.15839432
000150 80 f2 fd bd 9e 90 bf bd a8 89 36 3e 24 85 8e be
       -0.12399769 -0.093537554 0.17825949 -0.27835953
000160 89 9b 0f 3d cc 5c 67 bd eb 50 99 bd 29 05 dd bd
       0.03506044 -0.056484982 -0.07486137 -0.10792
000170 77 52 30 bd 0f c4 5d be 0e 52 69 be b4 c7 5a 3e
       -0.043047395 -0.21656822 -0.22785208 0.21365243
000180 5d 35 ba bd d2 72 68 3d 39 d9 9c 3b f4 2d 2f 3e
       -0.090922095 0.056750126 0.004786637 0.17107373
000190 83 b4 71 bd 78 cd 2f be 3a 83 48 3e 17 59 33 3d
       -0.05901004 -0.17168224 0.19581309 0.043786135
0001a0 22 b7 dd 3c 7a 4c b1 bc a9 c1 c9 bd 32 55 17 3e
       0.027064864 -0.021642912 -0.09851391 0.14778593
0001b0 72 64 f1 3d 0f 2d 05 be 30 30 49 3e 5b e0 85 be
       0.117867365 -0.1300547 0.19647288 -0.26147732
0001c0 c2 09 3b be 89 24 c0 bd eb da 7d bd 93 2e 64 3e
       -0.18265441 -0.093819685 -0.061976355 0.22283392
0001d0 9b f9 6e be 70 35 62 3d 63 86 22 be 26 05 dc bd
       -0.23337404 0.055226743 -0.15871577 -0.107431695
0001e0 9c 88 bc 3d 47 6b 0f 3e 3c 24 c2 3d 3e d6 69 bd
       0.09205744 0.14005767 0.094795674 -0.057089083
0001f0 a4 af b0 3c 4e 1e 62 bd de 04 f0 3c c6 f3 da bd
       0.021568127 -0.055204682 0.029299196 -0.10691027
000200 c5 12 56 be 87 6a b6 3d cc 76 44 bd db 61 cc 3d
       -0.20905598 0.08907037 -0.047964856 0.09979602
000210 30 3c ef 3d cc 4d 76 bc 82 a8 04 b9 15 8f 88 bd
       0.11681402 -0.015033197 -0.00012651275 -0.06667916
000220 4d 82 1b 3e fa 9f ab bd 2f 20 97 bd 94 b7 2f 3e
       0.15186425 -0.083801225 -0.073791854 0.17159873
000230 5d 4b 39 3e d0 96 31 be 57 3b 80 be 7b e6 17 bd
       0.18095155 -0.17342687 -0.25045273 -0.037085038
000240 41 74 5a 3e f1 96 80 3d fe 35 7d 3d d0 ce 16 be
       0.2133341 0.0627879 0.06181907 -0.1472733
000250 6c 60 c9 bd 9f 0c c8 bd a5 a8 eb 3d 4a c8 03 3d
       -0.09832844 -0.09768032 0.11506776 0.032173432
000260 51 34 4e 3c 74 91 0e 3e a4 12 7c bd b3 a3 04 be
       0.012585715 0.13922673 -0.061541215 -0.12953071
000270 82 a5 b0 3d 7d 8c 28 be b2 1b a8 3d fe fd 04 be
       0.08625318 -0.16459842 0.082084075 -0.12987515
000280 97 0d 1b 3b 10 8c 22 bd e5 ee 02 3e 93 9c be bb
       0.0023659223 -0.039684355 0.12786444 -0.005817005
000290 b5 6e 59 3e 53 f1 39 3e 9d 1b 11 3e 37 22 8e bc
       0.21233638 0.18158464 0.1417069 -0.0173503
0002a0 a6 b4 51 bd 57 4c c6 3d 11 85 9d 3d 14 f0 09 3e
       -0.05119767 0.096825294 0.07691396 0.13470489
0002b0 1e 2b 40 3e 40 0d 8a 3d 45 89 07 be 73 92 9f 3d
       0.18766448 0.067408085 -0.13235958 0.07791605
0002c0 09 6c 27 3e 70 d1 48 bd be 60 49 3e a2 20 14 3e
       0.16349806 -0.04902786 0.1966581 0.14465573
0002d0 88 be 97 bd 24 c4 e9 3d 7f 8f be 3d ca 0f b0 3d
       -0.07409388 0.11414364 0.093047135 0.085967615
0002e0 cc 28 6f be 26 4d 05 be 28 fc 00 3e 19 1f 2a bd
       -0.23355407 -0.13017711 0.1259619 -0.041533563
0002f0 29 e9 73 bd 8f a3 58 b9 98 f4 7e be a0 1c ef 3d
       -0.05954853 -0.00020660296 -0.24897993 0.11675382
000300 5b 56 b0 3d f1 42 30 3e cf ca 64 3e 0b a1 13 3e
       0.08610221 0.17213036 0.2234299 0.14416902
000310 a2 3c 30 3d 45 8d 41 bd 2a 61 d1 bd 02 66 86 3e
       0.043026574 -0.047253866 -0.10223611 0.262497
000320 33 2f 94 bd 44 d3 45 be fd ad e6 3d d5 79 47 be
       -0.07235565 -0.19318873 0.112636544 -0.19480069
000330 5f cb 0c 3e e7 6f 00 be 3d b8 0a bc 42 6d f3 3d
       0.13749455 -0.12542687 -0.008466777 0.11886074
000340 38 12 d2 3c 91 1d c9 bd 89 82 59 be ee de 43 be
       0.025643453 -0.098200925 -0.21241201 -0.1912801
000350 e9 bf 5a 3d 47 5c ee bd 81 ac 68 be 31 ec 00 3e
       0.053405676 -0.11638694 -0.22722055 0.125901
000360 48 8f 4f be a8 b4 4f bd 1d 9b b4 bd 86 9c 9b 3d
       -0.20269501 -0.050709397 -0.08818648 0.07598214
000370 d9 43 1d bd c7 11 6f 3e 4b 64 0c 3e b2 31 bd bd
       -0.038394783 0.23346625 0.13710134 -0.09237994
000380 e3 be c5 bc bb 78 bf 3d 6c dd 82 be ac db 62 be
       -0.024138873 0.093491994 -0.25559556 -0.2215411
000390 be 79 29 be 7e 23 fc 3d ef 9a 51 be 91 e4 c4 bd
       -0.16550347 0.12311457 -0.20469259 -0.09613908
0003a0 1b e1 f8 3d f5 4d 0f bd 25 1f 02 bd 15 7e 31 be
       0.121523105 -0.034986455 -0.031767983 -0.17333253
0003b0 af a2 c5 bd 6a fb 35 3d d9 f8 17 be 94 2c 9c 3d
       -0.0965017 0.04442922 -0.14841022 0.0762569
0003c0 a8 5f aa bd 45 cd 92 bc fc 80 7c bd ac 77 f2 bd
       -0.08319026 -0.017920146 -0.061646447 -0.11839232
0003d0 56 75 3d 3e b5 37 f1 bd 6d cc 01 3e a0 65 e1 3c
       0.18501791 -0.117782034 0.12675638 0.027514279
0003e0 cc f4 fa 3d 4f b2 db bd d6 b6 04 be 94 a4 85 bd
       0.122537225 -0.10727369 -0.12960371 -0.065255314
0003f0 af f6 9f bc cf 28 93 bd 8c 2c 80 bd d5 ee 7c bd
       -0.019526808 -0.07185518 -0.06258497 -0.061751205

net.4.bias f4 [4]
000000 1f 7f 58 3d 7c a1 07 bd fa 55 f8 3d 9b 30 e7 bb
       0.052855607 -0.033112988 0.12125774 -0.007055355

exp_avg f4 [64, 8]
000000 90 61 f6 34 40 3b d1 33 d8 a6 e3 b2 57 a9 83 33
       4.5892057e-07 9.7430984e-08 -2.650215e-08 6.1309656e-08
000010 4a 33 88 b3 c6 c0 a6 b4 30 18 5c 25 ef 9d 9e b3
       -6.342323e-08 -3.106017e-07 1.9090153e-16 -7.386176e-08
000020 32 a5 be 35 ed 52 b9 35 27 58 72 37 a3 5c 97 b6
       1.4204181e-06 1.3807709e-06 1.4444849e-05 -4.510935e-06
000030 17 1b 98 b4 6e ca 66 b6 e1 96 1e 36 bd f0 39 37
       -2.8331917e-07 -3.43905e-06 2.3631658e-06 1.10829105e-05
000040 9b 05 bf b8 87 6d 1e 37 4a 6e 60 b5 1b f9 5a 38
       -9.108634e-05 9.443035e-06 -8.3606994e-07 5.2207248e-05
000050 1a 9a b1 36 6f 45 f9 37 fd 83 f0 b8 7c 6d d8 b8
       5.292951e-06 2.9715446e-05 -0.000114686765 -0.00010320076
000060 f4 4c 10 b7 df a8 52 b7 6d f0 8f b6 8c 32 66 37
       -8.600986e-06 -1.2556294e-05 -4.2897213e-06 1.3720837e-05
000070 b0 6b 0e 37 bc 27 5d b6 62 ad 16 39 d2 01 8b 38
       8.4889325e-06 -3.2954695e-06 0.00014369705 6.6283756e-05
000080 84 c8 df b9 67 d8 41 36 cb 2e 8d b9 dd bc 86 39
       -0.0004268327 2.8885204e-06 -0.0002692848 0.00025699186
000090 b0 91 96 39 2a 65 dc 37 15 7c bd 38 f9 fd f8 37
       0.00028718775 2.6273152e-05 9.0353344e-05 2.9682169e-05
0000a0 c1 1e 07 37 f2 4f 07 b7 30 64 68 b7 40 f0 ce 36
       8.0537875e-06 -8.065241e-06 -1.3851604e-05 6.167247e-06
0000b0 0b 46 34 37 0a a9 74 b7 60 a5 88 36 08 08 f5 b6
       1.0745144e-05 -1.4582891e-05 4.072368e-06 -7.302504e-06
0000c0 9f 73 86 b9 8e c1 86 38 8f e0 a9 b8 d1 5d bf 38
       -0.00025644616 6.42567e-05 -8.100375e-05 9.1250644e-05
0000d0 f9 d2 d7 38 dc b0 64 38 97 be a7 38 28 50 10 39
       0.000102912956 5.452415e-05 7.998681e-05 0.0001376277
0000e0 4e e6 82 39 2c c9 d6 b6 f1 9a 01 39 13 5a e8 b8
       0.00024967123 -6.4011165e-06 0.00012360119 -0.000110794
0000f0 3f d1 f6 b8 21 88 1c 37 8a c0 37 39 78 d0 8f 38
       -0.00011769169 9.33002e-06 0.00017523966 6.857602e-05
000100 ac ab cf 38 3f 73 86 38 29 dc 53 38 64 76 a0 b8
       9.9025056e-05 6.411084e-05 5.051136e-05 -7.6514465e-05
000110 96 7e 76 b8 6a 8f c5 37 92 6b f1 38 20 38 13 37
       -5.8768863e-05 2.3551012e-05 0.00011511812 8.77495e-06
000120 f9 4b 10 b9 b9 42 97 b7 65 5e 2e b8 8a 29 9b 38
       -0.00013761212 -1.8031673e-05 -4.1572745e-05 7.398713e-05
000130 7d 7a 36 38 04 dd 15 37 86 f9 f5 b8 ad 62 c0 36
       4.3506257e-05 8.932551e-06 -0.00011728988 5.7335333e-06
000140 f6 e9 b1 37 30 40 43 38 be e3 7a b7 aa 47 d4 b7
       2.120899e-05 4.6551402e-05 -1.4954187e-05 -2.530574e-05
000150 90 30 62 37 07 fb b8 37 e8 2b 20 38 e5 9a 99 37
       1.3481957e-05 2.2051403e-05 3.8187864e-05 1.831115e-05
000160 cb 8d 0e b8 13 4a fc 38 c2 41 c7 b8 69 a4 69 38
       -3.3987493e-05 0.00012030094 -9.501308e-05 5.5704648e-05
000170 2b 15 03 39 f8 85 b3 37 7a 54 b3 39 cf 96 d0 38
       0.00012501019 2.1400847e-05 0.0003420448 9.946303e-05
000180 24 db bc 38 8b 37 34 38 40 f6 5e 38 0b 88 f8 b7
       9.005357e-05 4.2967073e-05 5.3158263e-05 -2.9627254e-05
000190 6b 60 61 37 d1 08 b2 34 50 fe db 36 b2 cf a7 38
       1.3433494e-05 3.3161498e-07 6.5563145e-06 8.001867e-05
0001a0 a6 19 38 36 5e 02 0d 38 0e 2e 21 39 33 82 d1 b8
       2.7433066e-06 3.3619224e-05 0.00015371313 -9.990148e-05
0001b0 bf 0a 71 b8 e3 c1 f2 38 5e a9 2a 39 4c 51 3e 38
       -5.7468886e-05 0.000115755734 0.00016275558 4.5375244e-05
0001c0 a2 04 80 b9 93 8a b8 38 9e 7f 56 b9 bc 19 10 39
       -0.00024417514 8.799615e-05 -0.00020456171 0.00013742497
0001d0 68 b2 4b 39 47 07 1b 38 58 b6 ab 39 d0 ab dd 38
       0.0001942605 3.6961657e-05 0.00032751518 0.00010570104
0001e0 1e e4 e4 b9 1b c5 eb 35 f8 45 85 b9 49 86 7e 39
       -0.0004365751 1.756623e-06 -0.00025419868 0.00024273353
0001f0 b9 0a 82 39 c2 85 d3 37 4c 50 2d 37 98 e0 0d 38
       0.0002480352 2.5215446e-05 1.0330299e-05 3.382619e-05
000200 2e 5c 6e b9 32 27 97 37 ad 85 01 b9 dc b6 0e 39
       -0.00022731788 1.8018854e-05 -0.00012352197 0.00013610296
000210 f4 da 0b 39 1f 8b 1d b6 bc 97 f4 b6 17 00 2d 38
       0.0001333764 -2.3475802e-06 -7.289431e-06 4.1246498e-05
000220 97 c3 a8 39 cb 5b 2a 38 20 28 9c 38 6d 6f a7 b8
       0.00032189183 4.0616647e-05 7.4461335e-05 -7.983935e-05
000230 13 1f 04 b9 9c d7 16 39 a3 d7 76 38 b7 29 6b b9
       -0.00012600077 0.00014385435 5.8851798e-05 -0.00022426886
000240 e5 71 29 39 6f e9 bb 38 a3 a8 43 39 bc cc f3 37
       0.00016159525 8.960335e-05 0.00018659471 2.9063194e-05
000250 f9 18 da 37 e9 fe 0a b8 d3 7b 5a 36 52 6c 8a 34
       2.5999254e-05 -3.3139167e-05 3.2556607e-06 2.5783316e-07
000260 a1 66 34 38 69 2e 21 b8 e1 39 81 38 29 1d 67 b8
       4.3010925e-05 -3.8428614e-05 6.16198e-05 -5.510185e-05
000270 63 27 8e b8 81 ab d2 36 e6 82 92 b8 d5 72 b6 b7
       -6.778424e-05 6.2784534e-06 -6.986204e-05 -2.1749564e-05
000280 9b e4 d9 38 51 0c 29 38 b7 ab 07 38 d3 01 6b b8
       0.000103899474 4.030421e-05 3.234643e-05 -5.6030065e-05
000290 8f 7e 16 b8 cb 84 fd b5 c5 36 2a b8 14 e3 7e b7
       -3.5880654e-05 -1.8888617e-06 -4.0582167e-05 -1.51924505e-05
0002a0 51 38 2f b8 f9 2a b7 b7 0d 04 2c 38 b1 f0 98 37
       -4.17757e-05 -2.183531e-05 4.101177e-05 1.8231893e-05
0002b0 5b 8c 09 37 30 e8 a5 37 47 70 4c b9 6d 5d 12 b8
       8.198515e-06 1.9777654e-05 -0.00019496783 -3.4896122e-05
0002c0 d7 23 9a 39 6f 6b 20 38 7a 34 f8 38 5e 22 3f b9
       0.00029399872 3.8247028e-05 0.00011835336 -0.00018227982
0002d0 7c 72 37 b9 70 c1 dd 37 ab ca 67 39 1e 07 9b 38
       -0.00017494889 2.643533e-05 0.00022105376 7.3923016e-05
0002e0 16 24 99 b5 5c ad ef b4 d8 7f 87 b5 45 ce 25 34
       -1.1409891e-06 -4.4643355e-07 -1.0095491e-06 1.5441863e-07
0002f0 16 9c cf b3 66 a4 5d b5 9c c8 ca 0e 56 ec 22 97
       -9.6675805e-08 -8.2568147e-07 4.9990024e-30 -5.264332e-25
000300 5a 5c be 38 3f ff d3 b7 32 6e a4 38 7b 80 1e b8
       9.077108e-05 -2.5272018e-05 7.840655e-05 -3.7789792e-05
000310 a1 f6 7f b8 24 0c ad b6 0e 7a d5 37 32 71 83 37
       -6.102643e-05 -5.157215e-06 2.5448415e-05 1.5669128e-05
000320 89 62 41 b9 c9 16 5a 36 70 b3 36 b9 6b 59 45 39
       -0.00018442622 3.2497794e-06 -0.00017423718 0.00018820695
000330 58 a1 1b 39 7a 0c 83 38 b4 e0 c9 39 e4 1b 39 38
       0.00014842057 6.248891e-05 0.00038505124 4.4133412e-05
000340 af 70 a1 39 b4 73 c5 b8 86 4f be 39 5a 75 45 b9
       0.0003079227 -9.4152434e-05 0.00036298874 -0.00018831101
000350 f2 ea 9c b9 a9 46 ac b8 52 ba fd b9 9b 47 2c b7
       -0.00029929687 -8.2147606e-05 -0.0004839474 -1.0268671e-05
000360 4a ec 4f b8 73 a5 f6 b7 9d 2a 07 38 5e 52 82 37
       -4.9572707e-05 -2.9402529e-05 3.2226195e-05 1.5535563e-05
000370 08 95 91 b7 3a 20 d6 37 e0 1e 42 b8 77 09 4e 33
       -1.7354745e-05 2.5525795e-05 -4.628196e-05 4.797172e-08
000380 89 d6 cf b7 4b e0 22 b9 b8 af f1 38 91 34 6a 38
       -2.4776224e-05 -0.0001553308 0.00011524506 5.5838904e-05
000390 8b d3 a0 37 50 f6 0e 38 6c b3 0a b9 47 34 65 b7
       1.9171994e-05 3.4084835e-05 -0.00013227545 -1.3661635e-05
0003a0 05 8f c4 b6 13 83 ea 35 3c 62 de b5 67 d0 2a b3
       -5.857905e-06 1.7472506e-06 -1.6568879e-06 -3.977075e-08
0003b0 39 07 6b b6 bc 24 40 b6 54 ff ff b5 09 aa bc 36
       -3.5021933e-06 -2.8631612e-06 -1.9073291e-06 5.6226313e-06
0003c0 5b d9 69 b8 11 25 80 b8 95 74 89 38 80 16 8a 37
       -5.5753957e-05 -6.11042e-05 6.554384e-05 1.646136e-05
0003d0 e5 05 5f b8 b6 31 32 b7 0b 9f 90 b9 7d 37 9c b8
       -5.3172833e-05 -1.0621201e-05 -0.00027584317 -7.448995e-05
0003e0 5d 90 9e b8 12 77 d8 b8 61 df c9 b7 24 79 cd b7
       -7.560917e-05 -0.00010321861 -2.4065086e-05 -2.4494315e-05
0003f0 ab 11 5e b7 9d f4 16 38 26 5f ce 36 d1 68 bc 38
       -1.3236345e-05 3.59906e-05 6.150355e-06 8.984062e-05

exp_avg_sq f4 [64, 8]
000000 e5 97 5d 30 4b 5c 9d 30 86 69 7b 30 80 3a 02 30
       8.0615187e-10 1.1449485e-09 9.1463226e-10 4.737686e-10
000010 b9 4e b4 30 d3 e7 16 30 f4 a0 05 2c b8 e3 6e 2e
       1.3119098e-09 5.4899124e-10 1.8989784e-12 5.431719e-11
000020 b3 dc 08 31 b3 93 bc 2f 31 f8 d0 30 e0 f9 8b 30
       1.9916058e-09 3.4301947e-10 1.5204532e-09 1.01846e-09
000030 18 b8 da 30 e8 69 d6 30 14 c3 a4 2f c2 00 4b 30
       1.591391e-09 1.560065e-09 2.9970038e-10 7.3852047e-10
000040 f8 aa 14 34 08 9e 1e 35 ae 96 dd 33 18 2f f2 33
       1.3845772e-07 5.908955e-07 1.0318523e-07 1.12775695e-07
000050 3f 88 8d 33 9b 36 6c 33 fe 42 c4 33 4c dd 9d 33
       6.590607e-08 5.4997695e-08 9.139147e-08 7.351136e-08
000060 fb e8 82 33 54 ad 2b 31 a3 8b a4 32 fd 78 e9 31
       6.0959756e-08 2.49823e-09 1.9155612e-08 6.7949473e-09
000070 b9 0b bb 32 6f 66 1f 33 1a 67 1e 34 06 36 67 34
       2.1774996e-08 3.7113235e-08 1.4752405e-07 2.1533205e-07
000080 f8 1b 0d 35 cf db af 35 7a d7 9a 34 b8 09 b3 34
       5.2567293e-07 1.3102489e-06 2.8841515e-07 3.334842e-07
000090 a6 84 47 34 2d bd 60 34 43 40 be 34 ba 70 0c 35
       1.8581576e-07 2.0930447e-07 3.5437014e-07 5.2318103e-07
0000a0 ab 78 1a 32 ac 2b 92 2f 12 7b 50 31 57 f8 20 30
       8.9914165e-09 2.6588276e-10 3.033794e-09 5.8560573e-10
0000b0 a7 3a a9 31 02 8b 3f 32 7a 12 03 33 64 15 fb 32
       4.9252153e-09 1.114927e-08 3.051762e-08 2.9229973e-08
0000c0 5e 55 0f 34 6e 51 72 34 2c 33 7a 33 d1 83 88 33
       1.3348969e-07 2.256763e-07 5.82542e-08 6.356971e-08
0000d0 0f 27 0c 33 37 70 3b 33 c1 dd 80 32 ae 88 d9 33
       3.2631814e-08 4.364139e-08 1.5002003e-08 1.0129712e-07
0000e0 cf 58 9d 34 ba b2 7e 35 c0 0b 28 34 22 f0 33 34
       2.9308146e-07 9.4882455e-07 1.5650494e-07 1.6758034e-07
0000f0 53 83 c7 33 b2 b5 de 33 8f e4 4b 34 47 11 a0 34
       9.290547e-08 1.0370731e-07 1.8988997e-07 2.9814893e-07
000100 71 74 e0 33 25 f6 a7 34 3f 9d 59 33 74 6e 85 33
       1.04519934e-07 3.1285268e-07 5.0667264e-08 6.2133864e-08
000110 2c 7c 00 33 5a 62 10 33 7a 5e 57 33 b2 37 a7 33
       2.9915256e-08 3.3617063e-08 5.0144514e-08 7.7866744e-08
000120 c8 20 07 34 6c 5a 08 35 35 0f af 33 d7 f6 cd 33
       1.258478e-07 5.079553e-07 8.151839e-08 9.590956e-08
000130 4a d1 58 33 ba 6d 44 33 d4 1c 95 33 96 f4 d7 33
       5.0481766e-08 4.5734602e-08 6.943597e-08 1.00562076e-07
000140 fd a1 ce 32 65 9a 7f 34 59 c8 08 33 6b da 81 33
       2.405522e-08 2.3804894e-07 3.1847183e-08 6.0467606e-08
000150 30 ff c3 32 aa f7 85 32 50 c7 bf 31 d3 74 8f 31
       2.2817034e-08 1.5595862e-08 5.581491e-09 4.175129e-09
000160 56 05 cd 34 a4 8f 68 35 92 19 41 34 4f bd 94 34
       3.8188108e-07 8.663576e-07 1.7983828e-07 2.7704888e-07
000170 f1 0e eb 33 98 20 ea 33 44 be 76 34 2e 6f b5 34
       1.0945758e-07 1.0902403e-07 2.2979754e-07 3.379477e-07
000180 d4 4f a6 33 fe ed b6 34 e6 1a 75 33 b1 1c aa 33
       7.744498e-08 3.4073304e-07 5.706797e-08 7.921461e-08
000190 04 9d 1f 33 34 80 fb 32 79 10 15 31 07 87 ca 32
       3.7162877e-08 2.9278546e-08 2.1691717e-09 2.3577298e-08
0001a0 cb d5 99 34 87 06 4c 36 4b 95 a2 34 ba c8 02 35
       2.8654026e-07 3.0402168e-06 3.0283476e-07 4.872087e-07
0001b0 a8 4f 32 34 76 27 19 34 d9 ad e9 33 38 46 4f 32
       1.660652e-07 1.4263591e-07 1.0881531e-07 1.2064952e-08
0001c0 47 c9 c7 34 ef 58 5b 35 9b f9 40 34 de 81 95 34
       3.7213087e-07 8.1713273e-07 1.79722e-07 2.7847904e-07
0001d0 75 bb 1a 34 be 5b 15 34 89 84 97 34 e1 f8 de 34
       1.4410564e-07 1.3910082e-07 2.8222374e-07 4.1531806e-07
0001e0 e6 4a 1c 35 22 07 d7 35 c9 06 ac 34 1e cd bf 34
       5.822352e-07 1.6020824e-06 3.2042433e-07 3.5725765e-07
0001f0 b1 10 4f 34 81 83 53 34 ac 1a d6 34 bd 1c 0c 35
       1.928445e-07 1.9698747e-07 3.9880013e-07 5.2195884e-07
000200 63 03 2d 34 26 5a 14 35 e0 3b e1 33 ca c3 00 34
       1.6113113e-07 5.526548e-07 1.048827e-07 1.1992157e-07
000210 f2 c6 7f 33 19 0f 86 33 b6 52 0f 34 06 5d 45 34
       5.9552754e-08 6.2426075e-08 1.3348003e-07 1.8380896e-07
000220 be 1a d7 34 21 28 00 36 57 88 86 34 78 f0 a1 34
       4.0066328e-07 1.9096844e-06 2.5058645e-07 3.016355e-07
000230 5b 04 11 34 c7 38 19 34 d9 52 30 34 40 ec 39 34
       1.3505762e-07 1.4269891e-07 1.6421417e-07 1.7315415e-07
000240 83 d4 93 34 bf 18 a6 35 9e 12 41 34 8f d7 be 34
       2.7535506e-07 1.2375166e-06 1.7981299e-07 3.5547097e-07
000250 1c c7 a1 33 8a fa cd 33 00 b0 d2 33 f3 84 7a 30
       7.5333645e-08 9.591629e-08 9.810901e-08 9.11384e-10
000260 1a c3 9b 32 fa cb 3c 33 f1 56 22 32 20 cf 39 32
       1.8133097e-08 4.3957677e-08 9.449409e-09 1.0815512e-08
000270 0c 05 2a 32 dc b2 34 32 de 66 99 32 be 49 e4 32
       9.89645e-09 1.0518047e-08 1.7858323e-08 2.6576227e-08
000280 4e f2 7e 32 8f 44 8f 31 5a 35 c9 31 43 0f 37 31
       1.483984e-08 4.169642e-09 5.8559353e-09 2.663868e-09
000290 59 df 8d 31 d5 e3 cb 31 f7 b6 55 32 f7 60 a9 32
       4.129032e-09 5.933979e-09 1.2439833e-08 1.9718284e-08
0002a0 4f 8a 2e 34 16 0d 06 35 10 8d c4 33 20 43 e4 33
       1.6255329e-07 4.993793e-07 9.15262e-08 1.0629287e-07
0002b0 c9 00 6f 33 65 76 55 33 f1 87 c0 33 67 42 0c 34
       5.5647238e-08 4.9700606e-08 8.965424e-08 1.3062673e-07
0002c0 30 34 03 35 61 f8 ef 35 e4 1e 98 34 01 1c aa 34
       4.8877246e-07 1.7879175e-06 2.8334682e-07 3.1685343e-07
0002d0 14 56 29 34 e2 bb 35 34 a0 e8 84 34 fa 5a ed 34
       1.5770667e-07 1.692529e-07 2.4756173e-07 4.4210884e-07
0002e0 bf 68 9c 2d 16 d0 b0 2b 5c 20 1e 2e b0 0d 3e 2c
       1.7781663e-11 1.2563308e-12 3.595378e-11 2.7008222e-12
0002f0 e7 df 31 2d d5 63 b8 2e f8 d9 87 2a f0 0d 26 2b
       1.01110014e-11 8.385085e-11 2.4132064e-13 5.899439e-13
000300 e1 7f df 32 11 19 db 33 e0 49 c3 32 92 1e e0 32
       2.601877e-08 1.0202542e-07 2.2734582e-08 2.6090934e-08
000310 9e 46 58 32 31 33 37 32 f9 70 5c 32 c4 75 c6 32
       1.2588911e-08 1.06636415e-08 1.2831372e-08 2.3103787e-08
000320 95 0c 32 35 02 91 ca 35 09 52 b3 34 1f 89 05 35
       6.6328477e-07 1.5092376e-06 3.3401037e-07 4.97459e-07
000330 fa 7b 61 34 f5 76 62 34 62 f4 ee 34 d0 77 15 35
       2.099986e-07 2.1091167e-07 4.4508766e-07 5.5681176e-07
000340 94 68 27 35 4a b8 d7 35 c4 0c ae 34 1c a9 d8 34
       6.236453e-07 1.6072383e-06 3.2419314e-07 4.0356178e-07
000350 d8 4e 76 34 10 cc 3b 34 55 9f c9 34 4b 8e 10 35
       2.2939219e-07 1.748997e-07 3.7555097e-07 5.3851244e-07
000360 d9 d9 06 33 af 83 d7 33 1a 2d c8 32 cc b1 e8 32
       3.1397438e-08 1.0035671e-07 2.3303574e-08 2.7089207e-08
000370 fc a2 95 32 4d 21 6e 32 a4 92 83 32 ef 0a 02 33
       1.742e-08 1.3860995e-08 1.5317092e-08 3.0277928e-08
000380 35 3e 39 33 43 ba 03 35 e4 5a 72 33 93 ae e8 33
       4.3130246e-08 4.907235e-07 5.642768e-08 1.0835097e-07
000390 44 62 e8 32 57 ab 3d 33 35 76 19 34 bd c0 9d 34
       2.705304e-08 4.4160824e-08 1.4292239e-07 2.9383764e-07
0003a0 70 d9 75 30 ff 41 2c 2e 3c 71 01 30 83 d3 5c 2e
       8.943948e-10 3.916689e-11 4.709084e-10 5.021007e-11
0003b0 d9 78 0c 30 4a be 99 30 6d e6 14 2f 42 4e f4 30
       5.110344e-10 1.1186299e-09 1.3542385e-10 1.7775579e-09
0003c0 36 8f e0 34 f4 10 d7 35 7b c9 88 34 fa 21 bb 34
       4.182745e-07 1.6023682e-06 2.547857e-07 3.4856185e-07
0003d0 84 bb 26 34 5d 4c 08 34 a9 69 7b 34 8f 97 cc 34
       1.5528173e-07 1.2693768e-07 2.3414636e-07 3.8108234e-07
0003e0 1b 3a 6c 33 3a 63 b4 35 9e c7 0b 34 bc d3 67 34
       5.500088e-08 1.3439924e-06 1.3018004e-07 2.159058e-07
0003f0 64 8d 90 33 2c 81 69 33 46 f6 08 31 6b 0c 94 33
       6.731241e-08 5.436702e-08 1.9930595e-09 6.894046e-08

exp_avg f4 [64]
000000 21 4b eb b4 13 e0 e2 36 cf 29 7b 39 71 08 87 38
       -4.3826824e-07 6.7614105e-06 0.000239528 6.438874e-05
000010 b4 b0 71 3a b9 72 81 b7 12 fe 42 3a 13 15 28 ba
       0.0009219751 -1.543142e-05 0.0007438372 -0.0006411832
000020 9e a5 7f b9 6c 72 b4 39 9e 35 df 38 80 3b 0f 39
       -0.00024380392 0.00034417526 0.000106434556 0.00013659708
000030 8c 41 66 b9 11 9c ca 39 77 64 07 3a 27 87 7e 3a
       -0.00021958927 0.0003864472 0.0005164812 0.00097094703
000040 58 df 0a 3a c7 8a 7d b7 9d ec 39 ba 48 f7 27 b9
       0.0005297563 -1.5112287e-05 -0.0007092448 -0.0001601848
000050 d2 ec 04 b9 ac 30 41 39 56 d0 3c ba ba 0a b6 35
       -0.00012676723 0.00018424046 -0.00072026753 1.3563179e-06
000060 a3 b5 65 b9 b4 3d 46 39 66 e6 4a ba 31 24 12 38
       -0.00021906807 0.00018905738 -0.00077400205 3.484282e-05
000070 15 54 45 b9 a0 3c cd 35 d1 3a a9 39 be b7 66 38
       -0.00018818707 1.5291334e-06 0.00032278014 5.5007396e-05
000080 07 50 c3 b6 7c c5 b9 b9 38 7b bf b9 e7 53 94 b8
       -5.8207693e-06 -0.00035433087 -0.00036522164 -7.072818e-05
000090 a9 96 5a b8 37 4e fb b8 1c 64 69 ba 9d 0d b7 39
       -5.2115563e-05 -0.00011983181 -0.0008903162 0.00034914623
0000a0 a7 81 39 3a 8b 16 d7 39 20 74 40 39 3f 26 80 b6
       0.00070765096 0.0004102479 0.00018353807 -3.8191497e-06
0000b0 b3 76 52 b8 db b5 36 b9 8f 18 0b 3a 77 6f 77 b9
       -5.017845e-05 -0.00017424619 0.0005306089 -0.0002359728
0000c0 89 de 3f b8 29 00 46 ba 99 0c 67 39 50 f9 42 ba
       -4.57452e-05 -0.00075531245 0.0002203457 -0.0007437663
0000d0 7a 9e 07 3a ef 22 d7 b8 1c d9 94 b8 65 be 06 ba
       0.0005173456 -0.00010258506 -7.09763e-05 -0.00051400653
0000e0 1d 5c 5b 38 fe 56 fe b9 de 69 ca 39 d2 27 df 38
       5.2299456e-05 -0.0004851147 0.0003860732 0.00010640886
0000f0 16 4a 6e 3a c3 5b f2 b9 25 7c 66 b9 90 81 fe b8
       0.0009090019 -0.00046226205 -0.00021980757 -0.00012135797

exp_avg_sq f4 [64]
000000 6d 20 0c 31 e9 91 67 32 a3 ad c5 35 ce a2 b2 34
       2.0391113e-09 1.3479146e-08 1.4728179e-06 3.327354e-07
000010 c6 d4 c2 36 40 0f 43 33 ee 65 bb 35 d7 fd 50 36
       5.8064206e-06 4.5415845e-08 1.3962251e-06 3.114217e-06
000020 21 79 8a 35 b5 a3 af 35 f0 5e a8 34 17 e8 7d 36
       1.0317054e-06 1.3086161e-06 3.1361515e-07 3.7835032e-06
000030 56 fd 62 35 63 0e 61 36 b5 ea 83 36 9e 92 d2 36
       8.4560213e-07 3.3535987e-06 3.9314277e-06 6.275556e-06
000040 59 0b fb 35 c4 59 69 36 49 f1 81 36 ff 6a 49 34
       1.870426e-06 3.4771956e-06 3.872589e-06 1.8758509e-07
000050 bd 22 12 34 36 04 ce 35 72 a7 ae 36 96 f1 71 2e
       1.3609947e-07 1.5349422e-06 5.2050973e-06 5.5011627e-11
000060 cb 2c a0 34 ef 99 e9 36 5a ac dc 36 df 05 91 34
       2.9834914e-07 6.9618613e-06 6.5765753e-06 2.7012626e-07
000070 b2 da 3a 35 99 a7 50 31 50 14 8e 36 8d 8d 93 35
       6.9608643e-07 3.0363252e-09 4.2342945e-06 1.099355e-06
000080 e9 d3 16 34 b0 55 e2 34 67 2e 13 36 89 ab 7f 34
       1.4046931e-07 4.2158126e-07 2.1931717e-06 2.381113e-07
000090 3e 60 6f 35 a4 61 12 33 8a f5 60 36 6c fc 21 35
       8.917449e-07 3.4082078e-08 3.3521524e-06 6.0344496e-07
0000a0 01 bd 23 36 ef 88 4a 36 80 59 3b 34 ec 85 41 31
       2.4398907e-06 3.0180051e-06 1.7448292e-07 2.8161322e-09
0000b0 5e a4 6a 35 88 df ac 33 03 9b a7 36 27 a7 ea 36
       8.741098e-07 8.050034e-08 4.9950336e-06 6.9932025e-06
0000c0 ab 6a 08 35 23 3d b1 36 f6 ed db 34 ff 06 11 36
       5.081917e-07 5.2821283e-06 4.0965068e-07 2.1610756e-06
0000d0 35 0a 85 36 59 d0 68 35 28 c4 32 34 de 46 1e 36
       3.964897e-06 8.672992e-07 1.6648903e-07 2.3585085e-06
0000e0 53 8e c5 34 a9 70 14 36 33 82 a9 36 76 43 7e 36
       3.6797664e-07 2.2119295e-06 5.0517497e-06 3.7888217e-06
0000f0 bc 15 1d 37 16 bd af 36 d9 3d 88 35 9b 02 95 36
       9.36299e-06 5.237419e-06 1.015079e-06 4.4408494e-06
