P3/Q3/Batch2500/cartpole/checkpoints/pg_CartPole-v1_last.pth (torch, 81731 bytes, 18 tensors)

net.0.weight f4 [64, 4]
0	0xbec8e6fc	-0.39238727
1	0xbf00a78a	-0.50255644
2	0xbe122ad9	-0.14274158
3	0x3df0dbb4	0.11760655
4	0xbea7aa48	-0.32747102
5	0x3eded772	0.43523747
6	0x3ed355dc	0.41276443
7	0xbb018973	-0.0019765764
8	0xbc86230a	-0.01637413
9	0xbd0ee78e	-0.034888797
10	0x3e6082ba	0.21924868
11	0x3f07cb46	0.53044546
12	0xbd4d2d30	-0.050091922
13	0xbe7c1fc8	-0.24621499
14	0xbf02ee21	-0.51144606
15	0xbf1cb68d	-0.6121605
16	0xbeaccbee	-0.33749336
17	0x3e092ed3	0.13396768
18	0x3ebbd988	0.366894
19	0x3ee10f4d	0.43956986
20	0xbd007507	-0.031361606
21	0x3e5c30e4	0.21503025
22	0x3e2c0b65	0.16801222
23	0x3f1be39b	0.60894173
24	0xbc8889bf	-0.016667245
25	0xbeabc25e	-0.33546728
26	0xbe189a8d	-0.14902706
27	0x3edc857f	0.430706
28	0xbe8bf9af	-0.2733893
29	0xbe6885cd	-0.22707291
30	0xbdefeb56	-0.11714809
31	0x3e6f2b88	0.2335645
32	0x3eb8df5f	0.3610792
33	0xbda71184	-0.08157638
34	0xbee4cc7b	-0.44687256
35	0x3da8a28d	0.08234129
36	0x3e18ddd5	0.14928372
37	0x3ebdfedb	0.37108502
38	0xbee8e051	-0.4548364
39	0xbd6b9ab7	-0.057520594
40	0x3ef4cb87	0.4781153
41	0xbef64b9e	-0.48104566
42	0xbe8c375c	-0.27385986
43	0xbe9d9fa5	-0.30785862
44	0xbe8beddf	-0.2732992
45	0x3ec5ba8a	0.3861888
46	0xbf18b992	-0.5965816
47	0xbebd0998	-0.36921382
48	0x3e118f70	0.14214873
49	0xbeb840b1	-0.35986856
50	0xbda18e66	-0.078884885
51	0x3d77c44e	0.060489945
52	0xbe6a32a3	-0.22870879
53	0xbedb8f77	-0.42882892
54	0xbe4fbdec	-0.20287293
55	0xbf0f7000	-0.56030273
56	0x3e816fc1	0.25280574
57	0xbea4023f	-0.32032964
58	0x3e4aa4f8	0.19789493
59	0x3f0558cd	0.52088624
60	0x3eecba77	0.4623601
61	0xbe9ecf36	-0.31017464
62	0x3f1c733e	0.61113346
63	0x3e23e25e	0.16004321
64	0xbeb601e5	-0.3554832
65	0xbe78df37	-0.243039
66	0xbe9a18fa	-0.3009718
67	0x3ec2bc3c	0.38034236
68	0x3e0c036b	0.13673179
69	0x3ea3ee40	0.32017708
70	0xbd639879	-0.05556533
71	0xbf0991fc	-0.5373838
72	0xbe3e3be2	-0.18577531
73	0xbdf59951	-0.119921334
74	0x3e81b62f	0.25334308
75	0x3e5d61f9	0.21619405
76	0x3d8c2252	0.068424836
77	0x3e9f9314	0.311669
78	0x3e6b6542	0.22987846
79	0x3c159d97	0.009131811
80	0xbe7a4ed0	-0.24444127
81	0x3e9f051b	0.31058583
82	0x3e88856d	0.26664296
83	0x3f111639	0.56674534
84	0x3ec5842e	0.38577408
85	0x3e85182c	0.25995004
86	0xbe842e2c	-0.25816476
87	0xbebe0f86	-0.37121218
88	0xbe10088e	-0.14065763
89	0xbeb557f7	-0.35418674
90	0x3ec8c3e6	0.3921196
91	0x3e21e0ce	0.15808412
92	0x3f066d8a	0.52510893
93	0x3eb3117b	0.34974274
94	0xbbca44ad	-0.0061727376
95	0x3e954946	0.29157466
96	0xbe76d5ca	-0.24104992
97	0xbe65651c	-0.22401851
98	0x3eb72844	0.35772908
99	0x3e3070d7	0.17230545
100	0xbeb993a5	-0.36245456
101	0x3eb36b18	0.35042644
102	0xbf029867	-0.510138
103	0xbeb7e099	-0.35913542
104	0x3eb094e9	0.3448861
105	0xbd800a65	-0.062519826
106	0xbe384f51	-0.17999007
107	0xbdd35025	-0.10318021
108	0xbed09f71	-0.40746644
109	0x3cb52b35	0.02211533
110	0xbdec5f88	-0.11541659
111	0x3ef367a7	0.47540018
112	0x3d6a9bec	0.057277605
113	0xbd4f585d	-0.05062138
114	0x3e7b1e2f	0.24523233
115	0x3f0c6929	0.5484796
116	0xbe8aa2f1	-0.2707744
117	0x3ea59b1b	0.323449
118	0xbf117107	-0.5681309
119	0xbedfdbe4	-0.4372245
120	0xbef44868	-0.47711492
121	0x3d136712	0.035986967
122	0xbeb8e532	-0.36112362
123	0x3e93a58c	0.2883724
124	0x3ef4163c	0.47673213
125	0x3e9387be	0.288145
126	0xbe13702b	-0.14398257
127	0x3e07c127	0.13257276
128	0xbe7e1d38	-0.24815834
129	0xbef441d0	-0.4770646
130	0x3dcfb4a5	0.10141877
131	0xbedf34d0	-0.4359498
132	0xbec22ba5	-0.37923923
133	0xbec99e0a	-0.39378387
134	0xbece3327	-0.402734
135	0xbe6ab407	-0.22920237
136	0xbed7b2ec	-0.42128694
137	0x3e95fdec	0.2929529
138	0x3e828aa7	0.25496408
139	0x3ebf4dc8	0.3736403
140	0x3e2a0e4e	0.1660702
141	0x3f08c549	0.53426033
142	0x3d981e52	0.07427658
143	0x3dbfec6d	0.093712665
144	0xbd8bca04	-0.06825641
145	0xbe9a558b	-0.3014339
146	0x3dfd9a26	0.12382917
147	0xbde6268c	-0.11237821
148	0xbe7d9e26	-0.2476736
149	0xbea8e21a	-0.32985002
150	0xbe86ce5b	-0.26329312
151	0xbd4d3dc5	-0.050107736
152	0x3d909974	0.07060519
153	0x3e365212	0.17804745
154	0x3e111149	0.1416675
155	0xbe33f65d	-0.17574449
156	0xbd9d88d7	-0.07692116
157	0xbd094511	-0.033513132
158	0xbf0d2888	-0.5513997
159	0x3d5f02ac	0.054445907
160	0x3e95ce7e	0.29259104
161	0xbdd6a6f0	-0.104810596
162	0xbe488261	-0.19580986
163	0xbf196550	-0.59920216
164	0xbeb10ec1	-0.3458157
165	0xbeb0e906	-0.34552783
166	0xbeca306e	-0.39490074
167	0x3d152a0f	0.036417063
168	0x3ef0ad1c	0.47007072
169	0xbecf3a6a	-0.40474254
170	0x3df4d099	0.11953849
171	0xbf1f12c9	-0.6213804
172	0xbef8487a	-0.48492795
173	0x3eb8beea	0.36083156
174	0x3e97f81a	0.29681474
175	0xbe392bb0	-0.18083072
176	0x3ed0515d	0.40687075
177	0x3e8afbbf	0.27145192
178	0x3f24cbdc	0.64373565
179	0xbdb4c887	-0.0882731
180	0x3e72ce9f	0.23711632
181	0x3e90fd8d	0.28318444
182	0x3dc263e4	0.09491709
183	0xbf1324da	-0.57478106
184	0xbd9ebd70	-0.07750976
185	0x3f0c1f47	0.54735225
186	0x3f143d44	0.57905984
187	0x3f029f0b	0.5102393
188	0x3eba04fc	0.36331928
189	0xbd20f85d	-0.039299358
190	0x3f30ab88	0.69011736
191	0x3ed67c42	0.41891676
192	0xbdf81c93	-0.12114825
193	0x3e8bde9b	0.27318272
194	0x3d4b112c	0.049576923
195	0x3f148169	0.58009964
196	0x3e69c9b1	0.22830845
197	0x3e37af03	0.17937855
198	0x3d6d46bb	0.057928782
199	0x3f003117	0.50074905
200	0x3e21d6bd	0.15804572
201	0x3df1185c	0.11772224
202	0xbe874a10	-0.26423693
203	0x3e066c82	0.1312733
204	0xbe08f282	-0.1337376
205	0x3eb78e77	0.3585088
206	0xbf248018	-0.64257956
207	0xbe524e94	-0.20537788
208	0x3eae798b	0.34077105
209	0xbdbac929	-0.091203995
210	0xbee6288a	-0.44952804
211	0xbef9e905	-0.48810592
212	0xbdb64069	-0.08899004
213	0x3e239f33	0.15978698
214	0xbd6d36bf	-0.057913538
215	0x3e99b0ed	0.30017796
216	0xbe69ae3a	-0.22820368
217	0x3ee09318	0.43862224
218	0xbe0e283f	-0.1388254
219	0xbf08ebcb	-0.5348479
220	0xbdc6fa2a	-0.09715684
221	0x3e755a49	0.23960222
222	0x3f250092	0.64453995
223	0x3e9412d4	0.28920615
224	0xbe85079f	-0.25982377
225	0x3ea08585	0.31351867
226	0x3ef44da0	0.47715473
227	0x3e7374c9	0.23775019
228	0xbe90f3b0	-0.2831092
229	0x3f021b3f	0.50822824
230	0x3ebc7469	0.36807564
231	0x3f0a8b6d	0.54118997
232	0x3eacbe4a	0.3373893
233	0x3d4bd092	0.049759455
234	0x3f06fc3c	0.5272863
235	0x3e6dd992	0.23227528
236	0xbebf483b	-0.37359795
237	0xbe1765ad	-0.1478488
238	0x3eee19e6	0.46504134
239	0x3e5d043c	0.21583647
240	0x3de283ed	0.11060319
241	0x3d1e84b4	0.038700774
242	0xbe3f0f6a	-0.18658224
243	0xbeb2a800	-0.348938
244	0x3ebab059	0.36462668
245	0x3ea7a24f	0.3274102
246	0x3a10d93e	0.00055255357
247	0xbeed6514	-0.4636618
248	0xbe892adb	-0.2679051
249	0xbd1265df	-0.035741683
250	0x3f2b35ff	0.66879267
251	0x3ef1cab3	0.4722496
252	0x390204e4	0.00012399588
253	0x3ed85423	0.4225169
254	0x3f2bbd2b	0.6708552
255	0x3e61c2ca	0.22046962

net.0.bias f4 [64]
0	0xbec836cc	-0.39104307
1	0x3d2b61fe	0.0418415
2	0xbd6faa4f	-0.05851203
3	0x3e80a661	0.25126937
4	0x3f09364a	0.53598464
5	0x3d99c5b9	0.07508416
6	0xbda651f2	-0.081210986
7	0x3dc8e2fa	0.09808917
8	0xbeee99cd	-0.46601716
9	0xbec12115	-0.37720552
10	0x3efc5c0c	0.49288976
11	0x3eec892f	0.46198413
12	0xbde7e2b3	-0.11322536
13	0x3ea5ce2c	0.3238386
14	0x3eb2cf19	0.34923628
15	0xbd59a1cd	-0.05313282
16	0x3ea5b741	0.32366374
17	0x3eca186f	0.39471766
18	0x3e3d70e3	0.18500094
19	0xbe3d4833	-0.18484573
20	0x3c24d052	0.010059433
21	0xbecdef51	-0.40221646
22	0x3ef8e43d	0.48611632
23	0xbcb31e56	-0.021865051
24	0x3eb94991	0.3618894
25	0xbe52810a	-0.20557037
26	0x3eddfa0b	0.4335483
27	0x3c3f664e	0.011682106
28	0x3d4f70c4	0.05064465
29	0xbdaba7fe	-0.08381651
30	0xbee994b1	-0.45621255
31	0x3eddab8e	0.43294948
32	0xbdce49fb	-0.100727044
33	0x3ea6f8b2	0.32611614
34	0xbee43bba	-0.44576818
35	0x3ee25eb9	0.44212893
36	0xbe8b2aad	-0.27180997
37	0x3ed5869d	0.41704264
38	0xbec9ba98	-0.39400172
39	0x3ee0eae1	0.43929198
40	0x3d8eaf7c	0.06967065
41	0x3ec65cfa	0.3874281
42	0x3e4fcea5	0.20293672
43	0x3d42e9e0	0.04758632
44	0xbea93452	-0.3304773
45	0x3da8616b	0.08221706
46	0xbe360a3f	-0.17777346
47	0x3eed6cec	0.46372163
48	0xbd39560e	-0.045248084
49	0x3e359139	0.1773118
50	0x3dba0e91	0.090848096
51	0x3f0c8b20	0.5489979
52	0x3e341288	0.17585194
53	0x3eb6c59e	0.35697645
54	0xbe9d6183	-0.30738458
55	0x3e9d4fe6	0.3072502
56	0xbeb86502	-0.36014563
57	0xbe643c0a	-0.22288528
58	0xbe6bf7e6	-0.23043784
59	0xbe9574c2	-0.29190642
60	0x3e4e8623	0.20168357
61	0xbe0ebacf	-0.1393845
62	0x3b5eb673	0.003398326
63	0xbd935bfd	-0.0719528

net.2.weight f4 [64, 64]
0	0x3c4ca7a8	0.012491144
1	0xbae031d3	-0.0017104693
2	0x3e24ae93	0.1608222
3	0xbd98a862	-0.074539915
4	0x3e009d81	0.12560083
5	0x3c137290	0.008999482
6	0x3ce0af33	0.027427291
7	0x3d2ba42b	0.04190461
8	0x3c94b6c8	0.018153563
9	0x3dbd1f21	0.09234453
10	0xbb1b2d18	-0.0023678
11	0xbdff10b5	-0.124543585
12	0x3dbaff83	0.09130766
13	0xbbedf74c	-0.007262146
14	0x3d896bbe	0.06710003
15	0xbd03a5ec	-0.032140657
16	0x3e16728f	0.14692138
17	0x3d328b18	0.04358968
18	0xbd0fc1e3	-0.035097014
19	0xbd27d6d4	-0.04097636
20	0x3e4345b0	0.19069552
21	0x3d9aef6d	0.07565198
22	0x3e2023e5	0.15638693
23	0x3e0a1e0d	0.13488026
24	0x3e1cf2fc	0.15327066
25	0xbd55daad	-0.0522105
26	0x3def185a	0.116745666
27	0x3daeb37a	0.08530326
28	0x3dced456	0.100990936
29	0xbe168d98	-0.14702451
30	0xbd036b8f	-0.032084998
31	0x3de3943f	0.1111226
32	0xbd904b35	-0.070455946
33	0xbdb0adfc	-0.08626935
34	0x3d28fa0d	0.041254092
35	0x3e18d86b	0.14926307
36	0xbdf179fd	-0.117908455
37	0xbbfe933c	-0.0077690165
38	0xbd8d6a1a	-0.06905003
39	0xbdd1484b	-0.10218867
40	0xbe204a76	-0.15653405
41	0x3cc67885	0.02422739
42	0xbde696a2	-0.112592
43	0x3d4fff03	0.050780308
44	0x3e0e7b60	0.13914251
45	0xbd7c407a	-0.061584927
46	0x3d821222	0.06351115
47	0x3a4ba17c	0.00077678985
48	0x3d534117	0.051575746
49	0xbc082ba2	-0.008311184
50	0xbd235678	-0.039877385
51	0xbd9a1f2c	-0.07525477
52	0xbdf6bd90	-0.12047875
53	0xbca9b1af	-0.020714609
54	0xbe0eb447	-0.13935958
55	0x3c55b8da	0.01304456
56	0x3cc91e3e	0.024550553
57	0xbd33b717	-0.04387578
58	0x3d9b526a	0.075840786
59	0x3c5fc0bf	0.013656794
60	0xbdcdeddf	-0.10055136
61	0xbdad4463	-0.08460309
62	0x3ded91d8	0.11600083
63	0x3db1722a	0.08664353
64	0x3c5b36af	0.013379737
65	0xbe1557c5	-0.14584263
66	0x3dba12e1	0.09085632
67	0xbd7c18e7	-0.061547186
68	0xbddf70b6	-0.1091017
69	0x3d310565	0.043218035
70	0xbc9dbc11	-0.019254716
71	0x3d77050e	0.060307555
72	0xbdfa1dff	-0.122127526
73	0x3c5cd5c8	0.013478704
74	0x3bc49809	0.0059995693
75	0xbdef3593	-0.1168014
76	0x3da35991	0.07976068
77	0xbde1eff8	-0.110320985
78	0x3d6e3228	0.0581533
79	0x3d848aef	0.06471812
80	0x3d88a99c	0.066729754
81	0x3d46c261	0.048525218
82	0x3c29890d	0.010347617
83	0x3a9d8ffb	0.0012021059
84	0xbc88034c	-0.016603135
85	0x3d73776e	0.05944007
86	0x3c818325	0.015809605
87	0x3d3feeca	0.046858586
88	0x3db7eeca	0.08981092
89	0xbdbbfc18	-0.091789424
90	0xbc6a92eb	-0.014317255
91	0xbda4721f	-0.08029579
92	0xbd0ecf71	-0.0348658
93	0xbda51fef	-0.080627315
94	0x3da790b8	0.081819
95	0x3c5c480e	0.013444914
96	0xbe00efd3	-0.12591486
97	0xbdec48c4	-0.115373164
98	0x3d425414	0.047443464
99	0x3d3b3eb7	0.045714106
100	0x3d9707d8	0.07374543
101	0xbdc19539	-0.0945229
102	0x3dcfadcd	0.10140572
103	0x3d165f72	0.036712117
104	0x3d226277	0.039644685
105	0xbde46fd7	-0.11154144
106	0xbdd63fa8	-0.1046136
107	0xbdb06a55	-0.08614031
108	0x3d18528e	0.037188105
109	0x3c529f85	0.012855415
110	0x3deac9c7	0.11464267
111	0xbc4f2a60	-0.01264438
112	0x3ccd81d8	0.025086328
113	0xbe0ce23c	-0.13758177
114	0xbda4933a	-0.08035894
115	0xbcde0c44	-0.027105458
116	0xbdd4c6d4	-0.10389486
117	0x3d1ddbc1	0.03853965
118	0x3ca7ce49	0.020484107
119	0x3d9406ad	0.07227836
120	0xbdddeb47	-0.10835891
121	0xbcc8effd	-0.024528498
122	0xbe0491a3	-0.12946181
123	0xbd4b3abc	-0.04961656
124	0xbdd1e2dc	-0.10248348
125	0xbe08d3dd	-0.1336207
126	0x3c836d0f	0.016043214
127	0x3dc9d7bf	0.098556034
128	0xbde5e09f	-0.11224484
129	0x3df9dce9	0.122003384
130	0x3d98b7ab	0.07456907
131	0xbe0984fa	-0.13429633
132	0x3e022154	0.12708026
133	0x3e7c3935	0.24631198
134	0x3d1d95f3	0.03847308
135	0x3dfb8c55	0.122826256
136	0xbe0814f7	-0.13289247
137	0xbdaad04b	-0.0834051
138	0xbdd65e00	-0.10467148
139	0x3d3595d4	0.04433234
140	0x3dc41595	0.09574429
141	0x3d040f27	0.032241013
142	0x3d39ff41	0.045409445
143	0x3de4e496	0.11176412
144	0xbcbdd108	-0.023170963
145	0x3d4dbe0e	0.05023008
146	0x3dbb3716	0.09141366
147	0xbd02e769	-0.03195897
148	0x3cd4c3a8	0.025972202
149	0x3da5041f	0.08057427
150	0x3d4fa403	0.050693523
151	0x3db1f8b5	0.08690015
152	0xbd2e195c	-0.042504653
153	0xbe0a7383	-0.13520627
154	0xbce36bf6	-0.02776144
155	0xbceb5e39	-0.028731452
156	0x3e5b63d7	0.21424805
157	0xba779b33	-0.0009445429
158	0x3d61c483	0.05511905
159	0x3e1d7f9d	0.15380712
160	0xbdf206cf	-0.11817705
161	0xbe0103b4	-0.12599069
162	0xbd50cbcc	-0.050975606
163	0x3d6ef23f	0.058336493
164	0xbca7cef5	-0.020484427
165	0x3e00892e	0.1255233
166	0xbda6693c	-0.081255406
167	0x3da7fe27	0.082027726
168	0xbd03848f	-0.03210884
169	0xbdb66bce	-0.08907281
170	0xbe078cdb	-0.13237326
171	0x3cc9f587	0.02465321
172	0x3db47c88	0.08812815
173	0x3c832f95	0.0160139
174	0x3e38ebb3	0.18058662
175	0x3d7897ad	0.060691524
176	0xbd12027d	-0.035646904
177	0x3e3842b9	0.17994203
178	0xbd8e9bb2	-0.0696329
179	0x3d459cd2	0.04824526
180	0xbe1913b0	-0.14948916
181	0x3df925af	0.12165391
182	0x3c93e1b3	0.018051958
183	0x3dd6ce43	0.1048856
184	0xbcfd256f	-0.030901639
185	0x3de3448f	0.11097061
186	0x3e0ebe05	0.13939674
187	0xba0247dd	-0.0004969815
188	0x3d189e91	0.037260596
189	0xbdb135b3	-0.086528204
190	0x3d9f753e	0.07786034
191	0x3e368d55	0.17827351
192	0xbdcd8de2	-0.100368276
193	0x3d3d91cf	0.046281632
194	0xbd23e124	-0.040009633
195	0x3d92d8a9	0.07170231
196	0x3ceb4816	0.028720897
197	0x3d83a69b	0.06428262
198	0xbd21ada0	-0.039472222
199	0x3da60032	0.08105506
200	0x3dcb4e92	0.099270955
201	0x3de53b8a	0.11192997
202	0xbda00873	-0.078141116
203	0xbe117f8a	-0.14208809
204	0x3dd6bd1c	0.104852885
205	0xbd91ca43	-0.071186565
206	0x3d8f3e1f	0.069942705
207	0xbdfffc86	-0.12499337
208	0x3dd5382c	0.104111046
209	0xbd77de3f	-0.060514685
210	0x3de054d9	0.109536834
211	0xbda055a3	-0.07828834
212	0xb96ce5ca	-0.00022592317
213	0xbdd276e2	-0.10276581
214	0x3bb62413	0.0055584996
215	0xbd66a8d1	-0.05631334
216	0x3d13d08f	0.03608757
217	0x3c92cdae	0.017920341
218	0xbdc5319d	-0.096286036
219	0xbc012343	-0.007881942
220	0xbdadfb14	-0.08495155
221	0x3d368fd9	0.044570778
222	0x3db7d3e1	0.089759596
223	0xbd1bf74a	-0.03807763
224	0x3d58b58e	0.05290752
225	0xbd0118f6	-0.031517945
226	0xbd7f0624	-0.062261716
227	0x3c711fab	0.014717023
228	0xbd42b799	-0.047538374
229	0xbdd20b3b	-0.10256048
230	0x3dbec380	0.093146324
231	0xbd3d289c	-0.046181306
232	0xbd38014e	-0.04492312
233	0x3bc61806	0.0060453443
234	0xbce26374	-0.027635314
235	0x3c303c2f	0.010756536
236	0x3da6a246	0.0813642
237	0xbe0b3911	-0.13595988
238	0x3da2b4f2	0.07944669
239	0xbc5498c9	-0.01297588
240	0xbbd82cf8	-0.0065971576
241	0xbdce6229	-0.10077316
242	0x3d9b4084	0.07580665
243	0x3b65df9e	0.0035075913
244	0x3da2c722	0.07948138
245	0xbdc625d0	-0.09675181
246	0x3d09c069	0.033630762
247	0xbd2a6b59	-0.04160628
248	0x3debb6e3	0.11509492
249	0xbb9a52a7	-0.00470956
250	0x3d3a72cf	0.045519646
251	0xbdd9f570	-0.106425166
252	0x3a977e5e	0.0011558046
253	0xbd0d58e5	-0.034508605
254	0xbd9229ad	-0.07136855
255	0x3d54e975	0.051980454

net.2.bias f4 [64]
0	0x3de424bc	0.11139819
1	0xbca1daab	-0.01975759
2	0xbd5a51c2	-0.053300627
3	0xbd34fb0a	-0.044184722
4	0xbde5cf2a	-0.11221154
5	0x3d8fddde	0.0702474
6	0xbdeedbd0	-0.1166302
7	0x3c16e070	0.0092087835
8	0xbd8fc4d4	-0.07019964
9	0x3b2b931c	0.0026180213
10	0xbd29e19e	-0.04147493
11	0xbbf4d5d3	-0.007471779
12	0x3d1b9a1d	0.03798877
13	0x3d882ece	0.06649552
14	0x3d4404a8	0.047856003
15	0x3d09ab4a	0.03361062
16	0xbdbac4d3	-0.091195725
17	0x3e014b97	0.12626491
18	0xba3be9b3	-0.0007168308
19	0xbd977e14	-0.07397094
20	0xbe031fb1	-0.12805058
21	0x3d934728	0.07191306
22	0xbd51e475	-0.051243264
23	0x3d6b204f	0.05740386
24	0x3d8f8cc7	0.07009273
25	0x3c6e3b68	0.014540531
26	0x3dbaae49	0.091152735
27	0x3dbd483c	0.09242293
28	0x3d5040a6	0.050842904
29	0x3d40ef20	0.047103047
30	0xbbcafd30	-0.006194733
31	0x3dbea4c7	0.093087725
32	0x3d0d058b	0.034429114
33	0x3d810bd6	0.06301086
34	0x3dad8666	0.084729
35	0x3d0edc8b	0.034878295
36	0xbdd7d1e3	-0.105380796
37	0x3cd68315	0.026185552
38	0xbdaccbe6	-0.08437328
39	0x3da137c9	0.07871968
40	0xbdc33461	-0.09531475
41	0x3ca36429	0.019945221
42	0x3de5d6b2	0.112225905
43	0xbd66ddbf	-0.056363817
44	0x3e268238	0.16260612
45	0x3e20ba52	0.15696076
46	0x3b249272	0.0025111702
47	0xbc68ced0	-0.014209464
48	0xbc8b5636	-0.017008882
49	0x3d7eb8df	0.062188026
50	0x3b334758	0.0027355757
51	0x3e0361bd	0.12830253
52	0xbddb4c90	-0.107079625
53	0x3e166092	0.14685276
54	0xbc026ba7	-0.007960237
55	0x3e17458a	0.14772621
56	0x3b588f87	0.0033044533
57	0x3e19b69d	0.15011068
58	0x3e1d6c0d	0.1537325
59	0x3dfe5155	0.124178566
60	0xbcf23669	-0.02956696
61	0xbd53342b	-0.051563423
62	0xbd24e50e	-0.040257506
63	0x398bbe57	0.0002665396

net.4.weight f4 [2, 64]
0	0xbc183fc5	-0.009292548
1	0x3dc820b2	0.09771861
2	0xbe4056a1	-0.18783046
3	0x3d8fd249	0.070225306
4	0x3da7b0e1	0.08188034
5	0x3dd96310	0.10614598
6	0xbdd9808e	-0.10620223
7	0x3e52e35b	0.20594542
8	0x3cf3fc27	0.029783322
9	0x3da9ccca	0.082910135
10	0xbd00229f	-0.031283017
11	0x3e0dff14	0.13866836
12	0x3e352814	0.1769107
13	0xbdda2ac0	-0.10652685
14	0xbbac6c27	-0.005261916
15	0xbe12a838	-0.14321983
16	0x3d8565c7	0.06513553
17	0x3c6bdbb6	0.014395645
18	0x3d9cad4c	0.07650241
19	0xbd858dc0	-0.06521177
20	0xbd9baed8	-0.07601708
21	0x3e0f0f1d	0.13970609
22	0xbe0a2fbd	-0.13494773
23	0x3dfe3de5	0.12414149
24	0xbe548a16	-0.207558
25	0x3d9180b4	0.07104626
26	0x3e5e97a1	0.2173753
27	0x3de54648	0.11195046
28	0x3e474230	0.19458842
29	0xbda1b4f3	-0.078958414
30	0xbd99e7f5	-0.075149454
31	0x3dc48570	0.09595764
32	0x3d28c7a0	0.041206002
33	0xbde8ebd2	-0.11373104
34	0x3d39d72e	0.045371227
35	0x3c12daec	0.008963328
36	0x3d95321a	0.07284947
37	0xbdf39154	-0.118929535
38	0x3db655af	0.089030616
39	0xbd3a3b21	-0.045466546
40	0x3ddd8754	0.108168274
41	0x3d7f7a13	0.06237228
42	0xbe3ff588	-0.18746006
43	0xbc69a339	-0.014260107
44	0xbdba1e30	-0.09087789
45	0x3e70b3a1	0.23506023
46	0x3dc300ad	0.09521613
47	0x3e261f6d	0.16222925
48	0x3e6244b2	0.22096518
49	0xbdc319cd	-0.095264055
50	0xbd7a822a	-0.06115929
51	0xbafc047a	-0.0019227408
52	0xbb5a9ac0	-0.0033356398
53	0xbdad2c1b	-0.08455678
54	0x3e49a60d	0.1969225
55	0xbe5c8896	-0.21536478
56	0xbe4a0067	-0.19726716
57	0xbc46a3c3	-0.012124005
58	0x3e61a482	0.22035411
59	0x3dc4b802	0.09605409
60	0x3e2a4024	0.1662603
61	0x3d8f4ddc	0.06997272
62	0xbce8c10d	-0.028412366
63	0xbd854a8a	-0.06508358
64	0x3e151be3	0.14561419
65	0x3d82050e	0.0634862
66	0x3df63cff	0.12023353
67	0xbcbf41e6	-0.023346853
68	0x3d9e2798	0.07722396
69	0xbdec894d	-0.115496255
70	0x3c7d81ce	0.015472842
71	0xbda7853e	-0.08179711
72	0xbca72a5f	-0.020405946
73	0xbe0bee0a	-0.13665023
74	0x3d85f72d	0.06541286
75	0xbe014741	-0.12624837
76	0xbdd4de47	-0.103939585
77	0x3db9ac91	0.090661176
78	0x3e39f188	0.18158543
79	0x3e167ca8	0.1469599
80	0x3d1b6c9d	0.03794538
81	0x3e2f2810	0.17105126
82	0x3c11847d	0.008881685
83	0x3dad4996	0.08461301
84	0x3db90fce	0.09036218
85	0xbd450340	-0.048098803
86	0x3d255373	0.040362787
87	0xbd011500	-0.031514168
88	0xbb3945ae	-0.0028270292
89	0xbddfd57d	-0.109293915
90	0xbdf34275	-0.1187791
91	0xbe259f2f	-0.16174005
92	0xbd5335c5	-0.05156495
93	0x3e4ab4dd	0.19795556
94	0x3de1f369	0.11032755
95	0xbcbe58e9	-0.023235755
96	0xbe2866ae	-0.16445419
97	0x3dc1a1f8	0.09454721
98	0xbe3fa8d7	-0.18716751
99	0x3e5ad7a5	0.21371324
100	0x3beaeac6	0.0071691005
101	0x3e1b3375	0.15156348
102	0xbc8b2fc0	-0.016990542
103	0x3df6f46f	0.12058341
104	0x3dc14d00	0.09438515
105	0xbd472a2b	-0.0486242
106	0x3d579e8e	0.052641444
107	0x3e3a6331	0.18201901
108	0x3db51073	0.08841028
109	0xbe65be62	-0.22435907
110	0xbdcf46fd	-0.10120962
111	0xbd97d0a2	-0.074128404
112	0x3c15f63d	0.009152946
113	0x3e31a1db	0.17346899
114	0x3e3ebbd9	0.18626346
115	0x3e71a3f0	0.23597693
116	0xbd2dddb8	-0.042447776
117	0x3e427963	0.18991618
118	0xbdedcdfa	-0.116115525
119	0x3dd1251b	0.102121554
120	0x3e532c2e	0.20622322
121	0x3e48b78c	0.19601268
122	0xbd959819	-0.07304401
123	0xbe27d3de	-0.16389415
124	0xbe33529d	-0.17511983
125	0xbe29ebc1	-0.16593839
126	0xbe0e1f03	-0.13879018
127	0x3c924894	0.017856874

net.4.bias f4 [2]
0	0x3d05129a	0.032488443
1	0xbc76bb63	-0.015059325

exp_avg f4 [64, 4]
0	0x392f2038	0.00016701303
1	0x34da9fd8	4.0721966e-07
2	0x3611a358	2.1701762e-06
3	0xb801e432	-3.096852e-05
4	0xb988fed9	-0.00026129818
5	0xb87003fd	-5.7224173e-05
6	0xb759279c	-1.294343e-05
7	0x38d30566	0.000100622696
8	0xb958c6ae	-0.00020673379
9	0xb76e5035	-1.420458e-05
10	0xb8b8fc0a	-8.82075e-05
11	0x3979b679	0.00023814467
12	0x399fcaf9	0.0003047807
13	0x3a6fbea5	0.0009145535
14	0x39e37dde	0.00043390592
15	0xb9ec47b7	-0.0004506686
16	0xb6302db9	-2.6252658e-06
17	0xba0baecd	-0.00053284765
18	0xb973cec9	-0.0002325132
19	0x398ec97f	0.00027234477
20	0xb94f5fbb	-0.00019776721
21	0xba2fb216	-0.0006702257
22	0xb9858192	-0.00025464274
23	0x3a25292a	0.00063003844
24	0xb8fe6dbe	-0.00012132105
25	0xb913f408	-0.00014109921
26	0xb8740cb2	-5.8185957e-05
27	0x38b14c34	8.454212e-05
28	0xb69b8766	-4.6351224e-06
29	0xb7780a0d	-1.4784292e-05
30	0xb823db13	-3.9066257e-05
31	0x37f8aa76	2.964328e-05
32	0x396dfcc9	0.00022696251
33	0xb787ddec	-1.6196595e-05
34	0xb64475cc	-2.9274843e-06
35	0xb64b7de4	-3.0322635e-06
36	0x3875bad8	5.8586564e-05
37	0x38baa272	8.899429e-05
38	0x366afa85	3.5014539e-06
39	0xb8189d9c	-3.638641e-05
40	0xb983d9e9	-0.00025148623
41	0x399c2d19	0.0002978824
42	0x392fd073	0.00016766954
43	0xb92019b7	-0.00015268369
44	0x395fa6a6	0.00021329019
45	0x3a2f9043	0.0006697217
46	0x39848610	0.00025276886
47	0xb9abc1cb	-0.0003276005
48	0x380b3e1e	3.3198034e-05
49	0xb7209eaf	-9.57369e-06
50	0xb72acb45	-1.0180117e-05
51	0x373d42b9	1.1280813e-05
52	0xb928f738	-0.00016113825
53	0x3998e58c	0.00029162725
54	0x3979f6a8	0.00023838377
55	0xb91bcb89	-0.00014857775
56	0x353dbede	7.0685735e-07
57	0xb98f557f	-0.00027338785
58	0xb927291f	-0.0001594168
59	0x391cac90	0.00014941604
60	0x398de540	0.0002706442
61	0xb9a675e1	-0.00031749814
62	0xb9217b27	-0.00015400034
63	0x38d413b0	0.00010112615
64	0x3899ec9f	7.3396826e-05
65	0xb7a48ddc	-1.9616382e-05
66	0xb863b414	-5.428873e-05
67	0x38423f3b	4.6312092e-05
68	0x38992e44	7.304226e-05
69	0x39c478de	0.00037474086
70	0x38b39bd2	8.564409e-05
71	0xb90a1b87	-0.0001317096
72	0x39c8ccab	0.00038299462
73	0xb8856a14	-6.361693e-05
74	0xb9003b76	-0.00012229182
75	0x38fc1ae3	0.000120213044
76	0xb910eb3c	-0.00013820542
77	0xb8f5bcaa	-0.00011717652
78	0xb720b5f6	-9.579109e-06
79	0x36a55b75	4.92803e-06
80	0xb843d012	-4.6685404e-05
81	0x39700898	0.00022891385
82	0xb89c2449	-7.445418e-05
83	0x38ff1648	0.00012163498
84	0x396a759d	0.00022359793
85	0x38c9a2c0	9.6147414e-05
86	0x3736dfa2	1.0900114e-05
87	0xb827e21c	-4.0026483e-05
88	0xb68ad769	-4.1377975e-06
89	0xb8f0971b	-0.000114722374
90	0xb8befa3d	-9.1065165e-05
91	0x38ad09a5	8.251079e-05
92	0xb88412c7	-6.297748e-05
93	0xb993c091	-0.00028181498
94	0xb8f8be4d	-0.00011861008
95	0x392c4e50	0.00016432372
96	0x3988d6f2	0.00026100088
97	0xb88ac3d9	-6.616832e-05
98	0xb8f49a53	-0.00011663572
99	0x38fc514d	0.0001203144
100	0x39b537c1	0.0003456455
101	0x37bcf2a2	2.2524331e-05
102	0x38834cf5	6.260901e-05
103	0xb8be9e8f	-9.08944e-05
104	0x374b3996	1.2113151e-05
105	0x3815862a	3.564932e-05
106	0x378ebb3e	1.701491e-05
107	0xb5d8085d	-1.6095688e-06
108	0xb846740b	-4.7314952e-05
109	0x388b23b6	6.634688e-05
110	0xb7abfac2	-2.0501557e-05
111	0x371ac909	9.225922e-06
112	0xba22314d	-0.0006187156
113	0xba32ddfc	-0.00068232394
114	0xb9687c7c	-0.00022171618
115	0x39d1680f	0.00039941116
116	0x39ce0f64	0.0003930285
117	0x38c4029a	9.346493e-05
118	0x38b0bd0e	8.427548e-05
119	0xb90c5708	-0.00013383862
120	0x38161117	3.5778703e-05
121	0xb6fcf212	-7.538366e-06
122	0x36c8c424	5.9832983e-06
123	0xb7c2e831	-2.3234725e-05
124	0x38434e7f	4.6564728e-05
125	0xb8e92872	-0.00011117839
126	0xb81025cc	-3.4367476e-05
127	0x38443f38	4.678892e-05
128	0xb8fd8986	-0.00012089596
129	0x39abbba0	0.00032755453
130	0x38266651	3.9672774e-05
131	0xb967c9b4	-0.00022105017
132	0xb9814ef6	-0.00024663628
133	0x38cc2570	9.734451e-05
134	0x391def90	0.00015061931
135	0xb8699a6b	-5.5695342e-05
136	0x34656236	2.1363016e-07
137	0xb720c262	-9.582001e-06
138	0x354ec908	7.703352e-07
139	0x3700efe2	7.685247e-06
140	0xb940c527	-0.00018383992
141	0xb9c63f7b	-0.000378128
142	0xb8b6bd66	-8.7137145e-05
143	0x392f34ad	0.00016708924
144	0x37aabb93	2.0352925e-05
145	0x37e14285	2.6853066e-05
146	0xb57ae61c	-9.346711e-07
147	0xb6dd843e	-6.6017083e-06
148	0xb932ffd5	-0.00017070708
149	0x3854ac39	5.0705134e-05
150	0x38be0cb1	9.06227e-05
151	0xb89d414f	-7.498508e-05
152	0x35845eec	9.862392e-07
153	0x35b068a7	1.314348e-06
154	0x32db5de5	2.5537654e-08
155	0xb5379548	-6.8390045e-07
156	0x37c1b273	2.309049e-05
157	0x38e249c8	0.000107902626
158	0x3879c2ca	5.9547638e-05
159	0xb872bb82	-5.7871926e-05
160	0x39be0649	0.00036244307
161	0x3a4a5a75	0.00077191676
162	0x398362e1	0.00025059938
163	0xb92d558a	-0.00016530431
164	0xb96234a8	-0.00021572656
165	0x385d2c2a	5.2731637e-05
166	0x38a1ae42	7.709536e-05
167	0xb81b11f8	-3.6971614e-05
168	0xb8e1b055	-0.000107616805
169	0x3a27dc2c	0.00064033526
170	0x395e4a5d	0.00021199272
171	0xb95c802f	-0.00021028587
172	0xb8330e52	-4.2690262e-05
173	0xb59dd1bc	-1.1758452e-06
174	0x36ad82d1	5.171031e-06
175	0x36097f0f	2.0488549e-06
176	0xb9b39c41	-0.0003425796
177	0xb9134357	-0.00014044098
178	0xb6fe8684	-7.5854496e-06
179	0x38ba7ecc	8.892789e-05
180	0x38b54e39	8.645323e-05
181	0x3924e4c5	0.00015725482
182	0x39115337	0.00013859278
183	0xb8c6dfd0	-9.483064e-05
184	0xba0965cb	-0.00052413036
185	0xb8bc2791	-8.9719084e-05
186	0xb8a8c33f	-8.047232e-05
187	0x38e5e839	0.00010962826
188	0xb8dd0e58	-0.00010540773
189	0xba105de9	-0.0005507158
190	0xb9a5f333	-0.0003165245
191	0x3982033e	0.00024797948
192	0xb8f86d5c	-0.00011845931
193	0x37b4ea67	2.1566824e-05
194	0xb890a5f1	-6.897364e-05
195	0x397e2a5e	0.0002423911
196	0xba1e1b73	-0.0006031312
197	0xba950c7d	-0.001137152
198	0xb99eb010	-0.00030267285
199	0x39c62eb4	0.000378003
200	0x3836a44f	4.3545206e-05
201	0x37baa312	2.2248863e-05
202	0x3710cf1c	8.63129e-06
203	0x369a3c3f	4.596571e-06
204	0x3880be5d	6.1389735e-05
205	0x39441876	0.00018701129
206	0x38dc6a70	0.00010510243
207	0xb8be685f	-9.079347e-05
208	0x39091f91	0.00013077098
209	0x3a6088dc	0.00085653155
210	0x39609d64	0.00021420937
211	0xb9449f1d	-0.00018751291
212	0xb7babfa3	-2.2262166e-05
213	0xb9444530	-0.00018717791
214	0xb8be939f	-9.0874026e-05
215	0x38e81406	0.00011066352
216	0x395b5b72	0.00020919534
217	0x38131bbb	3.5073357e-05
218	0x378d00a6	1.6808812e-05
219	0xb7bb11b1	-2.2300375e-05
220	0xb9599d28	-0.00020753278
221	0xba0c2d96	-0.0005347369
222	0xb995bc25	-0.00028559673
223	0x39a95529	0.0003229764
224	0xb87add59	-5.981079e-05
225	0xb83c30e2	-4.486822e-05
226	0x368d812a	4.217164e-06
227	0x37b7625d	2.1861104e-05
228	0xba2f5580	-0.00066884607
229	0xb8dbe3c0	-0.000104851555
230	0xb7ac75b4	-2.0558808e-05
231	0x38e72b87	0.00011023046
232	0xb955ff86	-0.00020408453
233	0xb806f130	-3.2172713e-05
234	0xb7611777	-1.3416508e-05
235	0x37e631ab	2.7441265e-05
236	0xb7b23220	-2.1242595e-05
237	0xb792e77a	-1.7512346e-05
238	0x364e6d0f	3.0759873e-06
239	0x36bdb068	5.6531753e-06
240	0x38429043	4.638756e-05
241	0x3a0801f2	0.0005188278
242	0x393c2a5c	0.00017944857
243	0xb96f7a9a	-0.00022838489
244	0x396d2e24	0.0002261927
245	0x3989717a	0.00026215223
246	0x383d95a9	4.5200493e-05
247	0xb8cf66af	-9.8896555e-05
248	0x37ba1cf7	2.2186416e-05
249	0x38db8bd7	0.00010468781
250	0xb8427e4c	-4.6370827e-05
251	0x391252a2	0.00013954428
252	0xba8cffd9	-0.0010757401
253	0xb9651fcc	-0.00021850987
254	0xb8825b45	-6.215883e-05
255	0x38859063	6.368828e-05

exp_avg_sq f4 [64, 4]
0	0x341a6973	1.438073e-07
1	0x33cf1e1f	9.6446676e-08
2	0x30b972af	1.3493117e-09
3	0x322801ea	9.779322e-09
4	0x35558677	7.9544355e-07
5	0x34e48334	4.2563772e-07
6	0x32439d4a	1.1386257e-08
7	0x33ab46d5	7.975692e-08
8	0x3687fafc	4.052532e-06
9	0x364adda5	3.022936e-06
10	0x3329199d	3.9371674e-08
11	0x34c3f143	3.649712e-07
12	0x37cdca18	2.4532012e-05
13	0x37375707	1.0927913e-05
14	0x34dedf64	4.151326e-07
15	0x35adfcc9	1.2963075e-06
16	0x36bd956a	5.650033e-06
17	0x365514cd	3.175158e-06
18	0x340ad623	1.2930154e-07
19	0x350d9ea9	5.2757474e-07
20	0x376a6a87	1.397229e-05
21	0x36d748e7	6.4159863e-06
22	0x343ecc6c	1.7769497e-07
23	0x355cd30c	8.22635e-07
24	0x35a6a9a2	1.2417333e-06
25	0x35594f5e	8.0954294e-07
26	0x32a07044	1.8677504e-08
27	0x33d9d562	1.0143664e-07
28	0x34d999a4	4.0531188e-07
29	0x349b10d9	2.8883258e-07
30	0x32c79f5a	2.3239114e-08
31	0x341cb574	1.4594644e-07
32	0x354f01aa	7.711593e-07
33	0x341624e1	1.3983255e-07
34	0x312dab94	2.5272344e-09
35	0x326e1ddb	1.3860212e-08
36	0x349e9ad2	2.954244e-07
37	0x340aafe2	1.2916237e-07
38	0x30971893	1.099368e-09
39	0x322a804b	9.924473e-09
40	0x368b41f9	4.150203e-06
41	0x35d5f26b	1.594029e-06
42	0x339d78a4	7.3328266e-08
43	0x348b461d	2.5941782e-07
44	0x3733440b	1.0685074e-05
45	0x3698aef8	4.550322e-06
46	0x345fdf5f	2.0849755e-07
47	0x3561faae	8.418382e-07
48	0x3362e736	5.283001e-08
49	0x33235074	3.8024567e-08
50	0x30c800fb	1.4552194e-09
51	0x330b9d43	3.2506488e-08
52	0x36aed046	5.2098503e-06
53	0x36679e4b	3.451382e-06
54	0x3409a2e5	1.281838e-07
55	0x34e82e7a	4.3247184e-07
56	0x36809551	3.83208e-06
57	0x35c760c8	1.4854822e-06
58	0x338c687b	6.538263e-08
59	0x3465c6be	2.1399589e-07
60	0x36a611ee	4.949273e-06
61	0x35d4214e	1.5804924e-06
62	0x33653d50	5.337398e-08
63	0x345bc8d0	2.046902e-07
64	0x3506792e	5.009523e-07
65	0x34d48bda	3.9589833e-07
66	0x333621ce	4.2405922e-08
67	0x34a59152	3.083938e-07
68	0x35d7f091	1.6088762e-06
69	0x3508cc35	5.096111e-07
70	0x33133511	3.427437e-08
71	0x341e8941	1.476483e-07
72	0x35d584bd	1.5908369e-06
73	0x3594d579	1.1088988e-06
74	0x335ac4e3	5.0936148e-08
75	0x348864d5	2.540534e-07
76	0x35273c6a	6.230026e-07
77	0x34b5f76e	3.3893906e-07
78	0x31861fd6	3.9035326e-09
79	0x32ed0470	2.759245e-08
80	0x3698ffe0	4.559741e-06
81	0x3618058a	2.265299e-06
82	0x334de2cb	4.793655e-08
83	0x3485d2b8	2.4926499e-07
84	0x34b04beb	3.2837792e-07
85	0x33b29975	8.3166846e-08
86	0x30a6c1ce	1.2133172e-09
87	0x32430bb1	1.1353152e-08
88	0x3551ead5	7.820029e-07
89	0x34d8abad	4.0358046e-07
90	0x32ca18bb	2.3527141e-08
91	0x341eb378	1.4780187e-07
92	0x36a69791	4.96483e-06
93	0x35b1607e	1.3215611e-06
94	0x3365b779	5.3485085e-08
95	0x344663ec	1.8476538e-07
96	0x359a8665	1.1513008e-06
97	0x35555b38	7.9481424e-07
98	0x334b40e8	4.7323653e-08
99	0x34a2a84d	3.0297306e-07
100	0x36789cb7	3.70461e-06
101	0x35dcf3c0	1.6462218e-06
102	0x32b82bb7	2.1440298e-08
103	0x348027ae	2.387073e-07
104	0x3316e23e	3.5130363e-08
105	0x32a7f112	1.9550985e-08
106	0x3031a7a4	6.4630457e-10
107	0x3240930a	1.1209304e-08
108	0x35811ec4	9.620203e-07
109	0x352de301	6.4777856e-07
110	0x32ae5fd8	2.029985e-08
111	0x33e4b1aa	1.0649394e-07
112	0x375a933a	1.3028091e-05
113	0x36b88f5d	5.500317e-06
114	0x3438bd2c	1.7205156e-07
115	0x35294ae6	6.30664e-07
116	0x3696f319	4.4986487e-06
117	0x363707c5	2.7273647e-06
118	0x332d136d	4.029737e-08
119	0x34d403e2	3.9490902e-07
120	0x32cebbef	2.4067019e-08
121	0x32290b84	9.839713e-09
122	0x2efa9960	1.13959286e-10
123	0x30c03414	1.398464e-09
124	0x34c215f5	3.6151292e-07
125	0x3420fc9a	1.4993057e-07
126	0x323c16c2	1.0948215e-08
127	0x340b4af6	1.2972654e-07
128	0x36883615	4.059412e-06
129	0x363a2524	2.7737779e-06
130	0x334d529c	4.7805415e-08
131	0x348420f2	2.4610887e-07
132	0x35e1ffa0	1.6838203e-06
133	0x35b50419	1.3486743e-06
134	0x33294126	3.940763e-08
135	0x34577961	2.0067593e-07
136	0x3350d95c	4.862646e-08
137	0x32265096	9.680795e-09
138	0x2f0ab101	1.2613911e-10
139	0x308a98f0	1.0084289e-09
140	0x359d2576	1.1708314e-06
141	0x34b2ff40	3.3340802e-07
142	0x329e83e5	1.84536e-08
143	0x33a09acf	7.47874e-08
144	0x31a81f3f	4.892996e-09
145	0x31f66a5b	7.1716335e-09
146	0x2e90a1a5	6.577076e-11
147	0x308ac169	1.0095792e-09
148	0x35547ba8	7.91561e-07
149	0x35077cdb	5.047311e-07
150	0x3297bb7e	1.7663975e-08
151	0x3387a651	6.31668e-08
152	0x335c1c74	5.124862e-08
153	0x32e5d499	2.6755787e-08
154	0x2ebe36ca	8.649932e-11
155	0x3100c355	1.8737485e-09
156	0x34bb3703	3.487149e-07
157	0x3422acfe	1.515036e-07
158	0x3191d493	4.2442223e-09
159	0x32a965cd	1.9720483e-08
160	0x371e4f78	9.436037e-06
161	0x36463ea8	2.954077e-06
162	0x33e9216c	1.08559874e-07
163	0x34d92b4e	4.0450908e-07
164	0x34d243dc	3.9164922e-07
165	0x34b13bb4	3.301226e-07
166	0x32299a1f	9.872138e-09
167	0x334cc0e3	4.767288e-08
168	0x374b8841	1.2131467e-05
169	0x369bea1d	4.6466143e-06
170	0x3464cd52	2.130885e-07
171	0x3538e613	6.8880144e-07
172	0x32f37da1	2.8346053e-08
173	0x32da6413	2.5424049e-08
174	0x310f6054	2.0863995e-09
175	0x328de8d1	1.6520433e-08
176	0x3596e983	1.1243832e-06
177	0x349fe3ab	2.9781708e-07
178	0x31c956c0	5.8597323e-09
179	0x32fdf222	2.9563186e-08
180	0x36c17334	5.7652596e-06
181	0x35d26c49	1.5677734e-06
182	0x33ae6e6d	8.122593e-08
183	0x34c3bd74	3.6459426e-07
184	0x36958f84	4.4572535e-06
185	0x363cf837	2.8158663e-06
186	0x330c7966	3.27067e-08
187	0x34605f15	2.0896216e-07
188	0x37600148	1.3351739e-05
189	0x36c1dc7a	5.777515e-06
190	0x348077d3	2.3929042e-07
191	0x35602afa	8.350904e-07
192	0x369eaa86	4.7286185e-06
193	0x3606d18c	2.0089528e-06
194	0x332f3903	4.0797214e-08
195	0x3494eeee	2.7740992e-07
196	0x37a54fb7	1.9706653e-05
197	0x36ff3b27	7.6064784e-06
198	0x34bb4dce	3.4888075e-07
199	0x35a734b5	1.2457809e-06
200	0x338e1a4f	6.617176e-08
201	0x3314f1fb	3.4679015e-08
202	0x313e2d63	2.7674438e-09
203	0x337373df	5.668323e-08
204	0x35f7884b	1.84426e-06
205	0x352fbfc7	6.5471653e-07
206	0x32d262da	2.449217e-08
207	0x33cf2e51	9.6476136e-08
208	0x373bd273	1.1195068e-05
209	0x36832f07	3.909579e-06
210	0x3434b064	1.6827977e-07
211	0x351dc25e	5.87699e-07
212	0x35d7f831	1.6090981e-06
213	0x3526e74e	6.217641e-07
214	0x32f9df58	2.908898e-08
215	0x33db28db	1.0205414e-07
216	0x35a01391	1.1926624e-06
217	0x356cd868	8.8231764e-07
218	0x3202ed6e	7.620981e-09
219	0x340cc519	1.311022e-07
220	0x3727cafb	1.0001236e-05
221	0x368d7653	4.215902e-06
222	0x3416cbdb	1.4044001e-07
223	0x35087aab	5.0842453e-07
224	0x330d65e4	3.292179e-08
225	0x31feb0b9	7.412464e-09
226	0x2ecc9bee	9.3045446e-11
227	0x30994a38	1.1153309e-09
228	0x35a2ea9f	1.2138224e-06
229	0x3530a1bb	6.580046e-07
230	0x3228e641	9.831241e-09
231	0x33778b1a	5.763568e-08
232	0x35633642	8.4643045e-07
233	0x343a106a	1.7328571e-07
234	0x31978222	4.409473e-09
235	0x32ac1433	2.0032621e-08
236	0x331d3091	3.6598582e-08
237	0x32873527	1.574024e-08
238	0x2f68c522	2.1170313e-10
239	0x321dd6a5	9.187407e-09
240	0x369fe166	4.764809e-06
241	0x35e26af7	1.6869443e-06
242	0x33b36d42	8.355211e-08
243	0x349bbd51	2.9008746e-07
244	0x368eab6a	4.251885e-06
245	0x359956fa	1.1424702e-06
246	0x3313e1d6	3.44315e-08
247	0x345e366d	2.0695161e-07
248	0x36b54f63	5.403462e-06
249	0x36674bb9	3.4465759e-06
250	0x338a9051	6.452377e-08
251	0x34d5fccc	3.9858276e-07
252	0x36e9536d	6.953653e-06
253	0x3681fb33	3.873743e-06
254	0x3380e06b	6.001286e-08
255	0x34c3db05	3.6480938e-07

exp_avg f4 [64]
0	0xb96ab394	-0.00022382877
1	0xb9133eb0	-0.00014042365
2	0x3abce22f	0.001441067
3	0xbad750a8	-0.0016427236
4	0x3a868187	0.0010261991
5	0x3a0e0e77	0.00054190255
6	0x3a30ba43	0.00067416223
7	0x398590c9	0.0002547561
8	0x392230ca	0.00015467699
9	0x38a9dc10	8.099538e-05
10	0xb989a5db	-0.00026254248
11	0xba9b311f	-0.0011840201
12	0x387363cf	5.802867e-05
13	0xba96602e	-0.0011472756
14	0x3a1ced5a	0.0005986296
15	0x3ab005fb	0.0013429517
16	0x39acc0e5	0.00032950114
17	0xba032f20	-0.00050042756
18	0x3a8892ae	0.001041969
19	0xb8a556e2	-7.883996e-05
20	0x3a151256	0.0005686631
21	0x395058f7	0.00019869568
22	0x39f97141	0.00047577362
23	0x394f95ab	0.00019796814
24	0x3a492920	0.00076736696
25	0xb9ea47c9	-0.00044685442
26	0xb8cb4acb	-9.6937256e-05
27	0x39176cbd	0.0001444099
28	0x3acc5ee3	0.0015592243
29	0xb9054e67	-0.00012713076
30	0xb82c5187	-4.1083924e-05
31	0x38864474	6.402368e-05
32	0xba57dd29	-0.00082345546
33	0xba7394ad	-0.0009291869
34	0xb6077a8f	-2.0187906e-06
35	0x3a147c65	0.0005664288
36	0xb7d2800b	-2.5093575e-05
37	0xba1b4459	-0.00059229654
38	0x358bda4d	1.0419841e-06
39	0xb9851369	-0.00025382199
40	0xbad10887	-0.0015947976
41	0xba14c808	-0.0005675559
42	0xba51d925	-0.00080050743
43	0x38974152	7.212408e-05
44	0xb99ac145	-0.00029517166
45	0xb9b13ab9	-0.00033803823
46	0x39d4f0ff	0.00040615347
47	0x3aaefb44	0.001335003
48	0x3a7aaad9	0.00095622014
49	0x3afd50a4	0.0019326401
50	0xb831f5af	-4.24289e-05
51	0xb9f47ac8	-0.00046630786
52	0xbaa12aa1	-0.001229603
53	0x39d0d1e1	0.00039829224
54	0xb989dae3	-0.0002629376
55	0x3a9f2236	0.0012140933
56	0x3812a3f7	3.4961817e-05
57	0x3a2e9bf5	0.00066608127
58	0xb9031fea	-0.00012505022
59	0x37c68082	2.366328e-05
60	0xba3dfad9	-0.0007247157
61	0x388daeb7	6.755947e-05
62	0x39671c47	0.00022040411
63	0x389b5230	7.4062846e-05

exp_avg_sq f4 [64]
0	0x33d33a9a	9.836113e-08
1	0x3584e5af	9.901613e-07
2	0x368f1db9	4.2651923e-06
3	0x37eab900	2.7981121e-05
4	0x370e93d5	8.498279e-06
5	0x378f63b2	1.7093353e-05
6	0x35a72546	1.2453318e-06
7	0x353b1303	6.9690594e-07
8	0x34799339	2.3243491e-07
9	0x34089166	1.2718883e-07
10	0x3691fdee	4.350898e-06
11	0x374c38e4	1.2172593e-05
12	0x339a113e	7.17432e-08
13	0x370fb94e	8.566609e-06
14	0x368c1280	4.174479e-06
15	0x368b2783	4.1471226e-06
16	0x357fea80	9.5336145e-07
17	0x35eabc1f	1.7489109e-06
18	0x36404a26	2.865339e-06
19	0x34c2ca2c	3.6282415e-07
20	0x36bbae17	5.593301e-06
21	0x342944f1	1.5764432e-07
22	0x359bb31c	1.1600528e-06
23	0x36896672	4.0948444e-06
24	0x36065b65	2.0020755e-06
25	0x365509bc	3.174514e-06
26	0x336e647a	5.5505076e-08
27	0x35977abe	1.1286099e-06
28	0x376b7004	1.4033172e-05
29	0x36acfc26	5.1553534e-06
30	0x32625167	1.317344e-08
31	0x34ef38d7	4.4558575e-07
32	0x3684d46a	3.958635e-06
33	0x365cf0a0	3.2922617e-06
34	0x32754051	1.4275501e-08
35	0x35b0a04b	1.3159673e-06
36	0x3183b98b	3.8336956e-09
37	0x35a805e7	1.2518693e-06
38	0x3267704e	1.3471505e-08
39	0x34e5e924	4.2824206e-07
40	0x372027df	9.546026e-06
41	0x35635263	8.468398e-07
42	0x374fae3e	1.237873e-05
43	0x33914aec	6.765717e-08
44	0x351828df	5.668389e-07
45	0x36a8d86e	5.031986e-06
46	0x367822a0	3.6975034e-06
47	0x37812058	1.539306e-05
48	0x36a42b36	4.8926113e-06
49	0x37beddb0	2.2752996e-05
50	0x33c5ab89	9.2047294e-08
51	0x36019a84	1.9312438e-06
52	0x375c68ba	1.3137405e-05
53	0x35d30432	1.5721946e-06
54	0x358f22aa	1.0664419e-06
55	0x3741c25d	1.154895e-05
56	0x32732591	1.4153003e-08
57	0x358cea9e	1.0499095e-06
58	0x34e0c1ca	4.1864251e-07
59	0x32e21489	2.6319201e-08
60	0x36b1ff59	5.3047374e-06
61	0x363985e3	2.764508e-06
62	0x36c91eb6	5.993842e-06
63	0x36eb7984	7.017692e-06

exp_avg f4 [64, 64]
0	0xb7671885	-1.3774382e-05
1	0x37878375	1.6154469e-05
2	0x36b6a0ce	5.442743e-06
3	0x388700bb	6.437438e-05
4	0x38e54a71	0.00010933437
5	0x38015895	3.0838495e-05
6	0x3784b91a	1.582182e-05
7	0x37df82c4	2.6644564e-05
8	0xb68496d4	-3.9514653e-06
9	0xb6d1e56e	-6.2553945e-06
10	0x3904b041	0.0001265416
11	0x389062df	6.884871e-05
12	0x3718f502	9.116951e-06
13	0x38a2c114	7.7607256e-05
14	0x38dbcb9a	0.000104806575
15	0x37a73fc3	1.9937643e-05
16	0x38bd1223	9.0156005e-05
17	0x35974622	1.1270788e-06
18	0x3818b4c6	3.6407982e-05
19	0xb74e5072	-1.2297287e-05
20	0x37c3f791	2.3361094e-05
21	0xb80f0884	-3.4101788e-05
22	0x3900b64d	0.00012274944
23	0xb7bf579d	-2.2809772e-05
24	0x38afaf25	8.3772735e-05
25	0x371d95a3	9.392769e-06
26	0x38bd4107	9.0243346e-05
27	0x37568dad	1.278838e-05
28	0x3805eef7	3.1932224e-05
29	0x37613cbe	1.3425188e-05
30	0x36d64a83	6.3863713e-06
31	0x3872dad7	5.7901107e-05
32	0xb741d7c5	-1.1553934e-05
33	0x38aefedc	8.344438e-05
34	0x3686043e	3.994005e-06
35	0x37849c13	1.5808304e-05
36	0xb714b9e2	-8.864767e-06
37	0x38f8c0b3	0.000118614545
38	0xb2a15612	-1.8782007e-08
39	0x38fb8862	0.00011994016
40	0x3629097f	2.518849e-06
41	0x38e0634c	0.00010699648
42	0x3868f98d	5.5545523e-05
43	0x379de6b3	1.8823286e-05
44	0xb82718fc	-3.983917e-05
45	0xb7e609aa	-2.7422637e-05
46	0xb7006162	-7.652068e-06
47	0x389b75c6	7.412913e-05
48	0x3797bd3d	1.8088724e-05
49	0x37d9d557	2.596776e-05
50	0x3758d5a5	1.2924346e-05
51	0x38cd82e7	9.799544e-05
52	0x3825b7a8	3.951011e-05
53	0x38a62f60	7.924321e-05
54	0xb7333245	-1.0680936e-05
55	0x37f03eeb	2.8639528e-05
56	0xb6192aae	-2.282362e-06
57	0x3729e303	1.012604e-05
58	0xb79ea627	-1.8912438e-05
59	0xb6002f2c	-1.9100944e-06
60	0x37aab78f	2.0351055e-05
61	0xb86fa70c	-5.7137615e-05
62	0x365ab881	3.2591927e-06
63	0xb73efe46	-1.1384085e-05
64	0xa5261cf3	-1.4408013e-16
65	0x2c843016	3.7570043e-12
66	0xb16361b0	-3.3088376e-09
67	0x1f090c03	2.9020814e-20
68	0xb2354f7f	-1.0553662e-08
69	0xb1c6e0b4	-5.788104e-09
70	0xb0ce7430	-1.5021495e-09
71	0xb0949be1	-1.0812721e-09
72	0xa193260b	-9.971177e-19
73	0x1e50111e	1.1014968e-20
74	0xb226c3eb	-9.707018e-09
75	0xb07add8f	-9.1264324e-10
76	0x2fefaaa6	4.35951e-10
77	0xa9b4a59b	-8.022334e-14
78	0xb2577464	-1.2541111e-08
79	0xb1bffb5e	-5.5874088e-09
80	0xb1ab4517	-4.9846096e-09
81	0xb1643948	-3.3210927e-09
82	0xb1884ee2	-3.967089e-09
83	0xaa1e366f	-1.4052104e-13
84	0xb142402b	-2.826719e-09
85	0x1e70167f	1.2710146e-20
86	0xb2241f61	-9.553191e-09
87	0xb1c576c3	-5.7469562e-09
88	0xb1e14b1b	-6.5569004e-09
89	0x19d5aeaf	2.2094238e-23
90	0xb21c2d45	-9.090688e-09
91	0xaf1131fb	-1.320543e-10
92	0xb1cd7785	-5.979873e-09
93	0x9a0394b3	-2.7210283e-23
94	0x9d04b083	-1.7561309e-21
95	0xb249a9ba	-1.1738331e-08
96	0x1c65100f	7.57905e-22
97	0xaebb614f	-8.521061e-11
98	0x9d437e36	-2.5873285e-21
99	0xb22306c4	-9.489387e-09
100	0x1e5afb0c	1.1592739e-20
101	0xb197e5ad	-4.4207895e-09
102	0x18600230	2.8952426e-24
103	0xb1d13bce	-6.0894996e-09
104	0xa693572c	-1.0223802e-15
105	0xb16e0306	-3.4635277e-09
106	0xb158b0a7	-3.1532552e-09
107	0xa97e16c1	-5.6419066e-14
108	0x2c1215c2	2.0759926e-12
109	0xabc9533c	-1.4305011e-12
110	0xb08568df	-9.70683e-10
111	0xb28633f5	-1.562328e-08
112	0xb12a1faa	-2.4756255e-09
113	0xb213b506	-8.597686e-09
114	0xb155b930	-3.1100846e-09
115	0xb1b1501d	-5.160486e-09
116	0xb0873cf1	-9.839863e-10
117	0xb1ff006a	-7.421524e-09
118	0x1b12f65e	1.2156442e-22
119	0xb2099d5b	-8.010228e-09
120	0x9ddb7fb0	-5.8100843e-21
121	0x2efafa7b	1.1413178e-10
122	0xb0e12010	-1.6380017e-09
123	0xa0bf372a	-3.2393163e-19
124	0xb0a69282	-1.211973e-09
125	0xab02b929	-4.644224e-13
126	0xb14c66a2	-2.9744247e-09
127	0xb0cffcca	-1.5133079e-09
128	0xb7988c6f	-1.8185206e-05
129	0x37a6b096	1.9870971e-05
130	0x375c923b	1.3147069e-05
131	0x38be2c0e	9.068112e-05
132	0x394d5b74	0.00019584392
133	0x387de970	6.0537306e-05
134	0x38204bf1	3.82177e-05
135	0x386a6248	5.588148e-05
136	0xb702b0f0	-7.7898e-06
137	0xb7604a7e	-1.33687845e-05
138	0x392d0edd	0.00016504103
139	0x38df4b76	0.00010647524
140	0x3751c8a4	1.2504086e-05
141	0x38fc980f	0.000120446195
142	0x39282ad5	0.00016037685
143	0x37608a97	1.3383708e-05
144	0x3933f6a7	0.00017162655
145	0xb816e4c3	-3.5975838e-05
146	0x389621a1	7.158821e-05
147	0xb7e2a5e9	-2.7018557e-05
148	0x38340eff	4.292931e-05
149	0xb87f7330	-6.0904014e-05
150	0x395836f4	0.00020619837
151	0xb8671b28	-5.5099983e-05
152	0x391c8973	0.00014928523
153	0x3707f0aa	8.102661e-06
154	0x38f88e1d	0.00011852032
155	0x37c720b1	2.3737872e-05
156	0x388abe3b	6.615786e-05
157	0x37a2b139	1.939443e-05
158	0x374df42b	1.2275802e-05
159	0x3875ca3c	5.8600897e-05
160	0xb7828776	-1.5560287e-05
161	0x3916473f	0.00014331656
162	0x36d8f438	6.4657324e-06
163	0x36099042	2.049856e-06
164	0xb753431e	-1.2592207e-05
165	0x39520bc9	0.00020031551
166	0xb378935a	-5.7876015e-08
167	0x394d891b	0.00019601399
168	0xb7e018e3	-2.671447e-05
169	0x394484a0	0.00018741423
170	0x385aa4f5	5.212888e-05
171	0x37d6d3c1	2.5609394e-05
172	0xb89cc7f0	-7.475901e-05
173	0xb88ed570	-6.8108435e-05
174	0xb79cff80	-1.8715626e-05
175	0x38cacb2f	9.6699565e-05
176	0x381406dc	3.5292338e-05
177	0x380eff60	3.4093275e-05
178	0x37423fd3	1.1578161e-05
179	0x391b934e	0.00014836827
180	0x380c39aa	3.3432305e-05
181	0x390cfc51	0.00013445436
182	0xb800f150	-3.0742318e-05
183	0x384c0f85	4.8651844e-05
184	0xb6c43c03	-5.8482415e-06
185	0x3783b52a	1.5700778e-05
186	0xb81e4b22	-3.774011e-05
187	0xb5d56ac8	-1.5900814e-06
188	0x373b3030	1.1157288e-05
189	0xb8ec35cd	-0.00011263378
190	0x37219e92	9.633268e-06
191	0xb7e75d31	-2.7580742e-05
192	0x2906b2c7	2.990904e-14
193	0x2b04665f	4.703789e-13
194	0xa71da4d7	-2.1877487e-15
195	0x2a0109fb	1.1460964e-13
196	0x2b215137	5.73114e-13
197	0x29c57bc2	8.770026e-14
198	0x26f4405a	1.6948344e-15
199	0x2a492fec	1.7869012e-13
200	0x00000000	0.0
201	0x00000000	0.0
202	0x200cbac5	1.1920258e-19
203	0x2b2913a1	6.00681e-13
204	0x1e851d65	1.409408e-20
205	0x2a8ed635	2.5372903e-13
206	0x262d09f3	6.0034916e-16
207	0x1e5420c8	1.12299656e-20
208	0x2ab5e9f4	3.2314396e-13
209	0x2a8aba5e	2.4643043e-13
210	0x2a606dac	1.9933247e-13
211	0x2827d140	9.315736e-15
212	0x2a9ef86c	2.8238815e-13
213	0x00000000	0.0
214	0x2a82bfe5	2.3225792e-13
215	0x9a925620	-6.052333e-23
216	0x2aab3339	3.0411245e-13
217	0x2aba7a3b	3.3125052e-13
218	0x26b8a0f4	1.2811191e-15
219	0x2ab126f3	3.1468543e-13
220	0xa7198779	-2.1306455e-15
221	0x2aad0fe7	3.0742008e-13
222	0x2a14ab19	1.3204402e-13
223	0x2888d89b	1.519297e-14
224	0x29870968	5.996836e-14
225	0x2ac4315a	3.4850839e-13
226	0x2a8601e3	2.380449e-13
227	0x2a880a36	2.4165538e-13
228	0xa2e2ffe3	-6.1528353e-18
229	0x2aa5756d	2.9391368e-13
230	0x00000000	0.0
231	0x2a892acf	2.4365793e-13
232	0x9a13521f	-3.0465224e-23
233	0x2ac4a320	3.4929785e-13
234	0x1db1c4b4	4.7054896e-21
235	0x2b2f8e6e	6.237015e-13
236	0x00000000	0.0
237	0x2924a75d	3.656048e-14
238	0x2a101fdd	1.2800824e-13
239	0x2819d8f7	8.540253e-15
240	0x2a14c16a	1.3212145e-13
241	0x27e0636f	6.2280295e-15
242	0x265633ce	7.4316373e-16
243	0x2b0e4617	5.0545803e-13
244	0x9cc946ae	-1.3319335e-21
245	0x2a9802b0	2.700249e-13
246	0x2a91f100	2.5924402e-13
247	0x2ab3ddbe	3.1950652e-13
248	0x2a4d78c1	1.8249553e-13
249	0x2a9c7114	2.778963e-13
250	0x9b92e1bb	-2.429955e-22
251	0x2a297cd2	1.5053521e-13
252	0x297bb9ab	5.5894237e-14
253	0x263e656a	6.6056934e-16
254	0x2a5eded0	1.9794865e-13
255	0x29e367d7	1.00988384e-13
