P3/Q3/Batch1000/Lunarlander/checkpoints/pg_LunarLander-v3_last.pth (torch, 95197 bytes, 18 tensors)

net.0.weight f4 [64, 8]
000000 e3 91 14 3d e6 f2 4e 3b 26 3f 90 3d f6 8a 0f 3c
       0.03627194 0.0031577884 0.070432946 0.008761158
000010 bb 72 14 3f 21 02 f0 3e c9 d4 93 be f2 29 8d 3e
       0.57987565 0.46876624 -0.2887328 0.27571064
000020 df 53 b7 bd 6e 26 6b 3e 06 65 19 3d a4 e3 2a 3e
       -0.08951544 0.22963879 0.03744986 0.166884
000030 2f c0 fc be a4 58 2e be 62 8a 17 3e cf 8e 45 3c
       -0.49365374 -0.17026001 0.14798883 0.012057974
000040 02 a7 87 be 25 e5 b3 be 9c 46 36 3e ae f6 11 3e
       -0.26494604 -0.3513576 0.17800373 0.14254257
000050 ce e0 c8 3d 1d 62 73 3e c3 14 e0 bd e5 d3 ab 3e
       0.09808503 0.23767896 -0.1094146 0.335601
000060 23 d0 3a 3c 4b ad 08 be f3 c4 ab be b9 86 d9 be
       0.011402163 -0.13347356 -0.33548698 -0.42485598
000070 a1 60 f3 3e ac 98 cc 3d 5b 57 da 3c 72 c8 b0 3c
       0.4753466 0.09990057 0.026652982 0.021579955
000080 96 42 72 be a8 ea 50 3e 92 ed 77 bd 3e 4a e5 3e
       -0.23658213 0.20402014 -0.0605293 0.44783205
000090 3a 52 95 be 2c 19 6b be 2a 90 99 3d ac 14 58 3e
       -0.29164296 -0.22958821 0.074982 0.21101636
0000a0 cb 04 1f bd e5 c4 a5 3e 8a 7d 3d 3e 5d 4e 59 3d
       -0.03882293 0.3237678 0.1850492 0.05305325
0000b0 de b7 2f be 4c 2c b1 3d d1 6f 28 be d9 70 c4 3e
       -0.17159984 0.08651027 -0.16448905 0.38367346
0000c0 7b 1b b8 3e 4d f5 4e bd b6 38 82 bd 8b 88 a3 3e
       0.35958466 -0.050526906 -0.06358473 0.31940112
0000d0 97 dc a1 3d 66 a0 da be 00 74 24 3e ec 9e aa 3d
       0.07903402 -0.427005 0.16059875 0.08331093
0000e0 89 1f 8f be 8d 7d 49 be ae 04 70 bc ab 6a 65 be
       -0.27953747 -0.196768 -0.014649553 -0.22403972
0000f0 12 46 f6 3e 42 c7 5f be de 9f f1 3b ff e6 f1 3d
       0.48100334 -0.21853355 0.007373794 0.11811637
000100 a0 8e 66 3e e1 14 8e 3e 4b 1b a2 3e cc 95 a4 3c
       0.22515345 0.27750304 0.31661448 0.02009096
000110 7a ae ea be c8 83 ae be 3e 0f 37 be 1c a0 89 3e
       -0.4583624 -0.34084916 -0.17876908 0.26879966
000120 58 36 97 be 79 8d 2a 3e 18 65 8b 3e d7 4c 6b be
       -0.29533648 0.1665553 0.27225566 -0.22978531
000130 c1 8d ab be ab 75 02 3e 9a e6 a1 bd a7 ce 54 3e
       -0.33506587 0.127402 -0.07905312 0.20781957
000140 01 7b 3e 3d 02 5e 32 3e 6b 08 6e 3e 60 70 cb be
       0.046504024 0.17418674 0.23245399 -0.39734173
000150 d7 f6 55 be 45 e8 4b 3e 4f 63 a6 bd 5b 4d 13 bb
       -0.20894943 0.19912823 -0.0812441 -0.0022476527
000160 03 4d 72 3e ce 31 40 3c ad b4 cf 3d af 2a e5 be
       0.2366219 0.011730624 0.10141883 -0.44759127
000170 8f e4 0c bf ec 03 8f be d4 fa 62 3d 14 22 72 3e
       -0.5503625 -0.2793268 0.05541499 0.23645812
000180 f1 44 a7 3e 24 ac 95 3e 67 72 32 be 6a 68 90 3e
       0.32669786 0.29232895 -0.17426454 0.28204662
000190 33 11 08 3c 56 a4 d0 bd 29 89 ab be 37 aa bf bd
       0.008304882 -0.101875946 -0.33503082 -0.09358638
0001a0 66 e1 a9 3e cb cc be be b5 4d ee bc a9 b2 1a 3e
       0.33179778 -0.3726562 -0.029089788 0.15107216
0001b0 57 50 30 bc 2e 6f 45 be 1b 21 a6 3c 49 c1 7f 3e
       -0.010761342 -0.19280693 0.020279458 0.24976076
0001c0 65 3c 86 be a7 c9 6e 3e e6 30 e1 3d 6a 0f c5 3e
       -0.26217952 0.23319112 0.10995655 0.38488322
0001d0 4b be d9 be 60 95 cc be 6c 8e 9e 3e f1 7a c1 3e
       -0.42527995 -0.39957714 0.30968034 0.3778911
0001e0 89 0f 05 3e 7a 19 cd 3d 02 f8 9e bd 26 a8 8e be
       0.12994207 0.10014625 -0.077621475 -0.27862662
0001f0 65 04 03 bf 95 ad d8 be 7b bc 6a 3e 65 d2 fb 3d
       -0.5117858 -0.42319933 0.22923462 0.12295989
000200 b6 b7 03 be 5f 7f 95 be 1d e2 31 be d0 ed be 3e
       -0.12863049 -0.2919874 -0.17371412 0.37290812
000210 28 b2 34 bc 83 c4 6b be 41 f3 92 3e 5f 32 ed 3d
       -0.011028804 -0.23024182 0.28701213 0.11581873
000220 ad 7f b8 be fb de 89 3e af c5 ba be 23 43 dc 3e
       -0.3603491 0.26927933 -0.36478946 0.4301997
000230 23 ba c4 bd 3d a3 33 be 40 fc f0 3b 29 55 ab 3e
       -0.09605815 -0.17542739 0.0073542893 0.3346341
000240 5e fd cd be ea 6e b2 ba a0 ff ba be e0 c3 50 be
       -0.40232366 -0.0013613377 -0.3652315 -0.2038722
000250 51 0a e9 3e c6 bd 88 3e d6 c6 61 3e 8d ce 85 3e
       0.45515683 0.26707286 0.22048506 0.26134148
000260 b0 ff 16 be ec 80 ee bc f0 61 b2 3e 88 19 22 3e
       -0.14745975 -0.02911421 0.34840345 0.15830052
000270 18 04 01 3e 36 ba c8 bd 12 99 90 3e d6 9e af 3e
       0.12599218 -0.09801142 0.28241783 0.3430087
000280 21 a7 86 be 22 83 8c bc a4 21 3f be 2f 81 28 be
       -0.26299384 -0.017152373 -0.18665177 -0.1645553
000290 00 5b a7 3e 16 16 8e 3d 65 11 06 3e 6f e3 0a be
       0.32686615 0.06937806 0.13092573 -0.13563322
0002a0 80 50 51 be fa cb ea 3d 68 cc e9 3c c1 ae 5b 3e
       -0.20440865 0.11464687 0.028539851 0.21453382
0002b0 7d f5 45 3d 32 28 12 3e 72 82 41 3d 53 e7 07 3e
       0.04832982 0.14273146 0.047243543 0.13271837
0002c0 ae 99 3c be 0d 57 b7 3d 9a a3 a6 3e 36 e4 99 be
       -0.18417999 0.089521505 0.32546693 -0.30056924
0002d0 cd eb c3 3d 2d 49 a6 3d cf 55 21 3e 88 83 13 be
       0.0956646 0.08119426 0.1575539 -0.14405644
0002e0 37 61 c2 3d 3b f6 2a 3e da 62 2b 3d 2c d5 c6 3d
       0.094911985 0.16695492 0.04184232 0.09708628
0002f0 6f c6 23 be e1 49 84 3e aa 67 79 be 91 96 80 be
       -0.15993665 0.25837615 -0.24355951 -0.25114873
000300 72 78 e0 3c ac 35 ab 3e a6 3f 4b be 37 46 de be
       0.027401183 0.33439386 -0.19848499 -0.43412945
000310 e3 5e 6f bd 53 fb 49 be c9 ac 38 3e 99 57 53 3e
       -0.0584401 -0.19724779 0.18034662 0.20638885
000320 df 26 12 3e df 8a a4 be 11 ac a6 be cb 86 8f 3d
       0.1427264 -0.321372 -0.3255315 0.070081316
000330 f5 f8 36 be 6a d6 80 3e 6d 31 88 3d d3 bf dd bd
       -0.17868407 0.25163585 0.06650052 -0.10827603
000340 26 1f c3 3d 6c 83 1f 3e 3c 9f 61 be 9e e4 84 3e
       0.095274255 0.15577477 -0.220334 0.2595567
000350 ef f4 97 3e 40 cc df bd 8a 5f 87 be e7 f1 bb be
       0.29679057 -0.109276295 -0.26440078 -0.36707994
000360 5c 3a 98 be f1 4f 71 3c 19 1d 9f 3e 3e df 1a be
       -0.29732025 0.014728532 0.31076887 -0.15124223
000370 5c 11 c9 be cf bc f6 be 68 a7 2d 3e 94 db 31 be
       -0.39271057 -0.48190925 0.16958392 -0.17368919
000380 3d 0a 91 be e7 c5 88 bd 1f 67 82 3d df 5c 97 3d
       -0.28328124 -0.06678372 0.06367325 0.07390761
000390 e6 82 73 3e 0a 86 6d be 68 63 9d be af d6 61 3e
       0.23780403 -0.23195663 -0.30739903 0.22054552
0003a0 ab 17 67 be e4 28 87 3e 98 4c 99 be d4 71 61 be
       -0.22567622 0.26398385 -0.2994125 -0.22016078
0003b0 00 7a 31 3a 15 2c fe 3e 51 a0 95 3e 5e aa b4 bd
       0.00067701936 0.49643007 0.29223874 -0.088215575
0003c0 b5 17 7f 3d a8 16 b4 be 1a e0 ac 3d c1 7c 82 3e
       0.06227847 -0.35173535 0.084411815 0.25485805
0003d0 e4 63 a7 bd e4 ce 51 bd d5 41 bf 3e cc 6c 6e 3e
       -0.081733495 -0.051222697 0.37354913 0.2328369
0003e0 34 38 77 be a0 87 62 3e 5d ad 35 be d9 4e b3 3e
       -0.24142534 0.2212205 -0.17741914 0.35021093
0003f0 95 b3 de 3c 5c c4 09 3d ff 48 d6 bc 57 fd 4a 3e
       0.02718524 0.03363453 -0.026157854 0.19823204

net.0.bias f4 [64]
000000 41 06 8d 3e 1f 95 3d 3d 5b 81 6c 3d 40 1e a3 3e
       0.27543834 0.04628479 0.05774055 0.31859016
000010 de 95 a7 3e 8d ad 49 bd eb 7a 85 3e 7c 1c 68 3e
       0.32731527 -0.049237777 0.2607034 0.22667116
000020 10 53 f0 bc 9b 0c 34 3e 6f 23 90 3e 1d e5 81 3e
       -0.029336482 0.17582934 0.28152034 0.25370112
000030 30 8f c7 bd 32 3f 5c be 13 ac d4 3d 0e 55 8e 3c
       -0.09744108 -0.21508482 0.10384383 0.017374542
000040 67 77 13 3e 9a 20 44 3e a9 f7 99 bd 24 39 3c 3e
       0.14401017 0.19153062 -0.075179406 0.18381172
000050 3e 18 17 3e e8 d6 a6 be 24 2b a8 be 39 e4 b1 be
       0.14755341 -0.32585835 -0.32845414 -0.34744433
000060 45 f5 c7 3e f1 05 9f be 49 7d 66 3e bd 33 47 3e
       0.39054313 -0.3105922 0.2250873 0.1945333
000070 a1 86 9d be 25 35 93 3e 8c 84 21 be bc 25 92 3c
       -0.30766776 0.28751484 -0.15773219 0.017840259
000080 c4 ac 64 be ff aa ad 3e a1 1e be bd 3f ab 83 3d
       -0.2233153 0.33919522 -0.09283186 0.06429147
000090 78 44 08 3e 21 41 27 be 3f cc aa 3d 8b 9d d7 3d
       0.13307369 -0.16333438 0.08339738 0.10528096
0000a0 32 9f f9 bd 1a 8e 1f be 9f a2 1a 3e 6a 3a 8b 3d
       -0.12188567 -0.15581551 0.15101098 0.06798251
0000b0 5e 1f a7 be 3c 32 e0 3d cc 3a 7a 3e 48 d3 e0 3d
       -0.3264112 0.109470814 0.24436492 0.10977799
0000c0 86 f3 95 3d 97 4d aa 3e 92 55 9e bb a8 47 c1 3e
       0.07321839 0.3326232 -0.004831978 0.37749982
0000d0 41 0b 92 3e 77 54 54 be b6 54 1f be 52 52 f3 3d
       0.2852421 -0.20735346 -0.15559658 0.11880936
0000e0 de 1e 78 be 73 96 c8 3d b7 ae bf 3e 04 18 b9 3d
       -0.24230525 0.09794321 0.37437984 0.09037784
0000f0 31 8e 7c bd 92 e1 c0 3e 54 79 c1 3e f5 a0 3b 3e
       -0.06165904 0.37672096 0.3778788 0.18323119

net.2.weight f4 [64, 64]
000000 95 23 6c 3e 17 2e 60 bd 5a aa 5f bd 33 42 68 3e
       0.23060448 -0.054731455 -0.05460582 0.22681503
000010 36 ba bd 3d 31 ff 01 bd 85 9d a9 bb 1e 90 63 3e
       0.092640325 -0.03173751 -0.0051762485 0.22222945
000020 08 2a fa bd 0b f1 30 bd 06 47 12 bd 20 9d 8b bd
       -0.12215048 -0.043198626 -0.035712264 -0.068170786
000030 d9 7d 01 3e d8 06 29 be 77 84 06 be 8f c7 50 bd
       0.12645663 -0.16506517 -0.13136469 -0.050971564
000040 d9 8e ea 3c 2b 1f e0 3d 60 6b 0b 3e 2b ac 65 ba
       0.028632568 0.10943445 0.13615179 -0.0008761312
000050 21 3e 37 3d e6 d2 54 bd bd 3f 0f bd 6d e2 8d 3d
       0.044736985 -0.05195894 -0.034972895 0.06927953
000060 57 de 7b 3d c8 5d 0d bc 95 21 a7 3d c3 be 7b be
       0.061491337 -0.008628316 0.08160702 -0.24584489
000070 bc 3d 32 bc 8e e7 1b 3e d6 43 53 3d b0 c2 cb 3c
       -0.010878976 0.1522505 0.051578365 0.024873108
000080 ee 24 f8 3d 26 a2 1c 3e 4e c9 3e 3d 03 cb 91 bd
       0.12116419 0.1529623 0.046578698 -0.071187995
000090 37 21 65 bd ee 9a ca 3c 60 5f 6a 3e 95 e6 f3 bc
       -0.05593988 0.02473208 0.22887945 -0.029773036
0000a0 2a a7 a2 bb bb 5d 6d bc ba b4 f4 3d dc 0a e4 3c
       -0.004963775 -0.014487679 0.11948533 0.02783721
0000b0 b5 51 e7 bd bd cb cb bd b3 cb df 3d 1a 76 55 3e
       -0.11294881 -0.09950969 0.109275244 0.20845833
0000c0 e4 9b fa bd 50 3f ba 3c 7f 80 25 3e d2 67 a2 3d
       -0.12236765 0.022735268 0.16162299 0.079299584
0000d0 8b db 9a bc 52 ab 4e bd 0e 72 5a 38 e0 1d 9f 3c
       -0.018903514 -0.050456353 5.2081472e-05 0.019423425
0000e0 fb 07 e5 bd 90 ec 1b bd 90 63 82 3a d1 3d 2b 3d
       -0.11183163 -0.0380674 0.0009947885 0.041807
0000f0 47 01 ff 3d 4b fb a1 3d fb e3 d1 bd f5 87 4b be
       0.124514155 0.079092585 -0.10248562 -0.19876082
000100 c9 da fd bd 8d 70 6d bd 32 d7 b6 3c b7 c2 c4 bd
       -0.123952456 -0.057968665 0.02231941 -0.096074514
000110 ee 23 c6 3d 3d 70 86 bd 94 dd 85 bd 78 d6 ca bc
       0.09674822 -0.065643765 -0.06536403 -0.02476047
000120 f2 bb f9 bd 65 13 55 bd d9 23 a1 bd af 31 af 3c
       -0.12194051 -0.05202045 -0.078681655 0.021385996
000130 f4 de 11 3d 4f e1 a9 3c 68 a3 00 3d 82 a4 2b 3d
       0.035613015 0.020737318 0.031405836 0.041904934
000140 65 14 70 3d ae 5c 64 bc 00 1e d9 3d df 36 05 be
       0.0586132 -0.013938112 0.10601425 -0.13009213
000150 38 e6 c4 3d 25 be 6f bd 8c 88 84 bd 06 8c a6 bd
       0.09614223 -0.058530945 -0.06471357 -0.08132176
000160 ba e9 42 3d c6 bb c5 bd 3d f8 96 bd 53 db 2c bc
       0.04758618 -0.096549556 -0.073715664 -0.010550338
000170 6f 58 b0 bd 26 05 e8 3d 8d a7 ee bd 27 27 b7 3d
       -0.08610617 0.11329107 -0.116530515 0.089430146
000180 9d ba 93 3d 9d 80 82 3d 56 55 6e bd 4b 21 a0 3d
       0.07213328 0.06372187 -0.05818685 0.0781885
000190 04 70 63 bc 23 1d c1 bd 9d 81 48 bd 91 5e c6 3d
       -0.013881687 -0.094293855 -0.048951734 0.09686006
0001a0 21 67 4e bd 5d f8 69 3d f6 5e e1 bd ff e9 a8 bd
       -0.05039132 0.057121623 -0.110044405 -0.08247756
0001b0 a2 de 96 bd 69 f1 b1 3c 31 4c 96 bd bb 02 3a bd
       -0.073666826 0.021721559 -0.07338751 -0.04541276
0001c0 5d 5b 96 bd 36 84 71 bd 8d 26 05 be ec 3a 10 3d
       -0.07341645 -0.058963977 -0.13002987 0.035212442
0001d0 cd b2 d5 3c 1e a9 08 bd d2 f8 cc bd d7 0d 8c 3b
       0.026086235 -0.033364408 -0.10008396 0.004274111
0001e0 7f 2e 8e 3d 91 a3 92 bd a0 15 90 bd 7c 33 4d bd
       0.06942462 -0.07160104 -0.07035375 -0.050097927
0001f0 9c 5c c4 bd 7c 27 c9 bd 8b 0f 5e bc 08 dc 11 be
       -0.09587976 -0.09821984 -0.01355351 -0.14244092
000200 54 6a 9b 3d 8e 21 22 3d 6b 8c 98 bd 24 de b7 bd
       0.0758864 0.03958278 -0.074486576 -0.08977917
000210 83 2c e1 bb c9 c8 a7 bd 55 5d 20 bd 39 0e 7e 3d
       -0.0068717613 -0.081925936 -0.03915151 0.062025283
000220 a0 38 24 bd f4 69 76 3d db a0 14 bd 65 6e 36 3d
       -0.040093064 0.06015964 -0.036286216 0.044538874
000230 69 2b 73 bd 91 d2 64 3d 62 c1 02 3e e2 5a 4b bd
       -0.05936757 0.055864874 0.12769082 -0.04964722
000240 6b 94 bf 3d b2 07 25 3d cc 2e 84 3d ec fc 5e bd
       0.0935448 0.040290542 0.06454238 -0.054440424
000250 f5 09 0b be e1 84 63 3d 56 84 9e 3d 44 b8 64 3c
       -0.13578017 0.055546645 0.07740085 0.013959948
000260 e7 cc 8b 3b 6e 1e 21 3d 67 f6 49 bb 9a 7c 87 3d
       0.0042663696 0.03933566 -0.0030817033 0.06615563
000270 e8 28 20 be e6 47 2e bd be cc f0 bc 87 a9 03 be
       -0.15640604 -0.042549036 -0.029394504 -0.12857638
000280 b5 e2 e6 3d 0a 8a dc bd 83 70 87 3d e3 a1 a6 bd
       0.1127371 -0.10768516 0.06613257 -0.08136346
000290 2d 89 fa 3d 54 d6 74 3d 20 73 a1 3c f3 81 fd 3d
       0.122331955 0.05977471 0.019708216 0.123783015
0002a0 10 58 f8 bc 79 1f e0 bd 6d 2e 3e 3d 59 3e a6 bc
       -0.030315429 -0.10943503 0.046430994 -0.020293402
0002b0 c0 b4 bf 3b ba 18 f9 3d 0f 06 eb bc 42 d8 26 be
       0.0058504045 0.12162919 -0.028689412 -0.16293433
0002c0 d0 4d 13 bd ad 0a 99 3d 1c 28 58 3c 31 b9 45 3d
       -0.03596288 0.07472739 0.013193157 0.048272315
0002d0 75 22 15 3d 58 69 aa 3d 3d 6f e1 bc 21 f7 6a 3d
       0.036409814 0.08320874 -0.027518863 0.057364587
0002e0 92 cf 75 3d e1 d7 08 3e 80 5b 7e 3d b1 ee 42 3d
       0.060012408 0.13363601 0.06209898 0.047590915
0002f0 ec 61 e2 bd 51 7c a5 bd b4 ff 6c bd 70 4f 07 3e
       -0.11053833 -0.08080352 -0.057861045 0.13213897
000300 86 1e e8 bd d6 ae 9e bd 54 19 af bd d5 48 d7 bd
       -0.11333947 -0.07748191 -0.08549753 -0.105119385
000310 dd 6e c2 bd 56 bf 2a 3d 4a 1f 61 be 55 10 61 3d
       -0.09493802 0.04168638 -0.21984592 0.054947216
000320 d9 f0 b5 3d 85 38 0a bd ec 62 8c 3d 1d 69 f7 3d
       0.08883829 -0.033745307 0.06854805 0.12080596
000330 89 53 c2 bd a2 d2 a5 bd 44 fb 76 bc 00 8b e1 3d
       -0.09488589 -0.08096816 -0.015074555 0.1101284
000340 e5 bc 5e be 65 71 eb bc 24 e1 03 3d 8f 0f 61 3c
       -0.21751745 -0.028740594 0.032197133 0.01373662
000350 02 ad b2 3d 5c 84 6e bd 7c 6a 55 bd 33 ce 4f 3d
       0.08724405 -0.058231696 -0.052103505 0.050733756
000360 ca 52 80 bd ec 67 2e 3d 1f 4c 34 3d 85 6d 88 3e
       -0.06265791 0.042579576 0.044017907 0.26646057
000370 32 0c 02 3e 2c 77 ee 3d b8 af 2b 3b 44 70 c8 bd
       0.12699965 0.11643824 0.0026197266 -0.09787038
000380 31 9a 96 3d bc 78 16 3e 01 3b a3 bd 89 a3 43 3e
       0.073536284 0.14694494 -0.079702385 0.19105352
000390 56 27 9f bd a9 ec 64 bd 26 c7 2a 3d 99 30 11 be
       -0.077711746 -0.05588976 0.04169383 -0.14178695
0003a0 00 ef 50 3d 7a df 8d bd 68 7e 07 3d 6a 99 3b bd
       0.05100918 -0.069273904 0.033079535 -0.045800604
0003b0 75 5d a0 bc 7c 9d cd 3d 66 ba 53 bd 0a 1a 14 be
       -0.019575814 0.100398034 -0.051691435 -0.14463058
0003c0 c7 27 24 be c4 5d 3c 3e e9 e2 b1 3d 5d e6 2c 3d
       -0.16030799 0.18395144 0.08685858 0.04221188
0003d0 bb 91 3a 3e f9 ce f8 3d c3 41 03 3e 48 be 9f 3d
       0.18219654 0.12148852 0.12818055 0.07799965
0003e0 80 89 76 3c 00 e4 1e 3e 78 65 6d 3d 38 ab 38 bd
       0.015047431 0.15516663 0.057958096 -0.045085162
0003f0 c9 59 08 bd 17 a7 07 bd 1a 72 37 3e 9c 1b 6f 3e
       -0.03328875 -0.033118334 0.1791462 0.23350376

net.2.bias f4 [64]
000000 70 9f 7e bd 19 22 38 3d 49 76 71 bc df 82 15 3e
       -0.06216377 0.044954393 -0.014737674 0.14600705
000010 91 98 e1 bd 76 23 0c be a8 ee 0f 3d 3b ac 05 bc
       -0.11015428 -0.13685402 0.03513971 -0.008158739
000020 4f 45 96 3d 30 d3 08 3e f8 13 0f 3e 94 b5 e3 bd
       0.07337438 0.13361812 0.13972461 -0.11118618
000030 de ae 0b be 7e ff cc 3d 9f 1e 1e ba f2 0a d0 3d
       -0.13640925 0.10009669 -0.00060317846 0.10158338
000040 72 fb 3d 3d 3f 74 f5 bb 62 17 e8 3d a4 e3 db 3d
       0.046382375 -0.0074906643 0.11332585 0.107367784
000050 42 2c 9b bd a0 55 fd bd d6 e9 97 3b 88 e7 21 bd
       -0.07576801 -0.12369847 0.0046360297 -0.039527446
000060 72 bb b3 bd ee 95 33 3e 90 b1 98 3c 2e 11 0f 3d
       -0.08775987 0.17537662 0.018639356 0.034928493
000070 21 86 13 3e 19 45 8a 3d f7 5d 7e bd c4 88 d1 3b
       0.14406635 0.067514606 -0.06210133 0.0063944776
000080 d8 44 de bc ed 67 20 3d 16 11 35 3c 45 3a ca bd
       -0.027132437 0.03916161 0.011051437 -0.09874395
000090 55 27 93 bd 25 f3 3a bd 6e d0 a7 3b ff da d4 3b
       -0.07185236 -0.045642037 0.0051212823 0.006495833
0000a0 97 b0 26 bc 99 76 b3 3d bc bc a9 bd 3c aa 76 bd
       -0.010173938 0.08762855 -0.08287951 -0.060220942
0000b0 cb f4 c8 bc d4 12 c2 bd 0f 47 f3 3d 84 c9 a0 bc
       -0.024530789 -0.094762474 0.11878788 -0.01962734
0000c0 a8 08 09 3c 4b 7d ff 3d 42 70 00 3e cd 50 bc 3d
       0.00836388 0.124750696 0.12542823 0.09195099
0000d0 1f 62 7c 3d 05 9f 3e 3d 9c 52 0e bd b6 03 e8 3c
       0.061617013 0.04653837 -0.03474675 0.028322082
0000e0 10 b9 9b 3d f8 80 77 3c 57 51 e9 bd 44 58 d5 bc
       0.07603657 0.015106432 -0.113924675 -0.026043065
0000f0 a7 5e 1c 3d 07 c3 a3 3d 2b 39 45 3d e7 84 29 3e
       0.038176205 0.07996183 0.048150223 0.16554604

net.4.weight f4 [4, 64]
000000 b5 3c 8b bd bf 57 00 3d cd 5d 87 3d f9 64 03 bd
       -0.06798688 0.03133368 0.06609688 -0.032078717
000010 8b 90 ca 3c 76 5c 84 bd c3 e5 84 bd 88 8f cc 3d
       0.024727127 -0.06462948 -0.06489136 0.09988314
000020 18 ed 2a 3d 0e 56 01 3d 51 a1 eb 3c db 18 b9 3b
       0.041730016 0.03157621 0.028763445 0.005648715
000030 4c 05 ef bd 3a 05 2c be 6d 8f a5 bd 17 76 93 3d
       -0.11670932 -0.16798869 -0.08083997 0.07200258
000040 a7 32 93 39 48 6f e5 bd 3c 85 3b 3d be 61 f1 bd
       0.00028075764 -0.11202866 0.04578136 -0.11786221
000050 e0 3b 83 3b 00 32 fc 3a 84 bb ce bb 96 ac 79 3d
       0.0040049404 0.0019240975 -0.0063089747 0.060955606
000060 40 f4 fa 3b ae 82 4c be b5 6c da 3c f1 ec ed 3d
       0.0076585114 -0.19971725 0.026663164 0.116174586
000070 5b f9 3e 3e 79 63 ea bd a7 b9 93 3b 70 cc 3e be
       0.18649809 -0.11444754 0.0045082155 -0.18632674
000080 12 a2 2b bd e7 fa 33 bd 44 a8 4b 3d 98 c6 af 3d
       -0.04190261 -0.04394045 0.049721017 0.085828006
000090 6a 3b 6f bd d0 14 0e bc 6f d9 3b be 2f c4 85 3d
       -0.05840627 -0.008671954 -0.18344663 0.0653156
0000a0 71 1c 99 3c fd 3c f9 bc 23 ec f6 3d 22 22 11 bd
       0.01869032 -0.03042459 0.12056758 -0.035432942
0000b0 55 f4 09 3b 11 a7 36 3d 46 e6 4c 3d 46 bb ac bd
       0.0021050174 0.04459292 0.050024293 -0.08434157
0000c0 c6 60 f3 bb 71 69 ef 3d 97 e7 b2 bd 88 04 91 3d
       -0.007427308 0.11690033 -0.087355785 0.070809424
0000d0 eb 41 9d 3c 16 fc e1 bc 70 bc 4a bd fb 55 07 3c
       0.019196471 -0.027586024 -0.049496114 0.008260245
0000e0 1e 10 21 3e 95 e5 0c 3d 16 4b d1 3d ac 25 82 bd
       0.15728804 0.034398634 0.102194 -0.063548416
0000f0 ba 63 ab bd 45 75 19 3d 8d 09 db bd 62 c7 38 be
       -0.08368631 0.037465353 -0.10695181 -0.18044809
000100 dd 8e 93 be b0 eb 61 bc ff 7b c7 3c c4 f4 9b 3d
       -0.28819934 -0.013789102 0.024351118 0.07615045
000110 0e 20 ad bc a6 ff 28 3c 86 3e 11 3e 28 af 44 3e
       -0.021133449 0.010314858 0.14184007 0.19207442
000120 a1 59 b1 bd 6a 16 db bd 3c 6a 4d be 9c f9 11 3c
       -0.086596735 -0.106976345 -0.20060056 0.008909609
000130 0c f7 a0 bd 10 0f 5e be f5 89 53 3d 39 01 58 be
       -0.078596205 -0.21685433 0.051645238 -0.21094216
000140 13 dd 52 3e 3f e6 cf bc e5 1c 32 3e e9 b8 a8 bd
       0.20592146 -0.025378345 0.17393835 -0.08238394
000150 8c 51 a0 3d a2 66 ef bd a1 45 01 3e 73 b4 94 bd
       0.07828054 -0.116894975 0.12624218 -0.072609805
000160 50 75 4a 3d 59 63 e9 bd af ce 5f bd 6f 99 67 bd
       0.049428284 -0.11395902 -0.05464047 -0.05654281
000170 27 6c 14 3e ea 48 83 be 64 37 a5 bc c4 e6 16 3e
       0.14494382 -0.25641567 -0.020168014 0.14736468
000180 cb ad 62 be 15 01 d9 3d 03 5d 49 bd f5 2b 97 bc
       -0.2213661 0.105959095 -0.04916097 -0.018453578
000190 b6 f6 12 3d 53 f5 8c 3d e7 21 45 3e f4 9f f9 3d
       0.035879813 0.068827294 0.19251214 0.12188712
0001a0 ac 24 51 3e e1 85 19 3d 0d 7b 5a bd d7 92 72 3d
       0.20424145 0.037481192 -0.053340007 0.05922207
0001b0 b1 9d 01 be 40 ab db 3d bc 1b 2c be c3 de 59 3e
       -0.12657811 0.10726023 -0.16807455 0.21276383
0001c0 06 15 81 bd c5 0b 63 3e 13 b9 ec bd bd 8e c3 3d
       -0.06302838 0.22172458 -0.115587376 0.095487095
0001d0 85 26 52 be 98 81 ea 3d a3 bb 53 3e 5d 88 08 3e
       -0.20522507 0.11450499 0.20677046 0.13333268
0001e0 95 a6 f9 3d c2 82 4a 3e 52 e5 da 3d 00 18 8c bd
       0.12189976 0.19776443 0.10688271 -0.06840515
0001f0 d8 f0 08 bd 5c 7e d1 bd d9 bc bf 3a 45 64 b6 bd
       -0.03343281 -0.10229179 0.0014628425 -0.08905844
000200 06 f5 1e bd 20 09 aa 3d 8c 8c 96 bb 06 3f 3a 3e
       -0.03880789 0.08302522 -0.004594391 0.18188104
000210 5a 31 87 3c 6f 5c 58 3d f2 26 2a 3e 36 1c 95 bd
       0.016503025 0.052822527 0.16616419 -0.072807714
000220 bc 11 74 3e fc 5f 4d bd e2 43 84 3d 4e 51 30 3b
       0.2383489 -0.050140366 0.0645826 0.002690393
000230 b1 40 d2 3d 80 4d 0a 3e cc 77 89 bd 37 20 0d 3e
       0.10266245 0.13506126 -0.067123026 0.1378182
000240 5a d5 14 bb 13 06 58 3e 2b 77 92 be 35 90 be bc
       -0.0022710175 0.21096067 -0.28606543 -0.023262123
000250 b0 42 78 bc 84 7e 06 bd 52 4c 65 be 80 e3 0b 3e
       -0.015152618 -0.0328355 -0.22392395 0.13661003
000260 4e 93 e0 bd 49 c7 58 3e 29 fd d0 bc f2 c3 82 bd
       -0.10965596 0.21169771 -0.025511341 -0.0638503
000270 ce d3 60 be 8a 72 c8 3d 07 27 5c 3d 6a bd 50 3e
       -0.21955797 0.097874716 0.053748157 0.20384756
000280 e9 f3 db 3c d2 59 1d 3e 63 ae 16 be 0a 37 db 3c
       0.026849704 0.15366295 -0.14714961 0.026759643
000290 f8 dd 3f 3e 90 fb 10 3d d9 73 5d 3e 13 5b b1 3d
       0.18737018 0.03539616 0.21626224 0.08659949
0002a0 2c c2 ee 3d 5d ea 3f be 9d 8f 3c be bb a4 db 3d
       0.11658129 -0.18741746 -0.18414159 0.10724779
0002b0 9f cc 85 bd 41 6d e8 bd 5b 0a fe 3d 0d 85 dc 3d
       -0.06533169 -0.113489635 0.12404319 0.10767565
0002c0 bb ef 8c bd 48 d5 ae bd a2 29 12 bd a3 4f 5a bd
       -0.068816625 -0.08536774 -0.035684235 -0.053298604
0002d0 a7 bb 82 bd 38 b6 78 be 34 04 11 3e dd da 1f be
       -0.06383448 -0.24288261 0.1416176 -0.15610833
0002e0 07 79 32 be bf 3a 66 bc a8 ac ea 3c f7 51 07 3d
       -0.17428981 -0.014052092 0.028646782 0.033037152
0002f0 be d0 d7 3d 9d 2f 74 3e eb e3 ff 3d df 85 8d 3e
       0.10537861 0.23846288 0.12494644 0.27641198
000300 8c c7 33 3e d9 8c 5b 3d 7b 61 c5 bd f9 61 b3 bd
       0.1755659 0.05360112 -0.096377335 -0.08758921
000310 f5 d5 70 3c d5 a8 15 bd 03 db 88 3d f1 a4 13 bd
       0.014699449 -0.036537964 0.06682398 -0.036045972
000320 ae 07 06 be ca 9c 18 3e b0 eb 47 3e 49 c2 9a 3d
       -0.13088867 0.1490356 0.19523501 0.07556588
000330 2a b5 50 3c 9a e4 10 3e 39 47 02 bb 32 dd 6e 3e
       0.012738505 0.14149705 -0.0019878878 0.23326567
000340 7c 2d 0f be 21 4e 36 be 78 3b bb 3d 34 70 8d 3e
       -0.13982195 -0.17803241 0.09142202 0.27624667
000350 78 10 35 bd 14 47 92 3d 8d 9b 2b 3e 26 f1 a6 3a
       -0.04420516 0.07142463 0.16758557 0.0012736663
000360 80 75 2c bc c4 92 0a 3e da 0f 02 be 59 01 24 3d
       -0.010526061 0.13532549 -0.1270136 0.040040348
000370 1b 77 ff bd f4 92 ec 3d 52 1f df bd 8d 5f 32 bd
       -0.124738894 0.115514666 -0.10894646 -0.043548156
000380 4e 40 01 3e 90 3f 35 be 0f 50 64 3e 19 f4 0e 3d
       0.12622187 -0.17700028 0.22296165 0.03490076
000390 58 52 d7 bd 17 38 60 3b e6 51 73 be 90 77 14 be
       -0.10513753 0.003421312 -0.2376171 -0.14498734
0003a0 5d 83 7f be f9 b4 85 bc e8 78 18 bd c2 1a 2b be
       -0.24952455 -0.016321646 -0.03722468 -0.16709426
0003b0 67 c5 6f 3d 6a 09 0c 3e 57 f5 41 3e d0 57 67 be
       0.058537867 0.13675466 0.18941246 -0.22592092
0003c0 ce 94 76 3e 0c 2a 8d 3a 28 e3 5f 3e ad d4 00 be
       0.24080202 0.0010769977 0.21863997 -0.1258113
0003d0 9a 15 37 3e ac 32 a2 3d 3c 06 16 be 4d 03 0b be
       0.17879334 0.07919821 -0.14650816 -0.13575478
0003e0 ba 20 01 3e e0 10 3f bd 1a 3e b8 3d 0e 1f e9 bc
       0.1261014 -0.046646953 0.0899622 -0.02845719
0003f0 ad 70 aa 3d 04 b8 1d be a0 29 bf 3d cc dc 9e 3d
       0.083222724 -0.15402228 0.09334111 0.077569574

net.4.bias f4 [4]
000000 c3 89 d9 bd 9b d0 5d bd e6 86 d5 3d 17 13 36 3d
       -0.10621979 -0.05415402 0.104261205 0.0444518

exp_avg f4 [64, 8]
000000 1f 02 ce b9 0f 72 4c 3b 90 f7 6f ba 61 6a 46 ba
       -0.00039292962 0.0031195914 -0.0009154016 -0.0007568952
000010 b0 0e 42 ba 9c 34 58 b9 14 2c fd ba 42 43 d0 ba
       -0.00074027013 -0.00020618964 -0.0019315504 -0.0015889185
000020 db 52 8c 39 c1 ef 49 bb 49 b7 64 3a 54 3c 26 3a
       0.00026764613 -0.003081307 0.00087248214 0.0006341387
000030 12 ba 10 3a df af 5b 39 c5 40 b5 3a cc 50 97 3a
       0.00055208907 0.00020950985 0.0013828507 0.0011544465
000040 8d 0d 2a b7 a0 d4 5c b8 4c de c8 37 c1 4e bb b7
       -1.0135945e-05 -5.265011e-05 2.3945373e-05 -2.232881e-05
000050 13 a9 aa b7 21 e9 39 b8 d1 2c 9a 39 f4 62 b2 39
       -2.034431e-05 -4.4324555e-05 0.0002940656 0.00034024531
000060 87 ab d0 b9 58 62 62 3b 97 63 92 ba 24 33 6c ba
       -0.0003980065 0.003454348 -0.0011168596 -0.0009010306
000070 50 13 0e ba 31 0b f0 b8 15 6e f2 ba 6b f4 c2 ba
       -0.0005419748 -0.00011446176 -0.0018495942 -0.0014873868
000080 4c 27 70 39 f4 a2 16 bb 83 0c f8 39 79 32 d0 39
       0.00022902823 -0.0022985311 0.00047311568 0.00039710457
000090 4c a6 15 38 b3 23 3c 37 a8 fa 22 b9 b7 3c 31 b7
       3.5679244e-05 1.1213985e-05 -0.000155429 -1.0564158e-05
0000a0 2a 80 8e 38 6a 68 06 ba 11 5f 09 39 ba 6d e9 38
       6.79496e-05 -0.0005127253 0.00013100753 0.00011130744
0000b0 bc 6c 84 38 8d 27 f3 37 23 d2 92 38 5a a8 a9 38
       6.314504e-05 2.8986275e-05 7.0009635e-05 8.089906e-05
0000c0 0c 99 26 38 13 44 71 bb cc 92 5b 3a da c2 03 3a
       3.972002e-05 -0.0036814257 0.00083760615 0.00050262886
0000d0 46 f0 a7 38 f4 08 b5 39 e3 b2 3b 3a 6e 8f 16 3a
       8.007935e-05 0.0003452968 0.000716014 0.00057434186
0000e0 d2 e5 7f b9 96 b6 2d 3b 32 63 75 ba 73 ec 43 ba
       -0.0002440431 0.0026506535 -0.00093607896 -0.00074738933
0000f0 a5 b3 cd b9 be 1a 12 b9 d6 33 e4 ba c0 8b b4 ba
       -0.00039234493 -0.00013933607 -0.0017410468 -0.0013774559
000100 27 d2 65 3a 1d 0d 94 bb 4d 71 96 3a b7 46 9f 3a
       0.0008766972 -0.004518165 0.0011477858 0.0012151812
000110 15 a2 3f 3a 70 98 6e 39 4a b7 b1 3a ff 17 7e 3a
       0.0007310224 0.00022754236 0.0013558653 0.0009692907
000120 92 79 21 37 f6 01 6e 39 56 4b 21 38 9f 3c 91 37
       9.624653e-06 0.00022698179 3.8455553e-05 1.7313576e-05
000130 0b a6 67 39 91 9d 3a 38 b5 04 39 3a e0 e4 01 3a
       0.00022091733 4.44926e-05 0.00070578913 0.00049550645
000140 0a 1d a1 b8 23 e7 b2 3a c7 7c 5b b9 65 11 2c b9
       -7.682487e-05 0.0013649206 -0.0002093195 -0.00016409678
000150 d0 51 66 39 0c 57 9c 38 e7 56 e9 39 6e f6 60 39
       0.00021964987 7.4548734e-05 0.0004450597 0.00021454107
000160 8e ac dd 38 7a 7b e5 b9 4c da af 39 ae 2a 86 39
       0.00010570242 -0.0004377028 0.00033541245 0.0002559027
000170 f5 35 30 3a 92 f5 f0 38 e0 3e 07 3b a2 7d c0 3a
       0.00067219074 0.00011489833 0.0020636842 0.0014685879
000180 34 fd 20 39 de 1c 41 bb f2 61 08 3a a6 04 34 3a
       0.00015353115 -0.002946667 0.0005202583 0.0006867148
000190 0c f3 fc 36 b8 9a 64 39 5e 96 94 1b 55 54 00 2f
       7.5384796e-06 0.00021801412 2.4581719e-22 1.1671493e-10
0001a0 1c e9 f2 b7 88 96 c4 b6 0b b7 fd 37 22 7f 53 b5
       -2.8957198e-05 -5.8587793e-06 3.0245186e-05 -7.878863e-07
0001b0 aa 82 1e 37 25 d1 9e 37 84 08 2c 3a 18 93 1f 3a
       9.4479565e-06 1.8932458e-05 0.0006562548 0.00060872873
0001c0 b4 48 b8 39 ee 7a 7b bb 2a 5b 69 3a ad 10 42 3a
       0.00035149383 -0.0038372832 0.0008901829 0.00074029976
0001d0 6a 8c 9f 39 a4 dd 65 38 8e 58 9a 3a a1 a1 8d 3a
       0.0003043146 5.4804274e-05 0.0011775659 0.0010805615
0001e0 03 38 10 3a 03 a9 10 bb cd 43 6c 3a c1 00 22 3a
       0.00055015105 -0.0022073395 0.00090127887 0.0006179922
0001f0 f7 0b 75 3a f1 58 16 39 54 75 20 3b fb 06 ff 3a
       0.0009347791 0.00014338248 0.0024483996 0.0019457036
000200 0a 7e 4d b9 77 95 09 b9 b6 71 4d 39 06 6a 40 b9
       -0.00019597277 -0.00013121018 0.00019592684 -0.00018350044
000210 81 d9 22 b9 2d 68 45 b9 61 00 86 ba 27 cd 19 ba
       -0.0001553055 -0.00018826193 -0.0010223502 -0.0005867057
000220 79 fa d0 38 1c 3b 99 ba ad 16 0d 39 9a b8 21 39
       9.964867e-05 -0.001169059 0.00013455255 0.00015422926
000230 ae 63 89 b9 83 f8 19 b7 45 fe 7d ba c4 7f 27 ba
       -0.00026204943 -9.177372e-06 -0.0009689073 -0.0006389583
000240 0f 59 04 b9 f9 0c e1 3a a7 82 20 ba 99 4e 2e ba
       -0.00012621678 0.0017170004 -0.00061229843 -0.0006649285
000250 de 0c cf b9 2d 9a 8b b9 0b a8 02 bb 01 8e b7 ba
       -0.00039491704 -0.00026627016 -0.0019936587 -0.0014004112
000260 c8 86 a2 38 2a f7 69 ba 3b ce 3f 39 1b b4 35 39
       7.749867e-05 -0.0008925075 0.00018292006 0.000173286
000270 bd a5 1b b7 01 ab 55 b8 27 f0 17 b9 00 db 3d b8
       -9.277309e-06 -5.0942417e-05 -0.00014489946 -4.526507e-05
000280 95 a6 ec b9 16 db 89 3b f6 7b 9a ba a3 25 6c ba
       -0.0004513754 0.0042070253 -0.0011786211 -0.0009008294
000290 64 2c 3c ba 6c 74 10 b9 0a 27 0e bb 55 d3 cd ba
       -0.00071782456 -0.0001377628 -0.002169075 -0.0015703241
0002a0 29 ee 2d af b2 c3 ec 2c eb 99 8f 2d c9 99 b8 ad
       -1.581887e-10 6.72925e-12 1.6325571e-11 -2.0986672e-11
0002b0 c5 33 3e ae 0e a3 29 2f 57 a4 c2 2f 40 aa c2 2f
       -4.324698e-11 1.5428389e-10 3.5405165e-10 3.5409364e-10
0002c0 b4 7d 10 b8 7f bf be b8 24 7f df b7 fb 92 4b b6
       -3.4449346e-05 -9.095575e-05 -2.6642876e-05 -3.033491e-06
0002d0 23 bd 25 b7 3d ba 7f 38 ee 3e cd 38 c7 3a ad 30
       -9.878803e-06 6.0970186e-05 9.786883e-05 1.2604112e-09
0002e0 53 f2 9f b3 14 eb 15 b6 df 59 8b b5 08 26 fa b4
       -7.448093e-08 -2.2339564e-06 -1.0382463e-06 -4.65938e-07
0002f0 02 c7 0c 34 5b 12 61 b4 32 99 5d 19 15 cd 98 9c
       1.3110915e-07 -2.0961436e-07 1.145637e-23 -1.0111529e-21
000300 71 d7 2a b9 ae a0 fc 3a eb cc d4 b9 6e 45 a1 b9
       -0.00016292722 0.001927396 -0.00040588467 -0.00030760042
000310 4a ef c2 37 b3 cf 7b 37 29 b5 54 b9 fb bd 8d b9
       2.323803e-05 1.5009125e-05 -0.00020285383 -0.00027035162
000320 70 0b fa 35 bf 54 a9 33 6e 50 b6 34 d8 25 54 b5
       1.862978e-06 7.885091e-08 3.3958662e-07 -7.9031224e-07
000330 69 96 3e 35 c6 47 3b 36 b6 fc 64 35 2c b2 3b b3
       7.099939e-07 2.790695e-06 8.530436e-07 -4.3701377e-08
000340 d0 62 78 b8 20 41 b1 b9 36 5c 95 b8 05 7d 9a b7
       -5.9219834e-05 -0.00033808593 -7.122049e-05 -1.8416447e-05
000350 57 aa 98 b9 fe c6 20 38 4a d6 ef b5 cf 87 db 36
       -0.00029118612 3.83323e-05 -1.7869254e-06 6.542519e-06
000360 2f ce 9b 39 69 a2 1f bb 96 53 78 3a ea f9 23 3a
       0.00029717523 -0.0024358279 0.00094729045 0.00062551966
000370 73 f8 88 3a ec 74 b7 39 90 21 4f 3b bd f6 19 3b
       0.001045002 0.00034991594 0.0031605698 0.0023493015
000380 53 47 7d b7 a0 8a 90 b6 28 80 7b b7 00 fd 2e b6
       -1.5096582e-05 -4.3076725e-06 -1.49906045e-05 -2.6075286e-06
000390 f5 a7 cc 37 2b a7 69 b8 2a e1 98 2d 0e 39 66 38
       2.4396906e-05 -5.5707216e-05 1.7380392e-11 5.488941e-05
0003a0 fb d1 39 b9 af 20 fa 3a de d7 0c ba 33 9b c8 b9
       -0.00017721199 0.0019083227 -0.0005372743 -0.00038262605
0003b0 38 4d c1 b9 2a b1 f4 b7 9c 0e 84 ba 8b 1a 51 ba
       -0.0003686936 -2.9169565e-05 -0.0010075155 -0.00079766725
0003c0 3a cf 1c 38 78 89 d6 35 b0 ec 8a 37 75 9d 5a b6
       3.7386293e-05 1.5984251e-06 1.6561098e-05 -3.2576183e-06
0003d0 24 c3 08 b8 a7 65 3e b9 04 3c f7 b9 07 e3 46 b9
       -3.2606666e-05 -0.0001815768 -0.00047156226 -0.00018967326
0003e0 81 ee 68 39 f2 b0 0d bb b1 52 90 39 d3 c1 de 39
       0.00022214094 -0.002162036 0.0002752743 0.0004248755
0003f0 f9 2e a7 b9 c8 6f 2f b9 0d aa 97 ba 3e 30 35 ba
       -0.0003188772 -0.00016730942 -0.0011571065 -0.00069117907

exp_avg_sq f4 [64, 8]
000000 51 47 6f 35 f6 a9 22 37 64 89 91 35 cf 1b c0 35
       8.913822e-07 9.695525e-06 1.0843328e-06 1.4313208e-06
000010 9d f6 0f 35 61 f6 2f 35 b9 11 66 36 cc 19 60 36
       5.363052e-07 6.555111e-07 3.4282987e-06 3.3393617e-06
000020 d1 e1 1f 35 6d 48 ed 36 28 27 43 35 d6 60 7f 35
       5.956072e-07 7.071582e-06 7.270014e-07 9.513582e-07
000030 be 79 eb 34 95 77 c9 34 f7 be 0e 36 d4 4a ff 35
       4.386074e-07 3.7526175e-07 2.1270805e-06 1.9020758e-06
000040 39 0f e4 33 bd 6f ea 32 03 88 3a 33 c7 15 cf 33
       1.0619846e-07 2.7291998e-08 4.34302e-08 9.64315e-08
000050 3d f7 61 33 cd e5 fc 33 79 92 02 35 53 f8 fa 34
       5.2611757e-08 1.1776465e-07 4.864192e-07 4.6746808e-07
000060 4b f3 9c 35 22 0a 3a 37 6f cc a3 35 be 98 0f 36
       1.1693713e-06 1.1088823e-05 1.2203944e-06 2.1397568e-06
000070 f4 aa 63 35 c5 94 80 35 91 81 6a 36 d6 aa 4c 36
       8.481286e-07 9.580041e-07 3.4944135e-06 3.0497808e-06
000080 37 e0 b1 34 34 43 65 36 d8 82 a5 34 54 fd 11 35
       3.3131957e-07 3.4162777e-06 3.0828846e-07 5.438535e-07
000090 8a 8b 7f 34 bd 81 42 34 a1 bf d3 34 fb b9 c7 34
       2.379949e-07 1.8114856e-07 3.944124e-07 3.7201957e-07
0000a0 fd 80 b8 32 17 2b aa 34 9f 73 7d 33 87 ab b7 33
       2.1479076e-08 3.169632e-07 5.901131e-08 8.552802e-08
0000b0 f2 fa 1b 33 a5 8b e1 32 fc a0 64 33 b1 57 7c 33
       3.6316983e-08 2.625695e-08 5.32318e-08 5.8753077e-08
0000c0 8c 04 28 35 66 af ea 36 59 8e 48 35 19 a3 66 35
       6.2591494e-07 6.9941625e-06 7.471295e-07 8.5919015e-07
0000d0 58 0b e5 34 be 6a d2 34 f8 ec fa 35 e5 f8 ee 35
       4.2662828e-07 3.9193213e-07 1.8695418e-06 1.780482e-06
0000e0 a0 22 2c 35 0e 91 a3 36 ea 97 14 35 e0 b3 9e 35
       6.412538e-07 4.874665e-06 5.535536e-07 1.1824268e-06
0000f0 13 1d b7 34 36 c7 e4 34 6e 74 18 36 cb 2c 0b 36
       3.410756e-07 4.2613254e-07 2.2717536e-06 2.0738687e-06
000100 b7 52 78 35 7a 49 64 37 09 cc 9c 35 26 57 d7 35
       9.2507565e-07 1.3606967e-05 1.1682288e-06 1.6044112e-06
000110 df e4 4e 35 2f a6 00 35 db e1 58 36 41 4b 6b 36
       7.707403e-07 4.7925545e-07 3.2317973e-06 3.5061532e-06
000120 0b c4 96 34 c8 b6 22 36 f2 27 aa 34 f6 a9 0a 35
       2.8082317e-07 2.4246274e-06 3.1694032e-07 5.165633e-07
000130 5d e9 69 34 ad ae 52 34 95 33 1c 35 38 9d 1a 35
       2.1784713e-07 1.9621321e-07 5.818959e-07 5.7598254e-07
000140 47 7a 33 35 84 a1 b9 36 20 32 27 35 a2 ea 98 35
       6.6860633e-07 5.5322325e-06 6.228529e-07 1.139317e-06
000150 56 0a f8 34 49 86 9d 34 24 62 17 35 90 5a 28 35
       4.620112e-07 2.9341234e-07 5.6394697e-07 6.271666e-07
000160 05 bf c6 35 dd 9e 6a 37 98 bf dd 35 ba 74 1f 36
       1.4807744e-06 1.3984475e-05 1.6521544e-06 2.376079e-06
000170 4c 86 87 35 05 31 6d 35 fb 19 58 36 e7 6d 4f 36
       1.0097369e-06 8.8360713e-07 3.220163e-06 3.0909375e-06
000180 c8 a1 ef 34 70 1f 21 37 33 e7 39 35 d4 ca 56 35
       4.463493e-07 9.603667e-06 6.925431e-07 8.0016366e-07
000190 9f aa ec 34 83 3e 14 34 35 b4 7f 2a 51 94 33 31
       4.408257e-07 1.3806316e-07 2.2711072e-13 2.6132236e-09
0001a0 98 11 17 33 47 5b cf 30 1d f5 d7 31 f6 88 ac 31
       3.517343e-08 1.5087175e-09 6.2851897e-09 5.0214295e-09
0001b0 32 04 0a 32 7b 3c f6 32 b5 a5 39 35 68 d6 39 35
       8.033611e-09 2.8665673e-08 6.9159006e-07 6.922987e-07
0001c0 c9 30 3a 35 d7 4c 11 37 8d 11 55 35 95 c8 96 35
       6.936139e-07 8.660564e-06 7.9374223e-07 1.1234248e-06
0001d0 af bc 09 35 fb 00 00 35 be 66 15 36 bf 0f 07 36
       5.131105e-07 4.768514e-07 2.2262534e-06 2.0125733e-06
0001e0 03 2b a5 35 68 c4 74 37 64 ba c3 35 fa ad 14 36
       1.2305976e-06 1.4589263e-05 1.4582879e-06 2.2154986e-06
0001f0 54 72 4c 35 20 25 24 35 6e a1 a3 36 21 e6 9a 36
       7.616229e-07 6.1148785e-07 4.8765714e-06 4.616348e-06
000200 95 5a 0d 34 c7 96 21 33 d0 7a 52 33 ea d9 67 33
       1.3164602e-07 3.7622865e-08 4.9006132e-08 5.398207e-08
000210 bf e6 25 33 e9 ee 07 34 a6 b1 24 35 7e c2 2b 35
       3.862692e-08 1.265977e-07 6.1353273e-07 6.398549e-07
000220 dc 21 77 34 be 88 7e 36 81 50 b4 34 b2 21 ec 34
       2.3015986e-07 3.7928544e-06 3.3586187e-07 4.3982942e-07
000230 44 28 65 34 a1 d4 10 34 09 df 11 35 5d c2 1c 35
       2.1341936e-07 1.3488399e-07 5.434127e-07 5.8397364e-07
000240 b3 e0 b5 34 c8 76 39 36 ad 5b c8 34 18 b3 16 35
       3.3877367e-07 2.7636288e-06 3.7319606e-07 5.613997e-07
000250 b5 03 33 34 c0 7b 97 34 0a a2 1a 36 57 07 0c 36
       1.6672023e-07 2.8215982e-07 2.3042107e-06 2.0865898e-06
000260 ff 7f d8 33 d2 de a0 35 01 6c 27 34 73 8b 85 34
       1.0081566e-07 1.1985778e-06 1.5592379e-07 2.4874643e-07
000270 a9 25 08 34 df 46 df 33 9e ab 35 34 2a c7 21 34
       1.2679688e-07 1.0397138e-07 1.6919373e-07 1.5066749e-07
000280 88 c4 84 35 7d d3 53 37 5d 1d aa 35 cd ba 04 36
       9.891965e-07 1.2625821e-05 1.2674533e-06 1.9778265e-06
000290 11 26 4f 35 6c 14 68 35 24 85 87 36 07 2b 64 36
       7.7168903e-07 8.645645e-07 4.038813e-06 3.3999693e-06
0002a0 25 83 74 30 34 6a 44 30 d3 4b 96 30 d5 6b b3 2f
       8.895305e-10 7.145531e-10 1.0935487e-09 3.263653e-10
0002b0 15 e4 d2 31 3a 8e 73 32 72 9f 3e 30 80 72 5d 31
       6.1377343e-09 1.41768e-08 6.934818e-10 3.2224818e-09
0002c0 74 c4 f6 31 21 fe cf 33 e8 42 cf 32 99 d2 48 33
       7.1818764e-09 9.6854144e-08 2.4128397e-08 4.6757666e-08
0002d0 17 66 b3 32 43 a0 7e 32 d3 6c c3 31 26 63 8a 30
       2.0884768e-08 1.4821185e-08 5.687619e-09 1.0069001e-09
0002e0 ad 91 89 30 1e 30 ab 32 bc 8a 6e 31 d4 21 8c 30
       1.0009465e-09 1.9928901e-08 3.471242e-09 1.0195955e-09
0002f0 eb 2a 31 31 2b 20 d6 31 c5 91 91 2d 8a cf a1 2e
       2.5781286e-09 6.231877e-09 1.6549326e-11 7.358299e-11
000300 5c 50 2b 35 61 9c 9d 36 f0 d4 05 35 f6 94 94 35
       6.38194e-07 4.6971695e-06 4.9856226e-07 1.1070213e-06
000310 1a c1 da 34 19 b1 92 34 70 33 18 35 6f ce 1c 35
       4.0746164e-07 2.7323475e-07 5.6699264e-07 5.841493e-07
000320 f7 a8 82 30 b2 6c 4c 2e 02 81 b1 31 05 26 1f 30
       9.506768e-10 4.648077e-11 5.1660445e-09 5.789789e-10
000330 3d a6 8d 31 7f 8d 40 32 ba 0d 65 31 09 c9 4c 30
       4.122539e-09 1.1208043e-08 3.3331689e-09 7.4500456e-10
000340 73 57 9b 34 7b 6f 81 36 20 bc d6 34 97 9b 18 35
       2.8934627e-07 3.8574776e-06 3.9997485e-07 5.6850826e-07
000350 da d1 87 34 76 1b 13 34 4a a8 52 32 fa fa a1 32
       2.5298397e-07 1.3700432e-07 1.2261873e-08 1.8856998e-08
000360 b2 3e 27 36 b2 f7 d4 37 df ac 3d 36 99 a4 8e 36
       2.4921433e-06 2.5387712e-05 2.826382e-06 4.2510915e-06
000370 4c 1b e7 35 49 f8 ae 35 79 90 fd 36 d4 88 e9 36
       1.7218786e-06 1.3036271e-06 7.5568064e-06 6.95987e-06
000380 13 09 b0 31 9a ed a8 2f 54 87 38 31 fd d4 6b 31
       5.123306e-09 3.0727848e-10 2.685245e-09 3.431807e-09
000390 e7 31 05 31 81 92 c6 32 7f d5 28 30 bd 04 ed 32
       1.9382413e-09 2.3116856e-08 6.142144e-10 2.7592586e-08
0003a0 9c da 92 34 bf d2 4b 36 46 8c b4 34 53 55 0f 35
       2.7353678e-07 3.0372028e-06 3.3629675e-07 5.3395814e-07
0003b0 53 03 6a 34 9d a0 6c 34 15 a4 65 35 b6 36 43 35
       2.1794158e-07 2.2037644e-07 8.554792e-07 7.2722776e-07
0003c0 2e e6 87 33 e7 ba 4f 31 cf e4 6f 32 e3 f8 9a 32
       6.328297e-08 3.0228706e-09 1.3963656e-08 1.804114e-08
0003d0 88 6c 83 32 77 cf c3 33 a4 cf 08 35 b1 20 f9 34
       1.5299761e-08 9.118133e-08 5.0966105e-07 4.640365e-07
0003e0 9d 45 10 35 d8 af 31 37 d5 36 2c 35 36 8d 55 35
       5.374548e-07 1.0590964e-05 6.4154784e-07 7.955417e-07
0003f0 ae 52 e8 34 cc bf 45 34 ac 1f 52 35 11 dc 7f 35
       4.3273525e-07 1.841683e-07 7.8277185e-07 9.531514e-07

exp_avg f4 [64]
000000 4a c4 20 3a de 41 87 ba aa b7 12 39 3d 9a d3 3a
       0.0006132765 -0.0010319313 0.00013992065 0.0016143989
000010 e7 c2 2b bb 2c 91 c6 b9 7b 22 3d bb e3 98 48 3a
       -0.00262087 -0.00037873664 -0.0028859663 0.00076521764
000020 30 bd 73 bb e5 72 ab 3a 0d 1e 1a 3b 53 78 23 3b
       -0.0037191622 0.0013080506 0.0023516447 0.0024943545
000030 22 98 44 bb 8d 27 1e 3a d0 ee 3f bb 4d a0 d2 39
       -0.0029997905 0.0006033115 -0.002928663 0.00040173755
000040 24 db c8 ba 9b f6 2b bb 4b 50 00 ba ef 9f 9c ba
       -0.0015324098 -0.0026239518 -0.0004894777 -0.0011949519
000050 6e 70 f0 3a c5 b8 c2 2f 2e cc 14 38 05 07 c7 b5
       0.0018344054 3.541968e-10 3.5476107e-05 -1.4828698e-06
000060 7c 9b 0a 3b 8a 13 3a 35 44 cd 7a ba 73 72 fe 3a
       0.0021149805 6.931883e-07 -0.000956733 0.0019412771
000070 22 d8 8d 38 c5 1b 31 3a 04 a2 b0 b9 94 ff 93 bb
       6.763662e-05 0.0006756152 -0.00033690047 -0.0045165513
000080 6f 23 91 ba 77 8c e8 3a 55 4e 29 b9 1e 08 87 39
       -0.0011073182 0.0017742057 -0.00016146277 0.00025755254
000090 81 5d 45 ba cf f1 55 b6 4f 17 d3 b9 12 77 51 ba
       -0.0007528887 -3.1880224e-06 -0.00040262422 -0.000799046
0000a0 11 8b 49 39 1f 1b bb 35 45 64 2c 3b e1 e1 d6 3a
       0.0001922066 1.3940479e-06 0.0026304882 0.0016394221
0000b0 5b 6c b8 b3 6f c6 27 ba c9 75 49 bb a7 67 78 3b
       -8.5878774e-08 -0.00064001133 -0.0030740371 0.0037903578
0000c0 00 d0 6f bb 10 68 1a 3b 81 27 05 3a 9a 5e 52 b8
       -0.0036592484 0.0023560561 0.0005079434 -5.0156006e-05
0000d0 3f 12 16 3b da af 71 33 14 d2 5d 3a 4f a3 92 b9
       0.002289906 5.627212e-08 0.0008461785 -0.00027968964
0000e0 cc 82 df 38 32 4f 2b 3b 33 b7 53 3a f8 df 97 bb
       0.000106578314 0.0026139733 0.000807631 -0.0046348535
0000f0 14 a2 5f ba 41 49 85 ba 61 7f ba 3a ab fb 67 3b
       -0.00085309264 -0.0010168926 0.0014228636 0.0035397809

exp_avg_sq f4 [64]
000000 f7 bb 52 37 34 d2 13 37 e5 d5 88 35 a7 d7 7a 37
       1.2560739e-05 8.8108245e-06 1.0195041e-06 1.4951372e-05
000010 fc 17 a7 36 94 7e bd 34 31 a8 2d 37 5b 81 11 37
       4.97978e-06 3.529609e-07 1.0350764e-05 8.672791e-06
000020 1e 54 83 37 ff 60 62 36 a1 bd 02 37 5b 4d 97 37
       1.5655587e-05 3.3733083e-06 7.792755e-06 1.8036624e-05
000030 76 03 f1 36 41 ee 3d 35 52 bd 37 37 54 ba 9b 37
       7.1827626e-06 7.075469e-07 1.095173e-05 1.8564206e-05
000040 b5 f3 22 36 7e 6e 94 36 c6 b4 b3 36 d8 1b d0 35
       2.4281737e-06 4.4236067e-06 5.3556605e-06 1.5505311e-06
000050 40 16 82 37 55 3f 9b 31 5f e0 c4 33 bf 41 2b 32
       1.5507569e-05 4.5182937e-09 9.167774e-08 9.968459e-09
000060 10 40 ee 36 b3 c9 ee 31 a8 f7 95 36 51 a6 0a 38
       7.1004106e-06 6.949642e-09 4.469377e-06 3.3056658e-05
000070 c3 b8 02 33 08 fd 80 36 d9 01 16 35 bb f5 22 37
       3.0436023e-08 3.844154e-06 5.5882043e-07 9.713166e-06
000080 99 de 12 35 70 9c 43 36 14 a0 a5 36 70 29 e2 36
       5.471316e-07 2.9148323e-06 4.9360187e-06 6.740149e-06
000090 0e b2 54 36 c2 7c 23 32 cd 2d 9a 37 58 05 60 36
       3.1694103e-06 9.516215e-09 1.8379558e-05 3.3381712e-06
0000a0 9f bb 80 35 92 6e 16 32 bc 3c 19 37 0f 6d 02 36
       9.591348e-07 8.75629e-09 9.1336515e-06 1.943499e-06
0000b0 78 36 93 2f 2a 42 99 36 fe 09 10 37 d7 f4 d2 37
       2.6777847e-10 4.567458e-06 8.585395e-06 2.5147963e-05
0000c0 33 d1 2d 37 4d f3 37 37 03 53 07 36 85 d4 60 35
       1.03603115e-05 1.0964298e-05 2.0164887e-06 8.375576e-07
0000d0 c2 69 d6 36 22 05 76 30 69 b9 17 36 82 46 08 37
       6.390009e-06 8.9501573e-10 2.2608676e-06 8.122648e-06
0000e0 31 c9 3b 35 d0 09 9f 37 db b9 1d 36 93 cb 63 37
       6.99557e-07 1.8958846e-05 2.3503005e-06 1.3577653e-05
0000f0 9d 3a 2a 35 c7 a6 1b 37 ae b1 ef 36 dd 34 da 37
       6.341523e-07 9.277551e-06 7.1434397e-06 2.6012242e-05
